Knowledge_Graph_Recommendation/recommendation/stage2/trained_model/Douban/Embedding_based/dim32_lr0.001_l20.0001_TransE/minus/model1_epoch20.pth (torch, 728343 bytes, 5 tensors)

trans_M f4 [114, 32, 32]
00000000: a4a1 e7bb 8821 043c b091 6b3b 14d6 783c
00000010: 9cfe 3c3c c688 e33c fc72 6f3c a6f1 c03c
00000020: 31d7 8ebc a482 10bc baa0 e43c c1e9 b8bc
00000030: 00ab 66bb e8b6 1f3c e0f7 d4bc 4887 bd3b
00000040: 181f e3bc e65a e23c e0da 4dbc 9849 3f3c
00000050: ae82 0dbc 126a a13c f0f8 3abb 209c 40bb
00000060: 3258 8d3c 0058 eb37 2a19 c33c 9627 e83c
00000070: bbcb 013d b310 0b3d cb09 d9bc 10ea ce3c
00000080: e8d7 d33b 6b93 80bc e099 ac3c 389a 953b
00000090: 8640 8bbc 4ca2 d9bc d0ce 7bbc cad6 94bc
000000a0: e075 d1ba 1869 a9bb f40b 493c 69af 0abd
000000b0: 65bf e2bc ee90 f3bc 734a 033d ca0e ef3c
000000c0: dce2 a63c 3e65 adbc d01a 693c 4ca0 aebc
000000d0: a573 073d 61d1 053d 7fd5 0d3d ec1b f4bc
000000e0: 4c4e 523c d47b b0bc 5eae 48bc 3cb8 143c
000000f0: 47d7 edbc 424f f63c 80c8 d639 0a46 9d3c
00000100: bce8 023c f86c c8bb de41 fa3c a7b0 0dbd
00000110: 4c1e 553c b090 08bb ea1e fc3c 4e62 af3c
00000120: dc84 3e3c b416 c3bb d421 0a3c 60d2 8b3a
00000130: 9ed1 1fbc 40ff a43c 8616 d6bc 708e 5f3b
00000140: 6cf1 2abc f0ac 6abb bd22 d4bc 20fe d13b
00000150: 0e45 71bc e21f d63c a074 8b3b 622f b23c
00000160: 6ed3 a43c 00d4 8dbb 4289 ef3c 0e94 fa3c
00000170: e719 11bd 2aa1 d7bc 48ad 2a3c a0d6 ce3c
00000180: a0be 2c3b 00b4 4f3a aa33 e93c 50bb 5dbc
00000190: 8358 05bd c9e1 093d 4675 0dbd a8dd b73c
000001a0: 8a44 db3c 98fd 78bc 4e88 aebc f4d6 423c
000001b0: 640d 89bc f210 fd3c 0d36 053d 32cf a63c
000001c0: 1c32 45bc b6ff dcbc 1a4e c53c 40f0 9c3b
000001d0: 52bc 10bd 80a3 903a ee43 e13c 32de c33c
000001e0: aaac 843c 0a9d 33bc 83b1 e4bc 6684 abbc
000001f0: 4185 d7bc b3aa 94bc c2bd e2bc 8188 80bc
00000200: 7c46 c4bb 3898 913c 06cb 11bc fd02 aabc
00000210: 16d4 d33c 0848 d83b 1a5d f43c 7a69 aebc
00000220: dceb afbc b862 063c 3ac8 85bc 2e0a fe3c
00000230: fa45 3abc 46a0 44bc 0eca dfbc 104a a53b
00000240: 6beb dcbc 399f 97bc 2aa0 fa3c 5f54 013d
00000250: 3926 91bc 7406 6ebc 58c0 cb3c c848 64bc
00000260: 2ebe a13c e6b6 a23c 1a06 8c3c 2064 81bb
00000270: 2ab1 dc3c 2eaf d9bc 39ba edbc f89c f2bb
00000280: 7001 933c 3bb4 063d d44c 4abc e2fd e93c
00000290: b032 7e3c 666a ea3c 5651 9e3c a0da 7e3b
000002a0: 68f4 d9bc 40d6 333a ae47 a03c 2f05 123d
000002b0: 90ec 173c be7f 80bc 382c 10bc 0018 873a
000002c0: 009c 1039 c8bf e9bc dc0b 30bc d8a0 53bc
000002d0: c4c0 f1bb 0d66 103d 58ea 8b3c e812 c5bc
000002e0: 7cbc ba3c c287 e9bc 089d 553c 7a06 9c3c
000002f0: fceb 743c 60a9 09bd f02f 493b d0a3 9abb
00000300: 854b d1bc 1056 ac3b 44a5 753c 5cdf 523c
00000310: b060 173c 097c 003d 681a 84bb 9213 01bc
00000320: 8c43 10bd 0cfb f4bb a034 b9bc cb23 10bd
00000330: 6482 fabb 94da 953c 8c59 a83c 40e4 cabc
00000340: 21f8 033d 06ff 79bc f6a4 1fbc c06a 373a
00000350: 5322 f9bc 4840 973b fbf4 0b3d 107d ac3b
00000360: 88cf b13c da82 bb3c fd49 f8bc 689b 203c
00000370: 1629 9b3c 9ab0 d3bc b093 33bb f082 1bbb
00000380: 49ec 103d ac6e 033c fef6 6ebc 483f debc
00000390: c584 80bc a044 a73a a44f adbb 2d1b 043d
000003a0: f09c 583c 64ae 0bbc 56e5 6fbc 1a3e e63c
000003b0: 68e8 f6bb 053b 053d ec78 72bc a61a 0cbd
000003c0: 63a2 08bd 3815 793c 7635 b23c a211 e83c
000003d0: e28f a53c 96f2 bfbc fe06 b0bc d0c2 bb3b
000003e0: 584b bd3c 507d b5bc 6435 1ebc 3a46 de3c
000003f0: e253 dc3c 5e59 873c 92b9 4cbc 30df 5ebb
-0.0070688296 0.008064635 0.003594499 0.015187759 0.011535313 0.02777518 0.014614817 0.023552727
-0.017436596 -0.00882021 0.027908672 -0.0225724 -0.0035197139 0.009748198 -0.025997102 0.005783949
-0.027724788 0.027631234 -0.012564391 0.011675261 -0.0086371135 0.019703899 -0.0028529726 -0.0029389933
0.017253969 2.8055161e-05 0.02381571 0.028339189 0.031688433 0.033951472 -0.026493927 0.025258094
0.006464947 -0.015695294 0.021069467 0.0045655034 -0.01699854 -0.026566647 -0.015369132 -0.018168826
-0.0015980564 -0.005169999 0.012270916 -0.03385869 -0.027679155 -0.029732194 0.032053422 0.029181857
0.020371847 -0.02116644 0.014227584 -0.02131667 0.03306927 0.032670382 0.034627434 -0.02979847
0.01283605 -0.02154342 -0.012248604 0.009077128 -0.029033316 0.03006709 0.00040966645 0.019198436
0.0079900585 -0.0061165057 0.030548986 -0.034592297 0.013007712 -0.0020838194 0.03077646 0.02140918
0.011628356 -0.005953634 0.008430917 0.0010667555 -0.0097545665 0.020141244 -0.026133787 0.0034112
-0.010433536 -0.0035808645 -0.02589547 0.006408468 -0.014725937 0.02613825 0.004255846 0.02175111
0.020120349 -0.004328251 0.029240254 0.030588176 -0.035425093 -0.026321966 0.01041729 0.025248826
0.0026358739 0.00079232454 0.028467018 -0.013533428 -0.032555114 0.03366259 -0.03453567 0.022444561
0.02676608 -0.01519718 -0.02130523 0.011892069 -0.016730018 0.03089187 0.03252225 0.02036247
-0.012035873 -0.026977401 0.024085093 0.004789382 -0.035335846 0.0011035055 0.027498212 0.023909662
0.016195614 -0.010962734 -0.027916675 -0.020937156 -0.026308658 -0.018147802 -0.027678374 -0.01569009
-0.0059898477 0.017772779 -0.008898502 -0.020753378 0.025857966 0.0066003837 0.02982955 -0.02129053
-0.021474771 0.008202247 -0.016330827 0.031010713 -0.011369223 -0.012001103 -0.027318027 0.0050442293
-0.026967725 -0.01850854 0.03059395 0.031574603 -0.017718421 -0.014527906 0.02487199 -0.013933368
0.019744005 0.019862603 0.017092753 -0.0039487034 0.026939947 -0.02657279 -0.029019462 -0.007403966
0.017945021 0.032886725 -0.012347419 0.028563444 0.0155150145 0.028615188 0.019325893 0.0038887635
-0.0266058 0.0006860234 0.01956543 0.035649475 0.0092727095 -0.015685912 -0.008799605 0.0010306835
0.00013791025 -0.028533831 -0.010745015 -0.012916766 -0.007377716 0.035253573 0.017079517 -0.024056867
0.022794954 -0.028507117 0.013037927 0.019046057 0.014948841 -0.033608794 0.003069874 -0.004719235
-0.025548706 0.005259283 0.014993016 0.012870636 0.009239361 0.03136829 -0.004031468 -0.007878201
-0.035220668 -0.007476216 -0.022608101 -0.035190385 -0.0076449383 0.018292703 0.020550512 -0.024767041
0.032219056 -0.015258556 -0.00974392 0.0006996803 -0.030411875 0.004615817 0.03416918 0.005263932
0.021705404 0.022889543 -0.030308718 0.009802677 0.01894049 -0.025841046 -0.002740126 -0.0023729168
0.03538159 0.008021992 -0.014585255 -0.027129784 -0.01568831 0.0012761541 -0.005289035 0.03225248
0.013221011 -0.008525465 -0.01464208 0.028105784 -0.007535029 0.03252699 -0.014799338 -0.0342051
-0.03335799 0.015202813 0.021754008 0.02832872 0.02021021 -0.023431104 -0.02148771 0.0057300106
0.023107216 -0.02215448 -0.009656284 0.027133096 0.026895467 0.016522106 -0.012495415 -0.0034007542

user_embed.weight f4 [447, 32]
00000000: a433 683e d5bd 703e 9878 2cbe da68 963e
00000010: 82b4 983d 9a79 31be a880 a3bd 0b28 d03d
00000020: 21fc 27be e901 fa3d 9f2d 973d dba6 183e
00000030: d227 72bc 667e 413d 3849 fd3d d0c7 373d
00000040: e27b 69bd e595 9cbe 8737 c33d 481c 71be
00000050: edcf 923e 1f6e 003e 2438 eebc 2ff9 07be
00000060: 2c02 49be a766 13be 9d7a 933b 4a2f 613e
00000070: d55f bcbe ee54 48be 09b2 cc3d f852 a7be
00000080: 56e6 c93d cde1 4b3e de57 c93d a8e7 883c
00000090: 6d1a aa3c 7462 da3d 1329 da3b f379 753e
000000a0: aedc 52be 1776 883d 9e2d 72be f877 073d
000000b0: ca17 393e cbc6 043e db2b d4bd b556 e03c
000000c0: 0930 58be 1d7b 58bd a461 233d 29d4 40be
000000d0: 9852 783e f334 e33d 7556 493d e42b 723e
000000e0: 5d18 3dbe 2fbc 88bd 2e82 0a3e 1434 673e
000000f0: 334d edbd caca 02bd 108a ea3e 291d 50bd
00000100: 66d9 473e 05da f63d 4292 2bbe 415e a23e
00000110: a86b 903c 1d21 11be b9d0 95be 5e70 e3bc
00000120: 6075 d2be b7dc 9c3e b91a 463e aede e5bc
00000130: b32d e6bc 2d50 253e 9e3d b13d 87e6 27bd
00000140: 1502 4b3e e9e3 edbd 6757 253e 26b8 acbd
00000150: d3a0 333e 3069 d83e e448 14bd 2657 6d3d
00000160: 4f3b 38bc 73f1 223d 8537 0dbe ba06 893e
00000170: 848a 86be d366 8a3c f03a 093e a40e 2b3c
00000180: ba32 a33e 76fc ce3e 2981 2bbd 915c 023f
00000190: 8a62 953e 8f5a 26bd 6522 99bb 1096 2b3e
000001a0: 3aea 70be 4452 bebb c7ad bbbd 8ae0 233e
000001b0: f635 0ebd f19d 8a3c 8f9c 093e 59e0 52bb
000001c0: 8dfd c43e 92da 753d a55c 3bbe afa8 1abe
000001d0: 23ec bf3d bb3c 6c3e ae2e 01bf b125 213e
000001e0: bf61 8f3d c5e6 84be c29a 033f c53c 0b3f
000001f0: f3b9 d4be 2d2d 823b de02 e33e e144 85be
00000200: edc0 493e 0438 ef3d 8db4 ac3d 7ec2 ed3d
00000210: ed90 983e b8cf fcbd fd07 203e 3a98 dc3d
00000220: 931f 71be 099d a4bd cd4c 70bd 44c3 853e
00000230: 9eb1 2b3d 7e32 8abd 6cbb 3d3d 82b4 97be
00000240: bf0f 123c d965 69be 0873 08be 3ad5 25bd
00000250: d22d c53d beff 873e 1125 3bbe 3fb0 893e
00000260: 2d0c 6cbe 62a6 b5bd de1f d03c fd3b 383e
00000270: c3c7 09be 62b0 e0bd 4ba8 823e 6518 54be
00000280: 4ccb 65be c8dd 043f 435e 213f 062e 23be
00000290: 6d53 d93d b53d 713e b37c e8bd 2310 9a3e
000002a0: c0ec aebc b679 69be da94 25bf 08e8 eebe
000002b0: 038b 5ebd ecc1 8d3e 4841 dfbe 110d cb3e
000002c0: ab9b f53e 12f3 8fbd 284f fdbe a680 173f
000002d0: 4afe de3d b150 213c 4b53 233f 1308 babe
000002e0: ffb2 44bf d084 7bbe e325 a1bd b738 ae3d
000002f0: c094 b83e 25a0 dc3e fc3c c63e d54c 2e3f
00000300: abf8 8abd d096 013e f22e 06be 745d 703e
00000310: d6a4 583e c572 dfbc d0d8 8e3d eff6 b73c
00000320: 64af 943c 3f6f 433d 07a2 83bd 089f 3dbe
00000330: 9deb ec3d c8c5 7e3e e0a6 2bbd 78a6 81bc
00000340: c772 5fbc 9d36 843c 5f67 0ebe 7d13 d1bc
00000350: dedd 203e c34e d03d 2000 0cbd 3d88 0b3e
00000360: ff23 9ebc 0f41 1e3e 7e7b 163e 35c0 403e
00000370: 8d55 83be 7f1c 29be 2565 d93d 1137 833e
00000380: eb56 003e 9963 f53e a2d9 48be 6845 583e
00000390: 1334 f53d 4b0d 68be 1d17 223d c719 c43e
000003a0: c3bc 2bbe 0188 853d 44de ccbc 1c42 553e
000003b0: c47d 9e3e f88f d3ba 5df6 613e 7215 203c
000003c0: 518b 663d d413 0c3e 8434 57be 4ca4 87be
000003d0: 9fca 8d3e 155e a53e 3948 21be 9273 de3e
000003e0: 884d 33be de0a 0ebe 0b8f cebd 7048 1e3e
000003f0: a34d 7cbe 8170 4b3c f803 b73d 3f70 0e3d
0.2267595 0.23509915 -0.16842878 0.2937687 0.07456304 -0.17331544 -0.079835236 0.101638876
-0.16404773 0.122073956 0.073817484 0.149074 -0.014780002 0.047239684 0.12367481 0.04486829
-0.05700291 -0.3058311 0.095320754 -0.23545945 0.2867426 0.12542008 -0.029079504 -0.1327865
-0.19629735 -0.14394628 0.0045007006 0.21990696 -0.36791864 -0.19563648 0.09994895 -0.32680488
0.09858386 0.19910355 0.098312125 0.016712025 0.020764554 0.1066331 0.0066577285 0.23972301
-0.20591995 0.06663149 -0.23650214 0.033073395 0.18075481 0.12966458 -0.10359927 0.027385095
-0.21112074 -0.052851785 0.03988804 -0.18830933 0.24250257 0.11094084 0.049154717 0.23649555
-0.18466325 -0.06676518 0.13526222 0.2257846 -0.1158699 -0.031931676 0.45808458 -0.05080906
0.19516525 0.12053303 -0.16755012 0.31712535 0.01762946 -0.14172788 -0.29260805 -0.027763542
-0.41105175 0.30637142 0.19346131 -0.028060284 -0.028097963 0.16143866 0.08654331 -0.040991332
0.19825013 -0.11615736 0.16146623 -0.08433561 0.17541818 0.42267752 -0.036202326 0.05794444
-0.011244609 0.039781045 -0.1379071 0.26762944 -0.26277554 0.016894734 0.13401389 0.010440502
0.3187464 0.40426987 -0.041871224 0.50922495 0.29176742 -0.040613707 -0.0046732896 0.16756463
-0.2352685 -0.0058081467 -0.09164005 0.16003624 -0.03471943 0.016921015 0.13438629 -0.0032177179
0.38474694 0.060022898 -0.1829706 -0.1510341 0.093712114 0.23070042 -0.5046185 0.15737034
0.070010655 -0.25957313 0.51408017 0.543896 -0.41548118 0.0039726705 0.44338125 -0.26029113
0.19702502 0.11680606 0.08432875 0.11609362 0.2979807 -0.12344307 0.15628047 0.107712224
-0.23547201 -0.080377646 -0.058666993 0.26125538 0.041917436 -0.06747912 0.046321318 -0.29629904
0.008914887 -0.22792758 -0.13325131 -0.04048655 0.0962788 0.26562303 -0.18275858 0.26892278
-0.2305152 -0.08869626 0.02540582 0.17991634 -0.1345511 -0.10971142 0.25519022 -0.20712431
-0.22440833 0.5190091 0.63034457 -0.15935525 0.10611615 0.23558696 -0.113519095 0.30090436
-0.021353126 -0.22800335 -0.64680254 -0.466614 -0.05433179 0.27687013 -0.43604493 0.39658406
0.47970328 -0.07028784 -0.49474454 0.59180677 0.108883455 0.0098458985 0.6379897 -0.36334285
-0.76835626 -0.24562383 -0.078685544 0.08506911 0.36050987 0.4309093 0.38718402 0.68085986
-0.06785711 0.12655187 -0.13103846 0.2347315 0.2115663 -0.027276406 0.069749475 0.022456614
0.018150039 0.047713514 -0.06427389 -0.18517697 0.11568377 0.24880135 -0.04190719 -0.015826449
-0.013638205 0.016139323 -0.1390662 -0.025521988 0.15709636 0.101712726 -0.034179807 0.1362619
-0.019304274 0.15454505 0.14695546 0.18823321 -0.25651208 -0.16514777 0.10614995 0.2562795
0.12533157 0.4792755 -0.1961427 0.21120226 0.11972823 -0.22661321 0.039572824 0.38300917
-0.16771226 0.06520081 -0.025008328 0.20826 0.30955327 -0.0016140928 0.22066636 0.009770738
0.056285206 0.13679439 -0.21016127 -0.26492536 0.2769365 0.3229834 -0.15750207 0.43447548
-0.17510045 -0.13871333 -0.10085877 0.1545732 -0.24638991 0.01241696 0.08936304 0.034775015

item_embed.weight f4 [578, 32]
00000000: 1a88 25be 1fda 783e 9aca c9bd 57f3 8a3d
00000010: 5d5f 76be 9a55 e8bd aeb4 d3be 5ffd d3be
00000020: 8999 4cbe 7416 b23e ae72 7ebd 0f7e 52be
00000030: 01b3 833e 84b9 bc3e fe13 d13d 0c0e 11bc
00000040: 53ea 3bbe 813d e23e 455b 99be 2b7c 033f
00000050: a602 bfbd 5e34 c9bd 369b b43e 22c9 d4bd
00000060: 4f0e 4cbe 5dea 323e a115 07bf ae54 62be
00000070: 93e9 fa3c 42e4 55bd 7ea9 4f3e c801 703c
00000080: d507 f9be a746 d63e 37fc 1a3b 1beb 353d
00000090: bd5b 2f3e 6cba d4be f803 09bf 5c0f 09be
000000a0: 32dc a6be e508 9a3e bfa1 1e3c 967c 0cbe
000000b0: f53a 9fbe 304a ab3e d243 01be b377 863e
000000c0: 9a94 b73c 2012 853e cd62 d9be b25c d53e
000000d0: 8c04 b73e 5dad 3bbe fa45 93bd 2e64 683d
000000e0: fcca 71be a3a8 163e 83a2 993d 5183 28be
000000f0: 2213 adbe 6990 94be 4cf1 a33e 7881 94bd
00000100: 65fd 9ebe 3733 d33e 4196 fbbe 55a4 ba3e
00000110: 9d24 a8be 2f7d 423d bd3a bebe e346 ac3a
00000120: e3e9 c9be 004d ecbd 8f27 97be 4405 a5be
00000130: 8de7 9dbd eb50 a33e 81a9 9cbe 8fcf 483d
00000140: 938f 2a3d e283 86bd 55c9 0abf 590b 0d3f
00000150: 48fd 0c3d ae2a 15be a015 e13d 68ec acbd
00000160: c076 95be d02a 5bbe aecd e8be cf65 3e3e
00000170: 375b 82be 3b2c aebd c291 9b3e 9370 48be
00000180: 12cd a6bc f52f 783d 00c3 aa3d 71b2 3dbd
00000190: 520e 64be b5d2 29be 07f1 773e 47b2 1c3e
000001a0: 9374 973d 35a8 f5bc 6251 1abe 604f 993e
000001b0: 2437 cc3d 3c0b dfbd ef08 c13d 7f92 0dbd
000001c0: 0cb0 a1bc 2867 3a3e 7353 eb3d cfb3 98bd
000001d0: fc7c 09be a643 8d3d f8e1 09be e1b9 743e
000001e0: 3638 77bb 2bea 563d 37f8 3a3e 4b88 673e
000001f0: c7df a23d a83a 68bc c594 e63d d450 58be
00000200: d80f 913d f2ac 85be ea63 183e a97b 9abe
00000210: ef76 d8be 82af c23e 8145 9a3d 7c0d 2cbe
00000220: aa59 393e 3647 36be 285d 1f3d b7e4 3cbe
00000230: 2efb 06be 6a09 d8bd 6450 66be 6d63 bb3d
00000240: c879 223c 9b0d abbd 265b 7dbe 2e80 d53d
00000250: 8c9b e5be 90b2 57be dcb0 8b3c 8f85 5abe
00000260: 2d09 913e 8532 bb3d b10a 82bd 43a7 c9be
00000270: 9493 9f3e 800e 0e3e e504 99be c9ba 263e
00000280: 9fcb b73d bfeb 73be 04f6 70bd b715 6bbe
00000290: 7c23 b43d 66b1 8d3e 8b2a 60bc 21b4 4abe
000002a0: 9bd3 e23e 15aa 09be 5df9 2bbe 277c 943d
000002b0: 1cc8 24bd b609 3cbd d85f ccbd a401 0fbe
000002c0: 65c8 88bd e112 2bbd 61e2 203e 2fea 3b3e
000002d0: d940 4cbe 0d49 ecbc d866 7e3e 8ac2 cfbd
000002e0: ac58 b93d 3a2f 043e d51b 77bd f0fc 963d
000002f0: 4c50 b33e 01d7 023d d01b edbd 871b 9a3e
00000300: 8da2 a2be 3671 373f c7dc 5fbe 13ea a33e
00000310: 6159 653e d664 9e3e 6c14 1abf dbce 2c3e
00000320: 455a 2abf e5df 1d3f f06f fbbe 2842 0bbf
00000330: c673 3d3d 0758 383e 1e30 d63e 03ef 8f3d
00000340: 17dc 973c 4a63 223f 11bb 87be ba52 0a3f
00000350: 0c9d b83e 7846 77bd 6742 40be 8418 163f
00000360: 88d0 9bbe d00b 863e 0ca6 babe 03cb ed3d
00000370: ac8d b0be 7acc 27be b431 293f 1f7b 3e3e
00000380: b5d4 d2be 2d6d 063f 5a70 4f3e f612 673e
00000390: be44 0cbd 1d36 acbe feab babe ed2b 93bd
000003a0: 2eeb 38bf 53f6 b53e 8950 94be 7778 33bf
000003b0: 0a63 ac3e 8470 993e ded0 233d 0f55 a13e
000003c0: 393a 153e b52f b33e d450 a9be 9cbf 2a3f
000003d0: 219b d53e 5880 673d d6b1 643e 5e49 1f3d
000003e0: 9224 c1be 894b 72bb d9a6 49be db49 ae3e
000003f0: 7b3e cabe 4a89 b9bd d5dd 143f aab0 9a3e
-0.161652 0.24301957 -0.09853096 0.06784695 -0.24059816 -0.11344452 -0.41348785 -0.41404244
-0.19980444 0.34782755 -0.062121086 -0.205559 0.25722507 0.36860287 0.10208891 -0.008853447
-0.18351106 0.4418755 -0.29952446 0.5136134 -0.09326677 -0.098244414 0.35274667 -0.103899255
-0.19927333 0.17472215 -0.5276738 -0.22102615 0.030628955 -0.052219637 0.202795 0.014648862
-0.48638788 0.41850778 0.0023648867 0.044413667 0.17124839 -0.4154848 -0.5352168 -0.13384765
-0.3258987 0.3008491 0.009682118 -0.13719401 -0.31099668 0.33455038 -0.12623528 0.26263198
0.022409726 0.2599039 -0.42458192 0.41672283 0.35745656 -0.18327852 -0.07191081 0.056736164
-0.23612589 0.14712767 0.075017 -0.16456343 -0.3380366 -0.29016426 0.32020032 -0.07251257
-0.310527 0.4125001 -0.49138072 0.364535 -0.32840434 0.047482666 -0.3715419 0.0013143684
-0.39436254 -0.11538124 -0.29522368 -0.3223058 -0.077101804 0.31897673 -0.3059807 0.04902607
0.04164083 -0.065681234 -0.5421346 0.5509544 0.034421235 -0.14567062 0.10990453 -0.084435284
-0.29192162 -0.2140305 -0.4546942 0.18593524 -0.25460216 -0.0850453 0.30384642 -0.19574194
-0.020361457 0.06059261 0.083379745 -0.046312753 -0.22271088 -0.16584285 0.24213038 0.15302382
0.07395282 -0.029987434 -0.15070108 0.2994337 0.09971455 -0.10890815 0.09425532 -0.034563538
-0.019737266 0.18203413 0.11490526 -0.07456171 -0.13426584 0.068976685 -0.13465106 0.23899032
-0.0037722713 0.052469414 0.18258749 0.22610585 0.079528384 -0.014174141 0.11258844 -0.21124583
0.070831 -0.2610851 0.14881864 -0.3017247 -0.4227824 0.38024527 0.07532788 -0.16802019
0.1810061 -0.17800602 0.0389072 -0.18446623 -0.13181755 -0.105486706 -0.22491604 0.09149823
0.00991673 -0.083522044 -0.24741802 0.10424839 -0.44845235 -0.2106421 0.017052107 -0.21340011
0.28327313 0.09140495 -0.063496955 -0.39385423 0.3116728 0.13872719 -0.29886547 0.1628219
0.089743845 -0.23820399 -0.05882837 -0.22957502 0.087958306 0.27674407 -0.013682018 -0.19795276
0.44302067 -0.13443787 -0.16794343 0.07250243 -0.0402299 -0.0459077 -0.09979218 -0.1396547
-0.06678847 -0.04176605 0.15711357 0.18351053 -0.19946612 -0.028843427 0.2484392 -0.10144527
0.09050116 0.1290864 -0.060329277 0.07372463 0.350222 0.031943325 -0.115775704 0.30099127
-0.3176464 0.7165712 -0.21861564 0.32014522 0.22397377 0.30936307 -0.6018741 0.16875784
-0.6654399 0.6166976 -0.4910884 -0.5439782 0.04625299 0.1800233 0.41833586 0.0702801
0.018537564 0.63432753 -0.26509908 0.5403248 0.36057317 -0.06036994 -0.1877533 0.5863116
-0.30432534 0.26180887 -0.3645481 0.11610987 -0.34483087 -0.16386595 0.66091466 0.18601654
-0.41177908 0.5251034 0.20257702 0.22565827 -0.034245245 -0.33635035 -0.36459345 -0.071861126
-0.72233856 0.35539493 -0.28967693 -0.7010569 0.3366931 0.29968655 0.039994113 0.31510207
0.14572991 0.34997335 -0.3306948 0.6669862 0.41719916 0.056518883 0.22333464 0.038888328
-0.37723213 -0.0036971292 -0.19692554 0.34040722 -0.39500794 -0.09059389 0.5815099 0.3021291

entity_embed.weight f4 [886, 32]
00000000: 029d 40bd 7f32 b4bd 7615 483d 56c1 1f3d
00000010: 5f34 93bb e85f bebc c3a2 d83d 1279 723d
00000020: e7ce 753d 4d58 80bd f82c d6bc 9680 7abd
00000030: b915 a0bd 2758 5ebd ddc6 8bbc c1fd 883c
00000040: da4b 3dbd 761f 933b b01e 683d 5f48 08bd
00000050: ac03 db3d 2a3c 973c 8df2 9bbc 8482 5e3d
00000060: 76ad d43b 7284 6cbd 0190 793d 74cd c53d
00000070: 371a 89bd 4e87 833d f12c d7bd 789b a4bd
00000080: a914 d33d 08b5 14be 4233 733d 70a0 4c3c
00000090: d92b 8e3c eea7 733d eaa9 983d 7725 3cbd
000000a0: 40c3 fb3d 0634 c0bd aeae bcbb da22 053c
000000b0: 7362 c83d 3378 2cbd 6d69 933d 510c 1e3d
000000c0: 9945 65bc 3e0d 5b3d 96f8 b13d 0251 c8bd
000000d0: aa10 0ebe c267 19bc 48c9 813d 1c34 273d
000000e0: 7c12 f83d c8b0 d4bd a6ee 9abd f9dc 833d
000000f0: 8c9a cf3d 72d2 e73d bdea 34bc dc2c 91bc
00000100: 6860 973d 3dd8 afbc 8406 c53d 09be 99bd
00000110: 5804 b03d 26d7 a5ba 7446 783d 7398 9fbd
00000120: 9e4d d33d 1b7d 3ebc a9f9 03ba a59f 8a3d
00000130: 1232 743d a9f8 f8bd 98ca bc3d eb56 94bd
00000140: b20b 45bd 1ac8 5a3d 2143 753d 251f 94bd
00000150: 3941 863d 7dbb 3ebd 5ffb d83a 58c9 a03d
00000160: 5e7b 8c3c 880b 5f3d 7112 40bc 5b58 d93c
00000170: 7334 273d 06ac 403d 5f74 03bd dac3 a2bd
00000180: a386 1abd 0e7e 41bd 0050 b03c 05ca 87bd
00000190: 3e37 a93d c1df ba3d ad64 5cbd 2519 fc3c
000001a0: 2522 11bd 2bf3 043d 7647 813d 7ba2 dcbd
000001b0: 3606 863c dd10 e2bb e18b 10bd 68d6 8fbd
000001c0: 9d2d 0a3d 8e09 593c cad1 51bd 2258 673d
000001d0: 35e9 d03b 0667 24bd 7589 703d 308b 99bd
000001e0: 04ae 8d3d e8f4 503b 0dd3 793d f745 ef3c
000001f0: 45c2 9e3a 8283 a5bc 70cc d7bc 3789 5c3d
00000200: 7f56 9abc 7a58 203c d5cb a53c c67c 4d3d
00000210: baed d7bc 5c46 f9bc ecff 043c e2ac 32bd
00000220: d6df 4d3b 8ecc 01bd 8dd9 8abd daf7 da3c
00000230: dc8e 8e3b 79c9 f3bc 161d e23b f073 d7bb
00000240: f796 8e3d 5a32 2a3d 2c22 2dbc 3d40 bc3d
00000250: 7ddd 653d e2e0 14bd 2e78 053d 0d03 d0bc
00000260: 09fe 14bc aeaf 50bc 35ba 5d3d 70b6 fc3c
00000270: 3c3f c0bd f995 9c3a 88b2 81bd 290d e3bb
00000280: cc41 88bd 6387 e03c c5b6 d03b ac7e e1bb
00000290: ce8d eb3c 038a f53c 0d17 9e3d 4d0b 973c
000002a0: 3650 74bb a68b a23d ed32 983c 221f 8cbd
000002b0: a090 98bd 6f84 573c 9289 2f3c c2bf 943d
000002c0: beac c6bc a153 3ebd c14a 9db9 db5b 3b3d
000002d0: b05c 443d 2494 223b 32ef 983b fc4e 383d
000002e0: 9ec8 b1bc c185 8c3c 11d1 273c f7e2 d7bc
000002f0: 8afc e63b 4307 ac3b db4b 84bd 9cda aebd
00000300: ee76 74bc 6a19 21be a5af 833d 3333 fabd
00000310: 4a94 b2bd c188 9ebd 628c ad3d d03b e1bd
00000320: 381c 8e3e 2606 8d3c a63c 503d 6cc5 053d
00000330: c3d4 803d 30e9 2c3d 623b a0bc 1a90 23bd
00000340: bfcc 483d 3d55 09be 7363 6c3d 8e62 04be
00000350: 0136 02be c0e4 0cbc 9651 81bc 62f0 48bd
00000360: 0cab 053c a7ac b6bd 39ef 0ebd 65b2 9fbc
00000370: 3998 3f3d 49fe ed3b 10f3 bebd 8d36 e4bc
00000380: 6643 29bd 7878 a5bd 453c b0bc 90c7 ccbd
00000390: cd91 f6bc f7d2 553d fa72 843d b0d2 96bd
000003a0: acc2 d93d 2f6d f8bc eb4d a43d 425c ce3d
000003b0: 1cec d3bb 1c8a 74bd 1165 98bd f10b e2bd
000003c0: f81e c7bd c53f 4abc f1a7 ec3d 999d 1dba
000003d0: ed3e c4ba 82f4 35bc 3df0 443d 486a 1d3d
000003e0: ea7b a63d a1b5 173d 1bb4 0cbd d645 c5bc
000003f0: c876 313d 3f38 b93c bee0 96bd f8cc 29bd
-0.047024734 -0.08798694 0.04884859 0.03900274 -0.004492327 -0.023239091 0.10577919 0.059197493
0.06001177 -0.06266842 -0.02614449 -0.061157785 -0.07816643 -0.054283287 -0.017062599 0.016722562
-0.046214916 0.0044898344 0.05666989 -0.033272143 0.1069406 0.018461306 -0.019036556 0.05432369
0.0064904047 -0.057743497 0.06092835 0.09658328 -0.06694453 0.06422292 -0.10506619 -0.08037466
0.10306675 -0.14522183 0.059375055 0.012489423 0.017354893 0.059486322 0.074542835 -0.045934167
0.122931 -0.09384923 -0.005758128 0.008125985 0.09784403 -0.04210682 0.07197843 0.038585965
-0.013993644 0.053479426 0.08689992 -0.09781076 -0.13873544 -0.009363117 0.063372195 0.04082118
0.121129006 -0.10385281 -0.0756505 0.064386316 0.10136899 0.11319436 -0.011042294 -0.017721586
0.07391435 -0.021465415 0.096203834 -0.075069495 0.085945785 -0.001265262 0.060614064 -0.07792749
0.10317539 -0.011626507 -0.00050344557 0.06768731 0.059618063 -0.12156803 0.09218329 -0.07243141
-0.048106857 0.053413488 0.059878472 -0.07232503 0.06555409 -0.04656552 0.0016554407 0.07850903
0.01714867 0.054454356 -0.011723147 0.026531389 0.040821504 0.047039054 -0.032093402 -0.07947512
-0.037726056 -0.047239356 0.021522522 -0.06630329 0.0826249 0.09124709 -0.05380695 0.030773709
-0.035432953 0.032458466 0.06312458 -0.10773178 0.016360383 -0.006898983 -0.03528965 -0.070233166
0.033734906 0.013246907 -0.05122546 0.056480534 0.0063754567 -0.040137313 0.05872484 -0.07497251
0.069179565 0.0031884257 0.06099229 0.029208167 0.001211234 -0.02020431 -0.0263426 0.053841796
-0.018840073 0.009786719 0.020238796 0.05016782 -0.026358474 -0.030429058 0.008117657 -0.043621905
0.0031413934 -0.03168922 -0.06779776 0.026729513 0.0043505263 -0.029759156 0.00690044 -0.0065751
0.06962388 0.041551925 -0.010567229 0.0919194 0.05611943 -0.036347277 0.032585315 -0.02539208
-0.00909377 -0.012737198 0.05413266 0.030848712 -0.09387061 0.0011946551 -0.0633288 -0.006929059
-0.06653175 0.027408307 0.006369444 -0.0068815555 0.028754141 0.029973036 0.0771924 0.018438006
-0.0037279255 0.07936792 0.01857897 -0.068418756 -0.0744946 0.013154133 0.010713952 0.072631374
-0.024252292 -0.046466473 -0.0003000107 0.045741897 0.047939956 0.0024807537 0.004667186 0.0449972
-0.021702107 0.017153623 0.010242716 -0.026353342 0.007049148 0.005249889 -0.06459781 -0.0853779
-0.014920933 -0.15732351 0.06429986 -0.12216797 -0.0871969 -0.077409275 0.084740415 -0.109977365
0.27755904 0.017214846 0.05083909 0.03265898 0.06290581 0.042214572 -0.019559566 -0.039932348
0.049023386 -0.13411422 0.05771203 -0.1292822 -0.12715913 -0.00859946 -0.015785974 -0.049057372
0.0081584565 -0.089196496 -0.03489611 -0.019494245 0.04677603 0.007262979 -0.09323704 -0.027858043
-0.04132404 -0.08079618 -0.021513114 -0.09999001 -0.03009882 0.052203145 0.064672425 -0.07364404
0.10632834 -0.0303255 0.08022674 0.100761905 -0.0064673554 -0.059702024 -0.07441152 -0.11037434
-0.09722704 -0.012344305 0.1155547 -0.00060125586 -0.0014972367 -0.0111056585 0.04808067 0.038431436
0.081291035 0.03703845 -0.03435145 -0.024081152 0.04332617 0.022609828 -0.07367085 -0.04145524

relation_embed.weight f4 [114, 32]
00000000: 7836 e7bc 3ee3 2d3c f510 dbbc c654 10be
00000010: ad8a b73d 26d2 c53d 2e3a 643d defd 35be
00000020: 96a7 e8bd 2861 2abd d58c a4bc 3d6c 3bbd
00000030: 331a 943d 1741 423e a8a8 e83d 9bd1 c0bd
00000040: c45d b4bd 0c66 62bd c3ff 4e3d b65c 9cbd
00000050: c572 7bbd cb04 a93c 4e2b e93c 1faf d0bd
00000060: a78a 083e 1fa7 563d cdb6 313e 0636 45be
00000070: c02c cfbc 2401 e3bc bef6 273e d636 3b3e
00000080: 0ec4 3fbd f43a 083e 7b33 563c 934c 21bc
00000090: 7e58 21be 30b0 18be c55a d03c c52f 4abe
000000a0: 548b 2b3e 7c95 493c 3e76 19be 0336 023e
000000b0: 0a47 23be cc75 0bbe b94f c2bd 5cf3 2fbd
000000c0: 585c 20bd e617 38be ea9b 6c3b 4959 22be
000000d0: 50f0 b9bd 8f0b 573d 252c c8ba 8ccb 0a3e
000000e0: 74fb c43d de8c 4abb a1d7 a63d 10d4 a93b
000000f0: 2888 08bd 2779 ce3d 7ae1 9abd 16a8 43be
00000100: fd91 db3d f28a c2bc 1402 163c 8c8d 7c3d
00000110: baaa d03c f99b 1abe 7d7d 313d bd0e 17be
00000120: 80f1 12bd 5ebe 22be 37d8 f43d 4d91 c3bc
00000130: e823 3d3b 7dcd 75be 9322 a03d fbe2 22be
00000140: 5454 0ebe 840b 0d3e 816c 193e 6b8d 5b3e
00000150: 8305 a83d 6191 abbd 57b4 873d 54cc 053e
00000160: c18e 443e 580d 09be ad1d a53d e65b 043d
00000170: 7a40 013e f4d5 e63d 1a0b a33d 3f96 1fbe
00000180: fb03 633d b994 23be e8fb adbd 66ed f7bc
00000190: 25da b3bd 75dc a2bd 19ec 563b b067 1b3e
000001a0: aa2e d4bd 7b30 643d cd1e abbd 88f7 a1bd
000001b0: 3030 7bba 6ff2 47be 169f b2bc b488 1ebe
000001c0: 0197 053e d9f6 93bd 33d6 d23c 9ecf 993d
000001d0: 7c16 f7bd aa35 4abe 25d2 6bbd b216 c5bd
000001e0: 0e12 2c3e 7fac 28be 51ba abbd 10f0 3c3e
000001f0: 6673 96bd c84b 3bbe b383 253e 333b da3d
00000200: 0626 e6bd f26d a23d b1cd fabd b6de debd
00000210: 2a3b 4fbc 76ca e73d 9f62 6bbc 4213 07be
00000220: 8e4e d53d abf6 5c3d 1159 59bc 14fd 98bd
00000230: 921f 24bd 98a8 f3bd 2fee 103e 2284 62bb
00000240: 0666 9d3c 3493 033e 37af 44bc 7264 8f3d
00000250: 7ed2 d13d 8526 fb3d 8d93 62bc cb9d 24be
00000260: 9993 c9bd 0a04 bebd 6cb2 be3b aacf 9e3c
00000270: 0034 26bd ec47 4cbe 711b 01be b6c0 04be
00000280: db5f 0fbe dd35 51bd 8c74 08be 1272 c03d
00000290: f6f6 473d f0df b43d b830 9a3d cec7 223d
000002a0: 510f 7bbd 1a63 99bd f553 88bd bd36 ebbd
000002b0: 6231 0ebd e738 11be 3981 53be b928 e63d
000002c0: a9bb 01bd 7fa4 933c f3fa 93bd 5571 f7bd
000002d0: b9b6 b23d 0197 84bd ef7a 273e 44b9 913d
000002e0: 5623 87bb d685 c9bd ab7a eebb 2938 08be
000002f0: af43 b33c 49dc 123e 96fb 7fbd ff02 c7bd
00000300: b5c2 993d 1a4b 443e 683d f03d 92f7 183e
00000310: 9a4d 96bc c1bc 493e ff5d 043d 24d2 ebbc
00000320: 7ff0 713b e3ed 41bd 6af5 dabc 9901 24bd
00000330: c5f1 febd 730b f5bd 95b0 aa3d 67a1 87bd
00000340: 2144 413d 84fb 1abe dac4 93bc 1435 183e
00000350: f5f3 273d 55c4 073d 4a45 1a3e 5696 ea3d
00000360: b9fe a4bc 084d 493d 4a5a b4ba f86f 9fbd
00000370: 6a4e f6bd 4609 b03c 3441 1dbe cede 2fbe
00000380: 5385 b73c 7df6 36be d23b e9bd 048c 10bd
00000390: 9333 2a3d 7cdc 053e 7d65 3fbe ce80 1c3d
000003a0: d580 86bd cb0f 07bb 8466 333e 9282 a13d
000003b0: 6bf5 443d e282 38be 6dce febd a97d 19be
000003c0: e3a5 333e 6a15 973d 99a1 393e f2b6 b1bd
000003d0: a293 c73d c52e 5cbe 53d6 9a3d fef3 20be
000003e0: cb8b f23d 86d9 25be f7b5 b6bd 7d8b 62bd
000003f0: dcfd abbd bc2b febd 4d60 51be 9371 9ebd
-0.028224215 0.010613261 -0.026741484 -0.14094839 0.08961997 0.09659223 0.055719547 -0.17772624
-0.113600895 -0.04159656 -0.020086685 -0.04575752 0.072315596 0.18970142 0.113602936 -0.09414979
-0.08806947 -0.0552731 0.050536882 -0.07634871 -0.06138875 0.020632168 0.028463032 -0.10189652
0.13334142 0.052405473 0.17354889 -0.1925889 -0.025289893 -0.027710505 0.16402718 0.18282637
-0.04681783 0.13303739 0.013073797 -0.009844917 -0.15756413 -0.1491096 0.025433907 -0.19744785
0.16752368 0.012303706 -0.14986512 0.12715916 -0.15945068 -0.13619155 -0.09487862 -0.042956695
-0.039150566 -0.17977867 0.0036103674 -0.15854372 -0.09079039 0.052501258 -0.0015271945 0.1355421
0.096182734 -0.0030906717 0.08146597 0.0051827505 -0.033332974 0.10081702 -0.075625375 -0.19107088
0.107212044 -0.023747895 0.009155769 0.061658427 0.025472034 -0.15098561 0.043332566 -0.14751716
-0.035874844 -0.15892932 0.11955302 -0.023872996 0.0028860513 -0.24004169 0.078190945 -0.15906899
-0.13899356 0.13773924 0.14982797 0.21440665 0.08204176 -0.08377338 0.06626194 0.13066226
0.19195081 -0.13383996 0.08062301 0.032314204 0.12622252 0.11271277 0.07961102 -0.15584658
0.055423718 -0.15974702 -0.08495313 -0.030264568 -0.08781842 -0.07952205 0.0032794534 0.15176272
-0.10360463 0.055710297 -0.08355484 -0.07908541 -0.00095820706 -0.19526075 -0.021804374 -0.15481836
0.13045885 -0.07224817 0.025736904 0.07510303 -0.120648354 -0.19747034 -0.057573456 -0.096234694
0.16803762 -0.16472052 -0.083851464 0.18450952 -0.07346229 -0.18290627 0.1616352 0.106558226
-0.11237721 0.07931127 -0.12246264 -0.108823225 -0.012648383 0.11317913 -0.014366775 -0.1319094
0.10415374 0.05394618 -0.013265864 -0.07470146 -0.04006917 -0.11897391 0.1415336 -0.003456362
0.019213688 0.12849122 -0.012004665 0.0700158 0.10245226 0.122632064 -0.013829124 -0.16075818
-0.09842605 -0.09278114 0.0058196094 0.019386131 -0.040576935 -0.19949311 -0.12608124 -0.12964138
-0.1400141 -0.05107676 -0.13325709 0.09396757 0.048819505 0.08831775 0.075288236 0.03974133
-0.061293904 -0.07489605 -0.066566385 -0.1148505 -0.034715064 -0.14181863 -0.20654763 0.11238236
-0.031673107 0.018022774 -0.07225599 -0.12082163 0.08726258 -0.06474114 0.16355489 0.07115415
-0.0041240854 -0.0983998 -0.0072778068 -0.13302673 0.02188286 0.14341845 -0.06249579 -0.09717368
0.075078405 0.19169274 0.11730462 0.1493819 -0.01834755 0.1970091 0.032316204 -0.028786726
0.0036917028 -0.047346007 -0.02672835 -0.040040586 -0.12448458 -0.119650744 0.083344616 -0.06622582
0.047184113 -0.15135008 -0.018038202 0.14863998 0.04100414 0.03314622 0.15065494 0.114544556
-0.020140992 0.04914573 -0.0013759818 -0.07785028 -0.12026675 0.021488797 -0.15356904 -0.17174837
0.022402441 -0.17867465 -0.11388363 -0.03528978 0.04155309 0.1307239 -0.18691058 0.038208775
-0.065675415 -0.0020608779 0.17519575 0.078862324 0.04808561 -0.18018678 -0.12441716 -0.14989342
0.1754375 0.07377131 0.18128051 -0.08677472 0.097449556 -0.21502216 0.0756041 -0.15718076
0.1184307 -0.1619626 -0.08921426 -0.055308808 -0.08398029 -0.124106854 -0.20446892 -0.07736506
