Knowledge_Graph_Recommendation/recommendation/stage2/trained_model/Douban/GNN_based/nlayer2_dim32_TransR_lightgcn/model36_epoch30.pth (torch, 662471 bytes, 3 tensors)

trans_M f4 [116, 32, 32]
00000000: f83e f53b aca0 1cbc f5a9 033d 344a a23c
00000010: bfce 0bbd 2467 b1bb 0023 033b 8e1a cf3c
00000020: 139b e1bc 7a62 80bc 3fda 10bd da50 a13c
00000030: e459 9d3c 18f1 b03c 98d2 d83b 25ad 023d
00000040: 4ebd f8bc 7472 93bc a201 0fbc 1ddd f539
00000050: 802a 463c ce0b a3bc 5286 1bbc 382a 8e3c
00000060: ae66 34bc cb07 103d dafc 4abc 3487 0c3c
00000070: 0058 f9bc 3408 653c 50ed ee3b f8cc d8bb
00000080: a474 9c39 c23d e33c 16df 973c ea5c ed3c
00000090: a852 0ebc c226 adbc d0da a7bc a0fc 03bd
000000a0: bccd 8fb9 65ed 09bd 2c29 7d3c fecd e63c
000000b0: 9f2f 053b e035 d63c de98 df3c 04ad 4dbc
000000c0: 58c6 0cbc 7b43 043d 110e d4bc ca74 6fba
000000d0: 585e ba3c 41e5 ebbc 9803 c7ba 80c4 9b3c
000000e0: f8d0 a23b 6aa8 90bc a2d8 41bc 9f2b 103d
000000f0: da4e cfbc 5e86 aa3c 4600 dd3c 7063 4fbc
00000100: 70dd 7dbb 3237 aabc ecee 643c 28c6 abbc
00000110: 0860 d1bb 8d53 0c3d 821c df3c 604d bc3c
00000120: f8f6 04bd 2a1a fb3c e040 58bc 00fb 833b
00000130: 105f 53bc cf84 093d 1c74 1d3c 70f2 d5bc
00000140: df33 e6bc c201 31bc d49e 263c e451 5c3c
00000150: 38f7 0dbd c4b2 98bb 896b 003d 4ca6 513c
00000160: fb7d 0bbd 7aaa 08bd 1677 dd3c dcaa 90bc
00000170: b251 aabc c83d 573c 9f49 d5bc 582d 2fbc
00000180: 7cf4 c03c d066 253b d0c7 183c 8057 31bb
00000190: eada e03c 18dd c23c 8e07 04bc 0e9c a5bc
000001a0: 493f 093d 1c0d 18bc 6221 c7bc e2b5 d7bc
000001b0: c604 7d3a 244a debc 9f25 103d 703c 19bc
000001c0: 080d 36bc 7c4f 7cba ec6c a03c 1043 64bc
000001d0: 30a1 1f3b 2baa 0a3d 1e66 c6bc 9ff9 81bc
000001e0: acc4 d1bc 2482 473c e776 08bd 259b a4bc
000001f0: 3e72 fa3c 5a05 dbbc 7291 be3c 5b0c abbc
00000200: c010 9a3b f6a0 a7bc b261 c93c c528 ddbc
00000210: 604c 05bc 43e7 d93a b86a ba3c 0075 b03c
00000220: f2d9 83bc 54d9 babb 0f5c 033d c38c e5bc
00000230: 0427 cd3c e0c3 aa3a e20c adbc 09e1 98bc
00000240: 944f a23c 6e19 e53c 3e98 c5ba 3cc0 b43c
00000250: 7c51 653c 0ca7 7f3c 42ad 24bc 1412 00bd
00000260: b41f 173c 46ba b73c cc76 42bc f49f 9fbb
00000270: 5d22 84bc 90f0 b1bc ba5a fd3c 0a0e 86bc
00000280: e87b b3bb fcb8 a5bc b043 323c 5890 833b
00000290: 14a5 01bd 66c2 5cbc caae 33bc 6e84 b43c
000002a0: e45b 053c 2c1b aabb 2cc8 d9bc 2ef9 20bc
000002b0: b826 0ebc c1af 003d 5ab5 d8bc 6c90 673c
000002c0: 2084 bd3b 645f 183c 4231 9bb9 d86a 15bc
000002d0: 81cc 0f3d b837 443c a6c7 8c3c 2eaa c8bc
000002e0: 2534 053d 54f6 7bbc d04f 6b3c c20b 40bc
000002f0: e030 d8ba a0f9 ba3c 20a1 ab3c 2630 9b3c
00000300: 780d 8ebb f6d3 9ebc a867 a83b d7d5 043d
00000310: 900c 523c 4e16 ccbc 762e d0bc 8599 013d
00000320: 58d2 78bc 60e5 3e3b 600e d4ba d83a 903c
00000330: 33ad efbc 0bfd 0fbd bedc 86bc 94e9 883c
00000340: c06f 163c f9c7 013d 2cf0 ecbb d880 ecbb
00000350: 625a 8abc dc0c ab3c 0b60 10bd f42c 333c
00000360: a2f3 a93c 8e59 dd3c 4132 343a 7dc5 dabc
00000370: b0b0 6dbb 968a 38bc bde1 e838 71d5 95bc
00000380: 3830 bc3b bcfd 863c 89c6 8dbc 5b1f c9bc
00000390: 900d ff3b 528a da3c b405 11bc c2f3 79bc
000003a0: 841e a9bc 09f7 b0bc c072 8cbc e6bd 8b3c
000003b0: ec69 183c 57c7 a3ba 2a41 d33c bc11 a53a
000003c0: 2049 d33c c819 763c 7eef ad3c 8613 efba
000003d0: 6641 f03a c0d9 ce3c 2ed0 d13c b896 31bc
000003e0: 52b4 e0bc 8245 04bd 4028 713c e916 0dbd
000003f0: 1872 febc 72ee f93c 80c4 dcbc 862d dabc
0.007484313 -0.009559792 0.032144506 0.019810773 -0.034132715 -0.0054139066 0.0020009875 0.025281217
-0.027539765 -0.015671957 -0.035364386 0.019691873 0.019207902 0.021599337 0.0066169016 0.031903405
-0.030363705 -0.017998911 -0.008728417 0.00046894784 0.012095094 -0.01990309 -0.009492474 0.017354116
-0.011010809 0.035163682 -0.012389386 0.008577157 -0.03043747 0.013979007 0.0072914734 -0.006616231
0.00029841543 0.02773941 0.018538993 0.028974969 -0.008686699 -0.021136645 -0.02049008 -0.032223344
-0.0002742837 -0.033673663 0.015451711 0.028174397 0.0020322574 0.026148736 0.027294572 -0.012553457
-0.008592211 0.032290917 -0.025885614 -0.00091345294 0.022750065 -0.02879584 -0.0015183566 0.019014597
0.0049687587 -0.017658431 -0.011831434 0.03519785 -0.025306154 0.020816024 0.02697767 -0.012657985
-0.0038736723 -0.020778272 0.013972979 -0.020968512 -0.0063896216 0.034259368 0.027235273 0.022986114
-0.03246209 0.030652124 -0.013199061 0.0040277243 -0.012901083 0.03357392 0.009610202 -0.02611658
-0.028100906 -0.010803642 0.0101697035 0.013447259 -0.034659594 -0.0046599824 0.031352554 0.012795996
-0.03405569 -0.033365704 0.027034324 -0.017659597 -0.020790908 0.013137288 -0.026036082 -0.010691963
0.02355408 0.0025238283 0.009324983 -0.002706021 0.027448136 0.023787066 -0.008058442 -0.020216014
0.03350762 -0.009280469 -0.02430791 -0.026331846 0.00096518954 -0.027134962 0.03519213 -0.009352788
-0.011111505 -0.0009624881 0.019583188 -0.013932005 0.002435755 0.03385369 -0.024218615 -0.015866099
-0.025606476 0.012177024 -0.03331652 -0.02009351 0.030572053 -0.02673595 0.023262713 -0.020879915
0.004701704 -0.020462494 0.024582718 -0.02699698 -0.008135885 0.0016624707 0.022755966 0.021540165
-0.016095135 -0.005702177 0.032070216 -0.028021222 0.025043018 0.0013028346 -0.021124307 -0.018661993
0.019813336 0.027966227 -0.0015075279 0.02206432 0.013996478 0.015603792 -0.0100510735 -0.03126724
0.009223867 0.02242769 -0.011869144 -0.004871363 -0.016129667 -0.021721154 0.03092705 -0.016364116
-0.0054774173 -0.020229809 0.010880396 0.00401501 -0.03165157 -0.013474083 -0.010966966 0.022035804
0.008139584 -0.0051912274 -0.026584707 -0.009825034 -0.008676223 0.031417612 -0.026453663 0.014133554
0.005783573 0.009300087 -0.00029600604 -0.009119712 0.03510714 0.011976175 0.017185044 -0.02449521
0.032520432 -0.015378553 0.0143622905 -0.011721553 -0.0016494058 0.022824109 0.020950854 0.018943857
-0.0043351017 -0.01938818 0.00513931 0.032430496 0.012820378 -0.02491298 -0.02541278 0.03164055
-0.015186869 0.0029128417 -0.00161786 0.017606184 -0.029257393 -0.03515343 -0.01646268 0.016712941
0.009181917 0.03168485 -0.007230779 -0.007217508 -0.016888801 0.020880155 -0.035247844 0.010936011
0.020746056 0.027020242 0.00068739435 -0.026705498 -0.0036268644 -0.01126351 0.00011104669 -0.018290253
0.005743053 0.016478412 -0.017306583 -0.024551084 0.007783599 0.026677284 -0.008851457 -0.01525587
-0.020644434 -0.02160217 -0.01714456 0.017058324 0.0093025975 -0.0012495321 0.025787909 0.0012593786
0.025791705 0.015020795 0.021232363 -0.0018240071 0.0018330037 0.025250316 0.025611963 -0.010839157
-0.027429733 -0.03229285 0.014719069 -0.034445677 -0.031060264 0.030509207 -0.026949167 -0.026633035

entity_user_embed.weight f4 [1333, 32]
00000000: f8b1 bcbe 08f9 90be 61f4 41be 804b 92be
00000010: d079 93bd f435 833d a29f c43c b5f3 9ebd
00000020: 73c9 973e 1fbd 153e 6779 d7be 1ea2 7f3d
00000030: 0192 0d3e 1df2 5ebd 7cc9 87be c81a 46be
00000040: bae1 9bbe 7d8b d33e 43ff 0a3c 14b5 66be
00000050: 58de 803e f61d 7abd c7a0 4a3b cf1b 01bf
00000060: 340f ab3e 3434 823d 1b18 d83e 8eea 5fbe
00000070: 351f 60bd 061f 783e 1ca8 d9bd 1c8a dabe
00000080: f173 02be 32e9 02be 745a b53c 937d dabd
00000090: 6c7f 393e 84ea 363e f95f cc3e 9c12 38be
000000a0: d6d5 dbbd df9f 91bd bfa6 2ebe 7f9d 62bd
000000b0: 1d0b 93bc a5da bcbe 65df 0abd 532d 36be
000000c0: dfaa 2fbe 8b19 8cbb d14c b73d f5be e93b
000000d0: 9832 9f3e 1603 a63d 6d7a 083e bbcc 7cbe
000000e0: e6f0 66be a63b a93e 1823 083e 89a8 1cbd
000000f0: 7c49 f83c da0e 4f3e 5c12 083e 6e82 69be
00000100: 9bef c5bd d32a db3d a9a3 003e a946 81bc
00000110: c807 a13e c499 71be 8188 60be 46ee 83be
00000120: 1d56 c1be 5347 3aba dcd0 babe 7ab7 0fbd
00000130: 1c84 ceb9 8e5f 4ebe e44e 0ebe ca5a 22bd
00000140: e89d d8be e356 3b3e 0596 5a3e 2d3e 69bd
00000150: 2e5a 50be d88c cd3b fec6 a8be 89a1 16be
00000160: 9cde f6be 9069 403e a226 0f3f 9b70 953d
00000170: 783b e03d dad2 36bc ca2b 2b3c 7b7e 9cbe
00000180: e6ca 70be 6b42 04be 6d3a 163e a533 8abb
00000190: b58f 26be cce4 63bc e112 10be f02c 81be
000001a0: 60cf 5abe 5033 c03d b5f8 13be b313 323d
000001b0: c826 0a3e 85ca b83c 2418 b63c 858c ef3d
000001c0: f78e 46be fabf 9e3e 1b8a 2b3d 6a67 d7bc
000001d0: d694 9abe e802 a63d ff32 993d ca4e fb3c
000001e0: 3e34 6cbe ab0d 70be 1a4e 02be fae7 92bd
000001f0: 74af af3e c581 d43e 968b c9be e79d 3cbd
00000200: d37f 3fbe 78d8 0dbd a1e8 ed3d d5f5 2bbe
00000210: 7e1f 31be ef38 fbbd 5e6f cabd 88ca 75bd
00000220: 4d11 a4be a975 e6bc 1be5 b0bc adfc 2f3d
00000230: 2d6d 243e 3067 35be cf39 51be d535 adbe
00000240: 303f 5cbe 1159 233d 48fd 3f3e 9e03 c6bd
00000250: f791 fbbc 7506 4a3e cd8c 58be d31b 85bd
00000260: 861b 3dbd 1c2c 8f3d df7d 0a3d 2481 30bd
00000270: cee4 55bd b4d8 6bbe f7cd 45be abd6 683e
00000280: 92c0 833e 7c26 b6bd 6c47 c53c cbdb debd
00000290: 11ef a73e 1ca4 8fbc 0a2e 3ebe 4880 b1be
000002a0: 49bb 133d f1da 44bc fabf 2fbe d0a3 fc3a
000002b0: e5e0 c9bd 80cd 9dbe 7664 d1bd b7db e13b
000002c0: 3c0b 6cbe 9126 96bd 0de9 d73d 6308 7ebc
000002d0: 71d8 fbba fb6a 3ebd 1600 6cbd 435b 14be
000002e0: 47a5 74be 0efd 833e 2cf4 0cbd 03c9 c3bd
000002f0: 48a5 eb3d 34b5 863e 44d0 ab3d 5ec8 a93e
00000300: f2aa febd 48a5 95bd 57a8 93bd bea4 6d3e
00000310: 4453 3d3c d275 d3bc dafd d23c 6f93 9dbe
00000320: 01ec 0b3f 90bc c0bd e673 87be e03e a23e
00000330: f058 a83d 9670 e9bd 8024 b83e e655 0fbf
00000340: 28c0 04be a936 f43e dc64 0d3e 3934 44bc
00000350: 7e58 64bc 5318 0b3e 7a18 55bf d65c 0abe
00000360: 943e 3f3e 8fff 0e3e 6439 36be da7a 1cbe
00000370: b0aa 933e 1082 c5be 6047 e1bc bd51 a9be
00000380: 49f6 39bd fedc 9abd 1851 c6bd c644 51bd
00000390: 98fb a6be ce55 723d c020 5cbd 17fc dfbe
000003a0: ad34 4dbe ee46 77bd 9fa1 53be 3108 09bd
000003b0: 4c84 393d 2a51 cebe 62f8 41bd c693 87be
000003c0: 0b88 073e 45fc 143f f30d 523b ae5f 493e
000003d0: 81b7 06be 49f0 c43d a051 a6bd ad35 1abf
000003e0: 554d 2dbd 538c f3bd b029 253f 752a 493c
000003f0: f04c b2bd 94a6 bb3c 5ea7 a2bd 6acf adbe
-0.3685453 -0.28314996 -0.1894088 -0.28573227 -0.07200968 0.06406775 0.0240019 -0.07761327
0.2964588 0.14622925 -0.4208481 0.062410466 0.13825227 -0.054430116 -0.26520908 -0.19346154
-0.30445653 0.4131736 0.008483711 -0.22530013 0.25169635 -0.06106373 0.0030918585 -0.5043306
0.33410037 0.06357613 0.4220589 -0.2186682 -0.05471726 0.24230585 -0.106277674 -0.42683494
-0.1273954 -0.1278427 0.022137858 -0.10668483 0.18115014 0.17862898 0.3991697 -0.17975849
-0.10734145 -0.07110571 -0.17055796 -0.05532598 -0.017949635 -0.36885563 -0.033904452 -0.17790727
-0.17155026 -0.004275506 0.089501984 0.0071333596 0.31093287 0.08106057 0.13327952 -0.24687473
-0.22552833 0.3305332 0.13294637 -0.038246665 0.030308478 0.20220509 0.13288254 -0.22803661
-0.09664842 0.107015274 0.12562431 -0.015780764 0.3145125 -0.23593813 -0.21927072 -0.25767726
-0.37761012 -0.0007105965 -0.36487472 -0.035087086 -0.0003938981 -0.20153639 -0.13897282 -0.039637364
-0.42307973 0.18294863 0.2134629 -0.05694406 -0.20346901 0.0062728934 -0.3296432 -0.14710058
-0.48216712 0.18790269 0.55918324 0.072968684 0.10948843 -0.011158669 0.010447452 -0.30565247
-0.235149 -0.12915961 0.14670725 -0.0042175823 -0.16265757 -0.01390953 -0.14069702 -0.25229597
-0.2136817 0.09384787 -0.14450343 0.043475818 0.13491356 0.022557506 0.022228308 0.11696724
-0.19390474 0.31005841 0.041879755 -0.026294429 -0.30191678 0.08106023 0.0748043 0.030677218
-0.23066804 -0.23442714 -0.12725106 -0.07173152 0.34313548 0.41505256 -0.39364308 -0.046049025
-0.18701105 -0.03463027 0.11616636 -0.16792996 -0.1729717 -0.122667186 -0.09884523 -0.060007602
-0.3204445 -0.028132277 -0.021593621 0.04296558 0.16057272 -0.17715144 -0.20432208 -0.33830133
-0.21508479 0.039879862 0.18748963 -0.09668659 -0.03070925 0.19729026 -0.21147461 -0.06499448
-0.046168827 0.06990835 0.033811446 -0.043091908 -0.05222016 -0.23031884 -0.1931685 0.2273814
0.25732857 -0.08894059 0.024081908 -0.10881766 0.3279958 -0.017534308 -0.1857225 -0.34668183
0.03606728 -0.01201509 -0.17163077 0.0019274894 -0.09857348 -0.30820847 -0.102242395 0.006892647
-0.2305116 -0.07331575 0.10542498 -0.015504929 -0.0019214285 -0.046488743 -0.05761727 -0.14487939
-0.23891173 0.25779003 -0.034412548 -0.09559824 0.11506134 0.26310122 0.08389333 0.3316068
-0.12434949 -0.073069155 -0.07209843 0.23207375 0.011555497 -0.025813017 0.025755811 -0.30776545
0.5465699 -0.094109654 -0.2645561 0.31688595 0.082200885 -0.11398427 0.35965347 -0.55990446
-0.12963927 0.47697952 0.13808006 -0.0119753415 -0.013937114 0.13583498 -0.83240473 -0.13511977
0.18676215 0.13964675 -0.1779533 -0.15281239 0.28841162 -0.38575792 -0.027499855 -0.33070174
-0.04540089 -0.07561682 -0.09683436 -0.051090978 -0.32613826 0.05916386 -0.05374217 -0.43747017
-0.20039625 -0.06037038 -0.20667122 -0.033455078 0.045292184 -0.40296298 -0.047356017 -0.2647993
0.1323549 0.5819743 0.0032051771 0.19665405 -0.13155939 0.09616143 -0.081210375 -0.6023815
-0.042310078 -0.11891999 0.64516735 0.012278189 -0.08706081 0.02290658 -0.07942079 -0.33947307

relation_embed.weight f4 [116, 32]
00000000: 8c07 2ebd a549 c93c 7fde b43d 7e48 d1bd
00000010: 7ae3 99bd 6107 a33c da29 97bd 93cd 29bd
00000020: e04e ac3d 0f68 e4bd 0818 67bd 4ad7 0cbe
00000030: 9904 3c3d aa06 fb3d e341 cbbd a1b4 623d
00000040: 7f0f 56bd d6b5 003d 4efd 06bd 260f 00be
00000050: 746b 913d 7977 acbc 9d3e 1abd 25f2 603d
00000060: 22fd a0bd 305a 4b3d 606c 8a3d 05b5 b3bd
00000070: 1dff fcbd 8724 873d ae91 5ebd 7b51 65bd
00000080: 2b82 0e3d ffb1 103e f0ab bc3d 4b23 8c3d
00000090: 1634 d3bd cc28 3a30 35c9 7fbd 0ab8 85bd
000000a0: fb19 70bd 1553 88bd 2445 883d 3c3c 9abd
000000b0: 20a0 a2bb 6013 1ebc dded 5b3d af15 e3bb
000000c0: f575 803d 0e80 aabc 0b74 063c e93f a83d
000000d0: f4a1 37bd c4f3 a63a f53c f9bd 3193 003e
000000e0: 848b a4bd b781 1cbd 09a5 fabc d38d 9f3d
000000f0: 2885 a23c 4e1f 39bd 31bd bf3b 3da1 b53c
00000100: 723e 39bc 493e 0b3d aca2 1dbe 43f1 2c3c
00000110: 02f4 94bd 169f aa3c 3b94 223d 4b97 0b3d
00000120: 7c34 92bc f507 383c 28ff 163e 7c00 153e
00000130: 73e4 2c3c e50c 83bd c399 e93d 10fc e4bd
00000140: 409f dcbb bc35 5bbd fea4 00bd 9ac7 463c
00000150: 4bf8 a93c 9581 a0bc 892e f3bc 7e5f 303d
00000160: 4677 63bc 96e9 62bd b190 3abd cec2 19bd
00000170: 6d84 31bd 860b b3bc 5922 32bd 2dbc b13d
00000180: 5555 be3d a3f9 fabc 89ff 233d 5c3c fb3d
00000190: ad48 573d 271a 1dbd 0832 1fbd d471 21bd
000001a0: ef68 2abd bbb2 f33d 247d 423d 2b9c 5abd
000001b0: a3cf cb3d 781a 27bd db69 ac3d 1605 a0bd
000001c0: 2558 833d 284b 343d fa1a 133d 2a99 453b
000001d0: b2c9 3ebd 76bb 083d 39fc a4bd 4535 62bd
000001e0: 7b1a c6bc 0059 603d 2185 093d 35d5 fcbc
000001f0: 595d 1d3d c8e5 8b3d 05e0 bdbd f81a 6dbd
00000200: d9ca 69bd b279 ed3d 3ccb 213d d419 4abd
00000210: b6d6 07bd 6e6e 193e 7f88 1dbd e985 4ebd
00000220: 0dc6 c83b e04b 7c3d 7211 20bd 0217 e13d
00000230: e88b d73d d7f8 48bd 1e44 7bbd 0a2a 733d
00000240: 4257 94bd 5653 433d 0d81 253d 793d f73d
00000250: 871a 133c 01fe 3f3d 40a0 b3bc fdaa eb3d
00000260: 82a5 24bd 97ea 0c3d 3c27 363d d009 e8bc
00000270: 60c2 333d 605d 033c 3989 523d f762 a2bd
00000280: 4c84 bcbd efa5 5c3b 588b 72be 85b5 123d
00000290: f4e7 1e3d 5ecb 75bd 9af7 98bd bac5 323e
000002a0: 93d1 2e3d bc21 45bd f156 d1bd 3c7a 7cbd
000002b0: ef25 c7bd fa35 f7bd 6b32 8abd 01ea ebbd
000002c0: cd7f c63d 7aa0 183d e232 80bc 1bb4 76bd
000002d0: 5548 2f3e a0ca d73a 80b3 b93b 4b79 723d
000002e0: b9ca 6439 bd2d 863b 11f3 8ebd 7423 5ebd
000002f0: e560 72be edef d2bc fc50 4b3c 95b5 2cbd
00000300: 1426 863d ec92 43bd 7f75 3c3d 01ea 12bd
00000310: a61e c9bd fe9d 023e 0263 c93d 1750 4dbd
00000320: c048 c7bc 58ef 3bbd 0727 e23d eecf 4fbd
00000330: 9c5c 5abd 49c1 ef3d 4ecb 66bd 0434 b0bd
00000340: 05f9 afbd 8087 b7bd d448 02be 3280 42bd
00000350: d04e bc3d 45e6 263d 0e4d 713d 70b7 83bd
00000360: 178d 733c da39 a93d 00c3 9abd 3561 043e
00000370: 625a 533d c4a3 cebd 4b66 d2bd 8e9a ce3d
00000380: ee9f 83bd e0b8 1d3d caf3 623d 26e1 84bc
00000390: 174c 2ebe 455b b1bd 5ed3 13bd 30ef 553c
000003a0: 0631 673d 816c 6ebc dc0a 86bd 05d3 8abd
000003b0: 46cd d4bd 4ef2 c03d 34f7 d63d c46d 06be
000003c0: 50ca ae3d 1a7c 93bd 7d81 98bb 4494 a7bd
000003d0: 2355 2d3e ff2f bc3c 2816 763c cd3f c1bc
000003e0: 3d32 803e 9a44 26be 33da 6f3d cf82 a3bd
000003f0: 4f98 e73d 4b50 b23c 6fd0 05bd 2aba c2bd
-0.042487666 0.02457125 0.088315 -0.10218905 -0.07514091 0.01990098 -0.073810294 -0.041455816
0.08413482 -0.1115266 -0.056419402 -0.13754001 0.045902822 0.122571304 -0.09924676 0.055348042
-0.052260872 0.031423412 -0.032956414 -0.12505779 0.07100573 -0.021053063 -0.03765737 0.054918427
-0.07860781 0.049646556 0.06758952 -0.08774761 -0.123533465 0.06598764 -0.05433815 -0.05598591
0.034792107 0.141304 0.09212482 0.06842669 -0.10312669 6.772438e-10 -0.062447745 -0.06529243
-0.058618527 -0.06656472 0.066538125 -0.0753102 -0.004962936 -0.009648174 0.05369364 -0.006930075
0.062724985 -0.020813014 0.008206378 0.08215315 -0.044832185 0.0012737443 -0.1216983 0.12556149
-0.08034423 -0.038209643 -0.030596273 0.07790723 0.019838884 -0.04519587 0.005851411 0.022171611
-0.011306392 0.033994947 -0.15394086 0.010555568 -0.07273103 0.020827811 0.039692145 0.03407983
-0.017847292 0.011232366 0.14745772 0.14550966 0.010552513 -0.06398944 0.11406281 -0.111808896
-0.0067328513 -0.053518042 -0.03140735 0.01213255 0.020748278 -0.01959304 -0.029685276 0.04305982
-0.0138834175 -0.055398546 -0.045548145 -0.037539296 -0.04333918 -0.02185608 -0.043489788 0.0867847
0.092936195 -0.030636614 0.04003862 0.12267372 0.052559543 -0.03835502 -0.038866073 -0.039415196
-0.04160398 0.118993245 0.047482625 -0.05337159 0.09951713 -0.040796727 0.08418628 -0.0781347
0.064132966 0.044016987 0.0359144 0.0030151107 -0.04657907 0.0333819 -0.0805592 -0.055226583
-0.024182549 0.054772377 0.033574227 -0.030863384 0.0384191 0.06830937 -0.09271244 -0.057887048
-0.057078216 0.11595477 0.03950046 -0.049341038 -0.03316375 0.14983532 -0.03846025 -0.050420675
0.006127125 0.061595798 -0.039079137 0.109907165 0.10524732 -0.049065437 -0.06134426 0.059366263
-0.072432056 0.047686897 0.040406276 0.12072272 0.008978493 0.046873096 -0.021927 0.11507223
-0.040196903 0.03440341 0.04447101 -0.028324991 0.043886542 0.008017868 0.051400397 -0.07929032
-0.09204921 0.003366824 -0.23685968 0.03581764 0.038795426 -0.0600084 -0.07469101 0.17458239
0.042680334 -0.048127875 -0.10221661 -0.06164001 -0.09724032 -0.12070842 -0.06747898 -0.11519242
0.09692345 0.037262417 -0.015649263 -0.060230356 0.17117436 0.0016463585 0.00566715 0.059197705
0.00021819294 0.004094808 -0.06979955 -0.05423303 -0.23669775 -0.025749171 0.012409445 -0.042165358
0.065502316 -0.047747537 0.04601049 -0.035867695 -0.09820299 0.12755582 0.09833337 -0.050125208
-0.024326682 -0.045882553 0.110426 -0.050735407 -0.053310975 0.11706788 -0.05634623 -0.08603671
-0.085924186 -0.089613914 -0.12723094 -0.047485538 0.0919472 0.040746946 0.058911376 -0.06431472
0.014865181 0.082629874 -0.075567245 0.12927707 0.051599868 -0.100898296 -0.10273417 0.10088073
-0.064269885 0.03850639 0.055408277 -0.01622064 -0.17021213 -0.086599864 -0.036090247 0.013057515
0.056443237 -0.014552237 -0.0654504 -0.0677853 -0.10390715 0.09421216 0.10496369 -0.1312781
0.08534682 -0.07201405 -0.004654108 -0.08182576 0.16927008 0.022972105 0.015019931 -0.023589993
0.2503833 -0.16237107 0.0585577 -0.07983934 0.113083474 0.021766802 -0.03266948 -0.09508164
