Knowledge_Graph_Recommendation/recommendation/stage2/trained_model/Douban/GNN_based/nlayer2_dim32_TransR_lightgcn/model36_epoch20.pth (torch, 662471 bytes, 3 tensors)

trans_M f4 [116, 32, 32]
0	0x3bf53ef8	0.007484313
1	0xbc1ca0ac	-0.009559792
2	0x3d03a9f5	0.032144506
3	0x3ca24a34	0.019810773
4	0xbd0bcebf	-0.034132715
5	0xbbb16724	-0.0054139066
6	0x3b032300	0.0020009875
7	0x3ccf1a8e	0.025281217
8	0xbce19b13	-0.027539765
9	0xbc80627a	-0.015671957
10	0xbd10da3f	-0.035364386
11	0x3ca150da	0.019691873
12	0x3c9d59e4	0.019207902
13	0x3cb0f118	0.021599337
14	0x3bd8d298	0.0066169016
15	0x3d02ad25	0.031903405
16	0xbcf8bd4e	-0.030363705
17	0xbc937274	-0.017998911
18	0xbc0f01a2	-0.008728417
19	0x39f5dd16	0.00046894763
20	0x3c462a80	0.012095094
21	0xbca30bce	-0.01990309
22	0xbc1b8652	-0.009492474
23	0x3c8e2a38	0.017354116
24	0xbc3466ae	-0.011010809
25	0x3d1007cb	0.035163682
26	0xbc4afcda	-0.012389386
27	0x3c0c8734	0.008577157
28	0xbcf95800	-0.03043747
29	0x3c650834	0.013979007
30	0x3beeed50	0.0072914734
31	0xbbd8ccf8	-0.006616231
32	0x399c7423	0.00029841167
33	0x3ce33dc2	0.02773941
34	0x3c97df16	0.018538993
35	0x3ced5cea	0.028974969
36	0xbc0e52a8	-0.008686699
37	0xbcad26c2	-0.021136645
38	0xbca7dad0	-0.02049008
39	0xbd03fca0	-0.032223344
40	0xb98fcdcc	-0.00027428416
41	0xbd09ed65	-0.033673663
42	0x3c7d292c	0.015451711
43	0x3ce6cdfe	0.028174397
44	0x3b052fa0	0.0020322576
45	0x3cd635e0	0.026148736
46	0x3cdf98de	0.027294572
47	0xbc4dad04	-0.012553457
48	0xbc0cc658	-0.008592211
49	0x3d04437b	0.032290917
50	0xbcd40e11	-0.025885614
51	0xba6f74b3	-0.0009134516
52	0x3cba5e58	0.022750065
53	0xbcebe541	-0.02879584
54	0xbac703b5	-0.00151836
55	0x3c9bc480	0.019014597
56	0x3ba2d0f8	0.0049687587
57	0xbc90a86a	-0.017658431
58	0xbc41d8a2	-0.011831434
59	0x3d102b9f	0.03519785
60	0xbccf4eda	-0.025306154
61	0x3caa865e	0.020816024
62	0x3cdd0046	0.02697767
63	0xbc4f6370	-0.012657985
64	0xbb7ddd70	-0.0038736723
65	0xbcaa3732	-0.020778272
66	0x3c64eeec	0.013972979
67	0xbcabc628	-0.020968512
68	0xbbd16008	-0.0063896216
69	0x3d0c538d	0.034259368
70	0x3cdf1c82	0.027235273
71	0x3cbc4d60	0.022986114
72	0xbd04f6f8	-0.03246209
73	0x3cfb1a2a	0.030652124
74	0xbc5840e0	-0.013199061
75	0x3b83fb00	0.0040277243
76	0xbc535f10	-0.012901083
77	0x3d0984cf	0.03357392
78	0x3c1d741c	0.009610202
79	0xbcd5f270	-0.02611658
80	0xbce633df	-0.028100906
81	0xbc3101c2	-0.010803642
82	0x3c269ed4	0.0101697035
83	0x3c5c51e4	0.013447259
84	0xbd0df738	-0.034659594
85	0xbb98b2c4	-0.0046599824
86	0x3d006b89	0.031352554
87	0x3c51a64c	0.012795996
88	0xbd0b7dfb	-0.03405569
89	0xbd08aa7a	-0.033365704
90	0x3cdd7716	0.027034324
91	0xbc90aadc	-0.017659597
92	0xbcaa51b2	-0.020790908
93	0x3c573dc8	0.013137288
94	0xbcd5499f	-0.026036082
95	0xbc2f2d58	-0.010691963
96	0x3cc0f47c	0.02355408
97	0x3b2566d0	0.0025238283
98	0x3c18c7d0	0.009324983
99	0xbb315780	-0.002706021
100	0x3ce0daea	0.027448136
101	0x3cc2dd18	0.023787066
102	0xbc04078e	-0.008058442
103	0xbca59c0e	-0.020216014
104	0x3d093f49	0.03350762
105	0xbc180d1c	-0.009280469
106	0xbcc72162	-0.02430791
107	0xbcd7b5e2	-0.026331846
108	0x3a7d04d0	0.0009651901
109	0xbcde4a24	-0.027134962
110	0x3d10259f	0.03519213
111	0xbc193c70	-0.009352788
112	0xbc360d08	-0.011111505
113	0xba7c4f7c	-0.0009624881
114	0x3ca06cec	0.019583188
115	0xbc644310	-0.013932005
116	0x3b1fa130	0.002435755
117	0x3d0aaa2b	0.03385369
118	0xbcc6661e	-0.024218615
119	0xbc81f99f	-0.015866099
120	0xbcd1c4ac	-0.025606476
121	0x3c478224	0.012177024
122	0xbd0876e7	-0.03331652
123	0xbca49b25	-0.02009351
124	0x3cfa723e	0.030572053
125	0xbcdb055a	-0.02673595
126	0x3cbe9172	0.023262713
127	0xbcab0c5b	-0.020879915
128	0x3b9a10c0	0.004701704
129	0xbca7a0f6	-0.020462494
130	0x3cc961b2	0.024582718
131	0xbcdd28c5	-0.02699698
132	0xbc054c60	-0.008135885
133	0x3ad9e740	0.0016624704
134	0x3cba6ab8	0.022755966
135	0x3cb07500	0.021540165
136	0xbc83d9f2	-0.016095135
137	0xbbbad954	-0.005702177
138	0x3d035c0f	0.032070216
139	0xbce58cc3	-0.028021222
140	0x3ccd2704	0.025043018
141	0x3aaac3e0	0.0013028346
142	0xbcad0ce2	-0.021124307
143	0xbc98e109	-0.018661993
144	0x3ca24f94	0.019813336
145	0x3ce5196e	0.027966227
146	0xbac5983e	-0.0015075279
147	0x3cb4c03c	0.02206432
148	0x3c65517c	0.013996478
149	0x3c7fa70c	0.015603792
150	0xbc24ad42	-0.0100510735
151	0xbd001214	-0.03126724
152	0x3c171fb4	0.009223867
153	0x3cb7ba46	0.02242769
154	0xbc4276cc	-0.011869144
155	0xbb9f9ff4	-0.004871363
156	0xbc84225d	-0.016129667
157	0xbcb1f090	-0.021721154
158	0x3cfd5aba	0.03092705
159	0xbc860e0a	-0.016364116
160	0xbbb37be8	-0.0054774173
161	0xbca5b8fc	-0.020229809
162	0x3c3243b0	0.010880396
163	0x3b839058	0.00401501
164	0xbd01a514	-0.03165157
165	0xbc5cc266	-0.013474083
166	0xbc33aeca	-0.010966966
167	0x3cb4846e	0.022035804
168	0x3c055be4	0.008139584
169	0xbbaa1b2c	-0.0051912274
170	0xbcd9c82c	-0.026584707
171	0xbc20f92e	-0.009825034
172	0xbc0e26b8	-0.008676223
173	0x3d00afc1	0.031417612
174	0xbcd8b55a	-0.026453663
175	0x3c67906c	0.014133554
176	0x3bbd8420	0.005783573
177	0x3c185f64	0.009300087
178	0xb99b3177	-0.00029600758
179	0xbc156ad8	-0.009119712
180	0x3d0fcc81	0.03510714
181	0x3c4437b8	0.011976175
182	0x3c8cc7a6	0.017185044
183	0xbcc8aa2e	-0.02449521
184	0x3d053425	0.032520432
185	0xbc7bf654	-0.015378553
186	0x3c6b4fd0	0.0143622905
187	0xbc400bc2	-0.011721553
188	0xbad830e0	-0.0016494058
189	0x3cbaf9a0	0.022824109
190	0x3caba120	0.020950854
191	0x3c9b3026	0.018943857
192	0xbb8e0d78	-0.0043351017
193	0xbc9ed3f6	-0.01938818
194	0x3ba867a8	0.00513931
195	0x3d04d5d7	0.032430496
196	0x3c520c90	0.012820378
197	0xbccc164e	-0.02491298
198	0xbcd02e76	-0.02541278
199	0x3d019985	0.03164055
200	0xbc78d258	-0.015186869
201	0x3b3ee560	0.0029128417
202	0xbad40e60	-0.00161786
203	0x3c903ad8	0.017606184
204	0xbcefad33	-0.029257393
205	0xbd0ffd0b	-0.03515343
206	0xbc86dcbe	-0.01646268
207	0x3c88e994	0.016712941
208	0x3c166fc0	0.009181917
209	0x3d01c7f9	0.03168485
210	0xbbecf02c	-0.007230779
211	0xbbec80d8	-0.007217508
212	0xbc8a5a62	-0.016888801
213	0x3cab0cdc	0.020880155
214	0xbd10600b	-0.035247844
215	0x3c332cf4	0.010936011
216	0x3ca9f3a2	0.020746056
217	0x3cdd598e	0.027020242
218	0x3a343241	0.00068739435
219	0xbcdac57d	-0.026705498
220	0xbb6db0b0	-0.0036268644
221	0xbc388a96	-0.01126351
222	0x38e8e1d4	0.00011104686
223	0xbc95d571	-0.018290253
224	0x3bbc3038	0.005743053
225	0x3c86fdbc	0.016478412
226	0xbc8dc689	-0.017306583
227	0xbcc91f5b	-0.024551084
228	0x3bff0d90	0.007783599
229	0x3cda8a52	0.026677284
230	0xbc1105b4	-0.008851457
231	0xbc79f3c2	-0.01525587
232	0xbca91e84	-0.020644434
233	0xbcb0f709	-0.02160217
234	0xbc8c72c0	-0.01714456
235	0x3c8bbde6	0.017058324
236	0x3c1869ec	0.0093025975
237	0xbaa3c765	-0.0012495337
238	0x3cd3412a	0.025787909
239	0x3aa511bc	0.0012593786
240	0x3cd34920	0.025791705
241	0x3c7619c8	0.015020795
242	0x3cadef7e	0.021232363
243	0xbaef1386	-0.0018240071
244	0x3af04166	0.0018330037
245	0x3cced9c0	0.025250316
246	0x3cd1d02e	0.025611963
247	0xbc3196b8	-0.010839157
248	0xbce0b452	-0.027429733
249	0xbd044582	-0.03229285
250	0x3c712840	0.014719069
251	0xbd0d16e9	-0.034445677
252	0xbcfe7218	-0.031060264
253	0x3cf9ee72	0.030509207
254	0xbcdcc480	-0.026949167
255	0xbcda2d86	-0.026633035

entity_user_embed.weight f4 [1333, 32]
0	0xbe9ae6f4	-0.30254328
1	0xbe78812a	-0.24268022
2	0xbe302f1d	-0.17205472
3	0xbe859b4c	-0.26095045
4	0xbccfb65e	-0.025355514
5	0x3d25cf8d	0.04048114
6	0x3d10dce5	0.03536691
7	0xbda4612e	-0.08026348
8	0x3e69c4fe	0.22829053
9	0x3dfcbc35	0.12340585
10	0xbec5d794	-0.38641036
11	0x3d850794	0.06495586
12	0x3ddc43ff	0.10755157
13	0xbc8e5ced	-0.017378295
14	0xbe7c968e	-0.24666807
15	0xbe0960eb	-0.13415878
16	0xbe6e499f	-0.23270272
17	0x3eac9a1b	0.33711323
18	0x3ca099a5	0.019604513
19	0xbe49a51b	-0.19691889
20	0x3e6dd783	0.23226742
21	0xbd6fd2d5	-0.058550674
22	0x3ca1fd6a	0.019774158
23	0xbec25dc4	-0.37962162
24	0x3e797746	0.24361905
25	0x3dbc4531	0.09192885
26	0x3ec0d6cb	0.37663874
27	0xbe65d8d4	-0.22445995
28	0xbd81e2e6	-0.063421056
29	0x3e5d2d2c	0.21599263
30	0xbdd96a6c	-0.106160015
31	0xbeb0e586	-0.34550112
32	0xbd80bc86	-0.06285958
33	0xbdd4771f	-0.10374283
34	0x3dc325c3	0.09528687
35	0xbda061fc	-0.07831189
36	0x3e1c9bd9	0.15293826
37	0x3e3c58b1	0.18393208
38	0x3eb2a6de	0.34892935
39	0xbe32a2f0	-0.17444968
40	0xbd34f158	-0.044175476
41	0xbd7336c9	-0.05937842
42	0xbe069772	-0.1314371
43	0xbd6c4ad7	-0.05768856
44	0xbc88c60f	-0.016696004
45	0xbe8d4a42	-0.27595717
46	0xbbb37df4	-0.0054776613
47	0xbdee8f77	-0.116484575
48	0xbdf9c3ab	-0.12195524
49	0xbb982151	-0.0046426435
50	0x3d9694b5	0.07352582
51	0x3cb78684	0.02240301
52	0x3e74b912	0.23898724
53	0x3d813ab7	0.06310027
54	0x3dc09daa	0.09405072
55	0xbe83120a	-0.255997
56	0xbe5d8fc6	-0.21636876
57	0x3e8ab61c	0.27092063
58	0x3e0766b6	0.13222775
59	0xbd910cfc	-0.07082555
60	0x3dbb3263	0.0914047
61	0x3e3abedc	0.1823687
62	0x3e23b64c	0.1598751
63	0xbe270a6f	-0.16312574
64	0xbd594aac	-0.05304973
65	0x3ce31867	0.027721597
66	0x3e246f7a	0.1605815
67	0xbd22fd10	-0.03979212
68	0x3e45a7b2	0.19302252
69	0xbe69cf77	-0.22833048
70	0xbe627428	-0.22114623
71	0xbe803ecb	-0.25047907
72	0xbe8b5604	-0.27214062
73	0xbcfebf16	-0.031096976
74	0xbe8928fb	-0.26789078
75	0xbd74f820	-0.059806943
76	0x3d817333	0.06320801
77	0xbe176e5a	-0.1478819
78	0xbe1f1de5	-0.15538748
79	0xbd8e1790	-0.06938088
80	0xbe9bf417	-0.30459663
81	0x3e3c91b6	0.1841496
82	0x3e4d6863	0.20059352
83	0xbdc82ed7	-0.09774559
84	0xbe306198	-0.17224729
85	0x3d6518de	0.05593192
86	0xbe54ca60	-0.20780325
87	0xbe054c0a	-0.13017288
88	0xbec92d1c	-0.39292228
89	0x3e16323d	0.14667602
90	0x3eccb1fc	0.3997954
91	0xbc5691b1	-0.013096259
92	0x3e0168c6	0.12637624
93	0xbe00afc2	-0.12567046
94	0x3d9942a2	0.07483412
95	0xbe41709c	-0.18890613
96	0xbe010ebf	-0.12603281
97	0xbdc7abea	-0.09749587
98	0x3e14720d	0.14496632
99	0xbce85ff3	-0.028366065
100	0xbdcaee56	-0.0990874
101	0xbd3ccd7e	-0.04609441
102	0xbe1a5628	-0.15071929
103	0xbe493050	-0.19647336
104	0xbe33163a	-0.17488948
105	0x3da15819	0.078781314
106	0xbe0e99a6	-0.139258
107	0x3bf9da83	0.0076249256
108	0x3d8cad3d	0.0686898
109	0x3b89b218	0.0042021386
110	0xbb22c7c3	-0.0024838306
111	0x3d171df1	0.03689379
112	0xbe3534f8	-0.17695987
113	0x3e69dc42	0.22837928
114	0x3dbda44c	0.09259853
115	0xbd1781bb	-0.036988955
116	0xbe6e2a55	-0.23258336
117	0x3dbb426d	0.09143529
118	0x3d9e0d82	0.0771742
119	0xbcba7d9f	-0.022764979
120	0xbe404011	-0.1877444
121	0xbdefefae	-0.11715637
122	0xbdc96516	-0.09833734
123	0xbd4979f0	-0.049188554
124	0x3e8bf604	0.27336133
125	0x3e9ae860	0.30255413
126	0xbe96d16e	-0.29456657
127	0xbd0c0223	-0.034181725
128	0xbe45966f	-0.19295667
129	0xbd8b211e	-0.06793426
130	0x3dfd026f	0.1235398
131	0xbe0929f4	-0.1339491
132	0xbe408a4c	-0.18802756
133	0xbe01ba7f	-0.12668799
134	0xbd99f3db	-0.07517215
135	0xbd745dd4	-0.059659794
136	0xbe5f0c84	-0.21782118
137	0x3c3b9143	0.011448207
138	0xbd843530	-0.06455457
139	0x3c70e091	0.014701978
140	0x3e0eba14	0.1393817
141	0xbe1ff55f	-0.15620945
142	0xbe1cfade	-0.15330073
143	0xbe83a0e4	-0.25708687
144	0xbe1e3858	-0.15451181
145	0x3b13ceb8	0.0022553634
146	0x3e11dfa7	0.14245473
147	0xbdd09506	-0.10184674
148	0xbdb4ad3f	-0.088221066
149	0x3e0e32d7	0.13886581
150	0xbe582f3b	-0.21111767
151	0xbd287f6d	-0.041137148
152	0xbcbcd4ea	-0.023050744
153	0x3d0c0b40	0.034190416
154	0x3cee2fd6	0.029075544
155	0xbd85a537	-0.06525653
156	0xbcaf47c2	-0.021396521
157	0xbe077faa	-0.13232294
158	0xbe2fc27e	-0.17164037
159	0x3e2f665b	0.1712889
160	0x3e23066a	0.15920416
161	0xbdda71b8	-0.106662214
162	0x3dd010ee	0.10159479
163	0xbddd5765	-0.10807685
164	0x3e8549a4	0.26032746
165	0xbd1aba6d	-0.037775446
166	0xbe0b81f8	-0.13623798
167	0xbe662887	-0.22476397
168	0x3c6e1dc2	0.014533462
169	0xbd004da8	-0.03132406
170	0xbdf7ec07	-0.121055655
171	0xb8dce033	-0.00010532178
172	0xbd96bca5	-0.073602
173	0xbe3df3bf	-0.18550013
174	0xbdb7efcc	-0.089812845
175	0x3b93b6c2	0.0045078704
176	0xbe1dbc92	-0.15403965
177	0xbd3e0186	-0.04638817
178	0x3deb53e4	0.1149061
179	0xbd1a767d	-0.037710655
180	0x3d89b85e	0.067246184
181	0xbc9121dc	-0.01771634
182	0x3b4b908c	0.0031061498
183	0xbe150bce	-0.14555284
184	0xbe43db82	-0.19126704
185	0x3e378127	0.17920361
186	0xbbb67fc5	-0.0055694305
187	0xbdb59799	-0.088668056
188	0x3ded154e	0.11576329
189	0x3e2e64e0	0.17030668
190	0x3df01b19	0.117239185
191	0x3dd8475a	0.10560484
192	0xbe09912d	-0.13434286
193	0xbda4b4dd	-0.080423094
194	0x3c3dc334	0.011582185
195	0x3e5a795c	0.21335357
196	0x3c54e4dc	0.012994017
197	0xbd847ba5	-0.06468896
198	0xbd6af739	-0.057364676
199	0xbe6dbc04	-0.23216254
200	0x3ee2a9f8	0.442703
201	0xbe0598c7	-0.13046561
202	0xbe4bb6a5	-0.19893892
203	0x3e8128a8	0.2522633
204	0x3deaac24	0.114586145
205	0xbdffe941	-0.124956615
206	0x3e9929a3	0.2991458
207	0xbed51bc2	-0.4162274
208	0xbd89c0cd	-0.06726227
209	0x3ec9b3cb	0.39394984
210	0x3de97935	0.114000715
211	0xbd01e3f8	-0.03171155
212	0xbdebc349	-0.11511857
213	0x3e24e4fc	0.16102976
214	0xbf28120e	-0.6565255
215	0xbdc7d850	-0.09758055
216	0x3dfaaf5b	0.12240478
217	0x3d9262bb	0.071477376
218	0xbe0456c4	-0.12923723
219	0xbe1352d0	-0.14387059
220	0x3e88fccf	0.26755378
221	0xbea32624	-0.31865036
222	0x3cc4f939	0.02404462
223	0xbead4e99	-0.33849028
224	0xbd18ae4e	-0.037275605
225	0xbd2f65eb	-0.042821806
226	0xbd6dcde1	-0.05805767
227	0xbc8bda63	-0.017071908
228	0xbe782b88	-0.24235356
229	0x3cb9eabe	0.022694942
230	0xbd7ecd2e	-0.062207393
231	0xbebda33b	-0.37038597
232	0xbdd470af	-0.10373055
233	0xbd13eabc	-0.036112532
234	0xbe44d871	-0.19223191
235	0xba9cfc4f	-0.0011977049
236	0xbd3b997a	-0.045800664
237	0xbe9efcc0	-0.31052208
238	0xbcd9a2b6	-0.026566844
239	0xbde87ce1	-0.11351944
240	0x3de5bd7e	0.112177834
241	0x3edede24	0.43528855
242	0x3bb951ea	0.005655517
243	0x3e26504a	0.16241565
244	0xbdf60f5d	-0.12014649
245	0x3d9c0d1a	0.076196864
246	0xbd4823e6	-0.04886236
247	0xbedf6951	-0.43635038
248	0xbe13a2ee	-0.14417621
249	0xbd50cbf0	-0.05097574
250	0x3ee3fdf2	0.44529682
251	0x3af2b3a7	0.0018516675
252	0xbbf07f36	-0.0073393835
253	0x3caf6d7d	0.021414513
254	0x3b054bbf	0.0020339338
255	0xbe8f8b76	-0.28036088

relation_embed.weight f4 [116, 32]
0	0xbd38dc2d	-0.04513185
1	0x3d3e8e5d	0.046522487
2	0x3da3dd21	0.08001161
3	0xbde4a1c6	-0.11163668
4	0xbd99a2b3	-0.075017355
5	0x3d192404	0.037387863
6	0xbd9c00f5	-0.0761737
7	0xbd37a497	-0.0448347
8	0x3d91e937	0.0712456
9	0xbdccdda9	-0.10003216
10	0xbd98b25e	-0.07455896
11	0xbe036406	-0.12831125
12	0x3d218fc1	0.039443735
13	0x3dcf39c9	0.101184435
14	0xbddb822e	-0.10718189
15	0x3d7adf15	0.061247904
16	0xbd65edfc	-0.056135163
17	0x3cc3725c	0.023858242
18	0xbd1b0b19	-0.03785238
19	0xbe02da34	-0.1277855
20	0x3d9de6c1	0.077100284
21	0xbd0a598b	-0.0337768
22	0xbd029cbe	-0.031887762
23	0x3d847675	0.064679064
24	0xbd6c6b46	-0.05771949
25	0x3d422369	0.04739705
26	0x3d638133	0.055543136
27	0xbdc4d1d9	-0.09610338
28	0xbde66e1a	-0.11251469
29	0x3d656281	0.056002144
30	0xbd8a36bf	-0.06748723
31	0xbd31956e	-0.043355398
32	0x3d0a5ba3	0.033778798
33	0x3e0114cf	0.12605594
34	0x3db87a4e	0.09007703
35	0x3d75a0db	0.059967857
36	0xbdd24f65	-0.102690496
37	0xbb098040	-0.0020980984
38	0xbd91cbab	-0.07118925
39	0xbd8ccad1	-0.06874622
40	0xbd3cc334	-0.046084598
41	0xbda8a1d6	-0.08233993
42	0x3d630eb2	0.055433936
43	0xbd98d0d0	-0.07461703
44	0xbbd73b69	-0.0065683615
45	0xbc19603d	-0.009361324
46	0x3d84ecd9	0.064904876
47	0xbbcea420	-0.0063061863
48	0x3d78f9a5	0.060784955
49	0xbcc4d07d	-0.024025196
50	0x3c9c576d	0.019084657
51	0x3d85857f	0.06519603
52	0xbd07eb6f	-0.03318351
53	0x3abf99f3	0.0014618024
54	0xbde33b5a	-0.11095305
55	0x3df24f08	0.1183148
56	0xbdb34f18	-0.0875532
57	0xbd078a13	-0.033090662
58	0xbc8a2fbd	-0.016868467
59	0x3d8c7db6	0.06859915
60	0x3c974456	0.018465202
61	0xbccefc6b	-0.025266847
62	0x3bfe9709	0.0077694696
63	0x3c93fb91	0.018064292
64	0x3cdbc431	0.02682695
65	0x3d08c026	0.033386372
66	0xbdd17972	-0.10228242
67	0xbcea7e70	-0.028624743
68	0xbd9f0852	-0.07765259
69	0x3c1911f0	0.009342656
70	0x3ced080a	0.028934497
71	0x3d19543d	0.03743385
72	0xbcdf9a6d	-0.027295316
73	0x3cac547e	0.021036383
74	0x3e0861e1	0.13318588
75	0x3df701e8	0.120609105
76	0x3cd2f8b1	0.02575335
77	0xbd19d5fa	-0.03755758
78	0x3dc5cb9b	0.09657975
79	0xbdb1ec90	-0.08687699
80	0xbaf348e2	-0.001856115
81	0xbd5569a7	-0.05210271
82	0xbc8c0ef6	-0.017096978
83	0x3c4fc6e0	0.012681693
84	0x3d290162	0.041261084
85	0xbc7bb5c6	-0.015363162
86	0xbcd320ff	-0.02577257
87	0x3d131603	0.035909664
88	0xbc9ad7d4	-0.018901743
89	0xbd66f664	-0.05638732
90	0xbd0bc714	-0.034125403
91	0xbd1893cb	-0.03725032
92	0xbcf60118	-0.030029818
93	0xbc9b1a23	-0.018933361
94	0xbd09e401	-0.033664707
95	0x3dc44594	0.095835835
96	0x3dae6a09	0.08516318
97	0xbcd40a8c	-0.025883935
98	0x3d07cf00	0.033156395
99	0x3dd999e9	0.10625059
100	0x3d8dba7e	0.06920336
101	0xbd1222d4	-0.035677746
102	0xbccaf481	-0.024774792
103	0xbd23f590	-0.04002911
104	0xbd74388b	-0.059624236
105	0x3dde22ac	0.10846457
106	0x3d3fc297	0.046816435
107	0xbd465835	-0.048423965
108	0x3dac37c3	0.08409073
109	0xbd226e6b	-0.039656084
110	0x3db37c84	0.08763984
111	0xbd847927	-0.064684205
112	0x3d8ed758	0.06974667
113	0x3d1ba813	0.038002085
114	0x3d0a0057	0.03369173
115	0xbad3caf6	-0.001615851
116	0xbd54c734	-0.051947787
117	0x3d05a142	0.03262449
118	0xbd93e921	-0.072222
119	0xbd51f619	-0.051260088
120	0xbd0b4f0a	-0.034010924
121	0x3d8b71be	0.06808804
122	0x3d498e05	0.049207706
123	0xbcfd3b37	-0.030912025
124	0x3d0d971e	0.034567945
125	0x3d6a40bf	0.057190653
126	0xbdacad21	-0.08431459
127	0xbd4b0e8e	-0.049574427
128	0xbd3df51a	-0.046376325
129	0x3dbcc1b1	0.09216631
130	0x3d12c0ee	0.035828523
131	0xbd45588e	-0.048180155
132	0xbd31c596	-0.043401323
133	0x3dfa823c	0.122318715
134	0xbd1f82f9	-0.038943265
135	0xbd2e0900	-0.04248905
136	0x3cb937b0	0.022609562
137	0x3d949551	0.07255042
138	0xbd24ecc9	-0.04026488
139	0x3dbf27b3	0.09333744
140	0x3db194de	0.08670972
141	0xbd24f803	-0.040275585
142	0xbd3ec922	-0.046578534
143	0x3da55880	0.08073521
144	0xbd7ed50f	-0.062214907
145	0x3d21b309	0.03947738
146	0x3d2d9147	0.042374875
147	0x3dd15899	0.10221977
148	0x3d10913e	0.035294764
149	0x3d263e44	0.040586725
150	0xbd21b155	-0.039475758
151	0x3dde19fd	0.108448006
152	0xbd1ea490	-0.038731158
153	0x3d4c1080	0.049820423
154	0x3d33b1ae	0.04387062
155	0xbd0a32c3	-0.033739816
156	0x3d28a866	0.041176222
157	0x3cf81b71	0.030286523
158	0x3d641710	0.055686057
159	0xbd977967	-0.073962025
160	0xbdaa78e7	-0.083238415
161	0x3cacdd6d	0.021101678
162	0xbe520ddf	-0.20513104
163	0x3d9f90f5	0.0779132
164	0x3df181b4	0.11792317
165	0xbd9c01d7	-0.076175384
166	0xbdabcf51	-0.08389152
167	0x3e2245e0	0.15846968
168	0x3d633fb3	0.05548067
169	0xbd325b95	-0.04354437
170	0xbdcc6900	-0.09980965
171	0xbd59a08f	-0.053131636
172	0xbdc01a90	-0.093800664
173	0xbdbb08f4	-0.09132567
174	0xbd4f15cc	-0.050557896
175	0xbdce39d4	-0.100696236
176	0x3e00e016	0.12585482
177	0x3cee8c73	0.029119706
178	0xbc116766	-0.00887475
179	0xbd9ba49e	-0.075997576
180	0x3e240901	0.1601906
181	0xbcab5066	-0.02091236
182	0xbbeebbbc	-0.0072855633
183	0x3d448d69	0.04798642
184	0x3d6902db	0.05688749
185	0x3d345489	0.04402593
186	0xbd870215	-0.06592194
187	0xbd56a52a	-0.052403606
188	0xbe67b71f	-0.22628449
189	0xbce2fff5	-0.02770994
190	0x3c21ded9	0.009879791
191	0xbd1d42c4	-0.03839375
192	0x3d4ee3f6	0.05051037
193	0xbd379c24	-0.04482664
194	0x3d29a82a	0.04142014
195	0xbd0bb080	-0.03410387
196	0xbdc1858f	-0.094493024
197	0x3e0e66ad	0.13906355
198	0x3da234f5	0.07920257
199	0xbd8e15d2	-0.06937756
200	0xbccf294b	-0.025288245
201	0xbd0bb19e	-0.034104936
202	0x3dd2f241	0.103001125
203	0xbd3b134f	-0.04567271
204	0xbd57a05b	-0.05264316
205	0x3de6bc11	0.112663396
206	0xbd488770	-0.04895729
207	0xbda5de39	-0.08099026
208	0xbda9d2a5	-0.082921304
209	0xbdc5cd32	-0.096582785
210	0xbe0afa3f	-0.13572024
211	0xbd2ef3ca	-0.042712964
212	0x3dc17740	0.09446573
213	0x3d2478f2	0.040154405
214	0x3d5128a2	0.05106414
215	0xbd8d9edb	-0.06915065
216	0x3cda7e81	0.02667165
217	0x3d9b474c	0.07581958
218	0xbdb52170	-0.08844268
219	0x3e04c589	0.12965979
220	0x3d763817	0.060112085
221	0xbdccc7b6	-0.09999029
222	0xbdc7f849	-0.097641535
223	0x3da1c57b	0.078989945
224	0xbd9f9a1f	-0.07793068
225	0x3cbccec9	0.023047822
226	0x3d17a6aa	0.037024178
227	0xbc00918a	-0.007847199
228	0xbe0b1ddc	-0.13585609
229	0xbde8ea16	-0.11372773
230	0xbdbfb09b	-0.09359857
231	0xbde1eefb	-0.1103191
232	0x3d85e633	0.06538048
233	0xbc62e91f	-0.013849526
234	0xbd756c2c	-0.059917614
235	0xbd997d09	-0.07494552
236	0xbdbfcd1a	-0.09365292
237	0x3dc831e2	0.097751394
238	0x3dcaae68	0.098965466
239	0xbdb54764	-0.08851507
240	0x3e0ed857	0.13949715
241	0xbd5d1d0f	-0.05398279
242	0x396e6c54	0.00022737804
243	0xbd82e801	-0.063919075
244	0x3e3a14ad	0.1817195
245	0x3c972e4e	0.018454697
246	0xbb9936ae	-0.004675708
247	0xbda41f03	-0.080137275
248	0x3e4ef5b6	0.20210919
249	0xbe05b43d	-0.13057037
250	0x3d105715	0.035239298
251	0xbd98efc8	-0.0746761
252	0x3dd341e9	0.10315306
253	0x3cceaff5	0.025230387
254	0xbdada1e0	-0.08478141
255	0xbdf6b5ae	-0.120463714
