Knowledge_Graph_Recommendation/recommendation/stage2/trained_model/GNN_based.pth (torch, 662471 bytes, 3 tensors)

trans_M f4 [116, 32, 32]
0.007484313 -0.009559792 0.032144506 0.019810773 -0.034132715 -0.0054139066 0.0020009875 0.025281217
-0.027539765 -0.015671957 -0.035364386 0.019691873 0.019207902 0.021599337 0.0066169016 0.031903405
-0.030363705 -0.017998911 -0.008728417 0.0004689477 0.012095094 -0.01990309 -0.009492474 0.017354116
-0.011010809 0.035163682 -0.012389386 0.008577157 -0.03043747 0.013979007 0.0072914734 -0.006616231
0.00029841316 0.02773941 0.018538993 0.028974969 -0.008686699 -0.021136645 -0.02049008 -0.032223344
-0.0002742839 -0.033673663 0.015451711 0.028174397 0.0020322574 0.026148736 0.027294572 -0.012553457
-0.008592211 0.032290917 -0.025885614 -0.00091345276 0.022750065 -0.02879584 -0.0015183596 0.019014597
0.0049687587 -0.017658431 -0.011831434 0.03519785 -0.025306154 0.020816024 0.02697767 -0.012657985
-0.0038736723 -0.020778272 0.013972979 -0.020968512 -0.0063896216 0.034259368 0.027235273 0.022986114
-0.03246209 0.030652124 -0.013199061 0.0040277243 -0.012901083 0.03357392 0.009610202 -0.02611658
-0.028100906 -0.010803642 0.0101697035 0.013447259 -0.034659594 -0.0046599824 0.031352554 0.012795996
-0.03405569 -0.033365704 0.027034324 -0.017659597 -0.020790908 0.013137288 -0.026036082 -0.010691963
0.02355408 0.0025238283 0.009324983 -0.002706021 0.027448136 0.023787066 -0.008058442 -0.020216014
0.03350762 -0.009280469 -0.02430791 -0.026331846 0.00096518954 -0.027134962 0.03519213 -0.009352788
-0.011111505 -0.0009624881 0.019583188 -0.013932005 0.002435755 0.03385369 -0.024218615 -0.015866099
-0.025606476 0.012177024 -0.03331652 -0.02009351 0.030572053 -0.02673595 0.023262713 -0.020879915
0.004701704 -0.020462494 0.024582718 -0.02699698 -0.008135885 0.0016624711 0.022755966 0.021540165
-0.016095135 -0.005702177 0.032070216 -0.028021222 0.025043018 0.0013028346 -0.021124307 -0.018661993
0.019813336 0.027966227 -0.0015075279 0.02206432 0.013996478 0.015603792 -0.0100510735 -0.03126724
0.009223867 0.02242769 -0.011869144 -0.004871363 -0.016129667 -0.021721154 0.03092705 -0.016364116
-0.0054774173 -0.020229809 0.010880396 0.00401501 -0.03165157 -0.013474083 -0.010966966 0.022035804
0.008139584 -0.0051912274 -0.026584707 -0.009825034 -0.008676223 0.031417612 -0.026453663 0.014133554
0.005783573 0.009300087 -0.00029600784 -0.009119712 0.03510714 0.011976175 0.017185044 -0.02449521
0.032520432 -0.015378553 0.0143622905 -0.011721553 -0.0016494058 0.022824109 0.020950854 0.018943857
-0.0043351017 -0.01938818 0.00513931 0.032430496 0.012820378 -0.02491298 -0.02541278 0.03164055
-0.015186869 0.0029128417 -0.00161786 0.017606184 -0.029257393 -0.03515343 -0.01646268 0.016712941
0.009181917 0.03168485 -0.007230779 -0.007217508 -0.016888801 0.020880155 -0.035247844 0.010936011
0.020746056 0.027020242 0.00068739435 -0.026705498 -0.0036268644 -0.01126351 0.00011104614 -0.018290253
0.005743053 0.016478412 -0.017306583 -0.024551084 0.007783599 0.026677284 -0.008851457 -0.01525587
-0.020644434 -0.02160217 -0.01714456 0.017058324 0.0093025975 -0.0012495321 0.025787909 0.0012593786
0.025791705 0.015020795 0.021232363 -0.0018240071 0.0018330037 0.025250316 0.025611963 -0.010839157
-0.027429733 -0.03229285 0.014719069 -0.034445677 -0.031060264 0.030509207 -0.026949167 -0.026633035
00000000: f83e f53b aca0 1cbc f5a9 033d 344a a23c
00000010: bfce 0bbd 2467 b1bb 0023 033b 8e1a cf3c
00000020: 139b e1bc 7a62 80bc 3fda 10bd da50 a13c
00000030: e459 9d3c 18f1 b03c 98d2 d83b 25ad 023d
00000040: 4ebd f8bc 7472 93bc a201 0fbc 18dd f539
00000050: 802a 463c ce0b a3bc 5286 1bbc 382a 8e3c
00000060: ae66 34bc cb07 103d dafc 4abc 3487 0c3c
00000070: 0058 f9bc 3408 653c 50ed ee3b f8cc d8bb
00000080: 5674 9c39 c23d e33c 16df 973c ea5c ed3c
00000090: a852 0ebc c226 adbc d0da a7bc a0fc 03bd
000000a0: c3cd 8fb9 65ed 09bd 2c29 7d3c fecd e63c
000000b0: 9f2f 053b e035 d63c de98 df3c 04ad 4dbc
000000c0: 58c6 0cbc 7b43 043d 110e d4bc c774 6fba
000000d0: 585e ba3c 41e5 ebbc b203 c7ba 80c4 9b3c
000000e0: f8d0 a23b 6aa8 90bc a2d8 41bc 9f2b 103d
000000f0: da4e cfbc 5e86 aa3c 4600 dd3c 7063 4fbc
00000100: 70dd 7dbb 3237 aabc ecee 643c 28c6 abbc
00000110: 0860 d1bb 8d53 0c3d 821c df3c 604d bc3c
00000120: f8f6 04bd 2a1a fb3c e040 58bc 00fb 833b
00000130: 105f 53bc cf84 093d 1c74 1d3c 70f2 d5bc
00000140: df33 e6bc c201 31bc d49e 263c e451 5c3c
00000150: 38f7 0dbd c4b2 98bb 896b 003d 4ca6 513c
00000160: fb7d 0bbd 7aaa 08bd 1677 dd3c dcaa 90bc
00000170: b251 aabc c83d 573c 9f49 d5bc 582d 2fbc
00000180: 7cf4 c03c d066 253b d0c7 183c 8057 31bb
00000190: eada e03c 18dd c23c 8e07 04bc 0e9c a5bc
000001a0: 493f 093d 1c0d 18bc 6221 c7bc e2b5 d7bc
000001b0: c604 7d3a 244a debc 9f25 103d 703c 19bc
000001c0: 080d 36bc 7c4f 7cba ec6c a03c 1043 64bc
000001d0: 30a1 1f3b 2baa 0a3d 1e66 c6bc 9ff9 81bc
000001e0: acc4 d1bc 2482 473c e776 08bd 259b a4bc
000001f0: 3e72 fa3c 5a05 dbbc 7291 be3c 5b0c abbc
00000200: c010 9a3b f6a0 a7bc b261 c93c c528 ddbc
00000210: 604c 05bc 46e7 d93a b86a ba3c 0075 b03c
00000220: f2d9 83bc 54d9 babb 0f5c 033d c38c e5bc
00000230: 0427 cd3c e0c3 aa3a e20c adbc 09e1 98bc
00000240: 944f a23c 6e19 e53c 3e98 c5ba 3cc0 b43c
00000250: 7c51 653c 0ca7 7f3c 42ad 24bc 1412 00bd
00000260: b41f 173c 46ba b73c cc76 42bc f49f 9fbb
00000270: 5d22 84bc 90f0 b1bc ba5a fd3c 0a0e 86bc
00000280: e87b b3bb fcb8 a5bc b043 323c 5890 833b
00000290: 14a5 01bd 66c2 5cbc caae 33bc 6e84 b43c
000002a0: e45b 053c 2c1b aabb 2cc8 d9bc 2ef9 20bc
000002b0: b826 0ebc c1af 003d 5ab5 d8bc 6c90 673c
000002c0: 2084 bd3b 645f 183c 8031 9bb9 d86a 15bc
000002d0: 81cc 0f3d b837 443c a6c7 8c3c 2eaa c8bc
000002e0: 2534 053d 54f6 7bbc d04f 6b3c c20b 40bc
000002f0: e030 d8ba a0f9 ba3c 20a1 ab3c 2630 9b3c
00000300: 780d 8ebb f6d3 9ebc a867 a83b d7d5 043d
00000310: 900c 523c 4e16 ccbc 762e d0bc 8599 013d
00000320: 58d2 78bc 60e5 3e3b 600e d4ba d83a 903c
00000330: 33ad efbc 0bfd 0fbd bedc 86bc 94e9 883c
00000340: c06f 163c f9c7 013d 2cf0 ecbb d880 ecbb
00000350: 625a 8abc dc0c ab3c 0b60 10bd f42c 333c
00000360: a2f3 a93c 8e59 dd3c 4132 343a 7dc5 dabc
00000370: b0b0 6dbb 968a 38bc 71e1 e838 71d5 95bc
00000380: 3830 bc3b bcfd 863c 89c6 8dbc 5b1f c9bc
00000390: 900d ff3b 528a da3c b405 11bc c2f3 79bc
000003a0: 841e a9bc 09f7 b0bc c072 8cbc e6bd 8b3c
000003b0: ec69 183c 57c7 a3ba 2a41 d33c bc11 a53a
000003c0: 2049 d33c c819 763c 7eef ad3c 8613 efba
000003d0: 6641 f03a c0d9 ce3c 2ed0 d13c b896 31bc
000003e0: 52b4 e0bc 8245 04bd 4028 713c e916 0dbd
000003f0: 1872 febc 72ee f93c 80c4 dcbc 862d dabc

entity_user_embed.weight f4 [1333, 32]
-0.42498553 -0.35264596 -0.21756285 -0.30937967 -0.18496552 0.08875956 -0.008312392 -0.064381175
0.28324023 0.12837057 -0.49720085 0.05351808 0.16768906 -0.058021028 -0.29714826 -0.26658657
-0.34625527 0.50650406 0.024618138 -0.25137055 0.23347777 -0.0322919 0.024728792 -0.56937176
0.41627502 0.06878215 0.43971428 -0.23561914 -0.07482745 0.29209486 -0.11224124 -0.485213
-0.1433327 -0.11342293 -0.026177876 -0.09825596 0.20556594 0.20519036 0.47139373 -0.21286523
-0.10215073 -0.053441342 -0.20384519 -0.07810202 0.0146095 -0.47260934 -0.051925883 -0.12646656
-0.25511247 0.01974036 0.089517236 0.013676632 0.37235272 0.10266377 0.19245097 -0.28586218
-0.25472757 0.43143278 0.08667614 -0.020731557 0.026747048 0.24255453 0.123716906 -0.29529837
-0.18940242 0.13864604 0.07417147 -0.01488176 0.3674242 -0.17878225 -0.21890706 -0.25822362
-0.48474386 0.023342539 -0.44464394 0.016677514 -0.03014897 -0.24271555 -0.13637745 -0.10651625
-0.48934373 0.25352153 0.2298192 -0.026975835 -0.24005286 -0.009684338 -0.4101998 -0.14666723
-0.53758264 0.20573385 0.7257641 0.14454013 0.09642365 0.024722002 0.0064837127 -0.36041445
-0.31620175 -0.13271448 0.16881147 0.010730283 -0.20461169 -0.0086699175 -0.118716165 -0.3070869
-0.2316476 0.094631106 -0.17506437 0.042395994 0.20392434 0.06393608 0.024883661 0.10493401
-0.22518985 0.39600834 0.035732616 -0.013476502 -0.3490173 0.092984065 0.02524133 0.08029809
-0.2567232 -0.30652863 -0.15912855 -0.10886646 0.33606192 0.5229821 -0.4216535 -0.07694485
-0.20885958 -0.07123592 0.12878467 -0.20222631 -0.18285848 -0.14443152 -0.16199814 -0.046992797
-0.44085678 -0.08553272 -0.025876055 0.04548727 0.17930877 -0.21217838 -0.2649423 -0.42478693
-0.24613625 0.11246645 0.2500755 -0.13371177 -0.015847964 0.26852483 -0.21179107 -0.067201026
-0.06022109 0.058663487 0.019250192 -0.08869081 -0.061153144 -0.30217892 -0.192853 0.2740846
0.31407866 -0.11721405 0.02789622 -0.14903995 0.3970328 -0.050257407 -0.25559333 -0.41637832
0.05045533 -0.019521499 -0.21825467 -0.025609467 -0.096112244 -0.35304314 -0.12996617 -0.08139893
-0.2710272 -0.15161507 0.12471263 -0.017072167 -0.03120119 -0.023314323 -0.16468023 -0.12913729
-0.26848152 0.1872422 -0.088947505 -0.13009614 0.08006265 0.3177694 0.11700888 0.44076237
-0.121117964 -0.05131445 -0.12398441 0.22688903 -0.0390906 -0.015733391 0.058426276 -0.34343034
0.6123711 -0.088960856 -0.30977428 0.35975093 0.050623644 -0.07792582 0.39151922 -0.66570145
-0.1711002 0.5146236 0.15502052 -0.021075454 0.091863416 0.124690466 -0.9669357 -0.173445
0.23115341 0.23286036 -0.18861715 -0.14336832 0.26157108 -0.44894484 -0.093931645 -0.3067944
-0.04214645 -0.09716819 -0.12518728 -0.06321878 -0.3484619 0.083338566 -0.042235874 -0.46858564
-0.32350278 -0.071425505 -0.19200969 -0.050198153 0.06548009 -0.45020378 -0.044463083 -0.33948207
0.06813264 0.6627916 0.009175979 0.2735282 -0.12941347 0.09929121 -0.070556 -0.69831693
0.10298183 -0.11199625 0.79061556 0.014265919 -0.12153569 0.026123231 -0.09470086 -0.40583178
00000000: b497 d9be 038e b4be ccc8 5ebe 0367 9ebe
00000010: 9a67 3dbe 92c7 b53d b330 08bc 47da 83bd
00000020: dd04 913e 9373 033e 1c91 febe c635 5b3d
00000030: aeb6 2b3e 75a7 6dbd d123 98be 097e 88be
00000040: 5f48 b1be 40aa 013f faab c93c a4b3 80be
00000050: cc14 6f3e 8344 04bd 0994 ca3c 59c2 11bf
00000060: 0022 d53e a8dd 8c3d 3b22 e13e 2546 71be
00000070: 223f 99bd 758d 953e bcde e5bd d76d f8be
00000080: cfc5 12be 484a e8bd fc72 d6bc 6c3a c9bd
00000090: e17f 523e 6c1d 523e 855a f13e 58f9 59be
000000a0: 6734 d1bd 4fe5 5abd cbbc 50be f4f3 9fbd
000000b0: af5c 6f3c daf9 f1be 3cb0 54bd 7380 01be
000000c0: 1a9e 82be 89b6 a13c d054 b73d f413 603c
000000d0: 04a5 be3e 6241 d23d de11 453e 875c 92be
000000e0: a76b 82be c2e4 dc3e 4383 b13d 3ad5 a9bc
000000f0: a01c db3c 3760 783e 4a5f fd3d 5931 97be
00000100: b5f2 41be 3af9 0d3e 36e7 973d a0d2 73bc
00000110: 061f bc3e b212 37be 2c29 60be e335 84be
00000120: 5930 f8be da38 bf3c 5fa8 e3be 489f 883c
00000130: f9fa f6bc 6d8a 78be 88a6 0bbe 3125 dabd
00000140: 438b fabe 93cd 813e b955 6b3e 6dfc dcbc
00000150: 6bd0 75be 0fab 1ebc b505 d2be ef2f 16be
00000160: 049f 09bf e5ab 523e adcb 393f 5402 143e
00000170: c379 c53d cc85 ca3c 5375 d43b 3e88 b8be
00000180: 32e5 a1be 4ee6 07be eadc 2c3e 12ce 2f3c
00000190: ba85 51be 450c 0ebc 7621 f3bd 7f3a 9dbe
000001a0: 0735 6dbe f4cd c13d 1344 33be 6ca7 2d3d
000001b0: 8bd1 503e ebf0 823d d2d8 cb3c a4e7 d63d
000001c0: 2b98 66be 9bc1 ca3e 5d5c 123d 8ccc 5cbc
000001d0: 65b2 b2be 6e6e be3d e8c6 ce3c 5373 a43d
000001e0: 3971 83be 52f1 9cbe 98f2 22be 61f5 debd
000001f0: 4f10 ac3e 28e2 053f f8e2 d7be 4395 9dbd
00000200: 49df 55be 23e4 91bd 21e0 033e 6a14 4fbe
00000210: 413f 3bbe dbe5 13be d7e2 25be 857b 40bd
00000220: fbb7 e1be c72b afbd 05fa d3bc dc50 3a3d
00000230: b89c 373e 4a45 59be 84a6 87be ac7d d9be
00000240: 240b 7cbe cf54 e63d e509 803e bdeb 08be
00000250: 97d3 81bc 167c 893e c2df 58be b1a0 89bd
00000260: 64aa 76bd 2049 703d 94b2 9d3c 87a3 b5bd
00000270: b87b 7abd 32b7 9abe 427b 45be d154 8c3e
00000280: ebce a03e eb0d f0bd 9d86 e43c ee9d 18be
00000290: e247 cb3e b6da 4dbd 21dd 82be 8a2f d5be
000002a0: 40aa 4e3d 8deb 9fbc 277e 5fbe f2ca d1bc
000002b0: 7fd6 c4bd 12c2 b4be da15 05be 7bb4 a6bd
000002c0: 14c4 8abe fb40 1bbe 5669 ff3d eeda 8bbc
000002d0: a399 ffbc aefd bebc efa1 28be 913c 04be
000002e0: 6976 89be 6bbc 3f3e 1c2a b6bd ec37 05be
000002f0: e3f7 a33d acb2 a23e 5aa2 ef3d 9bab e13e
00000300: b20c f8bd 1a2f 52bd 8aeb fdbd 9955 683e
00000310: 771d 20bd 50e3 80bc 6450 6f3d 1ad6 afbe
00000320: 5ac4 1c3f 1c31 b6bd bc9a 9ebe 4631 b83e
00000330: bd5a 4f3d 9397 9fbd 3575 c83e 696b 2abf
00000340: e434 2fbe 5fbe 033f b3bd 1e3e 6ea6 acbc
00000350: e322 bc3d b75d ff3d 1989 77bf 919b 31be
00000360: 7bb3 6c3e f272 6e3e db24 41be 25cf 12be
00000370: a5ec 853e 19dc e5be 3c5f c0bd 2814 9dbe
00000380: c2a1 2cbd 1e00 c7bd 1831 00be d978 81bd
00000390: 9969 b2be 69ad aa3d 86ff 2cbd 75ea efbe
000003a0: 28a2 a5be 8947 92bd 309e 44be 949c 4dbd
000003b0: 6d1a 863d 1c81 e6be ec1e 36bd 98d0 adbe
000003c0: 2089 8b3d b6ac 293f d856 163c e30b 8c3e
000003d0: f784 04be 3159 cb3d aa7f 90bd e6c4 32bf
000003e0: 23e8 d23d 4a5e e5bd c865 4a3f 9abb 693c
000003f0: b4e7 f8bd 6300 d63c 86f2 c1bd 2fc9 cfbe

relation_embed.weight f4 [116, 32]
-0.062370587 0.027470073 0.0771115 -0.10794871 -0.08721297 0.020842575 -0.08620907 -0.043452512
0.08892978 -0.10666541 -0.06397568 -0.12867297 0.039369073 0.1334712 -0.11515071 0.054773223
-0.07192809 0.033359863 -0.02927178 -0.111715354 0.09836134 -0.020218352 -0.046760555 0.07641
-0.06487932 0.06563939 0.07396275 -0.0840966 -0.12849699 0.067424744 -0.052245796 -0.05815485
0.048336037 0.15818615 0.08866221 0.072338544 0.040842522 5.643599e-05 -0.064677596 -0.068059355
-0.05931231 -0.05806084 0.06676555 -0.07005314 -0.014819956 -0.007829681 0.05737225 -0.006014878
0.060545698 -0.03930972 0.0037216037 0.086194254 -0.044908155 -1.0542118e-15 -0.13034151 0.15470968
-0.08014991 -0.04923146 -0.044122953 0.09048525 0.012339735 -0.06532785 0.006336732 0.025146954
0.02474415 0.046006527 -0.14633775 0.06752695 -0.06824354 0.019027377 0.04634773 0.030252706
-0.012516542 0.017722586 0.17449056 0.16501339 0.01785242 -0.046671238 0.101648636 -0.101739965
0.02448803 -0.049247712 -0.029507365 0.01512259 0.026133094 -0.021816872 -0.020460555 0.040295973
0.012441372 -0.06674108 -0.03255917 -0.043002516 -0.040358644 -0.02573057 -0.040129725 0.10704456
0.102748185 -0.02415966 0.038792357 0.12831737 0.056009687 -0.041319456 -0.03730589 -0.0423106
-0.026570488 0.12538065 0.04800923 -0.056545056 0.09094809 -0.044111438 0.095234565 -0.07538832
0.078582734 0.05625366 0.034896765 0.0032495775 -0.055493366 0.036443554 -0.078678824 -0.050204214
-0.027678125 0.048485167 0.048364386 -0.03435605 0.037510082 0.071060315 -0.103333004 -0.0610256
-0.06592734 0.13481036 0.053731486 -0.055499963 -0.025373917 0.1612005 -0.04927243 -0.058562454
0.01195588 0.0029628538 -0.04677371 0.117565624 0.11891169 -0.05685038 -0.061913885 0.053330354
-0.08353466 0.060381982 0.055884868 0.13706797 0.001442344 0.04321254 -0.009189146 0.12786905
-0.053045344 0.01006984 0.04789342 -0.04272825 0.050725024 0.026668498 0.051927526 -0.058060493
-0.10152156 0.01400398 -0.23175922 0.013721968 -0.008352105 -0.08418699 -0.0792231 0.19877337
0.04822864 -0.04592416 -0.08753317 -0.081922956 -0.11885858 -0.10363727 -0.05779419 -0.10006201
0.13595308 0.056629863 -0.003478804 -0.08071235 0.112818934 0.0008398657 0.00017883183 0.048281323
-0.011293398 0.0006126321 -0.089900546 -0.060198218 -0.25415772 -0.017387647 0.02483047 -0.03663736
0.074221075 -0.04961225 0.040088445 -0.04738985 -0.109616674 0.142693 0.08977386 -0.055993702
-0.015866132 -0.053816307 0.11836335 -0.04422094 -0.06847822 0.122805886 -0.05747419 -0.09205185
-0.09790983 -0.098659106 -0.14009596 -0.056906458 0.10721083 0.03873608 0.05863844 -0.053129565
-0.020426795 0.07005859 -0.058805853 0.13703805 0.051809125 -0.101704985 -0.10669199 0.10249765
-0.09208201 0.030569864 0.06047272 -0.012445787 -0.18066543 -0.08454719 -0.006108433 0.058003128
0.067540504 -0.032076344 -0.06997029 -0.09102267 -0.119914204 0.08125638 0.084930874 -0.15576902
0.11099539 -0.056164615 0.019710073 -0.09383926 0.20076038 0.011676727 0.01735126 -0.008972205
0.250121 -0.13157356 0.027313998 -0.07253562 0.08946114 0.034939844 -0.021797273 -0.11342916
00000000: 4d78 7fbd eb08 e13c a2ec 9d3d 3714 ddbd
00000010: b79c b2bd 0cbe aa3c 628e b0bd 43fb 31bd
00000020: d120 b63d 6573 dabd ae05 83bd d9c2 03be
00000030: 7741 213d adac 083e 23d4 ebbd e359 603d
00000040: 094f 93bd 5aa4 083d 5fcb efbc 05cb e4bd
00000050: ac71 c93d f5a0 a5bc ff87 3fbd d97c 9c3d
00000060: 73df 84bd f26d 863d c879 973d d73a acbd
00000070: b794 03be fc15 8a3d b0ff 55bd c833 6ebd
00000080: 02fc 453d 8dfb 213e 8894 b53d 3b26 943d
00000090: 7d4a 273d afb5 6c38 b075 84bd b462 8bbd
000000a0: 77f1 72bd 34d1 6dbd 60bc 883d 0578 8fbd
000000b0: 67cf 72bc 1048 00bc 2aff 6a3d 7418 c5bb
000000c0: c4fe 773d 3b03 21bd 26e6 733b 9d86 b03d
000000d0: 9df1 37bd 8ded 97a6 3f78 05be 376c 1e3e
000000e0: a325 a4bd eda6 49bd 45ba 34bd 5550 b93d
000000f0: 9a2c 4a3c 9cca 85bd 5ca4 cf3b fc00 ce3c
00000100: 3eb4 ca3c 5771 3c3d 90d9 15be 924b 8a3d
00000110: 45c3 8bbd 4ddf 9b3c 1ed7 3d3d 86d4 f73c
00000120: 2f12 4dbc f52e 913c a7ad 323e 45f9 283e
00000130: 3d3f 923c 572a 3fbd 292d d03d 0b5d d0bd
00000140: 1f9b c83c f8b7 49bd 6eb9 f1bc bdc4 773c
00000150: 1215 d63c 4cb9 b2bc e59c a7bc 640d 253d
00000160: e5d6 4b3c 8caf 88bd c45c 05bd 6823 30bd
00000170: 1b4f 25bd ebc8 d2bc 115f 24bd 2e3a db3d
00000180: a46d d23d 7bea c5bc bce4 1e3d a165 033e
00000190: 6a6a 653d 973e 29bd 10ce 18bd e14d 2dbd
000001a0: 5aaa d9bc c963 003e 54a5 443d ca9b 67bd
000001b0: fe42 ba3d 32ae 34bd 570a c33d 3165 9abd
000001c0: fcef a03d 3d6a 663d e9ef 0e3d ddf6 543b
000001d0: 034d 63bd d645 153d 5d22 a1bd efa2 4dbd
000001e0: 3cbd e2bc 6298 463d bc19 463d eeb8 0cbd
000001f0: 2ca4 193d 1288 913d 41a0 d3bd fbf5 79bd
00000200: ea04 87bd ba0b 0a3e 8c15 5c3d ee53 63bd
00000210: f6dc cfbc be11 253e e3d1 49bd 2fdf 6fbd
00000220: 98e2 433c 702c 423b ca95 3fbd 3fc6 f03d
00000230: f987 f33d f2db 68bd 6a99 7dbd ee70 5a3d
00000240: 3814 abbd 1953 773d 88e7 643d 8c5b 0c3e
00000250: 090d bd3a a2ff 303d 128e 16bc 1bf0 023e
00000260: 1346 59bd f8fb 243c e42b 443d d103 2fbd
00000270: 0bc5 4f3d e577 da3c f5b1 543d d7d0 6dbd
00000280: 89ea cfbd f370 653c 4a52 6dbe 1bd2 603c
00000290: 44d7 08bc 3b6a acbd b83f a2bd 3f8b 4b3e
000002a0: 658b 453d f91a 3cbd 9744 b3bd 39c7 a7bd
000002b0: 216c f3bd c73f d4bd 9ab9 6cbd 50ed ccbd
000002c0: 4937 0b3e b7f4 673d a5fc 63bb 844c a5bd
000002d0: 9d0d e73d 6f2a 5c3a ce84 3b39 a3c2 453d
000002e0: f207 39bc 0b99 203a c71d b8bd 6892 76bd
000002f0: f620 82be 8a70 8ebc 4569 cb3c 0e11 16bd
00000300: 3801 983d 3736 4bbd c833 243d dc1b 42bd
00000310: b57e e0bd 1d1e 123e 5cdb b73d a759 65bd
00000320: b1f9 81bc 7d6e 5cbd 7c68 f23d 0421 35bd
00000330: 4f3e 8cbd a781 fb3d 0e6a 6bbd ae85 bcbd
00000340: f384 c8bd c90d cabd 5175 0fbe bf16 69bd
00000350: 5a91 db3d b9a9 1e3d dc2e 703d 639e 59bd
00000360: 1856 a7bc e17a 8f3d 68de 70bd b453 0c3e
00000370: ce35 543d b44a d0bd 5481 dabd 4aea d13d
00000380: 7e95 bcbd a76d fa3c 3eb2 773d 6ae9 4bbc
00000390: 5c00 39be 1427 adbd 4029 c8bb b094 6d3d
000003a0: ad52 8a3d 7c62 03bd 954c 8fbd 186a babd
000003b0: 9495 f5bd bf69 a63d 3df0 ad3d ea81 1fbe
000003c0: 8d51 e33d de0c 66bd 0577 a13c cc2e c0bd
000003d0: 2194 4d3e be4f 3f3c 3b24 8e3c 2800 13bc
000003e0: dc0f 803e 38bb 06be 9bc1 df3c 8e8d 94bd
000003f0: 6737 b73d 151d 0f3d 3290 b2bc 8c4d e8bd
