Knowledge_Graph_Recommendation/recommendation/stage2/trained_model/KG_free.pth (torch, 132866 bytes, 2 tensors)

user_embed.weight f4 [447, 32]
00000000: d9c7 a13e 7c53 173d a2f1 4ebe 2061 c53e
00000010: ef36 8abe 1169 0abd 20dd 70be 06bf 83bd
00000020: a734 49be 611a 313e 6a53 833d a25f b1bc
00000030: cd62 dabd 04fe 093e 1376 343e f390 e33d
00000040: dfb2 90bd 9068 0dbf 6bd0 803e 379a 2abe
00000050: 3435 e73e 935a d03d a232 80be a038 88be
00000060: 7f2f c8be 3f42 37be fd29 5cbd 3dbd ce3e
00000070: 2343 27bf 941e 71bc 0b75 e8bb 3088 2cbe
00000080: 872f c53e a63e 193d 7319 d43e fa77 84be
00000090: 71c7 e33c c097 b33d 30f2 993e 4efa 6f3e
000000a0: 03cd ccbe 4532 7d3d 26ae 95be 23df dabd
000000b0: 3dc6 353e d7e8 af3d e53c 51be 11db 533e
000000c0: 3c0e 96be 524e efbd 127b 9e3e 830d ba3c
000000d0: 6ad5 1c3e 0fc8 12be 3dee 95be cc2f b43e
000000e0: 71c4 afbe e062 0dbe b05a 91bd 55d3 7b3e
000000f0: 5adc a4be eeaa 7c3e 2317 f73e b0fb fe3d
00000100: 49c4 8a3e 400b 333e f572 a1be 928a c83e
00000110: 0de4 0cbe ebd8 85be 5898 07bf ad81 59be
00000120: e554 b6be 09c9 f63e 0f30 513e ad5c c3bd
00000130: cf21 463e d99c 7c3e 0d11 173e 3b97 38be
00000140: 3cba b33e 3161 89bd 40dd 163f b767 d83d
00000150: 67ae 043e 43b3 bb3e 2950 96be 5a9f 54bd
00000160: 1909 d4bd a131 c1bd b9cc cdbd 74f0 163e
00000170: 8ae5 afbe 4dfd b33e c9d3 9b3e 5753 2f3d
00000180: a69e 893e 4825 cc3e eb71 693b e5da 3f3f
00000190: 0f9e c33e 51d3 6b3c eed1 9dbd 58be b63e
000001a0: 6de9 7ebe 1edb a2bd a8b4 16be 4744 ab3e
000001b0: 1ad1 dc3d df31 cc3d 7a45 57bd 4955 58be
000001c0: 3413 2a3f 4e00 803e b372 f4bd cb58 3ebc
000001d0: a017 2d3d 4098 523e c000 35bf 7bef 61be
000001e0: 12f6 88bc adaa 0fbf 877f 583f c5ad 1d3f
000001f0: 0d62 92be e22e 263f d7fc e33e 71e6 0fbf
00000200: b958 f73e 7b79 a83d b885 7f3e e73d a33d
00000210: fef8 9a3e b595 0ebe 892b 773e 996e 8c3e
00000220: 6412 c0be 86f3 90be 0350 78be d7e6 893e
00000230: 48aa 80bd e56f 323d ce04 b43e 30bf bdbe
00000240: 8e28 1d3e 5ba8 f9bd d528 e9bd 4237 093d
00000250: acd8 083e 8ee3 9a3e f271 a5be a8c1 973e
00000260: 61be 91be fc2c bcbd e0bb 933d 5dd9 903e
00000270: 2e8f 31be c40a 783d 7e75 e83d a2d2 28be
00000280: a355 00bf f1aa 473f 04b9 863f e308 16bf
00000290: f203 213f a1a1 d43c 387b 963e 9cc4 043f
000002a0: b77c 2c3e 1185 8d3d 7ed4 52bf 5f92 2abf
000002b0: 0665 f0bc 1b2c 6cbe b04f 45bf 8230 793e
000002c0: 59a8 953d 2a61 0c3e 5bb2 fc3e e2e9 333f
000002d0: caed f23e 27af 12bf 1b00 123f 7161 e4be
000002e0: 2aa4 87bf a7cc 70be 5c42 bdbe 0e3f e63d
000002f0: b6f2 a63e 1f38 573f 259c 083e a733 7a3f
00000300: c5ee 29be 875c 203e 7e0d b3bd b06c 203e
00000310: 79fa 783e 8cb7 77be 563f 5d3e 1c3c 213d
00000320: dfee 083c 4266 5abe b217 383d fef6 5ebe
00000330: d985 8b3e 5124 853e ac25 0b3e 7cd3 8f3d
00000340: dcae 95bd 893b 013e c726 503e 3852 893e
00000350: 16b6 153d 7e06 a8bd 9647 01be d688 6c3e
00000360: 0962 d8bc 0c88 3a3e 7be4 2dbd 031f 483e
00000370: b947 88be 2869 31be eead 523e 92cc b03e
00000380: 515b 603e 56c9 d13e 1bc3 a9be df8e 943e
00000390: c537 5f3e 5e5b 67be 67c5 4cbe 8581 173f
000003a0: 8447 09be 3399 7a3d 4bd5 4fbd 5801 8b3e
000003b0: c9b0 093f 8b2e 823e e37b e53e b5b8 ee3b
000003c0: 102c 883e 4a1b f83e 872e 43bd 3df0 82be
000003d0: d4f6 853e f635 7cbd 02b9 8fbe f44b 223f
000003e0: f923 40be 2851 97be 4900 42be 1335 673e
000003f0: 61cf 88be 77bb 523e 0cd9 aabd 9281 0e3e
0.31597784 0.03694485 -0.20209363 0.38550663 -0.26995036 -0.033791605 -0.23521852 -0.06432919
-0.19648992 0.17295219 0.06412394 -0.021652047 -0.10663376 0.13475806 0.17623167 0.11111631
-0.07065367 -0.55237675 0.2515901 -0.16660391 0.45157778 0.10173526 -0.2503863 -0.266057
-0.39098737 -0.17896365 -0.05375098 0.40378752 -0.6533682 -0.014716763 -0.0070940307 -0.16848826
0.38512823 0.03741326 0.41425666 -0.25872785 0.027805062 0.087691784 0.30067587 0.23435327
-0.40000162 0.06181552 -0.29234427 -0.10687091 0.17751403 0.085893326 -0.20433386 0.20689036
-0.29307735 -0.1168486 0.3095327 0.022711521 0.15315786 -0.14334129 -0.29283324 0.35192716
-0.3432956 -0.13807249 -0.070973754 0.24592336 -0.32199365 0.2467458 0.4825984 0.12450349
0.2710288 0.1748476 -0.31533018 0.3916822 -0.1375887 -0.26142058 -0.52966833 -0.21240874
-0.35611644 0.48200253 0.20428489 -0.09539161 0.19348834 0.24669208 0.14752598 -0.1802644
0.35103023 -0.06707991 0.5893135 0.10566657 0.12957154 0.36660203 -0.29358032 -0.051909782
-0.10353298 -0.09433294 -0.100488134 0.14740163 -0.34354812 0.3515419 0.30435017 0.04280409
0.26878852 0.39872193 0.003562088 0.7494338 0.38206527 0.0143936435 -0.077060565 0.35692096
-0.24893732 -0.079519495 -0.14717352 0.3345053 0.107820705 0.0997045 -0.052556492 -0.21126284
0.6643555 0.25000232 -0.1193594 -0.01161785 0.04225886 0.20565891 -0.7070427 -0.22064011
-0.016718898 -0.56119806 0.8456959 0.61593276 -0.28590432 0.6491529 0.4452884 -0.56211
0.48309878 0.082262956 0.24953353 0.07970791 0.3026809 -0.13924296 0.24137701 0.2742813
-0.3751403 -0.28310794 -0.24249272 0.2693393 -0.062824786 0.043563742 0.35159916 -0.37059927
0.15347502 -0.121903144 -0.11384741 0.033499964 0.13363904 0.30251735 -0.32313496 0.29639935
-0.2846556 -0.091882676 0.07213569 0.28290835 -0.17339775 0.060557142 0.11350535 -0.164866
-0.5013067 0.7799521 1.0525212 -0.5860731 0.62896645 0.025955977 0.29390883 0.518625
0.1684445 0.06910146 -0.8235549 -0.66629595 -0.029345047 -0.230637 -0.7707472 0.2433491
0.073075004 0.1370894 0.49354824 0.7027875 0.47447044 -0.5729851 0.5703141 -0.44605592
-1.0596974 -0.23515569 -0.3696469 0.112424955 0.3260705 0.8407001 0.13340814 0.97735065
-0.1659499 0.15660296 -0.08742808 0.15666461 0.24314298 -0.24191111 0.21606192 0.039363965
0.008357733 -0.21328071 0.044944473 -0.21773908 0.27250555 0.2600427 0.1358859 0.07022759
-0.073087424 0.12620367 0.20327292 0.2682054 0.036550604 -0.08204363 -0.12624964 0.23099074
-0.026413934 0.1821596 -0.042454224 0.1954308 -0.2661722 -0.1732527 0.20574161 0.34531075
0.21909834 0.4097392 -0.33156666 0.29015252 0.21798618 -0.22593448 -0.19997178 0.59182006
-0.13406187 0.06118126 -0.05074052 0.27149463 0.5378538 0.25426134 0.4482108 0.0072852024
0.26596117 0.4845832 -0.047651794 -0.25573912 0.26164877 -0.0615749 -0.28070837 0.63397145
-0.18763722 -0.29554105 -0.18945421 0.2257884 -0.26720718 0.20579325 -0.0834218 0.13916615

item_embed.weight f4 [578, 32]
00000000: be78 84be 13a7 503e b3d8 663d f3e0 b2bd
00000010: eda1 adbe eaf1 c7be 5c32 2ebf 4ea8 0bbf
00000020: bfcc b9bd 8a18 c93e 97c0 42be 93d4 30bd
00000030: aaff ca3e 1f39 bf3d 41d4 90be 0736 5abe
00000040: 41e2 a8be 77c6 133f 41b2 a6be 57a6 143f
00000050: 263d 47be 4c91 07bf bd25 053f 55ca a03d
00000060: 616d 6bbe 1d59 34be 9413 1ebf 4c69 43be
00000070: 6399 3cbc 568b 4c3e 5fa2 4b3e 3a9d c0bc
00000080: f34c eebe b24d 873e 09b7 683e cf1d 66be
00000090: 66a5 c83c 5638 12bf 9300 37bf 90fa 18bf
000000a0: c2e8 c0bd eb58 0dbb e6b6 ca3d 5caa 50be
000000b0: 0e65 e7bd d155 563e 481e c0be 756a b73e
000000c0: 5508 913d a7ed a23e 4fc4 c5be 54a2 fa3e
000000d0: c08d 193f 8b8b bfbe 4071 42be 12ed a73d
000000e0: cc9a 8cbe d926 82be 42fa 113e 5b34 91be
000000f0: 1b32 01bf ee31 723d 0427 b33e 6218 8bbe
00000100: b3cf 8abe 6df6 e83e 921d 78be ec23 4c3e
00000110: 7ce2 8abe 80de a9be 89a8 b7be bd27 39be
00000120: b3be bebe 0e24 f3bd 30bf d9be c2ba a4be
00000130: 8bc1 323e e5f1 a13d e0d5 10bf 1a18 8c3c
00000140: d555 f5be a8a9 c93d 16a6 3dbf c21d 303f
00000150: e92c 763d 74d8 48bf c03f 12bd cdf5 8e3d
00000160: f162 93be 7e21 67be 81dc 2cbf a77a ca3d
00000170: 096b 98be 6cfb 0d3e 58a1 403e d259 9abe
00000180: be80 50bd 497f 803d 4f0b de3d 3fb5 b4bd
00000190: 3494 b7be e75d 24be 4cb0 b33e 2c9a a93e
000001a0: b877 41bd e412 67be 0767 d2bd 8cfa 053f
000001b0: 81dc de3d 0b32 b33d 4621 f93e f1d8 193e
000001c0: 398e a23e da5d f03e 41a6 f03e 6f40 09be
000001d0: e424 c3be 2b59 75bd 1c73 0fbe 795a d53e
000001e0: 3f13 87bd 04b5 e03d 2afa 253c 6af9 b23e
000001f0: 6190 aa3d 74d0 ffbd e9e3 1b3e 05a1 6fbe
00000200: e3d2 693d eee0 133c fcb9 173e 76b4 64be
00000210: 2f8e 4bbf 431b 4d3f 5a1c fa3d 43dc 2d3d
00000220: 98e2 a43c 7358 6abe 045d 35bd fb83 2abe
00000230: 7802 e7be 35e0 37be 3949 1dbf 235c 82be
00000240: 7f80 743d e5de a3bd e819 15bf 03fd 243e
00000250: 0c3a b5be 86e0 51be 7301 863d 6bf4 63be
00000260: ac5a 123f ea9f b3bb 559c 80bd 7a02 d2be
00000270: 99bc c23e 8764 7fbc 050c afbd 6c01 3cbe
00000280: f3f3 9f3d 0cf4 1ebd ca6c 0bbe 2435 6cbe
00000290: 99a7 a63e 9d8f de3e c490 ec3b 6d4d 7fbe
000002a0: 7b98 8c3e 55f3 363d d2ca cdbe 440a 803c
000002b0: 7cb0 1cbe 2717 5bbe d832 03bf e582 a3bc
000002c0: 796b 3abe 80f4 86be 0d00 203e f7aa d43e
000002d0: 7b89 85be ed5c f6bd b67a cf3e 26f8 48be
000002e0: a466 b0bd 37b6 833e 0914 debd ce38 8c3e
000002f0: 740a 883e b212 4f3c 1d4f b2bc 8a14 e83e
00000300: a552 d2be 63aa 453f f057 edbc ab41 56be
00000310: 1c5a 253e 783c b13a c696 2dbf 0fbf 4bbe
00000320: 6248 17bf 2337 4d3f f84c 3fbf 6fa2 3abf
00000330: 2839 013e 119f 043f 0fc4 843e 0446 423e
00000340: 558d 8e3e cf0e 183f 4181 dd3d 1b71 113f
00000350: e1fd da3d b920 1dbf fc8c 35bf 06ce 2b3f
00000360: 4f01 e6be d917 81bd 5aa1 51be 8264 3a3c
00000370: 67c7 04bf 6e93 0a3f df70 063f b797 c63e
00000380: fa71 bcbe 48cf f83e 5f5a 303f e7f6 87be
00000390: 57db bebd 0bfd 17bf 67c9 d6be 7fe1 83be
000003a0: 110c 3cbf a8dc e63e 032b 8fbe b8dd 62bf
000003b0: 39fc 0b3f 853b 623e cc2b 69be 9b6c aa3e
000003c0: 8f78 47be 1969 073f f94d c63d f83e 503f
000003d0: 23ff b33e 73da c9be 3415 5d3d fc31 813e
000003e0: 8012 d6be 2298 99be 16c5 23be d6ab 463e
000003f0: 3af6 0ebf 8fa5 403e 2f2c 053f 83cd b43e
-0.2587337 0.20376234 0.056359004 -0.08734312 -0.33912602 -0.39051753 -0.6804559 -0.5455369
-0.09072255 0.39276534 -0.1901878 -0.043171477 0.3964818 0.09337067 -0.28286937 -0.21309672
-0.32985118 0.5772471 -0.32557872 0.58066314 -0.1945692 -0.5295608 0.5201071 0.07851092
-0.22990943 -0.17612119 -0.61748624 -0.19083136 -0.01151118 0.19975027 0.19886158 -0.023512471
-0.46543083 0.26426464 0.22726072 -0.22472309 0.02449293 -0.5711721 -0.7148525 -0.5975733
-0.09419395 -0.0021567892 0.09898166 -0.20377487 -0.112985715 0.20931174 -0.37523103 0.35823408
0.07081667 0.3182194 -0.38626334 0.48951972 0.5998192 -0.3741115 -0.18988514 0.081995144
-0.2746185 -0.25420263 0.14255622 -0.28360257 -0.5046708 0.059129648 0.34990704 -0.2716704
-0.27111587 0.45500508 -0.2423003 0.19935578 -0.2712592 -0.33177567 -0.3587077 -0.18081565
-0.37254867 -0.11872111 -0.42528677 -0.32173735 0.17456643 0.07907466 -0.5657635 0.017101336
-0.47917047 0.098468125 -0.7408155 0.68795407 0.060101423 -0.7845528 -0.035705328 0.069804765
-0.28786424 -0.2257137 -0.6752396 0.09886675 -0.2976916 0.13865441 0.18811548 -0.30146652
-0.050904028 0.06274278 0.10842001 -0.088236324 -0.35855258 -0.16051446 0.3509544 0.33125436
-0.047233313 -0.225658 -0.10273557 0.5233543 0.108819015 0.08749779 0.48658198 0.15024163
0.31749132 0.46946603 0.47001842 -0.13403486 -0.38114083 -0.05989949 -0.14008754 0.41670588
-0.06595468 0.10972026 0.010130445 0.34955913 0.08328319 -0.12490931 0.1522366 -0.23401268
0.057085883 0.009025795 0.14817041 -0.22334465 -0.7951383 0.80119723 0.12212439 0.042446386
0.02012758 -0.22885303 -0.04427816 -0.16651909 -0.4511907 -0.17956622 -0.61439854 -0.2546092
0.059692856 -0.08001498 -0.58242655 0.16112141 -0.3539585 -0.20495805 0.06543245 -0.22261207
0.57169604 -0.0054817097 -0.06279818 -0.41017514 0.38034514 -0.015587932 -0.085472144 -0.18359917
0.078102015 -0.03880696 -0.13615718 -0.23067147 0.32549742 0.43468943 0.007219406 -0.2493188
0.27460083 0.044665653 -0.40193802 0.015629895 -0.15301698 -0.2139555 -0.51249456 -0.019959876
-0.1820506 -0.26358414 0.1562502 0.41536686 -0.26081452 -0.12029443 0.4052331 -0.19625911
-0.08613327 0.25724956 -0.10843665 0.2738709 0.26570475 0.012638735 -0.02176624 0.4532817
-0.41078678 0.77213115 -0.028972596 -0.20923488 0.16147655 0.0013522049 -0.67808187 -0.19897102
-0.5909482 0.80162257 -0.7472682 -0.72904104 0.1261946 0.51805216 0.2593083 0.18972021
0.27842203 0.59397596 0.10815669 0.5681321 0.10692955 -0.61378056 -0.7091825 0.6711124
-0.44922873 -0.06303377 -0.20471707 0.011376502 -0.51866764 0.5413121 0.5251598 0.38787624
-0.36805707 0.48595643 0.68887895 -0.2655556 -0.093191795 -0.5937049 -0.41950533 -0.25757977
-0.7345591 0.45090222 -0.27962503 -0.88619566 0.54681736 0.22093017 -0.22770613 0.33285984
-0.19479583 0.5289474 0.09682841 0.8134608 0.3515559 -0.39424476 0.0539753 0.25233448
-0.4181099 -0.2999888 -0.15993151 0.19401488 -0.5584446 0.18813156 0.52020544 0.35313043
