Knowledge_Graph_Recommendation/recommendation/stage2/trained_model/Douban/Embedding_based/dim32_lr0.001_l20.0001_TransE/add/model13_epoch20.pth (torch, 728343 bytes, 5 tensors)

trans_M f4 [114, 32, 32]
0	0xbbe7a1a4	-0.0070688296
1	0x3c042188	0.008064635
2	0x3b6b91b0	0.003594499
3	0x3c78d614	0.015187759
4	0x3c3cfe9c	0.011535313
5	0x3ce388c6	0.02777518
6	0x3c6f72fc	0.014614817
7	0x3cc0f1a6	0.023552727
8	0xbc8ed731	-0.017436596
9	0xbc1082a4	-0.00882021
10	0x3ce4a0ba	0.027908672
11	0xbcb8e9c1	-0.0225724
12	0xbb66ab00	-0.0035197139
13	0x3c1fb6e8	0.009748198
14	0xbcd4f7e0	-0.025997102
15	0x3bbd8748	0.005783949
16	0xbce31f18	-0.027724788
17	0x3ce25ae6	0.027631234
18	0xbc4ddae0	-0.012564391
19	0x3c3f4998	0.011675261
20	0xbc0d82ae	-0.0086371135
21	0x3ca16a12	0.019703899
22	0xbb3af8f0	-0.0028529726
23	0xbb409c20	-0.0029389933
24	0x3c8d5832	0.017253969
25	0x37eb5800	2.8055161e-05
26	0x3cc3192a	0.02381571
27	0x3ce82796	0.028339189
28	0x3d01cbbb	0.031688433
29	0x3d0b10b3	0.033951472
30	0xbcd909cb	-0.026493927
31	0x3cceea10	0.025258094
32	0x3bd3d7e8	0.006464947
33	0xbc80936b	-0.015695294
34	0x3cac99e0	0.021069467
35	0x3b959a38	0.0045655034
36	0xbc8b4086	-0.01699854
37	0xbcd9a24c	-0.026566647
38	0xbc7bced0	-0.015369132
39	0xbc94d6ca	-0.018168826
40	0xbad175e0	-0.0015980564
41	0xbba96918	-0.005169999
42	0x3c490bf4	0.012270916
43	0xbd0aaf69	-0.03385869
44	0xbce2bf65	-0.027679155
45	0xbcf390ee	-0.029732194
46	0x3d034a73	0.032053422
47	0x3cef0eca	0.029181857
48	0x3ca6e2dc	0.020371847
49	0xbcad653e	-0.02116644
50	0x3c691ad0	0.014227584
51	0xbcaea04c	-0.02131667
52	0x3d0773a5	0.03306927
53	0x3d05d161	0.032670382
54	0x3d0dd57f	0.034627434
55	0xbcf41bec	-0.02979847
56	0x3c524e4c	0.01283605
57	0xbcb07bd4	-0.02154342
58	0xbc48ae5e	-0.012248604
59	0x3c14b83c	0.009077128
60	0xbcedd747	-0.029033316
61	0x3cf64f42	0.03006709
62	0x39d6c880	0.00040966645
63	0x3c9d460a	0.019198436
64	0x3c02e8bc	0.0079900585
65	0xbbc86cf8	-0.0061165057
66	0x3cfa41de	0.030548986
67	0xbd0db0a7	-0.034592297
68	0x3c551e4c	0.013007712
69	0xbb0890b0	-0.0020838194
70	0x3cfc1eea	0.03077646
71	0x3caf624e	0.02140918
72	0x3c3e84dc	0.011628356
73	0xbbc316b4	-0.005953634
74	0x3c0a21d4	0.008430917
75	0x3a8bd260	0.0010667555
76	0xbc1fd19e	-0.0097545665
77	0x3ca4ff40	0.020141244
78	0xbcd61686	-0.026133787
79	0x3b5f8e70	0.0034112
80	0xbc2af16c	-0.010433536
81	0xbb6aacf0	-0.0035808645
82	0xbcd422bd	-0.02589547
83	0x3bd1fe20	0.006408468
84	0xbc71450e	-0.014725937
85	0x3cd61fe2	0.02613825
86	0x3b8b74a0	0.004255846
87	0x3cb22f62	0.02175111
88	0x3ca4d36e	0.020120349
89	0xbb8dd400	-0.004328251
90	0x3cef8942	0.029240254
91	0x3cfa940e	0.030588176
92	0xbd1119e7	-0.035425093
93	0xbcd7a12a	-0.026321966
94	0x3c2aad48	0.01041729
95	0x3cced6a0	0.025248826
96	0x3b2cbea0	0.0026358739
97	0x3a4fb400	0.00079232454
98	0x3ce933aa	0.028467018
99	0xbc5dbb50	-0.013533428
100	0xbd055883	-0.032555114
101	0x3d09e1c9	0.03366259
102	0xbd0d7546	-0.03453567
103	0x3cb7dda8	0.022444561
104	0x3cdb448a	0.02676608
105	0xbc78fd98	-0.01519718
106	0xbcae884e	-0.02130523
107	0x3c42d6f4	0.011892069
108	0xbc890d64	-0.016730018
109	0x3cfd10f2	0.03089187
110	0x3d05360d	0.03252225
111	0x3ca6cf32	0.02036247
112	0xbc45321c	-0.012035873
113	0xbcdcffb6	-0.026977401
114	0x3cc54e1a	0.024085093
115	0x3b9cf040	0.004789382
116	0xbd10bc52	-0.035335846
117	0x3a90a380	0.0011035055
118	0x3ce143ee	0.027498212
119	0x3cc3de32	0.023909662
120	0x3c84acaa	0.016195614
121	0xbc339d0a	-0.010962734
122	0xbce4b183	-0.027916675
123	0xbcab8466	-0.020937156
124	0xbcd78541	-0.026308658
125	0xbc94aab3	-0.018147802
126	0xbce2bdc2	-0.027678374
127	0xbc808881	-0.01569009
128	0xbbc4467c	-0.0059898477
129	0x3c919838	0.017772779
130	0xbc11cb06	-0.008898502
131	0xbcaa02fd	-0.020753378
132	0x3cd3d416	0.025857966
133	0x3bd84808	0.0066003837
134	0x3cf45d1a	0.02982955
135	0xbcae697a	-0.02129053
136	0xbcafebdc	-0.021474771
137	0x3c0662b8	0.008202247
138	0xbc85c83a	-0.016330827
139	0x3cfe0a2e	0.031010713
140	0xbc3a45fa	-0.011369223
141	0xbc44a046	-0.012001103
142	0xbcdfca0e	-0.027318027
143	0x3ba54a10	0.0050442293
144	0xbcdceb6b	-0.026967725
145	0xbc979f39	-0.01850854
146	0x3cfaa02a	0.03059395
147	0x3d01545f	0.031574603
148	0xbc912639	-0.017718421
149	0xbc6e0674	-0.014527906
150	0x3ccbc058	0.02487199
151	0xbc6448c8	-0.013933368
152	0x3ca1be2e	0.019744005
153	0x3ca2b6e6	0.019862603
154	0x3c8c061a	0.017092753
155	0xbb816420	-0.0039487034
156	0x3cdcb12a	0.026939947
157	0xbcd9af2e	-0.02657279
158	0xbcedba39	-0.029019462
159	0xbbf29cf8	-0.007403966
160	0x3c930170	0.017945021
161	0x3d06b43b	0.032886725
162	0xbc4a4cd4	-0.012347419
163	0x3ce9fde2	0.028563444
164	0x3c7e32b0	0.0155150145
165	0x3cea6a66	0.028615188
166	0x3c9e5156	0.019325893
167	0x3b7edaa0	0.0038887635
168	0xbcd9f468	-0.0266058
169	0x3a33d640	0.0006860234
170	0x3ca047ae	0.01956543
171	0x3d12052f	0.035649475
172	0x3c17ec90	0.0092727095
173	0xbc807fbe	-0.015685912
174	0xbc102c38	-0.008799605
175	0x3a871800	0.0010306835
176	0x39109c00	0.00013791025
177	0xbce9bfc8	-0.028533831
178	0xbc300bdc	-0.010745015
179	0xbc53a0d8	-0.012916766
180	0xbbf1c0c4	-0.007377716
181	0x3d10660d	0.035253573
182	0x3c8bea58	0.017079517
183	0xbcc512e8	-0.024056867
184	0x3cbabc7c	0.022794954
185	0xbce987c2	-0.028507117
186	0x3c559d08	0.013037927
187	0x3c9c067a	0.019046057
188	0x3c74ebfc	0.014948841
189	0xbd09a960	-0.033608794
190	0x3b492ff0	0.003069874
191	0xbb9aa3d0	-0.004719235
192	0xbcd14b85	-0.025548706
193	0x3bac5610	0.005259283
194	0x3c75a544	0.014993016
195	0x3c52df5c	0.012870636
196	0x3c1760b0	0.009239361
197	0x3d007c09	0.03136829
198	0xbb841a68	-0.004031468
199	0xbc011392	-0.007878201
200	0xbd10438c	-0.035220668
201	0xbbf4fb0c	-0.007476216
202	0xbcb934a0	-0.022608101
203	0xbd1023cb	-0.035190385
204	0xbbfa8264	-0.0076449383
205	0x3c95da94	0.018292703
206	0x3ca8598c	0.020550512
207	0xbccae440	-0.024767041
208	0x3d03f821	0.032219056
209	0xbc79ff06	-0.015258556
210	0xbc1fa4f6	-0.00974392
211	0x3a376ac0	0.0006996803
212	0xbcf92253	-0.030411875
213	0x3b974048	0.004615817
214	0x3d0bf4fb	0.03416918
215	0x3bac7d10	0.005263932
216	0x3cb1cf88	0.021705404
217	0x3cbb82da	0.022889543
218	0xbcf849fd	-0.030308718
219	0x3c209b68	0.009802677
220	0x3c9b2916	0.01894049
221	0xbcd3b09a	-0.025841046
222	0xbb3393b0	-0.002740126
223	0xbb1b82f0	-0.0023729168
224	0x3d10ec49	0.03538159
225	0x3c036eac	0.008021992
226	0xbc6ef6fe	-0.014585255
227	0xbcde3f48	-0.027129784
228	0xbc8084c5	-0.01568831
229	0x3aa744a0	0.0012761541
230	0xbbad4fa4	-0.005289035
231	0x3d041b2d	0.03225248
232	0x3c589cf0	0.013221011
233	0xbc0bae64	-0.008525465
234	0xbc6fe556	-0.01464208
235	0x3ce63e1a	0.028105784
236	0xbbf6e868	-0.007535029
237	0x3d053b05	0.03252699
238	0xbc7278ec	-0.014799338
239	0xbd0c1aa6	-0.0342051
240	0xbd08a263	-0.03335799
241	0x3c791538	0.015202813
242	0x3cb23576	0.021754008
243	0x3ce811a2	0.02832872
244	0x3ca58fe2	0.02021021
245	0xbcbff296	-0.023431104
246	0xbcb006fe	-0.02148771
247	0x3bbbc2d0	0.0057300106
248	0x3cbd4b58	0.023107216
249	0xbcb57d50	-0.02215448
250	0xbc1e3564	-0.009656284
251	0x3cde463a	0.027133096
252	0x3cdc53e2	0.026895467
253	0x3c87595e	0.016522106
254	0xbc4cb992	-0.012495415
255	0xbb5edf30	-0.0034007542

user_embed.weight f4 [447, 32]
0	0x3e9a7fb5	0.30175558
1	0xbcb0f808	-0.021602646
2	0x3c1c785d	0.009550181
3	0x3ea1af63	0.31579122
4	0xbe22a528	-0.15883315
5	0xbcdb2c29	-0.026754456
6	0xbe439176	-0.19098458
7	0xbe26e38b	-0.16297738
8	0xbe101af1	-0.14072777
9	0xbc39ebfd	-0.011347768
10	0x3e3ff250	0.18744779
11	0x3d7747c4	0.060371175
12	0xbc6e1aff	-0.014532804
13	0x3e4d549f	0.20051812
14	0x3dc78dea	0.09743865
15	0x3e689747	0.22713958
16	0x3d4b3ea4	0.049620286
17	0xbe3ebb4a	-0.18626133
18	0x3ded93ae	0.11600433
19	0xbda8b499	-0.08237571
20	0x3e111fc3	0.14172272
21	0xbd89c6d4	-0.067273766
22	0xbeb60e81	-0.3555794
23	0xbda2faa4	-0.07957962
24	0xbe97fda0	-0.29685688
25	0xbe3b8171	-0.18311097
26	0xbc4e160f	-0.012578501
27	0x3ebbf6c8	0.36711717
28	0xbee4756c	-0.44620836
29	0x3dd3ece1	0.103479154
30	0x3a9da943	0.0012028593
31	0xbd7991c3	-0.060930025
32	0x3e97931e	0.2960443
33	0xbde3cb56	-0.111227676
34	0x3e9a75b5	0.30167928
35	0xbe4d3919	-0.20041312
36	0x3cecec09	0.028921144
37	0xbcd3d1e8	-0.025856927
38	0x3dd12182	0.10211469
39	0xbd7578c7	-0.059929635
40	0xbe6684f0	-0.22511649
41	0x3e001745	0.12508877
42	0x3dbb4278	0.09143537
43	0xbe201fb0	-0.15637088
44	0x3e2cef52	0.16888168
45	0x3e56a61b	0.20961802
46	0xbcdb3e22	-0.026763026
47	0x3dad5c77	0.08464902
48	0xbcf8de5e	-0.03037947
49	0xbd7d7469	-0.061878596
50	0x3e705172	0.23468569
51	0x3e0308d8	0.12796342
52	0x3cf2bf3a	0.0296322
53	0xbdbe3be1	-0.09288765
54	0xbe6ddcae	-0.23228714
55	0x3da289bb	0.07936426
56	0xbea50973	-0.32233772
57	0xbe21e2c4	-0.1580916
58	0x3dcfa31b	0.10138532
59	0x3e973ab6	0.2953698
60	0xbe5ca224	-0.21546227
61	0x3e61ff33	0.22070007
62	0x3e5fdc1d	0.2186131
63	0x3e6d1989	0.23154272
64	0x3e5e3130	0.21698451
65	0x3db98e36	0.09060328
66	0xbdccee0f	-0.100063436
67	0x3dbf9169	0.09353907
68	0xbe34c38f	-0.17652725
69	0xbd452e57	-0.048139896
70	0xbeaaec44	-0.3338338
71	0xbe2d35db	-0.16915075
72	0xbeb5514a	-0.3541358
73	0x3e176c9c	0.14787525
74	0x3e0b7df0	0.1362226
75	0xbd2d7f3f	-0.04235768
76	0x3e0823f6	0.13294968
77	0x3e02388d	0.12716885
78	0xbac28f13	-0.0014843665
79	0xbd4276e1	-0.047476653
80	0x3e87257e	0.26395792
81	0xbe25cb5f	-0.16190861
82	0x3e69506e	0.22784588
83	0x3d5bad18	0.053631872
84	0xbce438a4	-0.02785904
85	0x3e0694bd	0.13142677
86	0xbe9a5fb7	-0.3015115
87	0xbddb1128	-0.10696632
88	0xbe492392	-0.19642475
89	0xbdc49c2e	-0.096001014
90	0x3cbc5ade	0.022992548
91	0x3e59fc4d	0.21287651
92	0xbe837692	-0.256764
93	0x3e55d48e	0.20881864
94	0x3e84e43a	0.25955373
95	0x3d702a24	0.05863394
96	0x3eb5b334	0.35488284
97	0x3e36bfe3	0.17846636
98	0xbe167beb	-0.14695708
99	0x3f013359	0.50468975
100	0x3d4203ef	0.047367033
101	0xbdb305f3	-0.08741369
102	0xbe40b7f9	-0.1882018
103	0x3dcb69d1	0.09932292
104	0xbe8eb889	-0.27875164
105	0xbc643982	-0.013929727
106	0xbe8015c7	-0.25016615
107	0x3e06b126	0.13153514
108	0x3ed2714b	0.4110206
109	0x3e90117b	0.28138337
110	0x3e88a19d	0.266858
111	0xbd2523ba	-0.040317275
112	0x3f0e48db	0.5557992
113	0x3e43d937	0.1912583
114	0x3dccf0a6	0.100068375
115	0x3bb58066	0.005538988
116	0x3cd648eb	0.026157817
117	0x3d5791f8	0.05262944
118	0xbeed66ea	-0.4636758
119	0xbe2e31f1	-0.17011239
120	0x3bf08cc7	0.0073410007
121	0xbf03747e	-0.5134963
122	0x3ee88694	0.45415175
123	0x3ec5a1bd	0.3859996
124	0xbe125e2a	-0.14293733
125	0x3ec8832d	0.3916258
126	0x3e9a3b79	0.301235
127	0xbd94f26e	-0.07272802
128	0x3e9639b1	0.2934089
129	0xbd9d0f12	-0.0766889
130	0x3d888461	0.06665874
131	0x3daf4c7b	0.08559509
132	0xbc2d376d	-0.010572297
133	0xbe0a286d	-0.13491984
134	0x3d498f91	0.04920918
135	0xbd0bea1c	-0.03415881
136	0xbe94e821	-0.2908335
137	0xbd9ab0ed	-0.07553277
138	0xbd525132	-0.051346965
139	0x3e005e78	0.12536037
140	0x3cb58654	0.02215878
141	0x3dbddfc4	0.092711955
142	0x3e23ad11	0.15983988
143	0xbe175894	-0.14779884
144	0x3e24d014	0.16095
145	0x3d952139	0.07281727
146	0x3df1f4d2	0.11814274
147	0x3e319598	0.17342222
148	0x3ccd0d1b	0.025030663
149	0x3e580f0c	0.2109949
150	0xbe90b97e	-0.2826652
151	0x3deae17b	0.11468788
152	0xbe415b1f	-0.18882416
153	0xbe5f9a16	-0.21836123
154	0x3d577e4a	0.052610673
155	0x3e912181	0.28345874
156	0xbe1324be	-0.14369485
157	0x3e103b54	0.14085132
158	0x3de0d8c2	0.10978843
159	0xbda272fd	-0.079320885
160	0xbe4fe387	-0.20301639
161	0x3f30ce67	0.69064945
162	0x3f3d999c	0.74062514
163	0xbf0b236f	-0.5435094
164	0x3f22918e	0.6350335
165	0xbcde01c9	-0.02710046
166	0x3e0473af	0.12934755
167	0x3ed37130	0.41297293
168	0x3e3b991a	0.18320122
169	0x3eebe3f1	0.46072343
170	0xbe9cd868	-0.30633855
171	0xbed0159b	-0.40641484
172	0x3eaacf75	0.33361402
173	0xbe768ab5	-0.2407635
174	0xbeeff4f8	-0.46866584
175	0xbe4bccea	-0.19902387
176	0xbe99ad4d	-0.3001503
177	0x3c997108	0.018730655
178	0x3edc0b64	0.4297744
179	0x3ec89180	0.39173508
180	0x3ee7ac0e	0.45248455
181	0xbef21aea	-0.4728616
182	0x3eb6ef1f	0.3572931
183	0xbe9e3667	-0.3090088
184	0xbf1305e8	-0.5743089
185	0x3d5eae93	0.054365706
186	0xbed0619b	-0.40699467
187	0xbd6dcc6d	-0.058056284
188	0xbcd43dbc	-0.025908343
189	0x3f058b40	0.52165604
190	0xbdfbc9a3	-0.122943185
191	0x3f0571b6	0.52126634
192	0xbce34641	-0.02774346
193	0x3e34cebc	0.17656988
194	0xbdb9ca66	-0.090718076
195	0x3d2c7724	0.04210581
196	0x3e122f67	0.14275895
197	0xbe0cf35c	-0.13764709
198	0x3bc15da5	0.005901056
199	0x3d14c8ff	0.036324497
200	0xbe292646	-0.16518506
201	0x3dc29cb9	0.09502549
202	0x3e2a13cc	0.16609114
203	0xbd983568	-0.074320614
204	0x3e127029	0.14300598
205	0x3e18ba3c	0.14914793
206	0x3c410b73	0.011782515
207	0x3e043b1b	0.12913172
208	0xbc8e31e1	-0.017357768
209	0x3d9f83dc	0.07788822
210	0x3d8b2219	0.06793613
211	0x3e90b8fe	0.28266138
212	0x3d40ffb6	0.047118865
213	0x3cd1069d	0.025515849
214	0xbdbc3e4b	-0.09191569
215	0x3dffc5df	0.12488913
216	0xbdc3d4d1	-0.09562076
217	0x3df44e57	0.11929005
218	0x3de7a54d	0.113108255
219	0x3e05807b	0.13037293
220	0xbe3ce835	-0.18447955
221	0x3d50236e	0.05081504
222	0x3e101fc8	0.14074624
223	0x3e9a054e	0.30082172
224	0x3ea35883	0.31903467
225	0x3e043edd	0.12914605
226	0xbe5c7ab2	-0.2153118
227	0x3e6d46d4	0.2317155
228	0xbd834854	-0.0641028
229	0xbe9e139f	-0.30874345
230	0xbe2492d8	-0.16071641
231	0x3e3d6b23	0.184979
232	0xbe3aa138	-0.18225563
233	0x3de9d08a	0.11416729
234	0xbe3a2c13	-0.18180875
235	0x3e3fda6b	0.18735664
236	0x3e6495e8	0.2232281
237	0x3e4669b7	0.19376265
238	0x3ed7e927	0.4217007
239	0xbcd9151b	-0.026499322
240	0x3e590373	0.21192722
241	0x3eab6a8d	0.3347973
242	0x3d3a2b28	0.045451313
243	0x3e093b9f	0.1340165
244	0x3e81722b	0.25282416
245	0xbe2fae8c	-0.17156428
246	0xbe65603c	-0.22399992
247	0x3e658986	0.22415742
248	0xbea4ecdc	-0.3221196
249	0xbe16e637	-0.14736257
250	0xbe04c0e3	-0.12964205
251	0x3e1e383d	0.1545114
252	0xbe7f7c30	-0.24949718
253	0x3e8beea2	0.273305
254	0xbd27b78c	-0.04094653
255	0x3e15fa0f	0.14646171

item_embed.weight f4 [578, 32]
0	0xbdc8abd5	-0.09798399
1	0x3e3d0c1f	0.18461655
2	0x3eb50254	0.3535334
3	0xbe8c1022	-0.27356058
4	0xbd8ee3d6	-0.0697705
5	0xbebd0580	-0.3691826
6	0xbe5ab777	-0.21359049
7	0xbea5ab8d	-0.32357445
8	0x3e314536	0.17311558
9	0x3e870c43	0.26376542
10	0xbda625ce	-0.081126794
11	0xbe080fc2	-0.13287261
12	0x3ebd3f72	0.36962467
13	0x3e1fbf10	0.15600228
14	0xbe205438	-0.15657127
15	0x3d606ed4	0.054793194
16	0xbe9c08a3	-0.3047534
17	0x3ed3175e	0.41228765
18	0xbde42c87	-0.111413054
19	0x3e5f0113	0.21777754
20	0xbe39a209	-0.18128218
21	0xbeb226e6	-0.34795302
22	0x3ebc567b	0.3678473
23	0x3d9bb451	0.07602752
24	0xbe4c099d	-0.19925542
25	0xbd3b4c68	-0.045727164
26	0xbef37760	-0.47552013
27	0xbe826a99	-0.25471953
28	0xbe1b2578	-0.15151012
29	0x3dcb19e0	0.09917045
30	0x3ddcad68	0.10775262
31	0x3dccefa2	0.10006644
32	0x3cbfca50	0.0234119
33	0xbca14899	-0.019687938
34	0x3ee7c033	0.45263824
35	0xbeb6890c	-0.35651433
36	0x3e60cc4e	0.21952936
37	0xbf0aea88	-0.54264116
38	0xbee5cf90	-0.4488492
39	0xbe88e89f	-0.26739976
40	0xbddcf484	-0.10788825
41	0x3dbb4524	0.09144047
42	0x3d69250b	0.056920093
43	0xbe170c93	-0.1475089
44	0x3e852614	0.26005614
45	0x3e987515	0.29776827
46	0xbec0243a	-0.3752764
47	0x3ed80739	0.4219301
48	0xbd8d504d	-0.06900082
49	0x3ebb1013	0.365357
50	0xbe76f184	-0.24115568
51	0x3e5685bb	0.20949452
52	0x3e81f97d	0.25385657
53	0xbeb868c6	-0.36017436
54	0xbe780a93	-0.24222784
55	0x3e18de0b	0.14928453
56	0xbe185fa9	-0.14880241
57	0xbe51b2b2	-0.20478323
58	0x3e2319ec	0.15927857
59	0xbe2bd5db	-0.16780798
60	0xbed4068c	-0.41411245
61	0x3e084e82	0.13311198
62	0x3e5d5acf	0.21616672
63	0x3ca90493	0.020632064
64	0x3d9fc4f7	0.0780124
65	0x3ea998b8	0.33124328
66	0x3e91bc31	0.2846389
67	0xbd3b94af	-0.045796093
68	0x3df3e9cc	0.119098276
69	0xbe9899f3	-0.29804954
70	0xbe826b68	-0.2547257
71	0xbdc4ad1d	-0.09603331
72	0xbe4d8da2	-0.2007356
73	0xbd887d9b	-0.06664582
74	0xbe579a59	-0.21054973
75	0xbdd61628	-0.10453445
76	0x3e9bc8cc	0.30426633
77	0x3d91f499	0.071267314
78	0xbe73edf8	-0.23821247
79	0xbcb2de3e	-0.021834489
80	0xbebad5fe	-0.36491388
81	0x3c501915	0.0127012925
82	0xbee4c217	-0.4467933
83	0x3ecc173d	0.3986148
84	0xbdb0e2ce	-0.086370096
85	0xbf1430b8	-0.5788684
86	0xbc05fd39	-0.008178049
87	0x3e894606	0.26811236
88	0xbea357af	-0.31902835
89	0xbe6a82b9	-0.22901429
90	0xbf0a65e3	-0.54061717
91	0x3e0953f7	0.13410936
92	0xbec548ab	-0.38532004
93	0x3dccc46a	0.099984005
94	0x3e63ee15	0.2225879
95	0xbe978ccb	-0.29599604
96	0xbd0bfa97	-0.034174528
97	0x3d987467	0.07444077
98	0x3d9e2dc8	0.07723576
99	0xbcba45d4	-0.022738375
100	0xbe475b24	-0.19468361
101	0xbd927332	-0.07150878
102	0x3e86e71c	0.26348197
103	0x3d964646	0.07337622
104	0xbdd5991f	-0.10429596
105	0xbcf2ca93	-0.02963761
106	0xbe08f9de	-0.13376567
107	0x3eaa46b6	0.33257073
108	0x3d4b878a	0.049689807
109	0xbd3dcea7	-0.046339657
110	0x3e42ae28	0.19011748
111	0xbd354ec0	-0.044264555
112	0x3e0466a7	0.12929784
113	0x3e9020da	0.28150064
114	0x3e85c40a	0.26126128
115	0x3d20ee70	0.03928989
116	0xbdb2a0a8	-0.08722049
117	0xbd07fd1c	-0.03320037
118	0xbb74816b	-0.0037308584
119	0x3e5df896	0.2167686
120	0xbd1c22a4	-0.038118973
121	0x3e1a5bee	0.15074131
122	0x3e03c42b	0.12867801
123	0x3e8be48b	0.27322802
124	0x3db94a59	0.09047384
125	0xbd909fd1	-0.070617326
126	0x3e098fa5	0.13433702
127	0xbe0c8c6a	-0.13725439
128	0xbddf68ba	-0.10908647
129	0x3d97e213	0.07416167
130	0x3cc74884	0.02432657
131	0xbe09210a	-0.1339151
132	0xbe970d0a	-0.29502136
133	0x3ed02dc8	0.40659928
134	0x3e8af07f	0.2713661
135	0x3aabc223	0.0013104122
136	0x3e252f0e	0.16131231
137	0xbe544b7d	-0.20731921
138	0xbdc986db	-0.09840175
139	0xbdde147b	-0.1084375
140	0xbeafb363	-0.3431655
141	0xbe9f4893	-0.31110057
142	0xbdecf4d5	-0.115701355
143	0xbdecdbd6	-0.11565368
144	0xbce6b17d	-0.028160805
145	0xbda9d7f8	-0.08293146
146	0xbed11c10	-0.40841722
147	0xbe3a75e0	-0.18209028
148	0xbe461621	-0.19344379
149	0x3d20d6d0	0.03926736
150	0x3e8baac3	0.27278718
151	0xbe5c2ac1	-0.21500684
152	0x3ef012a8	0.46889234
153	0x3e0b33a9	0.13593926
154	0xbca790a5	-0.020454714
155	0xbebf4423	-0.37356672
156	0x3ea7aed9	0.32750586
157	0xbe933609	-0.28752163
158	0xbe8a78ff	-0.27045438
159	0x3d709c0c	0.058742568
160	0xbd486954	-0.048928574
161	0xbc186f9c	-0.0093039535
162	0xbe2fed63	-0.171804
163	0xbe1e7ef2	-0.15478113
164	0x3e757727	0.23971234
165	0x3eb17dbc	0.3466624
166	0x3e0f4330	0.13990474
167	0xbd70b8ba	-0.05876992
168	0x3e849e2c	0.25901926
169	0xbcc690f2	-0.024239037
170	0xbdbdadfc	-0.092617005
171	0xbd6c4fb6	-0.057693206
172	0xbe0256e8	-0.12728465
173	0xbddd41e4	-0.10803583
174	0xbe1e5356	-0.15461478
175	0x3d315a7a	0.043299176
176	0xbe099461	-0.13435508
177	0xbe7e9344	-0.24860865
178	0xbd3b5904	-0.04573919
179	0x3e1df5b3	0.15425758
180	0xbdc8f450	-0.09812224
181	0x3d19b624	0.03752722
182	0x3e93f269	0.28895882
183	0xbe10e042	-0.14148048
184	0x3d8a59e0	0.067554235
185	0x3ec2f685	0.38078704
186	0x3a2488b9	0.0006276477
187	0x3dc8be42	0.09801914
188	0x3e3de994	0.18546134
189	0xbddeadc2	-0.108729854
190	0xbdeeffbb	-0.116698705
191	0x3e32a3ee	0.17445347
192	0x3dad819c	0.08471987
193	0x3f016edd	0.5055979
194	0x3eb32b36	0.34993905
195	0xbee22ed3	-0.4417635
196	0x3debd1bb	0.11514612
197	0xbe9c37c5	-0.305113
198	0xbecccd1e	-0.40000242
199	0xbea7a3d1	-0.3274217
200	0xbec278dd	-0.37982836
201	0x3f22b238	0.6355319
202	0xbeb72c16	-0.35775822
203	0xbf18d9f5	-0.59707576
204	0x3ed6406a	0.4184602
205	0x3ee62173	0.44947395
206	0x3e583fb6	0.21118054
207	0xbdcf598e	-0.10124503
208	0x3e94c489	0.29056194
209	0x3efcb9e5	0.49360576
210	0x3e7fb100	0.24969864
211	0x3ef63076	0.48083848
212	0xbc7fcb0b	-0.015612374
213	0xbf19fc03	-0.60150164
214	0xbf048de1	-0.5177899
215	0x3efaee2d	0.4900984
216	0xbef8476e	-0.48491997
217	0xbe2372aa	-0.1596171
218	0xbeb37f0b	-0.35057864
219	0xbd9ea665	-0.07746581
220	0xbef0cdd9	-0.4703205
221	0x3ecd5d46	0.40110224
222	0x3ed42a62	0.41438586
223	0x3e97422e	0.2954268
224	0xbdad78f9	-0.08470339
225	0x3e72c72f	0.23708795
226	0x3f272f72	0.6530677
227	0xbee80a24	-0.45320237
228	0x3d5c367d	0.0537629
229	0xbef5baad	-0.47993985
230	0xbe94af05	-0.2903978
231	0xbdb3141d	-0.08744071
232	0xbf105871	-0.5638495
233	0x3eb3c9b8	0.35114837
234	0x3c41a625	0.011819397
235	0xbf1e6380	-0.61870575
236	0x3f19560c	0.5989692
237	0x3e880628	0.26567197
238	0xbdd64b7c	-0.10463616
239	0x3d080c52	0.033214875
240	0xbeb3a98e	-0.35090297
241	0x3f06c461	0.526434
242	0x3e9978e0	0.29975033
243	0x3f1b5fea	0.6069323
244	0x3dc6c822	0.09706141
245	0xbef01dba	-0.4689768
246	0x3dc6fd4a	0.0971628
247	0x3db042b2	0.08606471
248	0xbee93698	-0.45549464
249	0xbe532dc8	-0.20622933
250	0xbe8897c0	-0.26678276
251	0x3d08ef10	0.033431113
252	0xbf15114b	-0.5822951
253	0x3e9d2bfe	0.30697626
254	0x3ed62bed	0.41830388
255	0x3e9e15d6	0.30876034

entity_embed.weight f4 [886, 32]
0	0xbda67264	-0.08127287
1	0xbd463f49	-0.048400197
2	0x3d9229b0	0.071368575
3	0x3c68141b	0.01416495
4	0xbcc2cf1c	-0.023780398
5	0xbd4d248d	-0.050083686
6	0x3cffb792	0.031215463
7	0x3c9e8b90	0.019353658
8	0x3d2f0b63	0.04273547
9	0xbc9eb43e	-0.019373056
10	0xbd000f00	-0.031264305
11	0xbdc4ebfa	-0.096153215
12	0xbcf55f0d	-0.02995255
13	0xbd168254	-0.036745384
14	0xbd29e0c2	-0.04147411
15	0x3d131486	0.035908245
16	0xbdc0ff95	-0.094237484
17	0x3d51a9f3	0.051187467
18	0xbbb67672	-0.005568319
19	0x3d60c37b	0.054873925
20	0x3d4b05b3	0.049565982
21	0xbc751ca8	-0.014960445
22	0x3d15d6af	0.03658169
23	0x3d8e3a72	0.06944741
24	0xbc98b4be	-0.018640872
25	0xbcdac88d	-0.026706958
26	0xbbf700a3	-0.0075379177
27	0x3d0c4e56	0.034254394
28	0xbd7ece57	-0.0622085
29	0x3d91f84d	0.07127438
30	0xbd946c66	-0.07247238
31	0xbd84eb48	-0.06490189
32	0x3daf2389	0.085517
33	0xbda16548	-0.07880646
34	0x3dc8a181	0.097964294
35	0xbd05e665	-0.032690424
36	0x3d0b4bc2	0.034007795
37	0xbcf7131d	-0.030160481
38	0xbdb285dd	-0.08716939
39	0xbdc1914d	-0.09451542
40	0x3d6e8803	0.05823518
41	0xbd125bff	-0.035732266
42	0xbc4521b2	-0.012031959
43	0xbd843841	-0.06456042
44	0x3df01ca2	0.11724211
45	0x3c4eb85f	0.0126172
46	0x3c98cd80	0.018652678
47	0x3dff5000	0.12466431
48	0xbcc2be07	-0.023772253
49	0x3dbc0153	0.0917994
50	0xbc88daca	-0.01670589
51	0xbcab5c84	-0.020918138
52	0xbd22e756	-0.0397714
53	0xbd247790	-0.040153086
54	0x3cfafd5c	0.03063839
55	0x3d725ce8	0.059170634
56	0x3cf72093	0.0301669
57	0xbde9572c	-0.1139358
58	0xbd8b53a5	-0.06803063
59	0x3d3ae49d	0.04562818
60	0x3c05b292	0.00816025
61	0x3dd8cb8c	0.105856985
62	0x3daaabb2	0.083335295
63	0xbc20a7a0	-0.00980559
64	0x3d659ea9	0.056059513
65	0x3d91d250	0.07120192
66	0x3dd064f0	0.10175502
67	0xbd887886	-0.06663613
68	0x3d9f9f3f	0.07794046
69	0xbd78e1e1	-0.06076229
70	0xbd1e3bb1	-0.038631145
71	0xbdb844b6	-0.089974806
72	0x3cca0dd3	0.024664795
73	0xbc717370	-0.014736995
74	0xbd39714e	-0.04527407
75	0x3cb6c21a	0.022309352
76	0x3da12815	0.07868973
77	0xbdc09abc	-0.09404513
78	0x3bd009ee	0.00634884
79	0xbd8da48a	-0.06916149
80	0xbda4c5cc	-0.08045539
81	0x3d8947a0	0.067031145
82	0xbdcbd8d1	-0.09953464
83	0x3dc9cbe5	0.09853343
84	0x3d834de3	0.0641134
85	0xbdf0d642	-0.117596164
86	0x3b135b4a	0.0022484832
87	0x3dafeec2	0.08590461
88	0xbd00bf95	-0.031432707
89	0x3d0eb170	0.034837186
90	0xbe1948f7	-0.1496924
91	0x3d412bf4	0.047161058
92	0xbb0cafc7	-0.0021467076
93	0x3d220fc5	0.03956582
94	0x3d0afb7e	0.033931248
95	0xbde2ffa4	-0.11083916
96	0xbd089720	-0.03334725
97	0xbd639ea3	-0.05557121
98	0x3cf1d134	0.029518701
99	0xbd94b84b	-0.072617136
100	0x3d5e388b	0.054253142
101	0x3db4e39a	0.08832474
102	0xbcaa458a	-0.020785112
103	0x3d3b36c0	0.04570651
104	0xbd1038f7	-0.035210576
105	0x3c235faf	0.009971543
106	0x3d573896	0.0525442
107	0xbd65f176	-0.05613848
108	0x3d287fcd	0.041137505
109	0xbc29e5c0	-0.010369718
110	0x3b861675	0.0040920326
111	0xbd907564	-0.070536405
112	0x3d4abbf8	0.049495667
113	0x3d195a1b	0.037439447
114	0x3b984e59	0.0046480116
115	0x3d7adf91	0.061248366
116	0xbb0f2da2	-0.0021847268
117	0xbd082713	-0.03324039
118	0x3d80dd27	0.062921815
119	0xbd583e3d	-0.05279373
120	0x3d5f30f9	0.054490063
121	0x3c0d4239	0.008621746
122	0x3d92b76f	0.071638934
123	0x3d448070	0.04797405
124	0x3c6df004	0.014522556
125	0xbd059c3e	-0.032619707
126	0xbc3f2d1d	-0.011668471
127	0x3d2813f3	0.04103465
128	0xbcee9bfe	-0.029127117
129	0xbb01b72a	-0.0019793012
130	0x3d042c2a	0.03226868
131	0x3ca06791	0.019580634
132	0xbd910651	-0.07081283
133	0x3cebbc05	0.028776178
134	0x3cfe5522	0.031046454
135	0xbd2aeca7	-0.041729596
136	0x3d1e1cc4	0.03860165
137	0xbd6c3e34	-0.05767651
138	0xbd777f0c	-0.060423896
139	0x3c9398f1	0.018017264
140	0xbce1fa9a	-0.027585316
141	0xbdbe805b	-0.093018256
142	0xbce289bb	-0.027653566
143	0xbc3caeec	-0.011516314
144	0x3d8a1a04	0.06743243
145	0x3d06dc03	0.032924663
146	0xbd31580c	-0.04329686
147	0x3da030be	0.07821797
148	0x3c534d3e	0.012896834
149	0xbd6d5baa	-0.057948746
150	0x3d604fc5	0.054763574
151	0xbd46d3cb	-0.048541825
152	0x3cfcb0af	0.030845968
153	0xb924c86f	-0.00015714926
154	0x3d5ea296	0.054354273
155	0xbc44ebd4	-0.012019116
156	0xbd001d24	-0.03127779
157	0xb9e47293	-0.00043572913
158	0xbdb7e4a5	-0.08979157
159	0xba45479a	-0.0007525623
160	0xbd8b300d	-0.06796274
161	0x3cb14ac9	0.021642106
162	0x3b770d8e	0.0037697288
163	0xbcfe1ad3	-0.03101865
164	0x3d32015c	0.043458328
165	0x3d5fa237	0.05459806
166	0x3d9e8ff7	0.07742303
167	0x3b634e93	0.0034684285
168	0x3cf2347e	0.029566046
169	0x3d8f89ab	0.0700868
170	0xb8a4a410	-7.8506884e-05
171	0xbd890239	-0.06689877
172	0xbd9d9671	-0.0769471
173	0x3c6bf5d3	0.014401871
174	0xbce4f5e3	-0.02794928
175	0x3d8d98c8	0.06913906
176	0xbd0aeef7	-0.0339193
177	0xbda226e8	-0.07917577
178	0xba451b2a	-0.00075190014
179	0x3d86fabb	0.06590792
180	0x3cf060a6	0.02934296
181	0x3c0a867a	0.008454913
182	0x3c8ae9df	0.016957222
183	0x3d1ce7d6	0.038307033
184	0xbc505933	-0.012716579
185	0x3d2a8f73	0.04164071
186	0x3c17492e	0.009233756
187	0xbc27fce3	-0.010253164
188	0x3d214246	0.039369844
189	0x3b50ec14	0.0031878995
190	0xbda8b540	-0.08237696
191	0xbd75468b	-0.05988173
192	0xbce93be0	-0.028470933
193	0x3d14c0cf	0.03631669
194	0x3d9e480c	0.077285856
195	0xbdef9601	-0.11698533
196	0xbd5a54ab	-0.053303402
197	0xbde23e8a	-0.11047085
198	0xbd071359	-0.032977436
199	0xbe04ed54	-0.12981158
200	0xbc1cefe3	-0.009578678
201	0x3e01c171	0.12671448
202	0xbc2dd6c0	-0.010610282
203	0xbd137bd4	-0.036006764
204	0x3e20de28	0.15709746
205	0x3e0518d1	0.12997748
206	0x3c88aa5c	0.016682796
207	0xbca62992	-0.020283494
208	0x3d8d04ab	0.06885656
209	0x3c01564e	0.007894112
210	0x3d20f2ca	0.03929404
211	0xbbe18cd6	-0.006883244
212	0xbd796332	-0.060885616
213	0xbddb1e9d	-0.106991984
214	0xbdcada85	-0.099049605
215	0x3d576ced	0.052594114
216	0xbd968f5c	-0.073515624
217	0xbdb5363a	-0.088482335
218	0xbdb4e8df	-0.08833479
219	0x3c3d1fcc	0.0115432255
220	0xbdb59541	-0.088663585
221	0x3d13bb27	0.036067154
222	0x3d61381e	0.05498516
223	0x3ce90e76	0.028449278
224	0xbd852ab6	-0.06502287
225	0xba7889f6	-0.0009481007
226	0x3defbfaa	0.11706479
227	0xbdd39817	-0.10331743
228	0xbc7415a9	-0.014897742
229	0xbd120e60	-0.03565824
230	0xbcd36224	-0.025803633
231	0xbdb88df5	-0.09011451
232	0x3ca226ba	0.019793857
233	0x3d35183d	0.04421257
234	0x3d731050	0.05934173
235	0xbd6ab076	-0.057297193
236	0x3d9a9e89	0.075497694
237	0x3ce5cab1	0.028050752
238	0xbd8f35d4	-0.06992689
239	0xbda17fff	-0.078857414
240	0xbdc95202	-0.09830095
241	0x3dffe83e	0.124954686
242	0x3d963799	0.07334823
243	0x3dbb9be5	0.09160594
244	0x3d34f6f8	0.04418084
245	0xbd2f162f	-0.042745765
246	0x3d9c2ff1	0.076263316
247	0x3d51ba64	0.051203147
248	0x3c58fba0	0.013243586
249	0xba580547	-0.00082405325
250	0xbd96168a	-0.07328518
251	0x3c32265e	0.010873405
252	0xbd84bec1	-0.06481696
253	0x3cfd7543	0.030939704
254	0x3c4210b5	0.011844804
255	0xbac559fb	-0.0015056723

relation_embed.weight f4 [114, 32]
0	0xbce929dd	-0.028462345
1	0x3c2ba0d6	0.010475358
2	0xbcdf13b6	-0.027231079
3	0xbe10122d	-0.14069434
4	0x3db77cd2	0.089593545
5	0x3dc613d5	0.096717514
6	0x3d64f9c1	0.055902246
7	0xbe35e2f0	-0.17762351
8	0xbde83b09	-0.11339385
9	0xbd2beb4b	-0.04197244
10	0xbca6b731	-0.020351024
11	0xbd3af823	-0.045646798
12	0x3d935425	0.07193784
13	0x3e41f751	0.18942
14	0x3de8c16a	0.11365016
15	0xbdc0e205	-0.0941811
16	0xbdb45a89	-0.08806331
17	0xbd62ae20	-0.05534184
18	0x3d4e9d18	0.050442785
19	0xbd9cd150	-0.07657111
20	0xbd7b7453	-0.061390232
21	0x3ca96e84	0.02068258
22	0x3ce8e116	0.028427642
23	0xbdd0c401	-0.10193635
24	0x3e0889f8	0.13333881
25	0x3d56f69a	0.05248127
26	0x3e326f00	0.17425156
27	0xbe45196b	-0.19247977
28	0xbccdf30e	-0.025140312
29	0xbce41331	-0.027841182
30	0x3e27f56d	0.16402216
31	0x3e3b23ac	0.18275326
32	0xbd414712	-0.04718692
33	0x3e077ff1	0.132324
34	0x3c4c2aa3	0.012461337
35	0xbc1a2208	-0.009407528
36	0xbe21d607	-0.15804301
37	0xbe17de5d	-0.14830919
38	0x3cca9800	0.024730682
39	0xbe4a5114	-0.19757491
40	0x3e2be037	0.1678475
41	0x3c4f2899	0.012643957
42	0xbe1932f9	-0.14960851
43	0x3e00e2aa	0.12586465
44	0xbe23c78f	-0.15994094
45	0xbe0bd2a1	-0.13654567
46	0xbdc2b1b2	-0.09506549
47	0xbd30b3f3	-0.043140363
48	0xbd1d340c	-0.038379714
49	0xbe38a784	-0.18032652
50	0x3b4cf721	0.003127523
51	0xbe21519b	-0.15753786
52	0xbdb8cecf	-0.090238206
53	0x3d571b54	0.052516297
54	0xba42ec1a	-0.00074356946
55	0x3e0a1795	0.13485558
56	0x3dc613bb	0.09671732
57	0xbb13fb14	-0.0022580074
58	0x3da548a4	0.08070496
59	0x3bb1c13f	0.005424648
60	0xbd09d21f	-0.033647653
61	0x3dcf6e4e	0.10128461
62	0xbd9c2cf1	-0.076257594
63	0xbe43f4c4	-0.1913634
64	0x3ddb5c24	0.10710934
65	0xbcc36b33	-0.023854828
66	0x3c17099b	0.009218599
67	0x3d7bd381	0.061481003
68	0x3ccec779	0.0252416
69	0xbe1a2d43	-0.15056328
70	0x3d330a96	0.043711267
71	0xbe16cf98	-0.14727628
72	0xbd13280a	-0.035926856
73	0xbe22ade7	-0.15886651
74	0x3df581c1	0.11987639
75	0xbcc1dda8	-0.023665264
76	0x3b1f3c14	0.0024297284
77	0xbe767495	-0.2406791
78	0x3d9fe9e8	0.07808286
79	0xbe230e0b	-0.15923326
80	0xbe0e50fb	-0.13898079
81	0x3e0cf574	0.13765508
82	0x3e1904cb	0.14943235
83	0x3e5ba7db	0.2145075
84	0x3da755f7	0.08170693
85	0xbdaab7d8	-0.08335847
86	0x3d875efa	0.06609912
87	0x3e05a481	0.13051035
88	0x3e44c38a	0.19215217
89	0xbe09337f	-0.1339855
90	0x3da4f445	0.08054403
91	0x3d056771	0.032569353
92	0x3e016c84	0.12639052
93	0x3de73214	0.112888485
94	0x3da29f93	0.079405926
95	0xbe1fe32f	-0.15614007
96	0x3d62f695	0.05541094
97	0xbe23ae7a	-0.15984526
98	0xbdadd6ae	-0.084882125
99	0xbcf83619	-0.030299233
100	0xbdb3cffc	-0.08779904
101	0xbda2d444	-0.07950643
102	0x3b545087	0.003239663
103	0x3e1b6a57	0.15177284
104	0xbdd3b881	-0.10337926
105	0x3d63c6d2	0.05560953
106	0xbdab05a0	-0.08350682
107	0xbda2392b	-0.0792106
108	0xba886714	-0.0010406696
109	0xbe47dcf8	-0.19517887
110	0xbcb46845	-0.022022376
111	0xbe1e9f0c	-0.15490359
112	0x3e05954e	0.13045236
113	0xbd94191a	-0.0723135
114	0x3cd300fd	0.025757307
115	0x3d99f631	0.075176604
116	0xbdf7003c	-0.120605916
117	0xbe4a215a	-0.19739285
118	0xbd6c04e8	-0.057621866
119	0xbdc4af42	-0.0960374
120	0x3e2c2fb1	0.16815068
121	0xbe289c43	-0.16465859
122	0xbdac37c5	-0.08409075
123	0x3e3cd3c0	0.18440151
124	0xbd9691a2	-0.07351996
125	0xbe3b594f	-0.18295787
126	0x3e25778a	0.16158882
127	0x3dd9a0a0	0.1062634
128	0xbde6e949	-0.11274964
129	0x3da24f85	0.079253234
130	0xbdfa9229	-0.12234909
131	0xbddfc8e9	-0.109269924
132	0xbc4f01ef	-0.012634738
133	0x3de82fc6	0.11337237
134	0xbc69e958	-0.014276825
135	0xbe073b69	-0.13206257
136	0x3dd57220	0.10422158
137	0x3d5c560f	0.05379301
138	0xbc5b86e2	-0.013398858
139	0xbd988e71	-0.074490435
140	0xbd27b068	-0.04093972
141	0xbdf41898	-0.119187534
142	0x3e10f957	0.14157616
143	0xbb64b287	-0.003489645
144	0x3c9bf397	0.019037051
145	0x3e038cbe	0.12846658
146	0xbc481b25	-0.012213503
147	0x3d8ec7b9	0.06971688
148	0x3dd1ef89	0.10250766
149	0x3dfaee45	0.122524776
150	0xbc5fcee4	-0.013660166
151	0xbe2450e7	-0.16046487
152	0xbdc8a90b	-0.097978674
153	0xbdbe1b5f	-0.09282564
154	0x3bbadc08	0.0057024993
155	0x3c9adc71	0.018903943
156	0xbd2401ec	-0.040040895
157	0xbe4c1f82	-0.19933894
158	0xbe01861c	-0.12648815
159	0xbe04ec90	-0.12980866
160	0xbe0f4a50	-0.13993192
161	0xbd5155a3	-0.05110706
162	0xbe086c71	-0.13322617
163	0x3dc03242	0.09384586
164	0x3d474397	0.048648443
165	0x3db5423f	0.08850526
166	0x3d9a74f9	0.07541842
167	0x3d22b8ba	0.03972695
168	0xbd7b43d3	-0.06134398
169	0xbd99b7e2	-0.07505776
170	0xbd882977	-0.06648534
171	0xbdeadbb8	-0.11467689
172	0xbd0eb28a	-0.034838237
173	0xbe114252	-0.14185455
174	0xbe539e77	-0.20665918
175	0x3de6143f	0.112343304
176	0xbd01c30b	-0.031680148
177	0x3c927224	0.017876692
178	0xbd94051c	-0.07227537
179	0xbdf7ac18	-0.12093371
180	0x3db2830d	0.08716402
181	0xbd849c1b	-0.06475087
182	0x3e277307	0.16352473
183	0x3d914f42	0.07095195
184	0xbb85b90b	-0.0040808967
185	0xbdc94e94	-0.09829441
186	0xbbf2e329	-0.0074123335
187	0xbe085d78	-0.13316905
188	0x3cb30b9d	0.021856124
189	0x3e12b98e	0.14328596
190	0xbd804bbf	-0.062644474
191	0xbdc6f597	-0.09714811
192	0x3d98a0da	0.07452555
193	0x3e438e42	0.19097236
194	0x3df0b81c	0.11753866
195	0x3e18853a	0.14894572
196	0xbc96c70e	-0.018405464
197	0x3e4a1b63	0.1973701
198	0x3d063c31	0.032772247
199	0xbce95cf7	-0.028486712
200	0x3b82c60c	0.003990894
201	0xbd4232f2	-0.047411866
202	0xbcda7341	-0.026666285
203	0xbd249c18	-0.040187925
204	0xbe001533	-0.12508087
205	0xbdf64b94	-0.12026134
206	0x3daa2a70	0.083088756
207	0xbd873086	-0.06601052
208	0x3d41397c	0.047173962
209	0xbe1b28ef	-0.15152334
210	0xbc957ac3	-0.018247014
211	0x3e17e52a	0.14833513
212	0x3d261fc8	0.040557653
213	0x3d06d3ed	0.032916952
214	0x3e19dd2e	0.1502578
215	0x3de9a35e	0.11408113
216	0xbc9eb620	-0.019373953
217	0x3d4a503a	0.049392916
218	0xbace9d99	-0.001576352
219	0xbd9fe342	-0.07807018
220	0xbdf4e01c	-0.11956808
221	0x3cafeda9	0.02147563
222	0xbe1d8aee	-0.15385029
223	0xbe305ee5	-0.172237
224	0x3cb68715	0.022281209
225	0xbe374d96	-0.1790069
226	0xbde90d9c	-0.11379549
227	0xbd0fb1ea	-0.03508178
228	0x3d28a8af	0.041176494
229	0x3e065777	0.13119303
230	0xbe3f7f7f	-0.1870098
231	0x3d1b9257	0.037981357
232	0xbd85d1fa	-0.065341905
233	0xbafb9e6b	-0.0019196993
234	0x3e335c52	0.17515686
235	0x3da1168c	0.078656286
236	0x3d43a7e4	0.047767535
237	0xbe38bb07	-0.18040095
238	0xbdff26cb	-0.12458571
239	0xbe199453	-0.14997987
240	0x3e33c7ff	0.17556761
241	0x3d9651b6	0.07339804
242	0x3e3916e5	0.1807514
243	0xbdb138e4	-0.08653429
244	0x3dc79b1c	0.09746382
245	0xbe5c2334	-0.21497804
246	0x3d9b1ef1	0.07574261
247	0xbe20dccf	-0.15709232
248	0x3df2d77e	0.11857508
249	0xbe25659c	-0.16152042
250	0xbdb69122	-0.08914401
251	0xbd616180	-0.055024624
252	0xbdac5dbf	-0.08416318
253	0xbdfd80a1	-0.1237805
254	0xbe51b9f0	-0.20481086
255	0xbd9ee060	-0.0775764
