Knowledge_Graph_Recommendation/recommendation/stage2/trained_model/Douban/Embedding_based/dim32_lr0.001_l20.0001_TransE/add/model13_epoch10.pth (torch, 728343 bytes, 5 tensors)

trans_M f4 [114, 32, 32]
000000 a4 a1 e7 bb 88 21 04 3c b0 91 6b 3b 14 d6 78 3c
       -0.0070688296 0.008064635 0.003594499 0.015187759
000010 9c fe 3c 3c c6 88 e3 3c fc 72 6f 3c a6 f1 c0 3c
       0.011535313 0.02777518 0.014614817 0.023552727
000020 31 d7 8e bc a4 82 10 bc ba a0 e4 3c c1 e9 b8 bc
       -0.017436596 -0.00882021 0.027908672 -0.0225724
000030 00 ab 66 bb e8 b6 1f 3c e0 f7 d4 bc 48 87 bd 3b
       -0.0035197139 0.009748198 -0.025997102 0.005783949
000040 18 1f e3 bc e6 5a e2 3c e0 da 4d bc 98 49 3f 3c
       -0.027724788 0.027631234 -0.012564391 0.011675261
000050 ae 82 0d bc 12 6a a1 3c f0 f8 3a bb 20 9c 40 bb
       -0.0086371135 0.019703899 -0.0028529726 -0.0029389933
000060 32 58 8d 3c 00 58 eb 37 2a 19 c3 3c 96 27 e8 3c
       0.017253969 2.8055161e-05 0.02381571 0.028339189
000070 bb cb 01 3d b3 10 0b 3d cb 09 d9 bc 10 ea ce 3c
       0.031688433 0.033951472 -0.026493927 0.025258094
000080 e8 d7 d3 3b 6b 93 80 bc e0 99 ac 3c 38 9a 95 3b
       0.006464947 -0.015695294 0.021069467 0.0045655034
000090 86 40 8b bc 4c a2 d9 bc d0 ce 7b bc ca d6 94 bc
       -0.01699854 -0.026566647 -0.015369132 -0.018168826
0000a0 e0 75 d1 ba 18 69 a9 bb f4 0b 49 3c 69 af 0a bd
       -0.0015980564 -0.005169999 0.012270916 -0.03385869
0000b0 65 bf e2 bc ee 90 f3 bc 73 4a 03 3d ca 0e ef 3c
       -0.027679155 -0.029732194 0.032053422 0.029181857
0000c0 dc e2 a6 3c 3e 65 ad bc d0 1a 69 3c 4c a0 ae bc
       0.020371847 -0.02116644 0.014227584 -0.02131667
0000d0 a5 73 07 3d 61 d1 05 3d 7f d5 0d 3d ec 1b f4 bc
       0.03306927 0.032670382 0.034627434 -0.02979847
0000e0 4c 4e 52 3c d4 7b b0 bc 5e ae 48 bc 3c b8 14 3c
       0.01283605 -0.02154342 -0.012248604 0.009077128
0000f0 47 d7 ed bc 42 4f f6 3c 80 c8 d6 39 0a 46 9d 3c
       -0.029033316 0.03006709 0.00040966645 0.019198436
000100 bc e8 02 3c f8 6c c8 bb de 41 fa 3c a7 b0 0d bd
       0.0079900585 -0.0061165057 0.030548986 -0.034592297
000110 4c 1e 55 3c b0 90 08 bb ea 1e fc 3c 4e 62 af 3c
       0.013007712 -0.0020838194 0.03077646 0.02140918
000120 dc 84 3e 3c b4 16 c3 bb d4 21 0a 3c 60 d2 8b 3a
       0.011628356 -0.005953634 0.008430917 0.0010667555
000130 9e d1 1f bc 40 ff a4 3c 86 16 d6 bc 70 8e 5f 3b
       -0.0097545665 0.020141244 -0.026133787 0.0034112
000140 6c f1 2a bc f0 ac 6a bb bd 22 d4 bc 20 fe d1 3b
       -0.010433536 -0.0035808645 -0.02589547 0.006408468
000150 0e 45 71 bc e2 1f d6 3c a0 74 8b 3b 62 2f b2 3c
       -0.014725937 0.02613825 0.004255846 0.02175111
000160 6e d3 a4 3c 00 d4 8d bb 42 89 ef 3c 0e 94 fa 3c
       0.020120349 -0.004328251 0.029240254 0.030588176
000170 e7 19 11 bd 2a a1 d7 bc 48 ad 2a 3c a0 d6 ce 3c
       -0.035425093 -0.026321966 0.01041729 0.025248826
000180 a0 be 2c 3b 00 b4 4f 3a aa 33 e9 3c 50 bb 5d bc
       0.0026358739 0.00079232454 0.028467018 -0.013533428
000190 83 58 05 bd c9 e1 09 3d 46 75 0d bd a8 dd b7 3c
       -0.032555114 0.03366259 -0.03453567 0.022444561
0001a0 8a 44 db 3c 98 fd 78 bc 4e 88 ae bc f4 d6 42 3c
       0.02676608 -0.01519718 -0.02130523 0.011892069
0001b0 64 0d 89 bc f2 10 fd 3c 0d 36 05 3d 32 cf a6 3c
       -0.016730018 0.03089187 0.03252225 0.02036247
0001c0 1c 32 45 bc b6 ff dc bc 1a 4e c5 3c 40 f0 9c 3b
       -0.012035873 -0.026977401 0.024085093 0.004789382
0001d0 52 bc 10 bd 80 a3 90 3a ee 43 e1 3c 32 de c3 3c
       -0.035335846 0.0011035055 0.027498212 0.023909662
0001e0 aa ac 84 3c 0a 9d 33 bc 83 b1 e4 bc 66 84 ab bc
       0.016195614 -0.010962734 -0.027916675 -0.020937156
0001f0 41 85 d7 bc b3 aa 94 bc c2 bd e2 bc 81 88 80 bc
       -0.026308658 -0.018147802 -0.027678374 -0.01569009
000200 7c 46 c4 bb 38 98 91 3c 06 cb 11 bc fd 02 aa bc
       -0.0059898477 0.017772779 -0.008898502 -0.020753378
000210 16 d4 d3 3c 08 48 d8 3b 1a 5d f4 3c 7a 69 ae bc
       0.025857966 0.0066003837 0.02982955 -0.02129053
000220 dc eb af bc b8 62 06 3c 3a c8 85 bc 2e 0a fe 3c
       -0.021474771 0.008202247 -0.016330827 0.031010713
000230 fa 45 3a bc 46 a0 44 bc 0e ca df bc 10 4a a5 3b
       -0.011369223 -0.012001103 -0.027318027 0.0050442293
000240 6b eb dc bc 39 9f 97 bc 2a a0 fa 3c 5f 54 01 3d
       -0.026967725 -0.01850854 0.03059395 0.031574603
000250 39 26 91 bc 74 06 6e bc 58 c0 cb 3c c8 48 64 bc
       -0.017718421 -0.014527906 0.02487199 -0.013933368
000260 2e be a1 3c e6 b6 a2 3c 1a 06 8c 3c 20 64 81 bb
       0.019744005 0.019862603 0.017092753 -0.0039487034
000270 2a b1 dc 3c 2e af d9 bc 39 ba ed bc f8 9c f2 bb
       0.026939947 -0.02657279 -0.029019462 -0.007403966
000280 70 01 93 3c 3b b4 06 3d d4 4c 4a bc e2 fd e9 3c
       0.017945021 0.032886725 -0.012347419 0.028563444
000290 b0 32 7e 3c 66 6a ea 3c 56 51 9e 3c a0 da 7e 3b
       0.0155150145 0.028615188 0.019325893 0.0038887635
0002a0 68 f4 d9 bc 40 d6 33 3a ae 47 a0 3c 2f 05 12 3d
       -0.0266058 0.0006860234 0.01956543 0.035649475
0002b0 90 ec 17 3c be 7f 80 bc 38 2c 10 bc 00 18 87 3a
       0.0092727095 -0.015685912 -0.008799605 0.0010306835
0002c0 00 9c 10 39 c8 bf e9 bc dc 0b 30 bc d8 a0 53 bc
       0.00013791025 -0.028533831 -0.010745015 -0.012916766
0002d0 c4 c0 f1 bb 0d 66 10 3d 58 ea 8b 3c e8 12 c5 bc
       -0.007377716 0.035253573 0.017079517 -0.024056867
0002e0 7c bc ba 3c c2 87 e9 bc 08 9d 55 3c 7a 06 9c 3c
       0.022794954 -0.028507117 0.013037927 0.019046057
0002f0 fc eb 74 3c 60 a9 09 bd f0 2f 49 3b d0 a3 9a bb
       0.014948841 -0.033608794 0.003069874 -0.004719235
000300 85 4b d1 bc 10 56 ac 3b 44 a5 75 3c 5c df 52 3c
       -0.025548706 0.005259283 0.014993016 0.012870636
000310 b0 60 17 3c 09 7c 00 3d 68 1a 84 bb 92 13 01 bc
       0.009239361 0.03136829 -0.004031468 -0.007878201
000320 8c 43 10 bd 0c fb f4 bb a0 34 b9 bc cb 23 10 bd
       -0.035220668 -0.007476216 -0.022608101 -0.035190385
000330 64 82 fa bb 94 da 95 3c 8c 59 a8 3c 40 e4 ca bc
       -0.0076449383 0.018292703 0.020550512 -0.024767041
000340 21 f8 03 3d 06 ff 79 bc f6 a4 1f bc c0 6a 37 3a
       0.032219056 -0.015258556 -0.00974392 0.0006996803
000350 53 22 f9 bc 48 40 97 3b fb f4 0b 3d 10 7d ac 3b
       -0.030411875 0.004615817 0.03416918 0.005263932
000360 88 cf b1 3c da 82 bb 3c fd 49 f8 bc 68 9b 20 3c
       0.021705404 0.022889543 -0.030308718 0.009802677
000370 16 29 9b 3c 9a b0 d3 bc b0 93 33 bb f0 82 1b bb
       0.01894049 -0.025841046 -0.002740126 -0.0023729168
000380 49 ec 10 3d ac 6e 03 3c fe f6 6e bc 48 3f de bc
       0.03538159 0.008021992 -0.014585255 -0.027129784
000390 c5 84 80 bc a0 44 a7 3a a4 4f ad bb 2d 1b 04 3d
       -0.01568831 0.0012761541 -0.005289035 0.03225248
0003a0 f0 9c 58 3c 64 ae 0b bc 56 e5 6f bc 1a 3e e6 3c
       0.013221011 -0.008525465 -0.01464208 0.028105784
0003b0 68 e8 f6 bb 05 3b 05 3d ec 78 72 bc a6 1a 0c bd
       -0.007535029 0.03252699 -0.014799338 -0.0342051
0003c0 63 a2 08 bd 38 15 79 3c 76 35 b2 3c a2 11 e8 3c
       -0.03335799 0.015202813 0.021754008 0.02832872
0003d0 e2 8f a5 3c 96 f2 bf bc fe 06 b0 bc d0 c2 bb 3b
       0.02021021 -0.023431104 -0.02148771 0.0057300106
0003e0 58 4b bd 3c 50 7d b5 bc 64 35 1e bc 3a 46 de 3c
       0.023107216 -0.02215448 -0.009656284 0.027133096
0003f0 e2 53 dc 3c 5e 59 87 3c 92 b9 4c bc 30 df 5e bb
       0.026895467 0.016522106 -0.012495415 -0.0034007542

user_embed.weight f4 [447, 32]
000000 f7 62 40 3e 1b 71 4b bc c6 64 bb 3a 4c 96 1d 3e
       0.18787752 -0.012417103 0.0014297001 0.15389365
000010 87 e5 82 bd 66 b9 c3 3c 67 14 a1 bd bf c0 de bd
       -0.06391435 0.023892116 -0.078652196 -0.10876607
000020 ee 97 e5 bc 26 b9 3a 3c 75 c1 d4 3d bc ac a1 bc
       -0.028026547 0.011396682 0.103884615 -0.019735686
000030 99 20 87 3c 0c ce d0 3d 0b bd 9f 3d f8 78 2a 3e
       0.016495036 0.1019555 0.07799729 0.16647708
000040 2d 03 3b 3b f3 10 c0 bd eb 81 b8 3c 2a 68 89 bd
       0.0028535828 -0.09378233 0.022522887 -0.06709321
000050 45 43 a9 3d 90 76 a2 bd 43 dd 61 be 2c 48 10 bd
       0.08264784 -0.0793277 -0.22057061 -0.03522508
000060 02 1f 09 be 46 bb 03 be e9 e2 6a bd 9d 68 54 3e
       -0.13390735 -0.12864408 -0.057345305 0.20743032
000070 bf 4c 85 be e4 9b 89 3c eb 24 65 bd 39 ae 19 bd
       -0.26035115 0.016797967 -0.05594341 -0.037519667
000080 be 99 18 3e f1 34 74 bd 88 1e 24 3e fe 85 f7 bd
       0.14902398 -0.0596208 0.16027272 -0.12086104
000090 2d d2 4e bd e6 a6 25 bc 86 43 57 3d 42 d4 f0 bc
       -0.050493408 -0.0101105925 0.05255463 -0.029398087
0000a0 8c da 24 be ef ca 7a 3d 59 cf de 3d f0 72 ea bc
       -0.16098994 0.06122869 0.10879392 -0.02861926
0000b0 91 01 f6 3d e1 17 04 3e ba 8c aa bb c4 a7 12 3d
       0.120120175 0.12899734 -0.005204764 0.035804525
0000c0 60 4f b9 3c 57 86 9f bd 3f b5 e3 3d d9 e9 af bc
       0.022620857 -0.07789295 0.11118554 -0.021473812
0000d0 7e b9 c0 3d bf cb a2 bc df dc db bd 19 d8 e2 3d
       0.0941038 -0.019872544 -0.10735487 0.110763736
0000e0 db ed 48 be 10 e9 cf bd cb a3 13 3e 8e e5 5f 3e
       -0.19621985 -0.10151875 0.14417951 0.21864912
0000f0 89 f8 ac bd a3 25 38 3e f3 f1 0d 3e c2 06 b8 3d
       -0.08445842 0.17983107 0.13861828 0.08985664
000100 76 62 27 3e 4e 2a e8 3c ab 97 78 bd 24 70 85 3c
       0.16346154 0.028340485 -0.060691517 0.016288824
000110 0e 83 e1 bd c2 19 cb bb 38 37 2a be d1 57 0b be
       -0.11011325 -0.006198139 -0.16622627 -0.13607718
000120 8c 76 7f be 22 62 8a 3d 7e 44 97 3d 2b 4a ad bd
       -0.24947566 0.067569986 0.07386111 -0.08461412
000130 a6 01 f5 3b 03 36 42 3d e2 c0 b0 bc e6 ad 87 bc
       0.007477003 0.04741479 -0.021576349 -0.016562413
000140 21 5d 3b 3e 0c 6e f1 bd 82 bb be 3d 2b 7a 6e bc
       0.18297245 -0.11788568 0.09313108 -0.014555494
000150 1a 92 e7 bc 9b e9 99 3d a4 d2 07 be 1e df 45 bd
       -0.028267909 0.0751526 -0.13263947 -0.048308484
000160 9a a4 92 bd 39 86 3d bd ba 85 a1 bb cf 96 1a 3e
       -0.071603015 -0.046270583 -0.0049292715 0.15096591
000170 1e e2 f6 bd b9 e6 ae 3d 47 2b ed 3d 88 6e e7 3c
       -0.12054847 0.085401006 0.1158052 0.028250948
000180 69 b3 3f 3e 82 d8 d2 3d 69 69 fe bd fe d5 83 3e
       0.18720783 0.10295202 -0.12422449 0.257492
000190 e2 90 e1 bc 46 2d 8c 3a b6 4e a3 bd 7e 2b 39 bc
       -0.027534906 0.0010694645 -0.07973997 -0.011301873
0001a0 69 46 0b be 09 cb a0 3c 7f 74 c5 bd 95 fc 2e 3c
       -0.13601078 0.019628065 -0.096413605 0.010680337
0001b0 be bf 5e 3e 3a 02 5b 3e 4e 0f 19 3e c9 82 75 3d
       0.21752831 0.21387568 0.14947245 0.05993918
0001c0 6a 4c 9e 3e 18 e5 9c 3d 2a 43 62 3d 90 3e 51 bd
       0.30917674 0.07660884 0.055239834 -0.051085055
0001d0 f0 ea 87 bc 38 e9 73 bb 33 8e 8a be c8 3d ce bd
       -0.01659152 -0.0037217867 -0.27061614 -0.100703776
0001e0 d6 2f b2 3c 4e ca 89 be ab 59 88 3e 8d 51 4c 3e
       0.021751326 -0.2691216 0.2663091 0.19952984
0001f0 7d b1 d3 bd 16 f6 1b 3e 4c 1d 5a 3e d3 98 3b bd
       -0.103365876 0.15230593 0.21300238 -0.04580004
000200 e5 5c ee 3d 25 00 83 bd 80 6f 28 3d 9e e0 4b 3d
       0.11638812 -0.06396512 0.04112196 0.04977476
000210 19 64 00 bd e9 eb cd bd 66 4c aa 3d 1d ba ee bc
       -0.03134546 -0.10054762 0.08315353 -0.02914148
000220 54 e9 22 be 2a 80 99 bc 4a 30 8d 3d a6 ec 94 3d
       -0.1590932 -0.018737871 0.06893976 0.072716996
000230 05 58 ad bb 17 c3 34 3d 4f 61 66 3d 6e 5b f7 bd
       -0.0052900338 0.044131365 0.056245144 -0.12077986
000240 46 fa b2 3d 46 be 19 3c f2 ad a9 3d 73 9a ca 3d
       0.08739142 0.009383744 0.082851306 0.0989274
000250 05 cb 4a bc 3b 3f f2 3d de da 47 be ce b6 a7 3d
       -0.012377505 0.118284665 -0.19517085 0.08189164
000260 b9 f2 fd bd e6 38 e2 bd 2e d2 a3 bc 20 06 d5 3d
       -0.12399811 -0.11046009 -0.019997682 0.10401559
000270 0a bb 3b bd d7 b0 82 3d 3a 1c 60 3d f1 3e 88 bd
       -0.04583267 0.06381386 0.05471442 -0.0665263
000280 f8 06 cb bd c7 25 df 3e 49 74 dc 3e 33 17 a8 be
       -0.099134386 0.4358351 0.4305747 -0.328302
000290 e7 87 be 3e b6 38 ad 3c 4b dd d5 3d 58 15 89 3e
       0.3721306 0.021145206 0.10442599 0.26774096
0002a0 b7 49 27 3e c7 41 63 3e 4f 55 ea bd 79 50 52 be
       0.16336714 0.22193061 -0.114420526 -0.2053851
0002b0 0d 9a 44 3e 8e 86 24 be 50 a9 71 be 5d e1 0b be
       0.1919939 -0.16066954 -0.23599744 -0.13660188
0002c0 fb 86 0d be 50 a9 88 bb c1 1e 53 3e 0c 9b 4e 3e
       -0.13821022 -0.0041705742 0.206172 0.20176333
0002d0 7f 52 6c 3e 0b 74 7c be a2 ce 84 3e 38 2b 49 be
       0.23078345 -0.24653642 0.25938898 -0.19645393
0002e0 62 34 9f be f1 98 2e 3d 0c 7d 66 be 92 d1 25 bd
       -0.31094652 0.042626325 -0.22508639 -0.040483065
0002f0 36 e3 8b 39 4c f6 9f 3e 0c 1a b0 bd 35 e9 8e 3e
       0.0002668143 0.31242597 -0.08598718 0.27912298
000300 98 95 a6 bc 1d 43 ca 3d 34 1c 17 be e4 07 4b 3d
       -0.020335004 0.09876082 -0.14756852 0.049568072
000310 eb 42 f3 3d 00 04 81 bc 47 cd c7 3c b3 e0 74 3d
       0.11877998 -0.015748978 0.024389876 0.059784602
000320 99 fd 80 bd a4 fb dc 3d 68 5c 08 3e 6f be 56 bd
       -0.0629837 0.10790184 0.133165 -0.052427705
000330 56 8b 72 3d cc 71 71 3d 24 1a 92 bc 19 c4 78 3d
       0.059214912 0.058946416 -0.01783473 0.06073389
000340 f1 b0 dc 3c 44 e3 0c bd 1f 50 da bc 50 c3 1f 3e
       0.026939841 -0.034396425 -0.026649533 0.1560185
000350 72 8b e3 3c ff 33 b2 3d 6e 72 ac bc 1f 08 49 3d
       0.027776454 0.08701324 -0.021050658 0.04908001
000360 bc b3 51 bb c8 42 b2 3d fb 63 0f 3e 61 60 97 3d
       -0.0031998 0.08704144 0.14002983 0.0739143
000370 58 99 e0 bd 7d b6 35 3d 74 72 b5 3d 27 18 44 3e
       -0.10966748 0.044363488 0.08859721 0.19149838
000380 1d 38 54 3e f9 3a a2 3d 9b cd a4 bd 28 1b ef 3d
       0.2072453 0.079214044 -0.08047029 0.116751015
000390 90 a1 77 bd 41 9e 5c be 6c 65 9a bd 35 e9 0e 3e
       -0.060456812 -0.21544744 -0.07538876 0.13956149
0003a0 2a 37 b3 bd 77 6a f0 3d 8f 23 5d bd 7c 2b 97 3d
       -0.08750756 0.117390566 -0.05398899 0.07381341
0003b0 db 26 e6 3d e0 22 9f 3d 89 00 3f 3e 3e 99 88 bd
       0.1123788 0.07770324 0.18652548 -0.06669854
0003c0 7d bd e5 3c e6 73 35 3e ef 88 38 bd 5b 02 e9 3c
       0.028044457 0.17719993 -0.045052465 0.028443506
0003d0 b2 34 0a 3e 56 48 6c bd 84 f0 e1 bd cb 05 09 3e
       0.13496664 -0.057686172 -0.11032203 0.13381116
0003e0 37 e7 36 be 24 d4 83 bc 0b 4c d5 bd cd 7f 8d 3c
       -0.17861639 -0.016092367 -0.10414895 0.017272854
0003f0 fc 07 16 be c8 e0 03 3e 8b af 8d bd cb ad de 3d
       -0.14651483 0.12878716 -0.06918248 0.10872992

item_embed.weight f4 [578, 32]
000000 17 30 1a 3d 82 79 d9 3d ce 25 37 3e f4 bb 93 bd
       0.03764352 0.10618879 0.17885515 -0.072135836
000010 e3 75 87 bd 01 71 66 be fc aa cf bd de 1f 3f be
       -0.06614282 -0.22504045 -0.101400346 -0.186645
000020 e8 5c ef 3d e6 97 08 3e 47 a7 64 bd e3 d8 0e 3c
       0.11687642 0.13339195 -0.05582359 0.008718702
000030 5c 81 4a 3e 9c 11 18 3e fe 6a fa bb 68 af 57 bb
       0.19775909 0.14850467 -0.007642149 -0.0032910947
000040 df 4d 23 be e0 f4 70 3e 5e 4a 32 bd 0f 65 0d 3e
       -0.15947674 0.23530912 -0.043527953 0.13808082
000050 44 d0 0a bd ff a9 0c be e3 f4 64 3e cc de 56 bd
       -0.033890024 -0.13736723 0.22359042 -0.05245857
000060 f5 69 19 be 8c 6e 83 bd 40 2d 7a be 1c d2 c9 bd
       -0.14981826 -0.064175695 -0.24431324 -0.09854528
000070 6d b6 0c be ed ac 0f 3d d7 6d c6 3c 20 d8 e5 3b
       -0.13741465 0.035077024 0.024222298 0.0070142895
000080 ff 51 4f bd 5d d6 16 bd 74 e9 85 3e 27 7d 44 be
       -0.050615307 -0.036825527 0.26154673 -0.19188367
000090 33 0f 0b 3e b8 d0 a7 be 66 a9 6f be 39 8c 81 bd
       0.13580017 -0.32776427 -0.23404464 -0.063255735
0000a0 eb d9 48 bd 56 86 d4 3c 14 7c 7e 3d c7 e8 be bb
       -0.049035948 0.025942963 0.06213005 -0.005826089
0000b0 11 ba 88 3d 4e d6 46 3e a5 2c 2b be 77 d4 77 3e
       0.06676114 0.19417688 -0.1671625 0.24202143
0000c0 9b 64 b7 bc 55 63 71 3e 4a bf e9 bd 30 b8 80 3d
       -0.02238684 0.23573048 -0.114134386 0.06285131
0000d0 fc 83 d5 3d df 40 5e be c9 6b ed bd 32 4d 19 3d
       0.10425565 -0.21704434 -0.11592824 0.037427135
0000e0 ba db 5c bd 4d 98 cd bd e8 15 ff 3d a7 4d 26 be
       -0.053920485 -0.10038815 0.1245535 -0.1624056
0000f0 3a ad 8e be 48 eb d0 3c a1 be 67 3d 6b ae 2b bd
       -0.27866536 0.025502816 0.056578282 -0.041914385
000100 46 90 82 3d 51 0d 46 3e c9 c6 17 3d dc 70 ca 3d
       0.06375174 0.19341017 0.03705481 0.098848075
000110 bd 4f 7c bb 67 37 cb bd 1c 4d 00 be 6e b6 8a bd
       -0.0038499676 -0.099226765 -0.12529415 -0.06773077
000120 ca 3e 0b be 8d 4e ed bd d8 a6 08 be fe b7 7a bb
       -0.13598171 -0.11587248 -0.13344896 -0.003825664
000130 98 47 16 3e 5c 8d 66 3d 6b df a8 bd 30 2d 01 bd
       0.14675748 0.056287155 -0.082457386 -0.031537235
000140 ea e8 02 be 70 06 87 bd 42 97 52 be 75 49 5e 3e
       -0.12784162 -0.06593025 -0.20565513 0.21707709
000150 27 2b 75 bd d1 33 a2 be 84 d3 8d bb 08 63 d6 3d
       -0.059855606 -0.31680158 -0.004328193 0.104681075
000160 34 0b 49 be cb 42 27 be 0c b5 83 be 42 de fe 3d
       -0.1963318 -0.16334073 -0.25724065 0.12444736
000170 a3 50 93 be 0c 38 96 3d 6c 7b a9 3d 7b 96 3b be
       -0.28772458 0.07334909 0.08275494 -0.18319122
000180 99 26 01 bd 45 2c a3 3d 82 02 5d 3d 6b 09 2b bc
       -0.03153095 0.07967428 0.05395747 -0.010439257
000190 70 82 dd bd 2f 96 c0 bd 9c a8 11 3e 3f f8 34 3d
       -0.108158946 -0.09403645 0.14224476 0.04418206
0001a0 39 26 69 bd c7 ca 83 3d ae bb a9 bd a7 02 2c 3e
       -0.056921218 0.06435161 -0.0828775 0.16797887
0001b0 8a d3 73 b9 f1 a3 12 bd 82 96 3b 3d 2c 45 56 bd
       -0.0002325309 -0.035800878 0.045797832 -0.05231206
0001c0 4f 8a b2 3c af c6 19 3e 03 18 c7 3d bc 14 14 bc
       0.021794466 0.15017198 0.09721377 -0.009038147
0001d0 7e 77 2a bd c3 ae 1f bd 58 74 55 bd 40 a1 0c 3e
       -0.041617863 -0.038985025 -0.052112907 0.13733387
0001e0 d2 76 eb 3c 90 1f e9 3d 69 53 f4 3d 74 22 55 3e
       0.028743181 0.11382973 0.11929972 0.20813924
0001f0 5e e7 55 3d a9 de 1b 3b 74 be 9c 3d 75 31 a2 bd
       0.052222602 0.002378384 0.076535136 -0.079195894
000200 d7 d7 e0 bc e9 eb 05 bc d6 81 df bc 30 dc bc bc
       -0.02744667 -0.008173921 -0.02728359 -0.023054212
000210 19 07 42 be b5 fa 5b 3e d5 cc 03 3e 28 c1 8c bd
       -0.1894802 0.21482356 0.12871106 -0.06872779
000220 b3 a5 ab 3d 53 5f d5 bd 66 ea bb bd 58 80 9f bd
       0.08381214 -0.10418572 -0.09175567 -0.077881515
000230 ce 62 2f be cf 68 13 be 8f 19 8d bc dd 98 b8 bc
       -0.17127535 -0.1439545 -0.017224101 -0.022533828
000240 0d f5 00 bc cb 32 8d bd 84 7f 5c be 63 dc 64 bd
       -0.007870925 -0.068944536 -0.21533018 -0.05587424
000250 11 48 d2 bd f0 60 c6 3d b9 3a 11 3e 5c 8f f1 bd
       -0.10267652 0.09686458 0.14182557 -0.11794922
000260 c6 4d 84 3e 18 e2 57 3d 4d d5 b6 bc 04 16 73 be
       0.25840586 0.052705854 -0.022318507 -0.23738867
000270 2e ee 3a 3e 15 7a 3d be 20 41 45 be 89 93 7e 3d
       0.18254921 -0.18503602 -0.19263124 0.06215242
000280 02 22 86 bc d2 dd 4a bd a9 d5 e7 bd 3b 54 ed bd
       -0.016373638 -0.04952795 -0.11320049 -0.11588331
000290 04 fd 02 3e 38 d4 50 3e aa a4 cb 3d 08 e0 44 bd
       0.1279183 0.20393455 0.099435166 -0.048065215
0002a0 18 4e 6a 3e b4 4c 74 bc 0d c2 a2 bd 0d 66 e4 bb
       0.22881353 -0.014910866 -0.079471685 -0.006970173
0002b0 8b b0 c7 bd 6a 9e dc bd 97 b6 4b bd 36 96 f6 3b
       -0.0975047 -0.107724026 -0.049734678 0.0075252308
0002c0 66 7c 5a bd 07 1f a5 bd a2 a0 77 bb e1 c8 a7 3d
       -0.05334129 -0.080625586 -0.0037784954 0.081926115
0002d0 48 4a 7b bd a5 e3 bb 3c 1c a8 6b 3e ed b8 cd bd
       -0.061350137 0.022935698 0.23013347 -0.100450374
0002e0 2b 0e 27 3d 3a 8d 6a 3e dc ef 88 bc d8 11 37 3d
       0.040784996 0.22905436 -0.016715936 0.04469475
0002f0 d0 b0 0d 3e 50 01 be bd ab 3f 24 bd 41 12 7e 3d
       0.1383698 -0.09277594 -0.04009978 0.062029127
000300 a4 61 3a 3c 46 98 8e 3e d2 50 45 3e 7c db 69 be
       0.011375818 0.2785055 0.19269112 -0.22837633
000310 6a 91 1a 3c 34 f4 06 be 1a 68 55 be eb 2f 1c be
       0.0094340835 -0.13179094 -0.20840493 -0.15252654
000320 5a 12 6d be 5b dc d6 3e e5 d9 3e be 2b b3 b4 be
       -0.23151532 0.41964993 -0.18637808 -0.35292944
000330 96 b9 4e 3e 6b c1 65 3e d2 08 69 3e 47 38 c5 bd
       0.20187983 0.22437064 0.22757271 -0.09629875
000340 43 07 30 3e 06 14 a3 3e 9a 0e 32 3e 0e 6c 83 3e
       0.1719027 0.31851214 0.17388383 0.25668377
000350 7b d2 a8 bb b4 5e b2 be b6 7c 9b be da 5b 9d 3e
       -0.0051520444 -0.34837878 -0.30368584 0.3073414
000360 14 b6 a0 be 71 a6 8c bd 60 02 70 be 01 04 b5 bd
       -0.31388915 -0.06867684 -0.23438406 -0.08838654
000370 0e eb 95 be 1f 0a 53 3e 9c fc 69 3e 70 5a a2 3d
       -0.29280895 0.2060933 0.22850269 0.07927406
000380 aa ec e7 bd 2a 33 02 3e ff b5 e2 3e 21 dc 98 be
       -0.11324437 0.1271483 0.44279477 -0.29855445
000390 16 97 c4 3b d1 f4 99 be 72 c5 d2 bd 47 11 f8 bc
       0.005999456 -0.30069593 -0.10291566 -0.030281676
0003a0 7e e0 bb be c5 a8 2c 3e 1d da 0b 3d 49 19 c4 be
       -0.3669471 0.16861255 0.034143556 -0.3830054
0003b0 c4 fc c8 3e b3 51 a9 3d b9 31 8e bd 87 1c a3 3c
       0.39255345 0.08267536 -0.069430776 0.019911064
0003c0 02 46 6d be c3 0d b8 3e 6d 82 65 3e 26 86 d6 3e
       -0.23171237 0.35948 0.22413035 0.41899222
0003d0 04 35 95 3c 40 e5 9c be 9b 02 ab 3d ea e5 03 3d
       0.018213756 -0.30643654 0.08350106 0.032201685
0003e0 e2 73 a0 be 57 b7 77 bd 3c 6c 1a be 40 02 64 3c
       -0.31338412 -0.06047758 -0.1508035 0.013916552
0003f0 9f 95 ca be ca a3 4d 3e 07 30 7b 3e bf 4d 58 3e
       -0.39567277 0.20082012 0.2453004 0.21123408

entity_embed.weight f4 [886, 32]
000000 ed d0 89 bd 32 fb 75 bd c3 79 4f 3d af 20 10 3d
       -0.067293026 -0.06005401 0.05065323 0.03518742
000010 45 ed b2 bc ea 6e 0d bd 3f 25 47 3d 3c fd 0d 3d
       -0.021841655 -0.034529604 0.048619505 0.03466533
000020 41 ce 0a 3d 3d 80 0e bd b9 f3 f8 bc d7 e6 a9 bd
       0.033888105 -0.034790266 -0.030389654 -0.08295982
000030 5b f1 4d bd 40 a2 08 bd a8 86 7e bc 88 fd f5 3c
       -0.050279003 -0.03335786 -0.015535034 0.03002812
000040 00 8a 8e bd 56 4d 18 3d ba 8e 20 3c c8 26 22 3d
       -0.06959915 0.03718313 0.009799654 0.039587766
000050 54 86 96 3d e1 72 95 3b bd bc 42 3c 50 b6 53 3d
       0.0734984 0.004560814 0.011885819 0.05168754
000060 91 01 68 bc b9 a7 03 bd b2 1b 87 3c b6 46 77 3d
       -0.01416053 -0.032142375 0.016492698 0.06037017
000070 2a 97 83 bd 3d 2a 83 3d a5 cd 9f bd 98 da 8d bd
       -0.06425317 0.06404541 -0.078028955 -0.06926459
000080 8c 74 a1 3d 42 3d a6 bd 6a 88 87 3d 53 87 1b 3b
       0.07883558 -0.08117153 0.06617816 0.0023731783
000090 98 32 e5 3c 0c 14 02 3c 16 3b 10 bd 19 c5 8f bd
       0.027978227 0.00793935 -0.0352126 -0.07020015
0000a0 a4 4d 85 3d 94 d6 42 bd 23 38 3a bc 66 48 04 bd
       0.065089494 -0.04756792 -0.011365923 -0.032295607
0000b0 20 63 98 3d ab 26 6a ba e8 b9 66 3d 6f 94 b4 3d
       0.074407816 -0.00089321536 0.056329638 0.08817374
0000c0 35 c2 91 bc cc b2 a0 3d 62 4b 1c 3c 76 c2 1f bd
       -0.0177928 0.07846603 0.009539457 -0.03900381
0000d0 93 8f 8a bd 1f ef c7 bc 0a 44 78 3d 08 50 4c 3d
       -0.06765666 -0.024406014 0.060611762 0.04988101
0000e0 38 71 6d 3d 84 15 be bd 80 ef 94 bd 5c 02 33 3d
       0.057969302 -0.092814475 -0.072722435 0.043703422
0000f0 60 fc 27 3d f7 47 9f 3d 50 d8 6c 3d 96 48 43 bc
       0.041012168 0.07777398 0.05782348 -0.011919161
000100 a6 f1 64 3d 20 d4 4d 3d e8 55 8d 3d 08 db 42 bd
       0.055894516 0.050251126 0.06901151 -0.047572166
000110 6b 38 84 3d 0b 29 c9 bc 6e 73 70 bc fd 99 ac bd
       0.064560734 -0.024555704 -0.014675958 -0.084278084
000120 f8 b1 02 3d ac 6a d5 bc c6 4f 1b bd 11 64 13 3d
       0.031908005 -0.026051842 -0.037917875 0.035984103
000130 d8 5d 76 3d 6f dc bc bd fa 13 1d 3d d1 9b 8e bd
       0.06014809 -0.09221732 0.03834913 -0.06963313
000140 bc 02 47 bd 83 f3 74 3d 9c 5c 4e bd d8 45 4d 3d
       -0.048586592 0.059802543 -0.050381288 0.050115436
000150 a3 d1 8a 3d 07 ca 9a bd 71 02 e9 b9 e5 70 86 3d
       0.06778266 -0.07558065 -0.00044443042 0.06564502
000160 d5 68 6c bc 9c d9 27 3d e8 cc b7 bd 2b 6d 44 3d
       -0.014429291 0.040979013 -0.0897463 0.047955673
000170 8e 60 49 3c 83 62 0c 3d 73 98 8d 3c 16 1b bf bd
       0.012291087 0.034273636 0.017284608 -0.09331338
000180 00 34 fc bc f4 66 5a bd ea 1b e5 3c 06 51 93 bd
       -0.030786514 -0.05332084 0.027967412 -0.07193188
000190 9b 35 86 3d 9b 70 ad 3d 26 b7 10 bd f5 c9 39 3d
       0.06553193 0.084687434 -0.035330914 0.045358617
0001a0 5b 49 f6 bc aa 11 86 3c 60 39 68 3d cd 81 9b bd
       -0.030064275 0.016365845 0.056695342 -0.07593117
0001b0 1f b7 19 3d 6b d1 de bb 4e 7f 83 bc 3e 3e 91 bd
       0.037528154 -0.006799867 -0.016051915 -0.0709195
0001c0 18 c9 22 3d 38 5d d3 3c cb b4 b3 bc a3 4e 4f 3d
       0.03974256 0.025801286 -0.021936795 0.050612103
0001d0 43 84 45 ba 43 63 0c bd 4d d7 68 3d 28 45 78 bd
       -0.0007534662 -0.03427435 0.05684595 -0.060612828
0001e0 4a 45 7c 3d e7 d7 76 3b 76 dd 91 3d c2 3c 22 3d
       0.061589517 0.003766531 0.071223184 0.039608724
0001f0 a1 2b 36 3c 8c bf e8 bc e5 e9 6c bc 26 66 40 3d
       0.0111188 -0.02841165 -0.014460062 0.046972416
000200 99 42 a0 bc 6f 42 38 bc 9b 6f ec 3c c7 7a da 3c
       -0.019563006 -0.011246308 0.028861811 0.026669873
000210 1d f6 7a bd 86 aa a2 3b 23 19 91 3c e8 61 3c bd
       -0.06126987 0.0049641756 0.017712181 -0.04599181
000220 d7 ad f2 3c 5a 3a 50 bd f4 29 78 bd 93 cd ad 3c
       0.029623909 -0.0508369 -0.060586885 0.02121619
000230 3f a3 fc bb e8 f6 63 bd 1f e0 8c bc ee 0f 5c bb
       -0.00770989 -0.05565539 -0.017196713 -0.003357883
000240 ff 5c 8d 3d a0 07 15 3d 71 0c da bc 5a 0b b5 3d
       0.06902503 0.036384225 -0.02661726 0.08840056
000250 2a d6 8d 3c 0f fd 5c bd cd 36 1b 3d 8d 1f 28 bd
       0.017314035 -0.053952273 0.03789406 -0.041045714
000260 21 4f 35 3c dd 0d af bb 75 31 62 3d 17 f2 19 3a
       0.011066229 -0.005342229 0.055222947 0.0005872561
000270 d0 bb 58 bd f3 a7 0b 3c e7 9d aa bd fc a7 9c 3b
       -0.052913487 0.008523929 -0.08330899 0.0047807675
000280 92 50 88 bd 8e 9b 92 3c 8c c2 cb 3b 42 1d e9 bc
       -0.066559926 0.01789644 0.00621826 -0.028456334
000290 c4 82 10 3d 97 d2 2e 3d 60 86 9c 3d 07 e4 e9 3b
       0.035280958 0.042681303 0.076428175 0.0071377787
0002a0 71 af e8 3c 79 10 8f 3d 4f f8 4f 3b cc 90 80 bd
       0.02840397 0.06985564 0.0031733697 -0.06277618
0002b0 8b 64 98 bd f7 35 81 3c 3b 7a 31 bc 3b ad 88 3d
       -0.07441052 0.015772803 -0.010832365 0.06673666
0002c0 87 4a 02 bd 2e 37 67 bd e8 8e bd 3b 34 77 64 3d
       -0.031809356 -0.056449108 0.005784858 0.055777743
0002d0 ea d2 00 3d 29 64 e5 3b f9 22 6a 3c 81 bf 29 3d
       0.031451143 0.0070004654 0.014290565 0.041442398
0002e0 63 44 59 bc 4e d7 e1 3c 06 9a ef 3b 08 d2 ba bc
       -0.013260934 0.027568486 0.007312062 -0.022805229
0002f0 af 8a 1d 3d e9 d2 85 b8 b1 ed 9a bd e5 b0 83 bd
       0.038462337 -6.381219e-05 -0.07564867 -0.06430224
000300 0e 81 11 bd 6b 88 b8 bb 51 59 48 3d 06 f5 93 bd
       -0.035523467 -0.0056314967 0.048913304 -0.07224469
000310 82 be 81 bd 3f c9 92 bd 9f 08 de bb f0 7c d9 bd
       -0.063351646 -0.07167291 -0.00677593 -0.10619533
000320 4f a8 0b 3d f8 44 bd 3d 22 bf c0 3b bd f4 27 bc
       0.03409606 0.0924167 0.00588216 -0.010251221
000330 67 b3 df 3d 17 15 b5 3d e4 ba ae 3c 85 30 9f bc
       0.1092289 0.08841913 0.02132935 -0.019432316
000340 82 51 6c 3d b6 8a c3 bc 44 d1 01 3d c0 bc 28 bd
       0.05769492 -0.023869853 0.031693712 -0.04119563
000350 c3 a4 73 bd 0d c0 14 bd c7 42 64 bd f8 63 d6 3c
       -0.0594833 -0.036315966 -0.055727746 0.026170716
000360 d3 43 31 bd ec 6b 8a bd 52 93 92 bd 8a fc 59 3c
       -0.043277573 -0.06758866 -0.07157005 0.013304839
000370 02 f5 2f bd 80 b1 2a 3c 39 b8 dd 3c 79 09 d1 3b
       -0.042958267 0.010418296 0.027065383 0.006379303
000380 a4 70 87 bd cd 1a 36 bc 00 f9 40 3d fc 3e a8 bd
       -0.06613281 -0.011114788 0.047112465 -0.08215138
000390 80 0e a0 bc bb e3 cc bb bb a5 6d 3b 87 d7 aa bd
       -0.019538164 -0.0062527335 0.0036262113 -0.0834189
0003a0 05 2f 19 3d fa 9a be 3c b3 87 78 3d 91 07 6d bc
       0.037398357 0.023267258 0.060676288 -0.014467136
0003b0 c9 3a 34 3d 36 e7 b1 39 b6 67 85 bd dc bf 9f bd
       0.044001374 0.00033932336 -0.06513922 -0.07800266
0003c0 59 e1 ad bd b9 5b a5 3d 6d f4 82 3d 46 47 8c 3d
       -0.08490247 0.08074135 0.06394277 0.06849532
0003d0 25 85 16 3d 6e 9b c3 bc 1e 52 8f 3d be 4a 3c 3d
       0.03674807 -0.023877826 0.069980845 0.045969717
0003e0 ef 1a 09 3d 07 9e 9f 3c 48 5e 7e bd 0e 2c 01 3c
       0.03347295 0.019484533 -0.062101632 0.007884039
0003f0 27 d5 cf bc 75 4e a8 3c 4c 5f cd bb 66 58 0f bc
       -0.025370194 0.020545224 -0.006267464 -0.008749103

relation_embed.weight f4 [114, 32]
000000 98 93 e6 bc 46 97 2b 3c 1c d8 ce bc 81 65 11 be
       -0.02814655 0.010473078 -0.025249533 -0.14198877
000010 80 d3 b6 3d 9f 76 c7 3d d8 9b 67 3d 41 cd 36 be
       0.08927059 0.09739422 0.05654511 -0.17851736
000020 01 f5 e8 bd 21 62 2d bd 76 f9 a3 bc 0e 8a 3a bd
       -0.11374856 -0.04232991 -0.020016413 -0.045541815
000030 69 a5 93 3d db e0 40 3e d2 86 e7 3d 6d a2 c1 bd
       0.07209284 0.18835776 0.11305012 -0.094548084
000040 05 f4 b6 bd 57 91 63 bd e3 6a 4d 3d ef 8e 9d bd
       -0.08933262 -0.05555853 0.050150763 -0.07693278
000050 d7 e2 7a bd 1e f2 ae 3c 92 eb e3 3c c6 df ce bd
       -0.061251488 0.021355685 0.02782229 -0.10101275
000060 81 6f 08 3e 85 13 5a 3d 4c dd 31 3e a0 0f 45 be
       0.13323785 0.05324127 0.17369574 -0.19244242
000070 b6 6e d0 bc e4 f9 e0 bc ba c8 27 3e bd 0c 3a 3e
       -0.025443416 -0.027462907 0.16385165 0.18168922
000080 f9 47 30 bd 93 b6 0d 3e ed 7a b2 3c 8a 5a ae bc
       -0.04303739 0.13839178 0.021787131 -0.021283407
000090 dd f4 19 be 58 2b 22 be b6 1e 1e 3d 9f f4 46 be
       -0.15034814 -0.15836847 0.038603507 -0.19429253
0000a0 49 2b 31 3e f9 53 d8 3b e5 7d 1b be 60 4d 13 3e
       0.17301668 0.006601807 -0.15184744 0.14384985
0000b0 98 49 1e be 63 ef 06 be eb ae bd bd 6c da 2d bd
       -0.15457761 -0.13177256 -0.092618786 -0.04244463
0000c0 21 31 51 bd 63 fc 30 be 44 26 10 3c a3 83 33 be
       -0.051072244 -0.17283778 0.008798186 -0.17530684
0000d0 f9 5d ce bd 8a 81 54 3d 14 c5 1d bc 97 05 11 3e
       -0.100765176 0.05188135 -0.009629507 0.14162289
0000e0 d7 64 bf 3d 1e 1f 28 bc 05 3a b3 3d af 89 9d ba
       0.093454055 -0.010261325 0.08751301 -0.0012019182
0000f0 8f ca cd bc 96 e9 ba 3d 19 e5 8e bd 99 40 3f be
       -0.025121002 0.09126584 -0.06977291 -0.18676986
000100 f5 fc dc 3d 87 1b ed bc 96 5e 08 3c 91 57 81 3d
       0.10790435 -0.02894379 0.008323332 0.0631553
000110 ef 2e e8 3c 20 bd 1f be d3 d9 1e 3d ef 15 1a be
       0.028342692 -0.15599489 0.038781952 -0.1504743
000120 e7 52 07 bd 7b a4 24 be 89 98 ef 3d 4b 5d d2 bc
       -0.033038046 -0.1607837 0.11699016 -0.025679251
000130 00 14 bd 3b 83 7c 70 be be 41 a2 3d 29 6e 22 be
       0.0057702065 -0.23484997 0.079226956 -0.15862335
000140 0b 1d 0e be 7f de 0c 3e 1e 07 1e 3e a3 6f 58 3e
       -0.13878267 0.1375675 0.15432402 0.21136336
000150 02 5b a7 3d 22 68 b9 bd ad b6 8d 3d ba 0f 06 3e
       0.08171655 -0.09053065 0.06919608 0.13091937
000160 80 ae 43 3e ec 44 06 be 56 80 a7 3d 6a 59 da 3c
       0.19109535 -0.13112229 0.08178775 0.026653964
000170 f0 ec 00 3e e3 42 e0 3d a9 ec a4 3d 5c 3e 1d be
       0.12590384 0.10950258 0.08052952 -0.1535582
000180 1a 66 64 3d 74 0a 23 be a0 b7 b0 bd 0f 2c fb bc
       0.055761434 -0.15921956 -0.08628774 -0.030660657
000190 4b 95 b1 bd ee 3c a3 bd 88 37 87 3b 19 ae 1b 3e
       -0.086710535 -0.07970606 0.004126493 0.15203132
0001a0 9d 60 d5 bd 3d bf 6d 3d ef 63 ab bd a3 96 9e bd
       -0.10418818 0.058043707 -0.0836867 -0.077435754
0001b0 da 64 75 b9 8e 5e 49 be 0b c0 9c bc ff 5c 1d be
       -0.00023402591 -0.19664976 -0.019134542 -0.15367506
0001c0 c1 30 05 3e 10 64 91 bd fc 3e d1 3c fb 19 9b 3d
       0.1300688 -0.070991635 0.025542729 0.07573315
0001d0 66 d5 f8 bd 07 79 4a be e4 bf 69 bd 3a 79 c8 bd
       -0.121500775 -0.19772731 -0.057067767 -0.09788747
0001e0 bb 5f 2b 3e 67 e5 28 be 7b b2 a8 bd 74 96 3d 3e
       0.16735737 -0.1649376 -0.082371674 0.18514425
0001f0 eb 35 94 bd 66 f8 3a be ad e4 25 3e ae ab de 3d
       -0.072368465 -0.18258819 0.16200514 0.10872589
000200 55 a9 e3 bd e3 74 9e 3d 0d d3 fb bd 14 15 dd bd
       -0.11116282 0.07737138 -0.12296114 -0.10795036
000210 e9 3c 84 bc 11 8f e6 3d ab 71 71 bc 09 6b 04 be
       -0.016142325 0.112577565 -0.014736573 -0.12931456
000220 a0 d8 da 3d ff 53 67 3d da e8 0d bc 17 de a2 bd
       0.10685849 0.05647659 -0.008661473 -0.079525165
000230 1a 8a 03 bd 56 fd ef bd 41 d0 0e 3e 3c 87 79 bb
       -0.032114126 -0.11718242 0.1394663 -0.003807499
000240 ed e5 ae 3c 78 90 03 3e 66 6f 1f bc fa c6 96 3d
       0.021349872 0.12848079 -0.009731149 0.073621705
000250 f6 e5 c7 3d 93 53 fa 3d a4 08 65 bc 15 dd 28 be
       0.097606584 0.12222972 -0.013979111 -0.16490586
000260 66 ab cb bd 48 ee b8 bd d9 94 de 3b 79 63 ac 3c
       -0.09944801 -0.090298235 0.0067926464 0.021043526
000270 bb 7e 37 bd 0a 8d 4f be 8d f3 ff bd 3e f8 01 be
       -0.044798594 -0.20268646 -0.124976255 -0.12692353
000280 79 b2 11 be f1 e3 55 bd bd 71 07 be 0a b2 c0 3d
       -0.14228238 -0.052219335 -0.13226981 0.09408958
000290 95 fc 4b 3d 4b 78 b6 3d 20 ec 97 3d 8e 84 24 3d
       0.049801428 0.08909663 0.07418084 0.040165477
0002a0 38 b2 75 bd 85 01 94 bd 4d f0 89 bd 98 b8 ed bd
       -0.059984416 -0.07226852 -0.06735287 -0.11607474
0002b0 52 d3 09 bd 1f 3f 11 be 82 d2 51 be 4b d0 e7 3d
       -0.033648796 -0.14184235 -0.20490459 0.113190256
0002c0 93 0b 06 bd 52 67 9d 3c 09 d0 91 bd 7f 80 f6 bd
       -0.03272588 0.019214306 -0.07119758 -0.120362274
0002d0 3b ab b0 3d 24 98 84 bd 1a f9 29 3e f9 16 95 3d
       0.086264096 -0.06474331 0.16598931 0.07279772
0002e0 53 81 7f bb d3 5e c8 bd 0e cd d5 bb 0f 54 08 be
       -0.0038986995 -0.09783711 -0.0065246886 -0.13313316
0002f0 ed c8 b8 3c 0a 8b 13 3e 71 43 7b bd 81 37 c9 bd
       0.022556746 0.14408508 -0.061343614 -0.0982504
000300 0b 5b a2 3d 8a 54 44 3e 1f 35 e9 3d 08 94 1a 3e
       0.07927521 0.19172874 0.11387085 0.15095532
000310 ee c6 9f bc 6b 60 46 3e 68 68 e1 3c 16 87 fa bc
       -0.019504037 0.19372718 0.027515605 -0.030581992
000320 d1 f0 cf 3b f4 3a 40 bd b3 20 c6 bc 49 7e 1d bd
       0.006345846 -0.046931222 -0.024185514 -0.038450513
000330 6c 5d f7 bd 50 e4 f1 bd f4 49 ae 3d 33 f0 90 bd
       -0.12078366 -0.11811125 0.08510199 -0.07077064
000340 7c 87 3d 3d 6d 78 1a be 35 dc 82 bc 73 ef 19 3e
       0.046271786 -0.15085001 -0.015974144 0.15032749
000350 a5 42 36 3d 40 6f 10 3d 49 99 20 3e e8 8d ee 3d
       0.04449715 0.035262346 0.15683474 0.1164816
000360 af 17 cb bc c6 1f 4a 3d a0 19 32 3a c1 d6 a2 bd
       -0.024791567 0.049346708 0.00067939796 -0.07951117
000370 3b a5 f1 bd 64 97 a8 3c 4e be 1f be 97 d6 2a be
       -0.11799093 0.020580001 -0.15599939 -0.16683422
000380 f9 aa be 3c 7c d2 35 be 3e 9a eb bd fe c9 21 bd
       0.023274885 -0.17756075 -0.11504029 -0.039499275
000390 87 7a 41 3d 37 c7 ff 3d 17 7a 3c be b8 bb 2e 3d
       0.04723599 0.12489169 -0.18405949 0.04265949
0003a0 86 df 8c bd 8c f5 94 bb d0 aa 33 3e a0 d9 a7 3d
       -0.06878571 -0.004545873 0.17545629 0.081958055
0003b0 ff df 54 3d fb 42 35 be d5 19 fb bd 67 de 18 be
       0.05197143 -0.17701332 -0.122607864 -0.1492859
0003c0 cf f3 30 3e 1f b9 a0 3d 5d b1 3f 3e 99 c6 b9 bd
       0.17280506 0.07847809 0.18720002 -0.090710826
0003d0 89 52 c4 3d b0 7a 5c be 66 4d 98 3d 2b 55 22 be
       0.09586055 -0.21531177 0.074366376 -0.15852802
0003e0 7c 7e ef 3d d5 73 2a be c5 57 b9 bd 06 4c 80 bd
       0.11694047 -0.16645749 -0.09049944 -0.062645
0003f0 1b a5 a3 bd ee 80 04 be a8 8d 4d be 58 e3 98 bd
       -0.07990476 -0.12939808 -0.20073569 -0.074652374
