Knowledge_Graph_Recommendation/recommendation/stage2/trained_model/Douban/Embedding_based/dim32_lr0.001_l20.0001_TransE/add/model13_epoch30.pth (torch, 728343 bytes, 5 tensors)

trans_M f4 [114, 32, 32]
-0.0070688296 0.008064635 0.003594499 0.015187759 0.011535313 0.02777518 0.014614817 0.023552727
-0.017436596 -0.00882021 0.027908672 -0.0225724 -0.0035197139 0.009748198 -0.025997102 0.005783949
-0.027724788 0.027631234 -0.012564391 0.011675261 -0.0086371135 0.019703899 -0.0028529726 -0.0029389933
0.017253969 2.8055161e-05 0.02381571 0.028339189 0.031688433 0.033951472 -0.026493927 0.025258094
0.006464947 -0.015695294 0.021069467 0.0045655034 -0.01699854 -0.026566647 -0.015369132 -0.018168826
-0.0015980564 -0.005169999 0.012270916 -0.03385869 -0.027679155 -0.029732194 0.032053422 0.029181857
0.020371847 -0.02116644 0.014227584 -0.02131667 0.03306927 0.032670382 0.034627434 -0.02979847
0.01283605 -0.02154342 -0.012248604 0.009077128 -0.029033316 0.03006709 0.00040966645 0.019198436
0.0079900585 -0.0061165057 0.030548986 -0.034592297 0.013007712 -0.0020838194 0.03077646 0.02140918
0.011628356 -0.005953634 0.008430917 0.0010667555 -0.0097545665 0.020141244 -0.026133787 0.0034112
-0.010433536 -0.0035808645 -0.02589547 0.006408468 -0.014725937 0.02613825 0.004255846 0.02175111
0.020120349 -0.004328251 0.029240254 0.030588176 -0.035425093 -0.026321966 0.01041729 0.025248826
0.0026358739 0.00079232454 0.028467018 -0.013533428 -0.032555114 0.03366259 -0.03453567 0.022444561
0.02676608 -0.01519718 -0.02130523 0.011892069 -0.016730018 0.03089187 0.03252225 0.02036247
-0.012035873 -0.026977401 0.024085093 0.004789382 -0.035335846 0.0011035055 0.027498212 0.023909662
0.016195614 -0.010962734 -0.027916675 -0.020937156 -0.026308658 -0.018147802 -0.027678374 -0.01569009
-0.0059898477 0.017772779 -0.008898502 -0.020753378 0.025857966 0.0066003837 0.02982955 -0.02129053
-0.021474771 0.008202247 -0.016330827 0.031010713 -0.011369223 -0.012001103 -0.027318027 0.0050442293
-0.026967725 -0.01850854 0.03059395 0.031574603 -0.017718421 -0.014527906 0.02487199 -0.013933368
0.019744005 0.019862603 0.017092753 -0.0039487034 0.026939947 -0.02657279 -0.029019462 -0.007403966
0.017945021 0.032886725 -0.012347419 0.028563444 0.0155150145 0.028615188 0.019325893 0.0038887635
-0.0266058 0.0006860234 0.01956543 0.035649475 0.0092727095 -0.015685912 -0.008799605 0.0010306835
0.00013791025 -0.028533831 -0.010745015 -0.012916766 -0.007377716 0.035253573 0.017079517 -0.024056867
0.022794954 -0.028507117 0.013037927 0.019046057 0.014948841 -0.033608794 0.003069874 -0.004719235
-0.025548706 0.005259283 0.014993016 0.012870636 0.009239361 0.03136829 -0.004031468 -0.007878201
-0.035220668 -0.007476216 -0.022608101 -0.035190385 -0.0076449383 0.018292703 0.020550512 -0.024767041
0.032219056 -0.015258556 -0.00974392 0.0006996803 -0.030411875 0.004615817 0.03416918 0.005263932
0.021705404 0.022889543 -0.030308718 0.009802677 0.01894049 -0.025841046 -0.002740126 -0.0023729168
0.03538159 0.008021992 -0.014585255 -0.027129784 -0.01568831 0.0012761541 -0.005289035 0.03225248
0.013221011 -0.008525465 -0.01464208 0.028105784 -0.007535029 0.03252699 -0.014799338 -0.0342051
-0.03335799 0.015202813 0.021754008 0.02832872 0.02021021 -0.023431104 -0.02148771 0.0057300106
0.023107216 -0.02215448 -0.009656284 0.027133096 0.026895467 0.016522106 -0.012495415 -0.0034007542
00000000: a4a1 e7bb 8821 043c b091 6b3b 14d6 783c
00000010: 9cfe 3c3c c688 e33c fc72 6f3c a6f1 c03c
00000020: 31d7 8ebc a482 10bc baa0 e43c c1e9 b8bc
00000030: 00ab 66bb e8b6 1f3c e0f7 d4bc 4887 bd3b
00000040: 181f e3bc e65a e23c e0da 4dbc 9849 3f3c
00000050: ae82 0dbc 126a a13c f0f8 3abb 209c 40bb
00000060: 3258 8d3c 0058 eb37 2a19 c33c 9627 e83c
00000070: bbcb 013d b310 0b3d cb09 d9bc 10ea ce3c
00000080: e8d7 d33b 6b93 80bc e099 ac3c 389a 953b
00000090: 8640 8bbc 4ca2 d9bc d0ce 7bbc cad6 94bc
000000a0: e075 d1ba 1869 a9bb f40b 493c 69af 0abd
000000b0: 65bf e2bc ee90 f3bc 734a 033d ca0e ef3c
000000c0: dce2 a63c 3e65 adbc d01a 693c 4ca0 aebc
000000d0: a573 073d 61d1 053d 7fd5 0d3d ec1b f4bc
000000e0: 4c4e 523c d47b b0bc 5eae 48bc 3cb8 143c
000000f0: 47d7 edbc 424f f63c 80c8 d639 0a46 9d3c
00000100: bce8 023c f86c c8bb de41 fa3c a7b0 0dbd
00000110: 4c1e 553c b090 08bb ea1e fc3c 4e62 af3c
00000120: dc84 3e3c b416 c3bb d421 0a3c 60d2 8b3a
00000130: 9ed1 1fbc 40ff a43c 8616 d6bc 708e 5f3b
00000140: 6cf1 2abc f0ac 6abb bd22 d4bc 20fe d13b
00000150: 0e45 71bc e21f d63c a074 8b3b 622f b23c
00000160: 6ed3 a43c 00d4 8dbb 4289 ef3c 0e94 fa3c
00000170: e719 11bd 2aa1 d7bc 48ad 2a3c a0d6 ce3c
00000180: a0be 2c3b 00b4 4f3a aa33 e93c 50bb 5dbc
00000190: 8358 05bd c9e1 093d 4675 0dbd a8dd b73c
000001a0: 8a44 db3c 98fd 78bc 4e88 aebc f4d6 423c
000001b0: 640d 89bc f210 fd3c 0d36 053d 32cf a63c
000001c0: 1c32 45bc b6ff dcbc 1a4e c53c 40f0 9c3b
000001d0: 52bc 10bd 80a3 903a ee43 e13c 32de c33c
000001e0: aaac 843c 0a9d 33bc 83b1 e4bc 6684 abbc
000001f0: 4185 d7bc b3aa 94bc c2bd e2bc 8188 80bc
00000200: 7c46 c4bb 3898 913c 06cb 11bc fd02 aabc
00000210: 16d4 d33c 0848 d83b 1a5d f43c 7a69 aebc
00000220: dceb afbc b862 063c 3ac8 85bc 2e0a fe3c
00000230: fa45 3abc 46a0 44bc 0eca dfbc 104a a53b
00000240: 6beb dcbc 399f 97bc 2aa0 fa3c 5f54 013d
00000250: 3926 91bc 7406 6ebc 58c0 cb3c c848 64bc
00000260: 2ebe a13c e6b6 a23c 1a06 8c3c 2064 81bb
00000270: 2ab1 dc3c 2eaf d9bc 39ba edbc f89c f2bb
00000280: 7001 933c 3bb4 063d d44c 4abc e2fd e93c
00000290: b032 7e3c 666a ea3c 5651 9e3c a0da 7e3b
000002a0: 68f4 d9bc 40d6 333a ae47 a03c 2f05 123d
000002b0: 90ec 173c be7f 80bc 382c 10bc 0018 873a
000002c0: 009c 1039 c8bf e9bc dc0b 30bc d8a0 53bc
000002d0: c4c0 f1bb 0d66 103d 58ea 8b3c e812 c5bc
000002e0: 7cbc ba3c c287 e9bc 089d 553c 7a06 9c3c
000002f0: fceb 743c 60a9 09bd f02f 493b d0a3 9abb
00000300: 854b d1bc 1056 ac3b 44a5 753c 5cdf 523c
00000310: b060 173c 097c 003d 681a 84bb 9213 01bc
00000320: 8c43 10bd 0cfb f4bb a034 b9bc cb23 10bd
00000330: 6482 fabb 94da 953c 8c59 a83c 40e4 cabc
00000340: 21f8 033d 06ff 79bc f6a4 1fbc c06a 373a
00000350: 5322 f9bc 4840 973b fbf4 0b3d 107d ac3b
00000360: 88cf b13c da82 bb3c fd49 f8bc 689b 203c
00000370: 1629 9b3c 9ab0 d3bc b093 33bb f082 1bbb
00000380: 49ec 103d ac6e 033c fef6 6ebc 483f debc
00000390: c584 80bc a044 a73a a44f adbb 2d1b 043d
000003a0: f09c 583c 64ae 0bbc 56e5 6fbc 1a3e e63c
000003b0: 68e8 f6bb 053b 053d ec78 72bc a61a 0cbd
000003c0: 63a2 08bd 3815 793c 7635 b23c a211 e83c
000003d0: e28f a53c 96f2 bfbc fe06 b0bc d0c2 bb3b
000003e0: 584b bd3c 507d b5bc 6435 1ebc 3a46 de3c
000003f0: e253 dc3c 5e59 873c 92b9 4cbc 30df 5ebb

user_embed.weight f4 [447, 32]
0.33441377 -0.08055672 -0.018756773 0.3410412 -0.2526427 0.0044237766 -0.21098794 -0.24084622
-0.11236282 -0.011550576 0.28450772 0.009574892 -0.09068626 0.19501959 0.06719898 0.26493195
0.026754236 -0.2626433 0.11436533 -0.13153039 0.15916452 -0.07249512 -0.3792032 -0.08770738
-0.32439855 -0.16139346 -0.009579794 0.42525882 -0.5215495 0.07783184 -0.016012736 -0.0299726
0.3716331 -0.19993713 0.34615526 -0.26701817 0.06914358 -0.019115083 0.2653453 -0.0937304
-0.20549288 0.12340878 0.10561113 -0.18781297 0.15389477 0.26391476 -0.038998146 0.14065358
-0.11186884 -0.031495936 0.37964278 0.15508008 -0.08567812 -0.14278689 -0.2748609 0.08772327
-0.35418278 -0.1427268 0.03901978 0.27970964 -0.24091755 0.23155494 0.25011623 0.34673083
0.23601842 0.1547849 -0.13260572 0.12325836 -0.27552342 -0.05833103 -0.45763257 -0.17544436
-0.3595822 0.23792087 0.19197544 -0.03424123 0.24181062 0.1403448 -0.05925919 -0.0657558
0.30267593 -0.25711843 0.29261646 0.10189407 -0.052114602 0.20318523 -0.38236037 -0.14148594
-0.24089561 -0.094689496 -0.011422654 0.19679022 -0.30025867 0.21695091 0.36725023 0.08696521
0.36672837 0.2354263 -0.1486359 0.65649986 0.056725323 -0.105418704 -0.20734917 0.15457623
-0.31118417 -0.056755453 -0.2954567 0.20196602 0.49219882 0.26378137 0.22491775 -0.16724992
0.7210721 0.24454789 0.08160095 -0.034510482 0.03986932 0.084925555 -0.5448578 -0.27480298
0.03624562 -0.60000044 0.61245847 0.47445008 -0.065577544 0.5285379 0.3466619 -0.1517593
0.44257292 -0.1274404 0.06772325 0.072835624 -0.029021434 -0.071726784 0.10794017 -0.011998968
-0.34334505 -0.15790166 -0.091070436 0.19543442 -0.029411495 0.07799633 0.19052084 -0.16716306
0.1356483 0.045899466 0.12764923 0.1841345 0.012202667 0.2669166 -0.30635142 0.1372782
-0.15716049 -0.14509311 0.07997006 0.31291637 -0.14824624 0.110634714 0.027075635 -0.09075773
-0.23087291 0.8088105 0.89242214 -0.6126562 0.74531657 0.026031662 0.18072201 0.52619433
0.21235836 0.556056 -0.43491828 -0.45401844 0.37746814 -0.3394225 -0.5676766 -0.23811913
-0.33610126 -0.06955095 0.5576977 0.44564292 0.59444916 -0.5222402 0.41746604 -0.3974146
-0.684703 0.06053143 -0.48340702 -0.0423615 0.015973903 0.6138123 -0.20345819 0.6481576
-0.04184524 0.25717893 -0.11237854 0.017674422 0.13029155 -0.20258121 0.025638973 0.028128827
-0.18787752 0.017990954 0.20133992 -0.023349727 0.14640228 0.17764287 0.052437853 0.16353548
-0.056497898 0.14816962 0.15221354 0.33675265 0.020378651 -0.013533181 -0.12169167 0.19793834
-0.10918495 0.17313656 0.031567164 0.16340332 -0.21798961 -0.0074632033 0.16321415 0.41016144
0.37492254 0.10197196 -0.32139212 0.2713414 -0.08681469 -0.31129065 -0.186769 0.22771911
-0.23410764 0.10481382 -0.25847188 0.2992759 0.2548349 0.27238032 0.587082 -0.030684771
0.28470477 0.43572053 0.057893146 0.14426771 0.29553163 -0.2281558 -0.23434356 0.32962132
-0.33419994 -0.19474089 -0.19979766 0.18125089 -0.28185785 0.29652673 -0.091699794 0.16508496
00000000: 4838 ab3e ecfa a4bd cea7 99bc f49c ae3e
00000010: 625a 81be 54f5 903b 390d 58be 64a0 76be
00000020: 7a1e e6bd a13e 3dbc ffaa 913e 02e0 1c3c
00000030: b8b9 b9bd 37b3 473e 9e9f 893d 29a5 873e
00000040: b32b db3c 2f79 86be 5f38 ea3d e7af 06be
00000050: 06fc 223e 5278 94bd ec26 c2be ed9f b3bd
00000060: 9117 a6be 5444 25be 91f4 1cbc 86bb d93e
00000070: 4584 05bf 4d66 9f3d 242d 83bc 1989 f5bc
00000080: b246 be3e 52bc 4cbe 433b b13e 9bb6 88be
00000090: 269b 8d3d 3c97 9cbc 57db 873e b9f5 bfbd
000000a0: ba6c 52be bebd fc3d a64a d83d 0b52 40be
000000b0: 9796 1d3e d61f 873e 85bc 1fbd 7e07 103e
000000c0: 7e1b e5bd e201 01bd 8a60 c23e 50cd 1e3e
000000d0: 0378 afbd ba36 12be 91ba 8cbe 42a8 b33d
000000e0: 7257 b5be f926 12be 34d3 1f3d 1a36 8f3e
000000f0: 17b3 76be bd1c 6d3e 3c0f 803e b486 b13e
00000100: d0ae 713e ef7f 1e3e cbc9 07be e16e fc3d
00000110: 6811 8dbe 85ec 6ebd d14e eabe b0a7 33be
00000120: 281b b8be 87a1 733e 3695 443e 8840 0cbd
00000130: 349d 773e 8cb6 0f3e c4b9 72bd faaa 86bd
00000140: 57f8 9a3e 07a5 83be d3d1 953e d7ad d03d
00000150: 1f76 55bd ca0f 503e bdc4 c3be b1e1 10be
00000160: 57ad 76be 91ec c1bd 1526 3bbc 6083 493e
00000170: 81bb 99be 6128 5e3e 3908 bc3e d11a b23d
00000180: d2c3 bb3e 9813 713e 0234 18be 6010 283f
00000190: d058 683d c3e5 d7bd 5753 54be 3b49 1e3e
000001a0: 8853 9fbe 6878 68bd 1a46 97be 2ed0 4e3e
000001b0: 7c01 fc3e 5a0e 873e d750 663e 9043 2bbe
000001c0: 2e98 383f c36a 7a3e 661e a73d dd5a 0dbd
000001d0: 034e 233d 73ed ad3d cd7b 0bbf fab2 8cbe
000001e0: 4a76 143d a199 19bf 14ca 1c3f 1feb f23e
000001f0: 854d 86bd 434e 073f ab7d b13e ca66 1bbe
00000200: eb98 e23e bc7f 02be 7db2 8a3d d82a 953d
00000210: 5cbe edbc 7ee5 92bd bc0f dd3d 5297 44bc
00000220: ecca afbe f9b0 21be 2383 babd f61f 483e
00000230: 60f0 f0bc 8abc 9f3d e517 433e cb2c 2bbe
00000240: 63e7 0a3e 1401 3c3d 7bb6 023e c18d 3c3e
00000250: b2ed 473c 4ba9 883e 18da 9cbe a892 0c3e
00000260: aeee 20be 4a93 14be 58c7 a33d 9336 a03e
00000270: ddcd 17be 7494 e23d b9cd dd3c 30df b9bd
00000280: f369 6cbe 340e 4f3f c775 643f 09d7 1cbf
00000290: 11cd 3e3f 5a40 d53c 310f 393e acb4 063f
000002a0: 7874 593e b059 0e3f 9cad debe 1b75 e8be
000002b0: 8143 c13e c9c8 adbe 4153 11bf 80d5 73be
000002c0: 7715 acbe ba70 8ebd 47c5 0e3f 4f2b e43e
000002d0: d22d 183f 89b1 05bf 1cbe d53e ed79 cbbe
000002e0: b248 2fbf ceef 773d 2081 f7be 4183 2dbd
000002f0: b4db 823c ce22 1d3f 5857 50be a8ed 253f
00000300: ea65 2bbd f5ac 833e b826 e6bd f3c9 903c
00000310: 266b 053e 7371 4fbe d308 d23c 6d6e e63c
00000320: f762 40be c461 933c 0d2c 4e3e ed47 bfbc
00000330: 7bea 153e 03e8 353e 13c9 563d d875 273e
00000340: 576a 67bd c7b9 173e dedd 1b3e d86a ac3e
00000350: 21f1 a63c 46ba 5dbc 7b39 f9bd 59b0 4a3e
00000360: 5c9c dfbd b64a 313e 924c 013d 3353 273e
00000370: ab38 5fbe e38d f4bb 9c21 273e ae00 d23e
00000380: d9f5 bf3e add6 d03d 828d a4be 43ed 8a3e
00000390: e6cb b1bd 7d61 9fbe 5f40 3fbe 332f 693e
000003a0: eab9 6fbe a1a8 d63d 6d56 84be b13a 993e
000003b0: b879 823e 6f75 8b3e 024b 163f a15e fbbc
000003c0: d3c4 913e c316 df3e 5d21 6d3d eaba 133e
000003d0: ec4f 973e ada1 69be c2f7 6fbe 20c4 a83e
000003e0: 411c abbe 286a 47be c297 4cbe d599 393e
000003f0: ac4f 90be 5ad2 973e 1acd bbbd 080c 293e

item_embed.weight f4 [578, 32]
-0.14717585 0.2530639 0.42418882 -0.3164034 -0.13103041 -0.4343345 -0.2892521 -0.3606459
0.20517465 0.3291725 -0.07838968 -0.1485025 0.43472353 0.15254574 -0.25506574 0.020109816
-0.35660613 0.5011269 -0.17577028 0.22254562 -0.2220956 -0.4497705 0.4357125 0.09180058
-0.2096625 -0.10631629 -0.55582786 -0.31949735 -0.12318797 0.16250682 0.15224795 0.09363885
0.013350573 -0.014032011 0.5258513 -0.39728945 0.2122139 -0.61442214 -0.5577842 -0.40303934
-0.0386587 0.02423674 0.10728895 -0.16022646 0.32190028 0.26715353 -0.51240927 0.53039914
-0.044480838 0.34776008 -0.32100528 0.18472128 0.353897 -0.3148232 -0.24188562 0.21057966
-0.15375067 -0.2822373 0.19250183 -0.17713408 -0.4405385 0.16269839 0.24890363 -0.00015741854
0.05308245 0.3598543 0.40190083 -0.111338384 0.14507137 -0.35400522 -0.25811303 -0.07536481
-0.20680113 -0.028764192 -0.22554062 -0.14703156 0.34757105 0.034488715 -0.34415388 -0.036427774
-0.5234124 0.053728066 -0.62405866 0.42719927 -0.06487017 -0.7155091 0.040801972 0.32506454
-0.31199777 -0.21982846 -0.69625586 0.09559363 -0.3664734 0.05299547 0.2863067 -0.39445126
0.033871174 0.0696135 0.09003111 -0.020513168 -0.21592268 -0.10387528 0.3453 0.13992716
-0.1641933 -0.101361275 -0.108154155 0.45481455 0.115733325 0.028340202 0.3365499 0.013553444
0.22496764 0.4317676 0.44206393 0.07185429 -0.12775052 -0.031169714 0.036160182 0.36747947
-0.12084485 0.17939894 0.13746457 0.3315581 0.055939727 -0.12620123 0.26057872 -0.1301254
-0.10618987 0.27295962 0.13948894 -0.13702446 -0.32974425 0.55542755 0.2907196 0.044541515
0.13499221 -0.28806505 -0.17232677 -0.17768288 -0.4064224 -0.40475422 -0.23702459 -0.25866494
0.063398376 -0.013162677 -0.54093194 -0.17636143 -0.2386812 -0.07822031 0.25257328 -0.3072309
0.54434466 0.13425551 0.056546725 -0.4241491 0.3619553 -0.22315387 -0.24313729 0.06702681
-0.04774911 0.062280644 -0.2300074 -0.20126766 0.348904 0.41046438 0.13659707 -0.08555929
0.2538609 -0.00018366313 -0.113264576 -0.08269552 -0.09650433 -0.07324231 -0.22830099 0.084358275
-0.11601336 -0.35293555 -0.08777325 0.2716409 -0.1448877 0.019297535 0.33316472 -0.24534202
0.06674064 0.47478685 0.06448647 0.18873131 0.16604723 -0.08353131 -0.13456385 0.24868365
0.09121466 0.5750336 0.39054403 -0.568706 0.10666449 -0.29062402 -0.4342529 -0.40582588
-0.35650268 0.76237303 -0.47122082 -0.70537376 0.4437128 0.54958934 0.1636656 -0.10206861
0.3167319 0.48553032 0.14881764 0.49133235 -0.031715147 -0.6978518 -0.55127054 0.5517914
-0.48197109 -0.12322176 -0.3983784 -0.14213482 -0.47622985 0.39647582 0.43642423 0.36461228
-0.07384672 0.2462768 0.7571594 -0.49160904 0.029612366 -0.48483917 -0.32689676 -0.13587287
-0.5943278 0.37265494 -0.017231451 -0.6859907 0.65867347 0.30255824 -0.11580182 0.052018926
-0.44074565 0.5489201 0.22334479 0.65726554 0.17699283 -0.44788107 0.16681351 0.054721348
-0.42527905 -0.23400007 -0.33864516 0.019231588 -0.6305456 0.2537709 0.43578148 0.27391353
00000000: 44b5 16be 9791 813e 472f d93e a0ff a1be
00000010: d62c 06be 1761 debe da18 94be 94a6 b8be
00000020: 4e19 523e 4c89 a83e c58a a0bd 0a11 18be
00000030: 1594 de3e f334 1c3e fa97 82be 57bd a43c
00000040: 1495 b6be da49 003f 20fd 33be 00e3 633e
00000050: 076d 63be 5248 e6be b515 df3e f101 bc3d
00000060: c4b1 56be 5bbc d9bd bc4a 0ebf 2895 a3be
00000070: f949 fcbd 3068 263e e3e6 1b3e bac5 bf3d
00000080: 5dbc 5a3c 85e6 65bc 319e 063f 8669 cbbe
00000090: 9a4e 593e c54a 1dbf f2ca 0ebf 2c5b cebe
000000a0: 9658 1ebd 218c c63c 4fba db3d 6812 24be
000000b0: 1dd0 a43e 59c8 883e 412d 03bf 3dc8 073f
000000c0: 8a31 36bd 9c0d b23e ce5a a4be 9327 3d3e
000000d0: fd31 b53e 8230 a1be ddb0 77be 32a2 573e
000000e0: d170 1dbe 6881 90be 331f 453e a362 35be
000000f0: 438e e1be 689a 263e 98e0 7e3e b810 25b9
00000100: fc6c 593d d33e b83e f2c5 cd3e 6105 e4bd
00000110: 978d 143e 2c40 b5be 6427 84be de58 9abd
00000120: adc3 53be e2a2 ebbc 1ff4 66be 718f 16be
00000130: d5f4 b13e 0a44 0d3d f034 b0be 4a35 15bd
00000140: 5bfe 05bf f611 5c3d 4fc2 1fbf ddb9 da3e
00000150: a7da 84bd 9b2b 37bf f81f 273d dc6e a63e
00000160: 2cbe 9fbe b61a 61be d33d 32bf 98c6 c33d
00000170: 67a2 bbbe c711 593d cb96 923e 84f5 c9be
00000180: 80bc 0a3d 8691 8e3d 3b62 b83d 3b0b a8bc
00000190: d61a 5dbe 90bc d4bd 29cb b03e 1149 0f3e
000001a0: 4a22 28be 8096 cfbd ed7f ddbd 74dd e83e
000001b0: 9805 ed3d b629 e83c 4550 ac3e 440f 5e3c
000001c0: eb5d 663e a510 dd3e 3456 e23e 5828 933d
000001d0: 08d1 02be a157 ffbc b31c 143d 4526 bc3e
000001e0: 817d f7bd 5bb4 373e 83c3 0c3e fcc1 a93e
000001f0: 0e21 653d e53a 01be 936a 853e 983f 05be
00000200: 137a d9bd 5dc1 8b3e 30d6 0e3e 2450 0cbe
00000210: 3dd4 a8be 8030 0e3f 33d9 943e 2a71 363d
00000220: 663b 0a3e 437d 93be 6e76 30be 80f2 35be
00000230: 9916 d0be f23b cfbe 93b6 72be bb6f 84be
00000240: 02d7 813d 45a8 57bc 847a 0abf 1798 34be
00000250: d868 74be f831 a0bd 4951 813e 5e4d 9dbe
00000260: 2c5a 0b3f 477a 093e 8a9d 673d 122a d9be
00000270: 3552 b93e 7382 64be fbf8 78be 5a45 893d
00000280: 9294 43bd fd19 7f3d 0f87 6bbe 1c19 4ebe
00000290: 8ca3 b23e 6328 d23e 1ae0 0b3e b639 afbd
000002a0: 0efa 813e b295 40b9 42f7 e7bd 455c a9bd
000002b0: 10a4 c5bd 1000 96bd bcc7 69be 08c4 ac3d
000002c0: 6a98 edbd f8b3 b4be 76c2 b3bd 8414 8b3e
000002d0: 715d 14be dd15 9e3c 9194 aa3e f03a 7bbe
000002e0: 51af 883d 4317 f33e 7b11 843d c842 413e
000002f0: 4908 2a3e 7712 abbd 1bcb 09be eda6 7e3e
00000300: c0ce ba3d 6735 133f 63f5 c73e b796 11bf
00000310: ea72 da3d accc 94be 6556 debe 69c8 cfbe
00000320: 8587 b6be e12a 433f db43 f1be 6093 34bf
00000330: 532e e33e e3b1 0c3f f497 273e 5909 d1bd
00000340: af2a a23e 6e97 f83e a763 183e ea8f fb3e
00000350: bee7 01bd 6aa6 32bf 1120 0dbf 3442 0d3f
00000360: eac4 f6be b15b fcbd 41f8 cbbe ca8b 11be
00000370: 66d4 f3be e1fe ca3e ff72 df3e 76ae ba3e
00000380: f33c 97bd fc2f 7c3e 33d5 413f 2eb4 fbbe
00000390: a295 f23c d73c f8be 035f a7be 4222 0bbe
000003a0: de25 18bf a1cc be3e f928 8dbc 169d 2fbf
000003b0: d39e 283f eae8 9a3e 8129 edbd cc11 553d
000003c0: 6aa9 e1be 0786 0c3f 7fb4 643e 8e42 283f
000003d0: 9c3d 353e ab50 e5be 29d1 2a3e 7e23 603d
000003e0: 2dbe d9be b79d 6fbe e662 adbe 908b 9d3c
000003f0: 706b 21bf 42ee 813e c01e df3e 653e 8c3e

entity_embed.weight f4 [886, 32]
-0.08998904 -0.03137942 0.08804138 0.008131553 -0.03873306 -0.0648072 0.0066328067 0.011116692
0.0497163 -0.003364934 -0.03154776 -0.09866371 -0.014715768 -0.03832611 -0.071785726 0.0238738
-0.10915633 0.065376356 -0.026013507 0.059063513 0.039483085 -0.03249732 0.055425156 0.07299266
-0.023111483 -0.051244587 -0.02072906 0.015536108 -0.04700412 0.086626366 -0.064640686 -0.06800546
0.082962856 -0.07643674 0.118363224 -0.046895236 0.032239974 -0.051424436 -0.13475968 -0.121381596
0.08207584 -0.05866806 -0.0012834368 -0.070491605 0.14001864 0.0010680028 -0.025228137 0.16138534
-0.016481837 0.087808296 -0.04622902 -0.026828108 -0.008838416 -0.028697625 0.031511012 0.06804575
0.028056556 -0.14272055 -0.060853142 0.042709276 -0.003077097 0.12119871 0.09102363 -0.017349333
0.05158517 0.07972808 0.12911966 -0.080140345 0.08361112 -0.07819387 -0.039175335 -0.083873846
0.023278821 -0.00085358514 -0.048786007 0.012060303 0.088099845 -0.10391744 -0.031072577 -0.07247888
-0.11779251 0.072754346 -0.15949959 0.11176626 0.06849166 -0.15330316 0.014993724 0.09803877
-0.029401682 0.036305044 -0.2022798 0.034564428 0.0027812028 0.026809685 0.048399653 -0.13380422
-0.017269406 -0.057919383 0.0327403 -0.072184496 0.049147986 0.08577918 -0.0009744946 0.05447661
-0.04953567 -0.00047653652 0.05764236 -0.028142627 0.055007882 0.004033787 0.04287625 -0.06363883
0.06876788 0.065171346 0.06781997 0.07384099 -0.0061218883 -0.032182153 0.07208808 -0.026840467
0.03693268 0.016363919 0.07433567 0.062386755 0.0020202254 -0.04052253 0.006196103 0.04014113
-0.027778076 0.038757198 0.047495898 0.020190135 -0.07551135 0.058392894 0.03325834 -0.034568414
0.031153979 -0.07222823 -0.07637101 0.008537703 -0.039270468 -0.12633531 -0.049907334 -0.033234045
0.08868855 0.044887595 -0.06284437 0.080111876 0.007907645 -0.072674915 0.048775055 -0.0638489
0.043686785 -0.0009084809 0.06752005 -0.019182272 -0.023423837 0.019807646 -0.08434531 -0.0018910716
-0.06780713 0.030427387 -0.0020529153 -0.03888201 0.057813678 0.06508996 0.076613024 -0.0010755461
0.029204136 0.07326092 -0.006202613 -0.06999361 -0.07338317 0.016565507 -0.0477801 0.075288385
-0.031205177 -0.10560025 -0.011205543 0.08861633 0.023044473 0.00617426 0.02264506 0.022265418
-0.0116641745 0.0593918 0.019239703 0.016705047 0.03404111 0.010111579 -0.0858613 -0.05297469
-0.027726624 0.05813107 0.090449296 -0.16353182 -0.05596935 -0.10313977 -0.04107514 -0.1457595
0.0041924478 0.15588169 -0.030400371 -0.05288116 0.16427134 0.15971133 0.0064059147 -0.019505953
0.07410237 0.003702404 0.0134753 -0.004436208 -0.06588212 -0.14618714 -0.10982707 0.06698232
-0.071733765 -0.07230182 -0.099858016 -0.008211911 -0.09100805 0.034870204 0.059938967 0.04019557
-0.06322199 2.6127433e-05 0.16371872 -0.1106917 -0.021026071 -0.03493089 -0.03669999 -0.09746236
0.0148846125 0.047531087 0.05570385 -0.07570296 0.08820077 0.038405098 -0.071809545 -0.077910595
-0.11543522 0.13194984 0.04773997 0.10070866 0.058309775 -0.037094004 0.09625158 0.04570923
0.021746665 -0.008505739 -0.08353992 0.008756842 -0.08157387 0.022350308 0.014438344 -0.010971361
00000000: 2c4c b8bd b587 00bd 0a4f b43d 353a 053c
00000010: 8fa6 1ebd a3b9 84bd 0458 d93b c922 363c
00000020: 52a3 4b3d 3986 5cbb 3938 01bd 3310 cabd
00000030: 681a 71bc d7fb 1cbd 6504 93bd fd92 c33c
00000040: 5b8d dfbd 0ae4 853d 471a d5bc 95ec 713d
00000050: 04b9 213d e91b 05bd 7d05 633d 2d7d 953d
00000060: 4b54 bdbc d8e5 51bd fdcf a9bc 298b 7e3c
00000070: 6487 40bd 2a69 b13d 5662 84bd 7246 8bbd
00000080: 6ee8 a93d de8a 9cbd 6b68 f23d 3815 40bd
00000090: 100e 043d 6ea2 52bd 71fe 09be ea96 f8bd
000000a0: 6117 a83d eb4d 70bd fe38 a8ba e75d 90bd
000000b0: 0c61 0f3e 3afc 8b3a 3dab cebc 3342 253e
000000c0: eb04 87bc d6d4 b33d a45a 3dbd 9fc6 dbbc
000000d0: 01cf 10bc 4817 ebbc b111 013d 925b 8b3d
000000e0: ddd6 e53c 5625 12be 2541 79bd ecef 2e3d
000000f0: 1fa9 49bb 0737 f83d 996a ba3d 3020 8ebc
00000100: f94a 533d 7a48 a33d f237 043e 9f20 a4bd
00000110: 4f3c ab3d 1c24 a0bd 5176 20bd 0dc6 abbd
00000120: 3ab3 be3c 21c3 5fba d6d3 47bd 9498 453c
00000130: b16d b43d abd2 d4bd eb8b febc cf6f 94bd
00000140: 333d f1bd 3b00 953d dc53 23be b5e5 e43d
00000150: 5b45 8c3d 81fb 1cbe 3da8 753c 8dc8 c83d
00000160: ccdb f0bc 99b4 143d 7022 4fbe 6e93 0d3d
00000170: d744 363b fc9f db3c b73e 463d f903 09be
00000180: 9278 8dbc e03c 6dbd b11a 063d 77d5 93bd
00000190: 664f 493d ffac af3d 3a75 7fba de22 5f3d
000001a0: eae5 4abd a6d7 f9b9 651a 6c3d 5e8b e6bc
000001b0: f24f 613d dc2d 843b 029f 2f3d 1355 82bd
000001c0: 2dd6 8c3d 8e78 853d 32e5 8a3d f239 973d
000001d0: 1f9a c8bb 6fd1 03bd eaa2 933d 8ae0 dbbc
000001e0: b946 173d a00d 863c 4d3d 983d 4189 7f3d
000001f0: c265 043b f4fa 25bd ae08 cb3b 076b 243d
00000200: d98e e3bc debf 1e3d 0f8b 423d c865 a53c
00000210: b2a5 9abd 632d 6f3d e639 083d 9c97 0dbd
00000220: a136 ff3c 65ec 93bd 6768 9cbd b9e1 0b3c
00000230: 12da 20bd 0b5e 01be a26b 4cbd 6c20 08bd
00000240: 58a2 b53d 0edc 373d 8db4 80bd b211 a43d
00000250: 118f 013c 96d6 94bd 5ac8 473d 36c3 82bd
00000260: eaf0 323d 1f27 6eba f447 8a3d 2424 9dbc
00000270: 59e3 bfbc a543 a23c 3cbd acbd d5dd f7ba
00000280: 77de 8abd db42 f93c 348a 06bb be42 1fbd
00000290: 09ce 6c3d e34d 853d 4ae7 9c3d 57f9 8cba
000002a0: 833d ef3c d209 963d 4a3f cbbb cf58 8fbd
000002b0: ea49 96bd 63b4 873c 11b5 43bd cc30 9a3d
000002c0: 00a2 ffbc f244 d8bd 7497 37bc 7a7c b53d
000002d0: c3c7 bc3c 7251 ca3b 2282 b93c f765 b63c
000002e0: 181b 3fbc d144 733d 959c 9d3c 06d9 883c
000002f0: b16e 0b3d 09ab 253c 0dd8 afbd fdfb 58bd
00000300: f222 e3bc d81a 6e3d 7b3d b93d e374 27be
00000310: 1e40 65bd f23a d3bd 683e 28bd fa41 15be
00000320: cd60 893b 739f 1f3e 330a f9bc ea99 58bd
00000330: bf36 283e 5e8b 233e b5e8 d13b f3ca 9fbc
00000340: fcc2 973d 08a4 723b 81c7 5c3c 9c5d 91bb
00000350: 34ed 86bd 15b2 15be 04ed e0bd 072e 893d
00000360: 27e9 92bd fa12 94bd 5c82 ccbd 408b 06bc
00000370: 6e62 babd 0fd4 0e3d 9082 753d 1ca4 243d
00000380: 887a 81bd 3c2c db37 e1a5 273e 54b2 e2bd
00000390: de3e acbc b113 0fbd bb52 16bd 599a c7bd
000003a0: 97de 733c f5af 423d b829 643d 270a 9bbd
000003b0: 9ba2 b43d aa4e 1d3d e210 93bd 978f 9fbd
000003c0: 4d69 ecbd dc1d 073e fd8a 433d 5840 ce3d
000003d0: 3bd6 6e3d e2ef 17bd 8c1f c53d 9a39 3b3d
000003e0: 1026 b23c a85b 0bbc fa16 abbd dc78 0f3c
000003f0: 3310 a7bd fe17 b73c ce8e 6c3c 39c1 33bc

relation_embed.weight f4 [114, 32]
-0.028391695 0.010372706 -0.028624056 -0.13979688 0.090057075 0.09611463 0.055406343 -0.17685899
-0.113137394 -0.041892257 -0.020715386 -0.045457058 0.07176619 0.19048175 0.1140533 -0.09404054
-0.08716258 -0.05478619 0.050695427 -0.076425806 -0.061516274 0.020334285 0.028926972 -0.10268419
0.13350105 0.052024834 0.17453805 -0.192402 -0.024851331 -0.028461102 0.16392228 0.1835117
-0.05041193 0.12742926 0.0053681834 -0.0003483834 -0.16328034 -0.14024805 0.014387544 -0.19972928
0.16338544 0.017205898 -0.14779767 0.11158829 -0.16352344 -0.14002542 -0.09662519 -0.043954264
-0.028390711 -0.18461834 -0.0013749178 -0.14315878 -0.0818657 0.053132188 0.0066833515 0.1292143
0.09899917 0.003832286 0.075123206 0.010499306 -0.04001876 0.10822115 -0.08101094 -0.1945771
0.10663666 -0.020017741 0.009769283 0.060166698 0.022593005 -0.1461807 0.0473061 -0.14491645
-0.037946526 -0.15730579 0.12206891 -0.022200579 -0.00038838334 -0.24497813 0.077446714 -0.15994471
-0.13929814 0.13747178 0.14552222 0.21668911 0.08137844 -0.07789558 0.06421721 0.12981206
0.19285631 -0.1359987 0.07993902 0.037219923 0.12646616 0.11522127 0.0786349 -0.15800235
0.05524675 -0.16037172 -0.08425327 -0.030241603 -0.08861969 -0.079099126 0.0028565975 0.15148057
-0.10256302 0.05422635 -0.08327011 -0.080144435 -0.0017538201 -0.19476175 -0.023944363 -0.15571257
0.13062009 -0.07325772 0.025885679 0.07447974 -0.11983807 -0.19706209 -0.05795179 -0.09478004
0.16864835 -0.16453114 -0.085108675 0.18394852 -0.07442146 -0.18328463 0.1611426 0.104238555
-0.11385788 0.08060265 -0.12160768 -0.11018109 -0.009870095 0.11384386 -0.013855312 -0.13399386
0.10216732 0.051838286 -0.016730236 -0.07069516 -0.047348186 -0.12067935 0.14326696 -0.0033797168
0.01738201 0.1283672 -0.013933444 0.066674724 0.10608947 0.12293653 -0.0135378465 -0.15711734
-0.09683982 -0.09462425 0.0048731687 0.01690994 -0.03647258 -0.19659618 -0.12766095 -0.1318361
-0.13804585 -0.050288394 -0.13414343 0.09351592 0.047959074 0.088095 0.07628545 0.039404485
-0.06242282 -0.07696732 -0.06574028 -0.1137063 -0.035510223 -0.14194202 -0.20782386 0.1113483
-0.03109915 0.016938282 -0.07350116 -0.12116244 0.087619506 -0.06482912 0.16177799 0.069689505
-0.0044685164 -0.098970704 -0.007945175 -0.13333574 0.021371955 0.14275199 -0.063751444 -0.09587899
0.07117707 0.19040832 0.119981624 0.14748709 -0.017341485 0.2000654 0.036899 -0.026536724
0.0021698864 -0.04757792 -0.028506743 -0.0412474 -0.12798291 -0.12161106 0.08174446 -0.06260905
0.047836397 -0.15210138 -0.02012745 0.14658481 0.037538964 0.031205293 0.14535467 0.112089604
-0.015138848 0.04954503 -0.0032758892 -0.076928906 -0.120255366 0.022263985 -0.15221542 -0.17597395
0.021352164 -0.17999406 -0.112981506 -0.031665407 0.03637748 0.1359509 -0.1890579 0.033869583
-0.06276274 -3.4420285e-05 0.17474093 0.076086864 0.044578694 -0.18288742 -0.12599114 -0.1508046
0.17754702 0.069400616 0.17536445 -0.083350286 0.09890619 -0.21448487 0.076959506 -0.15579292
0.119765244 -0.15782814 -0.088226326 -0.048865527 -0.08736378 -0.11947428 -0.20779565 -0.07985359
00000000: b395 e8bc 48f2 293c ff7c eabc ea26 0fbe
00000010: d86f b83d bfd7 c43d c3f1 623d 861a 35be
00000020: 94b4 e7bd 3797 2bbd 50b3 a9bc 2e31 3abd
00000030: 27fa 923d a60d 433e c794 e93d 5498 c0bd
00000040: 4b82 b2bd 7c67 60bd 02a6 4f3d 2285 9cbd
00000050: 7df8 7bbd 1694 a63c 42f8 ec3c 174c d2bd
00000060: 80b4 083e fe17 553d 1aba 323e 0805 45be
00000070: 0595 cbbc 4227 e9bc 3edb 273e 7eea 3b3e
00000080: bd7c 4ebd d17c 023e 96e7 af3b 3aa7 b6b9
00000090: f632 27be 2f9d 0fbe bcb9 6b3c d585 4cbe
000000a0: 834e 273e 62f3 8c3c 4658 17be 6788 e43d
000000b0: b072 27be d362 0fbe 6de3 c5bd 6309 34bd
000000c0: a393 e8bc 970c 3dbe 9636 b4ba 3798 12be
000000d0: 34a9 a7bd 23a1 593d 0400 db3b c150 043e
000000e0: 14c0 ca3d 1727 7b3b 32da 993d 4805 2c3c
000000f0: b6ea 23bd 0da3 dd3d 10e9 a5bd 383f 47be
00000100: 5264 da3d 3ffc a3bc 580f 203c 5b71 763d
00000110: f714 b93c 65b0 15be 0bc4 413d fa64 14be
00000120: d16d 1bbd c514 21be 44ff f93d fddd b5bc
00000130: ee9f cbb9 8cdb 7abe 629c 9e3d 8cc8 23be
00000140: 2ca4 0ebe 67c5 0c3e c703 153e c0e3 5d3e
00000150: bda9 a63d b887 9fbd 5084 833d 74ed 043e
00000160: 207c 453e 3e43 0bbe 12b7 a33d eb73 183d
00000170: 5880 013e 21f9 eb3d 560b a13d 5ecb 21be
00000180: 6b4a 623d 7c38 24be fa8c acbd 3dbd f7bc
00000190: 3d7e b5bd b9fe a1bd c135 3b3b b91d 1b3e
000001a0: 900c d2bd 731c 5e3d 8589 aabd c422 a4bd
000001b0: 70e0 e5ba a06f 47be f826 c4bc 1e73 1fbe
000001c0: 46c1 053e 2508 96bd 340e d43c d588 983d
000001d0: a96d f5bd a5ca 49be db5e 6dbd 0a1c c2bd
000001e0: 27b2 2c3e da7a 28be 754d aebd 005d 3c3e
000001f0: 476a 98bd f7ae 3bbe 9102 253e 067b d53d
00000200: 522e e9bd 0113 a53d 730d f9bd a0a6 e1bd
00000210: 2eb6 21bc f826 e93d 6401 63bc b035 09be
00000220: 1a3d d13d 6254 543d d90d 89bc a0c8 90bd
00000230: 2cf0 41bd bc26 f7bd 93b4 123e 3d7e 5dbb
00000240: b864 8e3c b172 033e 1a49 64bc c28c 883d
00000250: 7045 d93d 26c6 fb3d d8cd 5dbc 5ee3 20be
00000260: f553 c6bd 5cca c1bd 1aaf 9f3b b786 8a3c
00000270: 4664 15bd 8250 49be 8db9 02be 0b00 07be
00000280: e45b 0dbe 34fb 4dbd e55c 09be 4685 bf3d
00000290: bc70 443d 276b b43d 8c3b 9c3d 9966 213d
000002a0: 12af 7fbd 0ba1 9dbd d7a2 86bd d9de e8bd
000002b0: 2b73 11bd 4059 11be c7cf 54be 940a e43d
000002c0: a5c3 febc 27c2 8a3c c787 96bd 0324 f8bd
000002d0: db71 b33d 21c5 84bd 21a9 253e 5fb9 8e3d
000002e0: a26c 92bb 27b1 cabd 7b2c 02bc 2a89 08be
000002f0: 3d14 af3c 942d 123e 1e90 82bd 345c c4bd
00000300: 49c5 913d 66fa 423e edb8 f53d db06 173e
00000310: bb0f 8ebc f2dd 4c3e 6823 173d 8b63 d9bc
00000320: a734 0e3b 11e1 42bd f986 e9bc 09f3 28bd
00000330: f40d 03be 380f f9bd a469 a73d 2c39 80bd
00000340: 19f0 433d 77c0 1bbe 52e2 a4bc 541a 163e
00000350: 75c2 193d 3ea2 ff3c dbd7 143e 3c8f e53d
00000360: ee08 78bc bbef 4a3d 4db0 56bb e78c 9dbd
00000370: 7248 f6bd f662 b63c 5cde 1bbe 8432 34be
00000380: bcea ae3c 5d50 38be d962 e7bd 96b3 01bd
00000390: 8d00 153d b636 0b3e 6598 41be d5ba 0a3d
000003a0: c089 80bd 805e 10b8 49ef 323e 6ed3 9b3d
000003b0: 2698 363d d746 3bbe d203 01be 856c 1abe
000003c0: e3ce 353e e921 8e3d bd92 333e 8eb3 aabd
000003d0: 548f ca3d eca1 5bbe f29c 9d3d 2e88 1fbe
000003e0: 7b47 f53d b39d 21be 01b0 b4bd 3827 48bd
000003f0: c8eb b2bd eeae f4bd 62c8 54be 478a a3bd
