Knowledge_Graph_Recommendation/recommendation/stage2/trained_model/Douban/KG_free/dim32_lr0.001_l20.0001/model0_epoch20.pth (torch, 132479 bytes, 2 tensors)

user_embed.weight f4 [447, 32]
0	0x3e7f1fc0	0.24914455
1	0x3dd34298	0.10315436
2	0xbe140e91	-0.14458682
3	0x3eae7a52	0.34077698
4	0xbd682d82	-0.056684025
5	0xbd2251bc	-0.03962873
6	0xbe7013fb	-0.23445122
7	0x3d496894	0.049172
8	0xbe35228c	-0.1768896
9	0x3d8f1028	0.069855034
10	0x3d0fac24	0.035076275
11	0x3d716fab	0.058944385
12	0x3c4c910e	0.012485756
13	0x3e1742b6	0.14771542
14	0x3dee91ff	0.1164894
15	0x3de7bc2c	0.11315188
16	0x3d686882	0.05674029
17	0xbeb052c4	-0.34438145
18	0x3de518ee	0.111863956
19	0xbe2a6882	-0.16641429
20	0x3ea2bba5	0.31783786
21	0x3deec621	0.11658884
22	0xbe73c67b	-0.23806183
23	0xbdfe310f	-0.12411701
24	0xbe8b075b	-0.2715405
25	0xbe6b10e0	-0.22955656
26	0x3c490a02	0.012270452
27	0x3eb1cf16	0.34728307
28	0xbef64a9f	-0.48103806
29	0x3da3bc7d	0.07994936
30	0xbcf0160a	-0.029307384
31	0xbe2a4532	-0.16627958
32	0x3e5e9c81	0.21739389
33	0x3dd9a3fd	0.106269814
34	0x3e8cc5dc	0.27494705
35	0xbdce7ddd	-0.100826
36	0x3cc31c2a	0.02381714
37	0x3d32f38c	0.043689296
38	0x3d99fdae	0.07519089
39	0x3e0abe6a	0.135492
40	0xbeaf3a3d	-0.3422412
41	0x3d638a26	0.05555167
42	0xbe312e9c	-0.17302936
43	0xbd31ed96	-0.04343947
44	0x3dfe4d26	0.12417059
45	0x3e03b7a7	0.12863027
46	0xbe0910f5	-0.13385375
47	0x3d0ce4c0	0.03439784
48	0xbdf4b587	-0.11948686
49	0xbe100252	-0.14063385
50	0x3e266e1f	0.16252945
51	0xbcf208fd	-0.029545302
52	0x3e4b1d19	0.19835319
53	0xbda8eb5c	-0.08248016
54	0xbe53ca96	-0.20682749
55	0x3e887653	0.26652774
56	0xbea03988	-0.31293893
57	0xbe0d3397	-0.13789211
58	0x3d9044c1	0.07044364
59	0x3e87f998	0.26557612
60	0xbe7ec992	-0.2488158
61	0x3e88ba4e	0.2670464
62	0x3eca4199	0.39503172
63	0xbb572b84	-0.0032832334
64	0x3e881048	0.26574922
65	0x3e441c53	0.1915143
66	0xbe137957	-0.14401756
67	0x3e99363a	0.29924184
68	0xbc3a796f	-0.011381491
69	0xbe2a6dfe	-0.16643521
70	0xbed8c399	-0.4233673
71	0xbdfc5bb8	-0.123221815
72	0xbeba3119	-0.36365584
73	0x3e92863f	0.28618047
74	0x3db2e872	0.08735742
75	0xbddb0f32	-0.10696258
76	0x3d89d9a2	0.06730963
77	0x3e3e3600	0.18575287
78	0x3d1f0483	0.038822662
79	0xbdc1950c	-0.094522566
80	0x3eaf2366	0.34206694
81	0xbdaebd20	-0.085321665
82	0x3eb49ab9	0.35274294
83	0x3d965013	0.07339492
84	0x3e2b0821	0.1670232
85	0x3e6b9af5	0.2300833
86	0xbe77f904	-0.24216086
87	0x3cd523d3	0.026018059
88	0xbe269d37	-0.1627091
89	0xbe012b28	-0.12614119
90	0xbb6db6cc	-0.0036272286
91	0x3e93a3a3	0.28835782
92	0xbec0f30d	-0.37685433
93	0x3e88183d	0.26580992
94	0x3e877040	0.26452827
95	0xbd15ea78	-0.03660056
96	0x3eace381	0.33767322
97	0x3ebb5e7f	0.36595532
98	0xbd6d4270	-0.057924688
99	0x3f07e27f	0.5307998
100	0x3e8a7174	0.27039683
101	0xbccdb76d	-0.025111878
102	0xbd81a308	-0.06329924
103	0x3e7b4f6f	0.2454202
104	0xbe8213fe	-0.25405878
105	0xbd99935b	-0.07498809
106	0xbe110612	-0.14162472
107	0x3e7727f4	0.24136335
108	0x3e095ede	0.13415095
109	0x3e343d9a	0.17601624
110	0x3d935ee5	0.07195834
111	0xbd82c7da	-0.06385775
112	0x3ef6add8	0.48179507
113	0x3dd77543	0.10520413
114	0xbcb2b2eb	-0.02181383
115	0xbd0a581f	-0.033775445
116	0x3dc636c1	0.09678412
117	0x3e34bbf3	0.17649822
118	0xbf03a705	-0.51426727
119	0xbdd17e67	-0.102291875
120	0xbd33c30b	-0.04388718
121	0xbee88aa1	-0.45418265
122	0x3f0fcf4b	0.5617568
123	0x3f02c7b1	0.51085955
124	0xbea8c456	-0.32962292
125	0x3edeaffc	0.4349364
126	0x3e9d24cd	0.3069214
127	0xbeb12b56	-0.34603375
128	0x3e941c7b	0.2892798
129	0x3dd6b8a9	0.1048444
130	0x3e3bd7ba	0.18344012
131	0x3e15799a	0.14597169
132	0x3e5cb096	0.21551737
133	0xbe2992c8	-0.16559899
134	0x3dec33be	0.115333065
135	0x3e34c25d	0.17652269
136	0xbe8d21b6	-0.27564782
137	0xbe0df062	-0.1386123
138	0xbd9e99ec	-0.07744202
139	0x3e707dc5	0.23485477
140	0x3d025494	0.03181894
141	0x3da43f04	0.08019832
142	0x3e5d44b7	0.21608244
143	0xbe8acb07	-0.27108023
144	0x3e373135	0.17889865
145	0xbe09204e	-0.1339123
146	0x3d537230	0.05162257
147	0xbd10587d	-0.03524064
148	0x3dd8d9fd	0.10588453
149	0x3e8ad067	0.27112123
150	0xbea66dc2	-0.32505614
151	0x3e5eb1aa	0.21747461
152	0xbe60fe44	-0.21971995
153	0xbe2efaa6	-0.17087802
154	0x3c9302b5	0.017945627
155	0x3e886b3b	0.2664431
156	0xbe458f98	-0.19293058
157	0x3dbc40dd	0.09192059
158	0x3e0ecc13	0.13945036
159	0xbe421416	-0.18952975
160	0xbea9d5e9	-0.33171013
161	0x3f151609	0.5823675
162	0x3f37b584	0.71761346
163	0xbef809c0	-0.4844494
164	0x3efc3053	0.49255618
165	0xbd05fcce	-0.032711796
166	0x3e1888b5	0.148959
167	0x3e996bfa	0.29965192
168	0x3dc702a9	0.09717304
169	0x3e0a0cbd	0.13481422
170	0xbf16b538	-0.5887027
171	0xbf0a32b2	-0.53983605
172	0x3d2f2411	0.042759005
173	0xbe07b52c	-0.13252705
174	0xbf0b6a0b	-0.54458684
175	0x3e19e524	0.15028816
176	0x3cb1a1cc	0.021683596
177	0x3e1f8007	0.15576182
178	0x3e516506	0.20448694
179	0x3f100b22	0.5626699
180	0x3e99d823	0.30047712
181	0xbef14288	-0.47121072
182	0x3ecdb530	0.40177298
183	0xbe8a7c71	-0.27048066
184	0xbf39dd7e	-0.72603595
185	0xbe054d18	-0.1301769
186	0xbe8a89ed	-0.27058354
187	0x3d7080bc	0.05871652
188	0x3e60d0b6	0.21954617
189	0x3f18f075	0.5974191
190	0x3e2c28c3	0.16812424
191	0x3f2f2f48	0.6843152
192	0xbdad4f62	-0.08462407
193	0x3e327f4c	0.17431372
194	0xbdb832ea	-0.08994086
195	0x3e2cabe9	0.16862454
196	0x3e4e7fa9	0.20165886
197	0xbe1ae02d	-0.15124579
198	0x3d977c3e	0.07396744
199	0x3d6bb4b9	0.057545397
200	0xbd53e7df	-0.0517348
201	0x3b4e957d	0.0031522207
202	0x3cb116ae	0.02161726
203	0xbe463b03	-0.19358449
204	0x3e6cca69	0.23124088
205	0x3e5a4ff5	0.21319564
206	0x3dd575a1	0.104228266
207	0x3d86984e	0.065720186
208	0xbd20773f	-0.039176222
209	0x3d085cbd	0.033291567
210	0x3dc4dd49	0.09612519
211	0x3e47be1c	0.19506115
212	0x3df8de90	0.121518254
213	0x3c1454ab	0.00905339
214	0xbe324cb6	-0.17412075
215	0x3e2f0fa4	0.1709581
216	0xbd53db66	-0.051722907
217	0x3d816b38	0.063192785
218	0x3dac40d9	0.08410806
219	0x3e1afe3f	0.1513605
220	0xbe84f7e8	-0.25970387
221	0x3d28eaad	0.04123943
222	0x3e48f107	0.19623195
223	0x3e80691f	0.250802
224	0x3e58af43	0.21160607
225	0x3eb61c09	0.35568264
226	0xbe3ec69b	-0.1863045
227	0x3e8b0e3c	0.27159297
228	0x3e110a36	0.14164051
229	0xbe95a9b1	-0.29231027
230	0xbe6acd8a	-0.2292997
231	0x3ec33660	0.38127422
232	0xbe445fe0	-0.19177198
233	0x3db0f5e9	0.08640654
234	0xbdc75615	-0.09733216
235	0x3e2a9c6c	0.16661233
236	0x3ea8e4be	0.32987016
237	0x3e2a387a	0.16623107
238	0x3e89114b	0.26771006
239	0xbd067234	-0.032823756
240	0x3df42f82	0.11923124
241	0x3e9e68d1	0.30939344
242	0xbd74471c	-0.059638128
243	0xbdfad90d	-0.122484304
244	0x3e83ad19	0.25718
245	0xbbacac0d	-0.0052695335
246	0xbe9fa57b	-0.3118094
247	0x3edc5160	0.43030834
248	0xbe756c9f	-0.23967217
249	0xbe6d48c8	-0.23172295
250	0xbdea6a73	-0.11446085
251	0x3e601b31	0.21885373
252	0xbe9c71b1	-0.3055549
253	0x3e6a22d9	0.22864856
254	0x3ccd5f14	0.02506975
255	0x3d89d7da	0.067306235

item_embed.weight f4 [578, 32]
0	0xbda67a35	-0.08128778
1	0x3e3223df	0.17396496
2	0x3dd5a9aa	0.104327515
3	0xbda41e3e	-0.08013581
4	0xbe4a2fd9	-0.19744815
5	0xbeadf1e4	-0.3397361
6	0xbee00ef0	-0.43761396
7	0xbeeaf6eb	-0.45891508
8	0xbd97d6f8	-0.07414049
9	0x3e7bb9de	0.24582621
10	0xbe618662	-0.22023919
11	0xbdf320d4	-0.11871496
12	0x3ea0f55a	0.31437188
13	0x3e38644e	0.18007013
14	0xbe2be987	-0.16788302
15	0xbd9c4e4c	-0.076321214
16	0xbe99ee2b	-0.3006452
17	0x3eeeb016	0.46618718
18	0xbe437734	-0.19088441
19	0x3ef46c0b	0.4773868
20	0xbda95caa	-0.082696274
21	0xbebc7d95	-0.3681456
22	0x3ea9d489	0.33169964
23	0x3da662c6	0.08124308
24	0xbe591d3f	-0.21202563
25	0xbdc81aa0	-0.09770703
26	0xbef27cdc	-0.47360885
27	0xbe0eb2e6	-0.13935432
28	0xbd8b4caf	-0.068017356
29	0x3dd0c833	0.10194435
30	0x3e08865b	0.13332503
31	0x3d7bae08	0.061445266
32	0xbe83381b	-0.25628743
33	0x3e831430	0.2560134
34	0x3e38c97d	0.18045612
35	0xbe1c2c08	-0.15251172
36	0x3e24f030	0.1610725
37	0xbef3ad49	-0.47593144
38	0xbef82a2b	-0.48469672
39	0xbeab1ad4	-0.33418906
40	0xbe344d49	-0.17607607
41	0xbd1992c6	-0.03749349
42	0xbde285c0	-0.11060667
43	0xbe2db7bb	-0.16964619
44	0xbd9d0d31	-0.07668532
45	0x3e67f285	0.22651108
46	0xbe900a72	-0.2813297
47	0x3e9b6ada	0.3035496
48	0x3d83a825	0.064285554
49	0x3ea0126f	0.31264064
50	0xbe9662dc	-0.293723
51	0x3ec147b2	0.37750012
52	0x3ed6cf8b	0.41955218
53	0xbea4ba72	-0.32173496
54	0xbe810b87	-0.25204107
55	0x3e20587c	0.15658754
56	0xbe74175f	-0.2383704
57	0xbe50c12f	-0.20386194
58	0x3e0b153f	0.13582323
59	0xbe1d26d7	-0.15346847
60	0xbee57ae7	-0.4482033
61	0x3d875430	0.06607854
62	0x3e81b853	0.2533594
63	0xbdd83d4e	-0.10558568
64	0xbe327158	-0.1742605
65	0x3ec5625e	0.3855161
66	0xbe49225f	-0.19642018
67	0x3e699728	0.22811568
68	0xbe2924d9	-0.16517963
69	0xbe963add	-0.29341784
70	0xbea3284a	-0.31866676
71	0xbe2905d7	-0.16506134
72	0xbeadf2de	-0.33974355
73	0xbe11115e	-0.14166781
74	0xbeb4aedb	-0.35289654
75	0xbe73736f	-0.23774503
76	0x3de4a52c	0.111643165
77	0x3db2558a	0.087077215
78	0xbead21da	-0.3381489
79	0x3cbf98ea	0.023388345
80	0xbea85d7f	-0.32883832
81	0x3d426146	0.04745605
82	0xbef054fe	-0.46939844
83	0x3f086a65	0.53287345
84	0x3d1d9289	0.038469825
85	0xbf17c6ec	-0.59287906
86	0xbdb2316a	-0.08700831
87	0x3dbf5412	0.09342207
88	0xbe941013	-0.28918514
89	0xbe67515c	-0.2258963
90	0xbf027438	-0.50958586
91	0x3dea36c3	0.11436226
92	0xbeb50c42	-0.35360914
93	0x3e17a02d	0.14807196
94	0x3dbddb5d	0.09270356
95	0xbe577279	-0.21039762
96	0xbd49f92b	-0.04930989
97	0x3dcc55a3	0.099772714
98	0x3dc972ea	0.09836371
99	0xbc53ae09	-0.012919911
100	0xbe81189b	-0.25214085
101	0xbdc5d3be	-0.09659527
102	0x3e55ff5f	0.20898198
103	0x3e42a3a3	0.19007735
104	0xbd145cc0	-0.036221266
105	0xbda4088e	-0.08009444
106	0xbd77ed5b	-0.060529094
107	0x3ecbe314	0.39821684
108	0x3ca28074	0.019836642
109	0xbcfebe70	-0.031096667
110	0x3e8a5690	0.27019167
111	0x3c061384	0.008183364
112	0x3e0004ab	0.1250178
113	0x3e668e32	0.2251518
114	0x3e6f2c1b	0.23356669
115	0xbe0ff767	-0.1405922
116	0xbe321beb	-0.17393462
117	0x3ad5ac4f	0.0016301962
118	0xbdf87be1	-0.12133003
119	0x3e63ed41	0.22258474
120	0xbac43c31	-0.0014971552
121	0x3d89871f	0.067152254
122	0x3dfc98b4	0.12333813
123	0x3e91c00d	0.28466836
124	0x3d86e5b4	0.06586781
125	0xbd439146	-0.047745965
126	0x3d988b47	0.0744844
127	0xbe596b72	-0.21232393
128	0xbbd8637e	-0.0066036573
129	0xbe1f2edc	-0.15545219
130	0x3db0a836	0.08625834
131	0xbe4d7137	-0.2006272
132	0xbee8b41b	-0.4544991
133	0x3ee68ee4	0.45030892
134	0x3e33a58c	0.1754362
135	0xbd60558f	-0.054769095
136	0x3dfc7c1e	0.12328361
137	0xbe1300d1	-0.1435578
138	0x3d11d19d	0.035600293
139	0xbdf0afb3	-0.11752262
140	0xbe89e4d2	-0.2693239
141	0xbe2cfd8f	-0.168936
142	0xbe83b752	-0.257258
143	0xbe3d0172	-0.18457583
144	0xbde536b5	-0.11192075
145	0xbdf67eef	-0.120359294
146	0xbe91999c	-0.28437507
147	0x3bc2808c	0.005935734
148	0xbe972899	-0.2952316
149	0xbc6d30bf	-0.014476954
150	0x3e28350c	0.16426486
151	0xbe3bf757	-0.18356071
152	0x3ed99c5b	0.42502102
153	0x3d926d71	0.071497805
154	0xbda68c4f	-0.081322305
155	0xbeb36f83	-0.35046014
156	0x3e9c7cbf	0.30563924
157	0xbe4eb02a	-0.20184389
158	0xbe702b39	-0.23453988
159	0x3c6968dd	0.014246193
160	0x3d43301c	0.047653303
161	0xbdc489d9	-0.09596605
162	0xbe128ead	-0.14312239
163	0xbe66127b	-0.22467987
164	0x3e013c12	0.12620571
165	0x3eb45bab	0.35226187
166	0x3d94012d	0.07226787
167	0xbe5a6830	-0.21328807
168	0x3e802693	0.2502943
169	0xbcce418c	-0.02517774
170	0xbe39a879	-0.18130673
171	0x3d197898	0.037468523
172	0xbda61ac1	-0.08110572
173	0xbe2e2742	-0.17007163
174	0xbe7f246c	-0.24916238
175	0xbcf33f1b	-0.029693177
176	0xbdfbc09a	-0.12292595
177	0xbe4a2636	-0.19741139
178	0x3dc77021	0.09738184
179	0x3e3e5f15	0.18590958
180	0xbe3f44db	-0.1867861
181	0xbdb9f243	-0.09079411
182	0x3eb274e6	0.3485481
183	0xbe01c9ac	-0.12674588
184	0x39bd4f6e	0.0003610807
185	0x3e5e066a	0.21682134
186	0xbdb5740e	-0.08860026
187	0x3da27947	0.07933288
188	0x3e7f8bde	0.24955699
189	0xbd9a98f8	-0.07548708
190	0xbd62c0c0	-0.055359602
191	0x3e75b9d7	0.23996674
192	0xbe91f259	-0.2850521
193	0x3f2725ab	0.6529185
194	0x3d1b615d	0.03793465
195	0xbdda7c49	-0.10668237
196	0x3e3bf5a6	0.18355426
197	0xbe3050aa	-0.17218271
198	0xbf121560	-0.57063866
199	0xbdc88c22	-0.09792353
200	0xbf1092d0	-0.5647402
201	0x3f2263ab	0.6343333
202	0xbf0d631a	-0.5522934
203	0xbf1ee555	-0.6206868
204	0x3e490451	0.19630553
205	0x3ed464bd	0.41483107
206	0x3e85d068	0.26135564
207	0x3deee52c	0.11664805
208	0x3e859130	0.26087332
209	0x3f136d51	0.5758868
210	0x3e2adc56	0.16685614
211	0x3f1155ab	0.56771344
212	0x3e02f25a	0.12787762
213	0xbf0d1ede	-0.55125225
214	0xbf101929	-0.5628839
215	0x3f145bbe	0.5795249
216	0xbedaa685	-0.4270517
217	0xbe0c5971	-0.13705994
218	0xbe8692c6	-0.26283854
219	0x3d96f9a3	0.07371833
220	0xbefcb329	-0.49355438
221	0x3ed89966	0.42304534
222	0x3ef0e258	0.47047687
223	0x3e89216b	0.26783308
224	0xbe97b329	-0.29628876
225	0x3ee92543	0.4553624
226	0x3f127b72	0.5721961
227	0xbe13d4c5	-0.14436634
228	0x3d6f17a8	0.05837217
229	0xbf0fd18d	-0.56179124
230	0xbec670ca	-0.38757926
231	0xbe1e24aa	-0.15443674
232	0xbf2a341a	-0.6648575
233	0x3ea87995	0.3290526
234	0xbeae790c	-0.34076726
235	0xbf3650c0	-0.71216965
236	0x3ef51003	0.47863778
237	0x3e580ca3	0.2109857
238	0xbe704620	-0.2346425
239	0x3e8dc5a8	0.27689862
240	0xbdae409b	-0.08508416
241	0x3f014bd9	0.5050636
242	0x3dacef60	0.08444095
243	0x3f3436b1	0.7039595
244	0x3e99ffcb	0.30077967
245	0xbecfbd6d	-0.40574208
246	0xbdc7aff0	-0.09750354
247	0x3e896bb8	0.26839995
248	0xbec68aac	-0.38777673
249	0xbe7541c0	-0.23950863
250	0xbe06aeec	-0.13152665
251	0x3e8d2272	0.27565342
252	0xbf100edf	-0.5627269
253	0x3e93023f	0.2871265
254	0x3effa470	0.49930143
255	0x3eb53cce	0.35397953
