Knowledge_Graph_Recommendation/recommendation/stage2/trained_model/Douban/KG_free/dim32_lr0.001_l20.0001/model0_epoch40.pth (torch, 132479 bytes, 2 tensors)

user_embed.weight f4 [447, 32]
0.31597793 0.036944903 -0.20209362 0.3855066 -0.26995027 -0.033791613 -0.23521851 -0.064329125
-0.19648989 0.17295215 0.064123936 -0.021651942 -0.10663369 0.13475814 0.17623162 0.11111624
-0.07065366 -0.5523767 0.2515901 -0.16660397 0.45157772 0.10173526 -0.2503863 -0.2660569
-0.39098734 -0.1789637 -0.053751007 0.40378746 -0.6533681 -0.014716703 -0.007094033 -0.16848822
0.38512808 0.03741328 0.4142566 -0.25872773 0.02780501 0.08769174 0.3006758 0.23435321
-0.40000156 0.06181549 -0.29234418 -0.106870905 0.17751405 0.08589334 -0.20433384 0.20689031
-0.29307738 -0.11684853 0.3095327 0.022711525 0.1531579 -0.14334127 -0.29283315 0.35192713
-0.3432956 -0.1380725 -0.07097366 0.24592339 -0.32199356 0.24674581 0.48259842 0.12450354
0.27102882 0.17484759 -0.31533006 0.39168215 -0.1375887 -0.26142055 -0.5296682 -0.21240868
-0.35611647 0.48200253 0.2042848 -0.09539162 0.19348833 0.2466921 0.14752595 -0.18026444
0.35103023 -0.06707992 0.58931345 0.10566653 0.12957156 0.366602 -0.29358032 -0.051909704
-0.103533074 -0.09433297 -0.10048813 0.14740172 -0.34354815 0.3515418 0.30435002 0.042804103
0.26878867 0.39872193 0.0035621547 0.74943364 0.3820653 0.014393561 -0.077060595 0.35692096
-0.24893732 -0.07951942 -0.14717352 0.3345053 0.10782077 0.09970443 -0.05255643 -0.21126282
0.6643554 0.2500023 -0.11935933 -0.0116178505 0.042258896 0.20565885 -0.7070427 -0.22064006
-0.016718872 -0.56119794 0.8456958 0.61593264 -0.28590435 0.6491528 0.44528842 -0.56210995
0.48309875 0.08226297 0.24953349 0.0797079 0.3026808 -0.13924302 0.24137698 0.2742813
-0.37514025 -0.28310794 -0.24249263 0.26933932 -0.06282474 0.043563772 0.35159913 -0.37059927
0.15347503 -0.12190307 -0.11384735 0.03349999 0.13363902 0.30251732 -0.32313493 0.29639935
-0.28465554 -0.091882676 0.07213574 0.28290832 -0.1733978 0.060557213 0.11350536 -0.164866
-0.50130665 0.7799521 1.052521 -0.586073 0.6289664 0.025956083 0.2939088 0.5186249
0.16844448 0.06910146 -0.82355475 -0.6662959 -0.029345015 -0.23063704 -0.7707472 0.2433492
0.073074915 0.13708933 0.49354813 0.7027877 0.47447044 -0.5729851 0.5703141 -0.4460559
-1.0596973 -0.23515566 -0.36964703 0.11242494 0.32607037 0.84070003 0.13340814 0.97735053
-0.16594988 0.15660298 -0.087428056 0.15666449 0.243143 -0.24191108 0.21606189 0.039363973
0.008357695 -0.21328071 0.04494446 -0.21773914 0.27250543 0.2600428 0.13588588 0.0702276
-0.07308738 0.1262036 0.2032729 0.26820537 0.036550608 -0.08204357 -0.12624967 0.23099062
-0.026413972 0.18215962 -0.04245418 0.19543073 -0.26617217 -0.1732526 0.20574163 0.34531072
0.21909839 0.4097393 -0.3315666 0.29015246 0.21798615 -0.22593454 -0.19997178 0.59182
-0.13406193 0.06118131 -0.050740555 0.2714946 0.5378537 0.25426129 0.4482107 0.007285219
0.26596108 0.48458308 -0.04765173 -0.25573912 0.26164877 -0.06157486 -0.28070837 0.63397145
-0.18763718 -0.295541 -0.1894542 0.22578838 -0.26720715 0.20579322 -0.08342178 0.13916618
00000000: dcc7 a13e 8a53 173d a1f1 4ebe 1f61 c53e
00000010: ec36 8abe 1369 0abd 1fdd 70be fdbe 83bd
00000020: a534 49be 5e1a 313e 6953 833d 6a5f b1bc
00000030: c462 dabd 0afe 093e 1076 343e e990 e33d
00000040: deb2 90bd 8f68 0dbf 6bd0 803e 3b9a 2abe
00000050: 3235 e73e 935a d03d a232 80be 9c38 88be
00000060: 7e2f c8be 4342 37be 042a 5cbd 3bbd ce3e
00000070: 2243 27bf 541e 71bc 1075 e8bb 2d88 2cbe
00000080: 822f c53e ab3e 193d 7119 d43e f677 84be
00000090: 55c7 e33c ba97 b33d 2ef2 993e 4afa 6f3e
000000a0: 01cd ccbe 3d32 7d3d 23ae 95be 22df dabd
000000b0: 3ec6 353e d9e8 af3d e43c 51be 0edb 533e
000000c0: 3d0e 96be 484e efbd 127b 9e3e 850d ba3c
000000d0: 6dd5 1c3e 0ec8 12be 3aee 95be cb2f b43e
000000e0: 71c4 afbe e162 0dbe a35a 91bd 57d3 7b3e
000000f0: 57dc a4be efaa 7c3e 2417 f73e b6fb fe3d
00000100: 4ac4 8a3e 3f0b 333e f172 a1be 908a c83e
00000110: 0de4 0cbe ead8 85be 5698 07bf a981 59be
00000120: e654 b6be 09c9 f63e 0930 513e af5c c3bd
00000130: ce21 463e db9c 7c3e 0b11 173e 3e97 38be
00000140: 3cba b33e 3261 89bd 3fdd 163f b267 d83d
00000150: 68ae 043e 42b3 bb3e 2950 96be 459f 54bd
00000160: 2609 d4bd a531 c1bd b8cc cdbd 7af0 163e
00000170: 8be5 afbe 49fd b33e c4d3 9b3e 5b53 2f3d
00000180: ab9e 893e 4825 cc3e 0a73 693b e2da 3f3f
00000190: 109e c33e f8d2 6b3c f2d1 9dbd 58be b63e
000001a0: 6de9 7ebe 14db a2bd a8b4 16be 4744 ab3e
000001b0: 23d1 dc3d d631 cc3d 6945 57bd 4855 58be
000001c0: 3213 2a3f 4d00 803e aa72 f4bd cc58 3ebc
000001d0: aa17 2d3d 3c98 523e c000 35bf 78ef 61be
000001e0: 04f6 88bc abaa 0fbf 857f 583f c3ad 1d3f
000001f0: 0e62 92be e12e 263f d8fc e33e 70e6 0fbf
00000200: b858 f73e 7d79 a83d b585 7f3e e53d a33d
00000210: faf8 9a3e b995 0ebe 872b 773e 996e 8c3e
00000220: 6212 c0be 86f3 90be fd4f 78be d8e6 893e
00000230: 42aa 80bd ed6f 323d cd04 b43e 30bf bdbe
00000240: 8f28 1d3e 51a8 f9bd cd28 e9bd 4937 093d
00000250: abd8 083e 8de3 9a3e f171 a5be a8c1 973e
00000260: 5fbe 91be fc2c bcbd e7bb 933d 5cd9 903e
00000270: 318f 31be d70a 783d 8075 e83d a2d2 28be
00000280: a255 00bf f1aa 473f 02b9 863f e108 16bf
00000290: f103 213f daa1 d43c 377b 963e 9ac4 043f
000002a0: b67c 2c3e 1185 8d3d 7cd4 52bf 5e92 2abf
000002b0: f564 f0bc 1e2c 6cbe b04f 45bf 8830 793e
000002c0: 4da8 953d 2561 0c3e 57b2 fc3e e5e9 333f
000002d0: caed f23e 27af 12bf 1b00 123f 7061 e4be
000002e0: 29a4 87bf a5cc 70be 6042 bdbe 0c3f e63d
000002f0: b2f2 a63e 1e38 573f 259c 083e a533 7a3f
00000300: c4ee 29be 885c 203e 7b0d b3bd a86c 203e
00000310: 7bfa 783e 8ab7 77be 543f 5d3e 1e3c 213d
00000320: b7ee 083c 4266 5abe af17 383d 02f7 5ebe
00000330: d585 8b3e 5424 853e ab25 0b3e 7dd3 8f3d
00000340: d6ae 95bd 843b 013e c526 503e 3752 893e
00000350: 17b6 153d 7606 a8bd 9847 01be ce88 6c3e
00000360: 1d62 d8bc 0d88 3a3e 6fe4 2dbd fe1e 483e
00000370: b847 88be 2169 31be efad 523e 91cc b03e
00000380: 545b 603e 59c9 d13e 19c3 a9be dd8e 943e
00000390: c337 5f3e 625b 67be 67c5 4cbe 8481 173f
000003a0: 8847 09be 4199 7a3d 54d5 4fbd 5701 8b3e
000003b0: c8b0 093f 892e 823e df7b e53e d9b8 ee3b
000003c0: 0d2c 883e 461b f83e 762e 43bd 3df0 82be
000003d0: d4f6 853e ec35 7cbd 02b9 8fbe f44b 223f
000003e0: f623 40be 2651 97be 4800 42be 1235 673e
000003f0: 60cf 88be 75bb 523e 0ad9 aabd 9481 0e3e

item_embed.weight f4 [578, 32]
-0.25873357 0.20376237 0.056358986 -0.087343134 -0.33912587 -0.39051747 -0.6804559 -0.5455368
-0.09072246 0.39276534 -0.1901878 -0.04317153 0.39648196 0.09337065 -0.2828693 -0.21309668
-0.32985118 0.577247 -0.32557866 0.5806632 -0.1945692 -0.5295608 0.52010703 0.07851086
-0.22990943 -0.17612115 -0.6174862 -0.19083132 -0.011511118 0.19975014 0.19886154 -0.02351248
-0.46543086 0.26426458 0.2272608 -0.22472304 0.024493035 -0.57117206 -0.7148525 -0.5975731
-0.09419408 -0.0021568576 0.09898147 -0.20377484 -0.11298561 0.20931175 -0.37523103 0.35823405
0.070816636 0.31821936 -0.38626328 0.48951966 0.59981906 -0.37411147 -0.18988526 0.08199524
-0.2746184 -0.25420263 0.14255616 -0.2836025 -0.50467074 0.059129648 0.3499069 -0.27167034
-0.2711159 0.4550049 -0.24230023 0.19935581 -0.27125907 -0.33177567 -0.35870773 -0.18081562
-0.37254867 -0.11872101 -0.4252868 -0.32173735 0.17456652 0.079074636 -0.5657633 0.017101334
-0.47917035 0.09846809 -0.74081534 0.6879541 0.06010132 -0.78455263 -0.03570538 0.0698047
-0.28786436 -0.22571367 -0.6752396 0.09886676 -0.2976916 0.13865432 0.18811546 -0.30146646
-0.05090402 0.06274277 0.10842 -0.088236295 -0.35855255 -0.16051453 0.3509544 0.33125424
-0.04723331 -0.22565791 -0.10273557 0.5233542 0.108819015 0.087497756 0.4865819 0.15024169
0.3174913 0.46946603 0.47001827 -0.13403484 -0.38114086 -0.059899423 -0.14008749 0.41670573
-0.06595465 0.109720275 0.010130462 0.34955907 0.08328316 -0.12490921 0.15223658 -0.23401271
0.057085935 0.0090256445 0.1481705 -0.22334456 -0.795138 0.8011971 0.122124374 0.04244633
0.020127583 -0.22885302 -0.04427817 -0.16651918 -0.45119065 -0.17956625 -0.6143984 -0.25460908
0.059692852 -0.080015 -0.5824266 0.16112137 -0.35395843 -0.20495805 0.06543251 -0.22261204
0.57169604 -0.0054817423 -0.06279813 -0.41017509 0.38034505 -0.0155881215 -0.08547237 -0.18359919
0.078102 -0.038807042 -0.13615716 -0.23067144 0.32549733 0.43468928 0.0072194384 -0.2493188
0.2746008 0.044665627 -0.40193787 0.01562989 -0.15301697 -0.21395543 -0.51249444 -0.01995988
-0.18205054 -0.2635842 0.15625018 0.4153668 -0.2608144 -0.12029446 0.40523297 -0.19625904
-0.08613321 0.25724965 -0.10843673 0.27387068 0.26570478 0.0126387235 -0.02176618 0.45328155
-0.41078678 0.7721311 -0.028972581 -0.20923482 0.16147663 0.0013520487 -0.67808175 -0.19897099
-0.59094816 0.80162257 -0.7472682 -0.72904104 0.12619473 0.51805204 0.25930822 0.18972021
0.278422 0.5939759 0.1081566 0.5681321 0.10692958 -0.6137805 -0.7091824 0.6711125
-0.44922867 -0.06303391 -0.20471719 0.011376478 -0.51866764 0.5413121 0.52515984 0.38787624
-0.3680571 0.48595637 0.6888791 -0.26555547 -0.093191884 -0.5937049 -0.41950542 -0.2575797
-0.73455906 0.45090207 -0.27962506 -0.8861956 0.5468175 0.22093016 -0.22770616 0.33285987
-0.19479579 0.52894735 0.09682838 0.8134608 0.3515558 -0.39424476 0.053975277 0.2523345
-0.41810992 -0.29998875 -0.15993147 0.19401482 -0.55844456 0.18813159 0.5202054 0.35313043
00000000: ba78 84be 15a7 503e aed8 663d f5e0 b2bd
00000010: e8a1 adbe e8f1 c7be 5c32 2ebf 4da8 0bbf
00000020: b2cc b9bd 8a18 c93e 97c0 42be a1d4 30bd
00000030: afff ca3e 1d39 bf3d 3fd4 90be 0436 5abe
00000040: 41e2 a8be 76c6 133f 3fb2 a6be 58a6 143f
00000050: 263d 47be 4c91 07bf bc25 053f 4dca a03d
00000060: 616d 6bbe 1a59 34be 9313 1ebf 4969 43be
00000070: 2199 3cbc 4d8b 4c3e 5ca2 4b3e 3f9d c0bc
00000080: f44c eebe b04d 873e 0eb7 683e cc1d 66be
00000090: 9ea5 c83c 5538 12bf 9300 37bf 8dfa 18bf
000000a0: d3e8 c0bd 115a 0dbb ccb6 ca3d 5aaa 50be
000000b0: 0065 e7bd d255 563e 481e c0be 746a b73e
000000c0: 5008 913d a6ed a23e 4dc4 c5be 52a2 fa3e
000000d0: be8d 193f 8a8b bfbe 4871 42be 1fed a73d
000000e0: c89a 8cbe d926 82be 3efa 113e 5934 91be
000000f0: 1a32 01bf ee31 723d ff26 b33e 6018 8bbe
00000100: b4cf 8abe 67f6 e83e 8d1d 78be ee23 4c3e
00000110: 78e2 8abe 80de a9be 8aa8 b7be bb27 39be
00000120: b3be bebe 0024 f3bd 31bf d9be c2ba a4be
00000130: 91c1 323e e2f1 a13d ddd5 10bf 1918 8c3c
00000140: d155 f5be a3a9 c93d 13a6 3dbf c31d 303f
00000150: cd2c 763d 71d8 48bf ce3f 12bd c4f5 8e3d
00000160: f562 93be 7c21 67be 81dc 2cbf a87a ca3d
00000170: 096b 98be 66fb 0d3e 57a1 403e d059 9abe
00000180: bc80 50bd 487f 803d 4e0b de3d 3bb5 b4bd
00000190: 3394 b7be ec5d 24be 4cb0 b33e 289a a93e
000001a0: b777 41bd de12 67be 0767 d2bd 8afa 053f
000001b0: 81dc de3d 0632 b33d 4321 f93e f5d8 193e
000001c0: 388e a23e da5d f03e 3ca6 f03e 6e40 09be
000001d0: e524 c3be 1959 75bd 1873 0fbe 745a d53e
000001e0: 3b13 87bd 06b5 e03d 3dfa 253c 68f9 b23e
000001f0: 5d90 aa3d 66d0 ffbd e8e3 1b3e 07a1 6fbe
00000200: f1d2 693d 4ce0 133c 02ba 173e 70b4 64be
00000210: 2a8e 4bbf 411b 4d3f 581c fa3d 34dc 2d3d
00000220: 9ae2 a43c 7258 6abe 075d 35bd 0184 2abe
00000230: 7602 e7be 37e0 37be 3749 1dbf 1f5c 82be
00000240: 7e80 743d e8de a3bd e919 15bf 00fd 243e
00000250: 0a3a b5be 86e0 51be 7b01 863d 69f4 63be
00000260: ac5a 123f 30a0 b3bb 4e9c 80bd 7802 d2be
00000270: 96bc c23e 5265 7fbc 230c afbd 6d01 3cbe
00000280: f1f3 9f3d 22f4 1ebd c86c 0bbe 2235 6cbe
00000290: 96a7 a63e 988f de3e 0a91 ec3b 6d4d 7fbe
000002a0: 7a98 8c3e 4ef3 363d cdca cdbe 410a 803c
000002b0: 7bb0 1cbe 2217 5bbe d632 03bf e782 a3bc
000002c0: 756b 3abe 82f4 86be 0c00 203e f5aa d43e
000002d0: 7789 85be f15c f6bd b27a cf3e 21f8 48be
000002e0: 9c66 b0bd 3ab6 833e 1414 debd c738 8c3e
000002f0: 750a 883e a612 4f3c fd4e b2bc 8514 e83e
00000300: a552 d2be 62aa 453f e857 edbc a741 56be
00000310: 215a 253e 3a37 b13a c496 2dbf 0dbf 4bbe
00000320: 6148 17bf 2337 4d3f f84c 3fbf 6fa2 3abf
00000330: 3139 013e 0f9f 043f 0cc4 843e 0446 423e
00000340: 548d 8e3e ce0e 183f 3581 dd3d 1b71 113f
00000350: e5fd da3d b820 1dbf fa8c 35bf 07ce 2b3f
00000360: 4d01 e6be ec17 81bd 62a1 51be 6864 3a3c
00000370: 67c7 04bf 6e93 0a3f e070 063f b797 c63e
00000380: fb71 bcbe 46cf f83e 615a 303f e3f6 87be
00000390: 63db bebd 0bfd 17bf 6ac9 d6be 7de1 83be
000003a0: 100c 3cbf a3dc e63e 042b 8fbe b7dd 62bf
000003b0: 3bfc 0b3f 843b 623e ce2b 69be 9c6c aa3e
000003c0: 8c78 47be 1869 073f f54d c63d f83e 503f
000003d0: 1fff b33e 73da c9be 2e15 5d3d fd31 813e
000003e0: 8112 d6be 2098 99be 13c5 23be d2ab 463e
000003f0: 39f6 0ebf 91a5 403e 2e2c 053f 83cd b43e
