Knowledge_Graph_Recommendation/recommendation/stage2/trained_model/Douban/KG_free/dim32_lr0.001_l20.0001/model0_epoch10.pth (torch, 132479 bytes, 2 tensors)

user_embed.weight f4 [447, 32]
0.16248903 0.04893757 -0.08127333 0.18362486 -0.06270881 0.004471236 -0.12140923 -0.0077491724
-0.06625745 0.03731305 0.06501667 0.029939065 0.031037563 0.104135506 0.06971805 0.08843517
0.02780533 -0.18698841 -0.020871831 -0.08725915 0.13993655 0.01569156 -0.12940376 -0.06224768
-0.112340435 -0.12712036 -0.04857276 0.19300763 -0.29177696 0.038000997 -0.07803819 -0.08841261
0.09551693 0.020625265 0.13035075 -0.08227176 -0.054997753 0.07152492 0.04971033 0.05909412
-0.20127407 0.049663242 -0.004439109 -0.00085615204 0.07258403 0.072519675 -0.065723464 -0.043491494
-0.084402874 -0.15651836 0.046635147 -0.10820671 0.14352348 -0.016000824 -0.047356572 0.15898968
-0.17315067 -0.07202104 0.104801446 0.18055944 -0.093026824 0.16239357 0.2251834 0.0106387315
0.17828271 0.033935327 -0.07413834 0.10368909 -0.060057707 -0.0005552494 -0.2244153 -0.124565415
-0.18843651 0.12790953 0.11281167 -0.10229261 -0.05154229 0.06461468 -0.018293828 -0.05129745
0.19130526 -0.13784604 0.15981664 -0.034356456 0.040450912 0.15177114 -0.093100734 0.008613928
-0.041385457 -0.0030173394 -0.05140572 0.18430091 -0.20900619 0.08706252 0.08334304 0.0026453848
0.2267823 0.20415628 -0.032457486 0.2714264 0.10425645 0.05555787 -0.009823047 0.08306667
-0.13900293 -0.029975519 -0.09629862 0.038138513 0.07875324 0.17830247 0.086644694 0.036063936
0.27702346 0.050721318 0.032678217 -0.035790615 -0.014805924 0.05165911 -0.29138532 -0.08412179
0.010919096 -0.2784472 0.32610753 0.3046256 -0.20641938 0.1774064 0.16608682 -0.18602498
0.1018559 0.015086633 0.100598186 0.044435255 0.10484823 -0.11315971 0.09608887 0.05030206
-0.19313024 -0.06570519 0.012458106 0.12610957 0.03559543 0.044209026 0.10897061 -0.18927726
0.1023558 -0.10139383 0.04380435 0.011701306 0.015428215 0.16364333 -0.21381724 0.14184096
-0.1268995 -0.103802204 -0.025573812 0.12331791 -0.10221293 0.04207066 0.13484761 -0.11897451
-0.11941454 0.35762942 0.41167346 -0.3028662 0.2716019 0.006804673 0.10126043 0.20281902
0.10024834 0.074935764 -0.30507553 -0.30124927 0.036913194 -0.08966412 -0.25894478 0.025410036
0.03530486 0.07022195 0.06412248 0.3159299 0.15699466 -0.2649865 0.26904517 -0.2001881
-0.39473295 -0.059945643 -0.16188166 0.021087656 0.14858703 0.33804697 0.06509208 0.4035369
-0.06072832 0.09182296 -0.04951476 0.13004477 0.12938657 -0.020530567 0.06908756 0.07602909
1.2037926e-06 0.053844687 0.06177668 -0.12814137 0.09942715 0.10465178 0.03478312 0.0108370865
-0.0023859676 -0.023269651 0.0022431153 0.11228767 0.08673508 0.09656722 -0.11661276 0.07876302
0.011212956 0.06602127 0.13858962 0.08625768 -0.16573682 0.061504107 0.11295452 0.16510312
0.14083482 0.22898297 -0.08794794 0.13392608 0.010625978 -0.15870868 -0.07650638 0.22377813
-0.08612599 0.07163827 -0.013276093 0.10301142 0.14977269 0.048985697 0.1241447 -0.053087674
0.0057452163 0.17807084 -0.11343242 -0.09253106 0.11402823 0.03769835 -0.16018912 0.22877596
-0.13529047 -0.06908751 -0.07887621 0.09603182 -0.13903198 0.1339615 -0.031099852 0.06103765
00000000: 8663 263e c372 483d a272 a6bd 2808 3c3e
00000010: 7a6d 80bd 7283 923b 67a5 f8bd c5ec fdbb
00000020: fcb1 87bd 92d5 183d 7627 853d c542 f53c
00000030: 7d42 fe3c ff44 d53d 56c8 8e3d 801d b53d
00000040: 01c8 e33c e479 3fbe 67fb aabc edb4 b2bd
00000050: 874b 0f3e 968b 803c 6b82 04be 6cf7 7ebd
00000060: be12 e6bd d72b 02be 3bf4 46bd cba3 453e
00000070: ca63 95be efa6 1b3d 7dd2 9fbd ac11 b5bd
00000080: 619e c33d 51f6 a83c ab7a 053e 197e a8bd
00000090: 5345 61bd a87b 923d 0f9d 4b3d ad0c 723d
000000a0: ca1a 4ebe af6b 4b3d f275 91bb 646f 60ba
000000b0: f0a6 943d 3285 943d 069a 86bd 2324 32bd
000000c0: 6adb acbd 5946 20be 7f04 3f3d 7b9b ddbd
000000d0: d2f7 123e 2914 83bc f7f8 41bd 31ce 223e
000000e0: 694e 31be c47f 93bd 24a2 d63d 93e4 383e
000000f0: d984 bebd 804a 263e 7a96 663e 134e 2e3c
00000100: be8f 363e c5ff 0a3d d8d5 97bd f25a d43d
00000110: 12ff 75bd 288e 11ba 20cd 65be 271c ffbd
00000120: 80f5 40be b7fa 023e ce09 e73d ca7e d1bd
00000130: 021e 53bd b454 843d f0dc 95bc 461d 52bd
00000140: 87e5 433e 8327 0dbe f9a6 233e 5bb9 0cbd
00000150: dbaf 253d e569 1b3e 99ab bebd 6f21 0d3c
00000160: cc83 29bd 8ebe 45bb ce8e 52bd 61b9 3c3e
00000170: b805 56be d64d b23d c1af aa3d 315e 2d3b
00000180: 9f39 683e 580e 513e 24f2 04bd 67f8 8a3e
00000190: 6884 d53d a690 633d d8f0 20bc dc1e aa3d
000001a0: c956 0ebe 388f f5bc 3638 c5bd 2137 1c3d
000001b0: 6149 a13d ec94 363e c672 b13d c7b7 133d
000001c0: 05d6 8d3e 28c1 4f3d 98d9 053d 2e99 12bd
000001d0: 8c94 72bc 8198 533d 7530 95be 0c48 acbd
000001e0: 02e6 323c a290 8ebe 91f7 a63e e3f7 9b3e
000001f0: 9a5f 53be 06aa 353e aa12 2a3e 557d 3ebe
00000200: d399 d03d ed2d 773c 6c06 ce3d be01 363d
00000210: abba d63d 47c0 e7bd 3eca c43d 8809 4e3d
00000220: efc3 45be 7190 86bd 151d 4c3c de22 013e
00000230: 83cc 113d 8614 353d fc2b df3d e6d1 41be
00000240: eb9f d13d 91a7 cfbd 316c 333d d6b6 3f3c
00000250: a0c6 7c3c 1e92 273e e8f2 5abe c23e 113e
00000260: f1f1 01be 4096 d4bd 2c80 d1bc 1a8e fc3d
00000270: 0355 d1bd 4952 2c3d 7e15 0a3e e8a8 f3bd
00000280: 9c8f f4bd 341b b73e ddc6 d23e 4711 9bbe
00000290: 670f 8b3e bcf9 de3b a161 cf3d caaf 4f3e
000002a0: 004f cd3d ec77 993d dc32 9cbe 583d 9abe
000002b0: 4a32 173d d2a1 b7bd 6994 84be b528 d03c
000002c0: d49b 103d 87d0 8f3d a652 833d 90c1 a13e
000002d0: 35c3 203e 4fac 87be 4ac0 893e 1cfe 4cbe
000002e0: 701a cabe 9089 75bd 4ec4 25be 05c0 ac3c
000002f0: 3327 183e 7e14 ad3e ff4e 853d 639c ce3e
00000300: 42be 78bd ad0d bc3d fdcf 4abd 752a 053e
00000310: ea7d 043e b82f a8bc c77d 8d3d 24b5 9b3d
00000320: 0092 a135 3f8c 5c3d 8b09 7d3d 7e37 03be
00000330: 76a0 cb3d ac53 d63d bf78 0e3d 098e 313c
00000340: e55d 1cbb ff9f bebc 3b01 133b 14f7 e53d
00000350: 29a2 b13d 09c5 c53d acd2 eebd 824e a13d
00000360: 8cb6 373c 2936 873d 70ea 0d3e dea7 b03d
00000370: eab6 29be bbeb 7b3d b354 e73d cb10 293e
00000380: 0137 103e 837a 6a3e 0d1e b4bd eb23 093e
00000390: 9518 2e3c 8784 22be 61af 9cbd 1826 653e
000003a0: d362 b0bd 16b7 923d f883 59bc a7f7 d23d
000003b0: 035e 193e 3aa5 483d 943f fe3d 7672 59bd
000003c0: 5e42 bc3b 3458 363e 424f e8bd ed80 bdbd
000003d0: a287 e93d 9669 1a3d 9e08 24be 3f44 6a3e
000003e0: 9689 0abe c17d 8dbd da89 a1bd 55ac c43d
000003f0: 665e 0ebe 342d 093e 1ec5 febc 9d02 7a3d

item_embed.weight f4 [578, 32]
0.023702059 0.11671956 0.09446264 -0.022687169 -0.11858531 -0.23106733 -0.20429073 -0.2707516
0.0038101084 0.11116426 -0.13037044 -0.013136006 0.17344901 0.14083575 -0.049076267 -0.05263433
-0.17805353 0.24169339 -0.08704182 0.26581824 -0.0024655787 -0.1368693 0.22507665 0.0035582662
-0.13959831 -0.067531206 -0.27087808 -0.08811198 -0.07947192 0.026528927 0.0044122455 -0.016488725
-0.14588751 0.11743045 0.10559057 -0.103648804 0.11528247 -0.284563 -0.25892586 -0.0974465
-0.07490088 -0.013349229 -0.02050815 -0.031760234 -0.07014104 0.14308739 -0.15455613 0.17404875
0.03378048 0.20034848 -0.12669238 0.14783865 0.20565127 -0.21813369 -0.15897477 0.021555087
-0.10185774 -0.12066767 0.10224742 -0.14076546 -0.30172595 0.014052622 0.08372496 -0.09888641
-0.05925441 0.27832422 -0.15838203 0.21063182 -0.09296169 -0.16297379 -0.19932666 -0.06844515
-0.23021443 -0.17161001 -0.20834322 -0.08045341 0.047085315 0.037122276 -0.14760917 -0.024424814
-0.13792144 -0.056224067 -0.2519179 0.2820393 0.019724313 -0.3472258 -0.055066593 0.07501511
-0.21474609 -0.21300653 -0.2690214 0.1285573 -0.29732794 0.13759989 0.0067423466 -0.19480875
-0.084818125 0.07068991 0.08836024 -0.032485377 -0.17629254 -0.052496057 0.11800269 0.061912414
-0.011670248 0.023114923 -0.054702953 0.22265072 -0.03224466 -0.0532131 0.08719303 -0.06541437
-0.016314076 0.14148316 0.06949053 -0.06661342 -0.08786228 -0.036670927 -0.08903141 0.14125073
0.067812525 0.10052465 0.10990165 0.19746405 0.059913725 -0.018888317 0.03895084 -0.10408963
0.019357562 -0.119932555 0.042978548 -0.11815195 -0.26430136 0.19412903 0.10446122 -0.09154782
0.065943785 -0.09110715 -0.009573242 -0.100512326 -0.12650403 -0.09661088 -0.07036654 -0.06745278
-0.09778418 -0.07396805 -0.1510024 -0.018206969 -0.15375823 0.05859662 0.08309301 -0.06790371
0.22391854 0.029944818 -0.063121 -0.21313834 0.1897641 -0.16632189 -0.1931498 0.052694384
0.045601364 -0.064008966 -0.10146883 -0.12170652 0.070215054 0.21208447 0.06910653 -0.082314275
0.19877422 -0.025849976 -0.10457493 0.03755923 -0.07469694 -0.10777401 -0.085141756 -0.039418135
-0.031405635 -0.08513574 0.061267775 0.06886429 -0.08822512 -0.02652288 0.20343031 -0.11013568
-0.018393869 0.1141861 -0.06232779 0.05339761 0.14438862 -0.039672334 -0.005992772 0.07057797
-0.19837211 0.3993274 0.054613784 -0.10707233 0.04998791 -0.038260445 -0.2963699 -0.028881216
-0.3276206 0.40429205 -0.31101587 -0.38487098 0.06077915 0.1839441 0.20680222 -0.015820995
0.12177204 0.3643147 0.11181454 0.31537998 0.03855366 -0.34720966 -0.31859246 0.35822767
-0.2378901 -0.012945192 -0.19571717 -0.0038159708 -0.28084573 0.18281785 0.25437614 0.09201039
-0.1861141 0.23438258 0.3564107 -0.13427599 0.019345066 -0.3349216 -0.18060942 -0.05574178
-0.44867337 0.11538082 -0.15581487 -0.4620859 0.2718941 0.042210538 -0.13782032 0.13362747
-0.08355408 0.31799304 0.08202193 0.4385683 0.13653147 -0.25444278 -0.014415676 0.11552219
-0.23761787 -0.08406237 -0.039887182 0.16300875 -0.36003986 0.15993977 0.286068 0.21946497
00000000: d22a c23c aa0a ef3d a175 c13d 71da b9bc
00000010: dbdc f2bd ea9c 6cbe 9731 51be f49f 8abe
00000020: 03b3 793b 16aa e33d d47f 05be 6738 57bc
00000030: 9e9c 313e 3f37 103e 3204 49bd 1897 57bd
00000040: aa53 36be 797e 773e fb42 b2bd 5419 883e
00000050: 8c95 21bb 7727 0cbe 7e7a 663e cd31 693b
00000060: dcf2 0ebe cd4d 8abd 88b0 8abe 0e74 b4bd
00000070: 2dc2 a2bd 3153 d93c 9994 903b 5d13 87bc
00000080: 8963 15be 607f f03d de3f d83d d345 d4bd
00000090: 3719 ec3d 3eb2 91be ee91 84be 0892 c7bd
000000a0: a265 99bd b9b6 5abc b500 a8bc 0517 02bd
000000b0: 1ba6 8fbd 8085 123e f643 1ebe d639 323e
000000c0: 675d 0a3d 2728 4d3e a6bb 01be 0463 173e
000000d0: 3f96 523e 705e 5fbe 48ca 22be 4b94 b03c
000000e0: ca9a d0bd 9d20 f7bd 1867 d13d d224 10be
000000f0: d37b 9abe f83c 663c fe77 ab3d f584 cabd
00000100: c1b4 72bd 8380 8e3e e62e 22be deaf 573e
00000110: b362 bebd 9ae2 26be 4a1c 4cbe f92c 8cbd
00000120: 55bd 6bbe 89ba 2fbe ed57 55be c2c4 a4bd
00000130: 88dc 403d 870d 183d dc26 17be 8c16 c8bc
00000140: 473b 0dbe 354b 66bd 62fb 80be 7567 903e
00000150: e294 a13c 94c7 b1be 828d 61bd 86a1 993d
00000160: 66e6 5bbe 621e 5abe 2cbd 89be 86a4 033e
00000170: 5e3b 98be fce6 0c3e e7ee dc3b f27b 47be
00000180: 20b5 adbd dfc5 903d 37f6 b43d 630f 05bd
00000190: 0886 34be 1b06 57bd 65ab f13d df97 7d3d
000001a0: 9134 3fbc 825b bd3c 3410 60bd 8dfe 633e
000001b0: fa12 04bd fbf5 59bd 4292 b23d f8f7 85bd
000001c0: 19a5 85bc f6e0 103e 0d51 8e3d 9e6c 88bd
000001d0: 24f1 b3bd 4134 16bd 1a56 b6bd 08a4 103e
000001e0: 4be1 8a3d dedf cd3d 1e14 e13d 0434 4a3e
000001f0: 1868 753d acbb 9abc ea8a 1f3d f22c d5bd
00000200: c093 9e3c 339f f5bd 460a 303d a6f9 f1bd
00000210: 8252 87be c3c9 463e c4ef d53d 6c7d bbbd
00000220: 890d 873d 6396 babd 16d9 1cbc 68d9 cdbd
00000230: 468a 01be eddb c5bd 551c 90bd af24 8abd
00000240: 1243 c8bd 907c 97bd 60a0 1abe c826 95bc
00000250: cc72 1dbe 0203 703d ab2c aa3d 1a11 8bbd
00000260: e74a 653e d64e f53c 9545 81bd f040 5abe
00000270: 8551 423e 4950 2abe 10c9 45be 11d6 573d
00000280: 7fc8 3a3d 2217 83bd e4ce cfbd 4541 f9bd
00000290: e9cc 8f3d ac2c 593e b987 8d3d 6394 a8bd
000002a0: 788b 4b3e 54c3 d3bc 622b d6bd b5d7 193d
000002b0: b6fa 98bd 9fb8 dcbd cd5e aebd e974 21bd
000002c0: 32a3 00bd a65b aebd ebf3 7a3d b908 8d3d
000002d0: 5faf b4bd 8346 d9bc 0950 503e d18e e1bd
000002e0: bdae 96bc 67da e93d 6d4b 7fbd 74b7 5a3d
000002f0: 9cda 133e 757f 22bd 045f c4bb 2f8b 903d
00000300: 0f22 4bbe a474 cc3e b4b2 5f3d bd48 dbbd
00000310: 1fc0 4c3d fcb6 1cbd ccbd 97be 4d98 ecbc
00000320: e3bd a7be 5eff ce3e 793d 9fbe cf0d c5be
00000330: 8ff3 783d d85b 3c3e f6c3 533e 089b 81bc
00000340: 9f63 f93d 7587 ba3e 06ff e43d 7c79 a13e
00000350: 71ea 1d3d 77c5 b1be 8d1e a3be 9e69 b73e
00000360: 7699 73be 1218 54bc 156a 48be 5e15 7abb
00000370: 03cb 8fbe 9a34 3b3e 973d 823e f16f bc3d
00000380: b294 3ebe fd01 703e 777b b63e a57f 09be
00000390: 8b79 9e3c d87a abbe adf1 38be 7e51 64bd
000003a0: 84b8 e5be c84c ec3d ef8d 1fbe 8696 ecbe
000003b0: b435 8b3e f5e4 2c3d c520 0dbe a4d5 083e
000003c0: 671e abbd fccf a23e 1dfb a73d 068c e03e
000003d0: e8ce 0b3e 5346 82be ba2f 6cbc e696 ec3d
000003e0: 1952 73be e428 acbd be60 23bd c4eb 263e
000003f0: 2557 b8be 40c7 233e 8177 923e 6dbb 603e
