Knowledge_Graph_Recommendation/recommendation/stage2/trained_model/Douban/GNN_based/nlayer2_dim32_TransE_lightgcn/model0_epoch40.pth (torch, 662471 bytes, 3 tensors)

trans_M f4 [116, 32, 32]
0.007484313 -0.009559792 0.032144506 0.019810773 -0.034132715 -0.0054139066 0.0020009875 0.025281217
-0.027539765 -0.015671957 -0.035364386 0.019691873 0.019207902 0.021599337 0.0066169016 0.031903405
-0.030363705 -0.017998911 -0.008728417 0.000468947 0.012095094 -0.01990309 -0.009492474 0.017354116
-0.011010809 0.035163682 -0.012389386 0.008577157 -0.03043747 0.013979007 0.0072914734 -0.006616231
0.00029841065 0.02773941 0.018538993 0.028974969 -0.008686699 -0.021136645 -0.02049008 -0.032223344
-0.00027428567 -0.033673663 0.015451711 0.028174397 0.0020322576 0.026148736 0.027294572 -0.012553457
-0.008592211 0.032290917 -0.025885614 -0.00091345236 0.022750065 -0.02879584 -0.0015183613 0.019014597
0.0049687587 -0.017658431 -0.011831434 0.03519785 -0.025306154 0.020816024 0.02697767 -0.012657985
-0.0038736723 -0.020778272 0.013972979 -0.020968512 -0.0063896216 0.034259368 0.027235273 0.022986114
-0.03246209 0.030652124 -0.013199061 0.0040277243 -0.012901083 0.03357392 0.009610202 -0.02611658
-0.028100906 -0.010803642 0.0101697035 0.013447259 -0.034659594 -0.0046599824 0.031352554 0.012795996
-0.03405569 -0.033365704 0.027034324 -0.017659597 -0.020790908 0.013137288 -0.026036082 -0.010691963
0.02355408 0.0025238283 0.009324983 -0.002706021 0.027448136 0.023787066 -0.008058442 -0.020216014
0.03350762 -0.009280469 -0.02430791 -0.026331846 0.0009651892 -0.027134962 0.03519213 -0.009352788
-0.011111505 -0.00096248835 0.019583188 -0.013932005 0.002435755 0.03385369 -0.024218615 -0.015866099
-0.025606476 0.012177024 -0.03331652 -0.02009351 0.030572053 -0.02673595 0.023262713 -0.020879915
0.004701704 -0.020462494 0.024582718 -0.02699698 -0.008135885 0.0016624704 0.022755966 0.021540165
-0.016095135 -0.005702177 0.032070216 -0.028021222 0.025043018 0.0013028346 -0.021124307 -0.018661993
0.019813336 0.027966227 -0.0015075281 0.02206432 0.013996478 0.015603792 -0.0100510735 -0.03126724
0.009223867 0.02242769 -0.011869144 -0.004871363 -0.016129667 -0.021721154 0.03092705 -0.016364116
-0.0054774173 -0.020229809 0.010880396 0.00401501 -0.03165157 -0.013474083 -0.010966966 0.022035804
0.008139584 -0.0051912274 -0.026584707 -0.009825034 -0.008676223 0.031417612 -0.026453663 0.014133554
0.005783573 0.009300087 -0.00029600784 -0.009119712 0.03510714 0.011976175 0.017185044 -0.02449521
0.032520432 -0.015378553 0.0143622905 -0.011721553 -0.0016494058 0.022824109 0.020950854 0.018943857
-0.0043351017 -0.01938818 0.00513931 0.032430496 0.012820378 -0.02491298 -0.02541278 0.03164055
-0.015186869 0.0029128417 -0.00161786 0.017606184 -0.029257393 -0.03515343 -0.01646268 0.016712941
0.009181917 0.03168485 -0.007230779 -0.007217508 -0.016888801 0.020880155 -0.035247844 0.010936011
0.020746056 0.027020242 0.0006873943 -0.026705498 -0.0036268644 -0.01126351 0.00011104345 -0.018290253
0.005743053 0.016478412 -0.017306583 -0.024551084 0.007783599 0.026677284 -0.008851457 -0.01525587
-0.020644434 -0.02160217 -0.01714456 0.017058324 0.0093025975 -0.0012495331 0.025787909 0.0012593791
0.025791705 0.015020795 0.021232363 -0.0018240064 0.001833003 0.025250316 0.025611963 -0.010839157
-0.027429733 -0.03229285 0.014719069 -0.034445677 -0.031060264 0.030509207 -0.026949167 -0.026633035
00000000: f83e f53b aca0 1cbc f5a9 033d 344a a23c
00000010: bfce 0bbd 2467 b1bb 0023 033b 8e1a cf3c
00000020: 139b e1bc 7a62 80bc 3fda 10bd da50 a13c
00000030: e459 9d3c 18f1 b03c 98d2 d83b 25ad 023d
00000040: 4ebd f8bc 7472 93bc a201 0fbc 00dd f539
00000050: 802a 463c ce0b a3bc 5286 1bbc 382a 8e3c
00000060: ae66 34bc cb07 103d dafc 4abc 3487 0c3c
00000070: 0058 f9bc 3408 653c 50ed ee3b f8cc d8bb
00000080: 0074 9c39 c23d e33c 16df 973c ea5c ed3c
00000090: a852 0ebc c226 adbc d0da a7bc a0fc 03bd
000000a0: 00ce 8fb9 65ed 09bd 2c29 7d3c fecd e63c
000000b0: a02f 053b e035 d63c de98 df3c 04ad 4dbc
000000c0: 58c6 0cbc 7b43 043d 110e d4bc c074 6fba
000000d0: 585e ba3c 41e5 ebbc c003 c7ba 80c4 9b3c
000000e0: f8d0 a23b 6aa8 90bc a2d8 41bc 9f2b 103d
000000f0: da4e cfbc 5e86 aa3c 4600 dd3c 7063 4fbc
00000100: 70dd 7dbb 3237 aabc ecee 643c 28c6 abbc
00000110: 0860 d1bb 8d53 0c3d 821c df3c 604d bc3c
00000120: f8f6 04bd 2a1a fb3c e040 58bc 00fb 833b
00000130: 105f 53bc cf84 093d 1c74 1d3c 70f2 d5bc
00000140: df33 e6bc c201 31bc d49e 263c e451 5c3c
00000150: 38f7 0dbd c4b2 98bb 896b 003d 4ca6 513c
00000160: fb7d 0bbd 7aaa 08bd 1677 dd3c dcaa 90bc
00000170: b251 aabc c83d 573c 9f49 d5bc 582d 2fbc
00000180: 7cf4 c03c d066 253b d0c7 183c 8057 31bb
00000190: eada e03c 18dd c23c 8e07 04bc 0e9c a5bc
000001a0: 493f 093d 1c0d 18bc 6221 c7bc e2b5 d7bc
000001b0: c004 7d3a 244a debc 9f25 103d 703c 19bc
000001c0: 080d 36bc 804f 7cba ec6c a03c 1043 64bc
000001d0: 30a1 1f3b 2baa 0a3d 1e66 c6bc 9ff9 81bc
000001e0: acc4 d1bc 2482 473c e776 08bd 259b a4bc
000001f0: 3e72 fa3c 5a05 dbbc 7291 be3c 5b0c abbc
00000200: c010 9a3b f6a0 a7bc b261 c93c c528 ddbc
00000210: 604c 05bc 40e7 d93a b86a ba3c 0075 b03c
00000220: f2d9 83bc 54d9 babb 0f5c 033d c38c e5bc
00000230: 0427 cd3c e0c3 aa3a e20c adbc 09e1 98bc
00000240: 944f a23c 6e19 e53c 4098 c5ba 3cc0 b43c
00000250: 7c51 653c 0ca7 7f3c 42ad 24bc 1412 00bd
00000260: b41f 173c 46ba b73c cc76 42bc f49f 9fbb
00000270: 5d22 84bc 90f0 b1bc ba5a fd3c 0a0e 86bc
00000280: e87b b3bb fcb8 a5bc b043 323c 5890 833b
00000290: 14a5 01bd 66c2 5cbc caae 33bc 6e84 b43c
000002a0: e45b 053c 2c1b aabb 2cc8 d9bc 2ef9 20bc
000002b0: b826 0ebc c1af 003d 5ab5 d8bc 6c90 673c
000002c0: 2084 bd3b 645f 183c 8031 9bb9 d86a 15bc
000002d0: 81cc 0f3d b837 443c a6c7 8c3c 2eaa c8bc
000002e0: 2534 053d 54f6 7bbc d04f 6b3c c20b 40bc
000002f0: e030 d8ba a0f9 ba3c 20a1 ab3c 2630 9b3c
00000300: 780d 8ebb f6d3 9ebc a867 a83b d7d5 043d
00000310: 900c 523c 4e16 ccbc 762e d0bc 8599 013d
00000320: 58d2 78bc 60e5 3e3b 600e d4ba d83a 903c
00000330: 33ad efbc 0bfd 0fbd bedc 86bc 94e9 883c
00000340: c06f 163c f9c7 013d 2cf0 ecbb d880 ecbb
00000350: 625a 8abc dc0c ab3c 0b60 10bd f42c 333c
00000360: a2f3 a93c 8e59 dd3c 4032 343a 7dc5 dabc
00000370: b0b0 6dbb 968a 38bc 00e0 e838 71d5 95bc
00000380: 3830 bc3b bcfd 863c 89c6 8dbc 5b1f c9bc
00000390: 900d ff3b 528a da3c b405 11bc c2f3 79bc
000003a0: 841e a9bc 09f7 b0bc c072 8cbc e6bd 8b3c
000003b0: ec69 183c 60c7 a3ba 2a41 d33c c011 a53a
000003c0: 2049 d33c c819 763c 7eef ad3c 8013 efba
000003d0: 6041 f03a c0d9 ce3c 2ed0 d13c b896 31bc
000003e0: 52b4 e0bc 8245 04bd 4028 713c e916 0dbd
000003f0: 1872 febc 72ee f93c 80c4 dcbc 862d dabc

entity_user_embed.weight f4 [1333, 32]
-0.25158197 -0.11853636 0.0682998 -0.30313197 -0.44598335 0.110388495 0.30662578 -0.14645231
-0.04496395 -0.29077113 -0.64915633 -0.19756402 -0.24080174 -0.1851161 -0.20777291 -0.03994382
-0.14938368 0.54839385 0.049310308 -0.15687662 0.3138343 -0.3711221 -0.0800732 -0.47035253
-0.0115143005 0.2944719 0.389008 -0.21097924 0.01954015 0.033179015 0.19385417 -0.25544718
-0.058143068 0.017678522 -0.0050186897 0.16922751 0.1882421 0.23015146 0.3740285 -0.08635964
-0.15061195 -0.09594018 -0.3186941 -0.030514115 -0.16240633 -0.105744064 0.19446158 -0.17454879
-0.09250105 0.21994871 0.17891333 -0.012616462 0.20885661 -0.32641423 -0.19561936 -0.3817922
-0.376257 0.54976624 0.027050516 -0.046335228 0.22657889 0.10430628 0.2978828 -0.051929187
0.13273308 0.026014661 0.091343895 0.1411937 0.49762744 -0.13914844 0.0030080068 -0.23737088
-0.21989973 -0.0027391394 -0.5037946 -0.030764954 0.5118445 -0.28106913 0.19530255 -0.26279375
-0.13399139 0.3050949 0.48976174 0.005099319 -0.023747452 -0.6187657 -0.47496957 -0.13971022
0.3565615 0.036828004 0.011815599 0.08347629 0.30338705 -0.037350032 0.06036968 0.24505483
0.21526842 -0.34941378 0.26742452 -0.10741183 -0.33741006 -0.08390349 -0.07888712 -0.0745502
-0.1706828 -0.071311206 -0.22173059 -0.010071242 -0.051107686 0.093400136 -0.1667732 0.4567584
0.057154737 0.4829105 0.11329961 -0.084317826 -0.11681119 0.38868636 0.089032315 0.33619988
-0.37238544 -0.07748243 -0.10628705 -0.10840608 0.3787348 0.23590195 -0.30819088 -0.12973045
0.13858674 -0.08644726 0.13288003 -0.11996396 -0.21712916 -0.08393636 -0.1829715 -0.27108613
-0.4015422 0.36045176 -0.052543804 -0.0074355053 0.07766379 -0.23696083 -0.06935254 -0.15884724
-0.15815295 -0.23417078 0.26175603 -0.23990342 0.27373588 0.2016334 -0.2747605 -0.16775043
0.1385526 0.07006166 -0.120067924 -0.15184307 0.07792546 0.057321355 0.23092502 0.1892303
0.29350612 -0.24599403 0.10028345 -0.117368236 0.28578636 0.0021392948 -0.14337328 -0.4875792
-0.15232028 -0.05897093 -0.11518361 -0.109200604 0.27888572 -0.08252818 -0.27462822 0.30164543
-0.17025208 0.13702145 0.22439452 -0.024662819 0.014832913 -0.2619637 0.12085144 -0.059138417
-0.33271366 -0.00132416 -0.2868444 -0.14643916 0.08506515 0.13576663 -0.31486157 0.18854755
-0.43512693 -0.0019832263 0.11507854 0.10520104 -0.06938361 0.070530295 0.057170283 -0.5947348
0.76897496 -0.14856441 -0.3407367 0.5100144 0.28782123 -0.02675386 0.010130873 0.030722015
-0.320357 0.27040806 0.29177216 -0.06959701 -0.075046964 0.060038526 -0.30820665 0.20031688
0.043574024 0.29350922 0.15065166 0.025584577 -0.2990891 -0.61341155 0.017346254 -0.47783428
0.23291904 0.1972644 0.047080304 -0.10307321 -0.42440382 0.0029732464 -0.019752217 -0.38418114
-0.1508854 -0.15572968 -0.21630971 -0.041264668 0.4686249 -0.11004082 -0.26863578 -0.016738916
0.036096446 0.82331246 0.1055835 0.22119254 -0.10727052 -0.30334017 -0.0010530464 -0.46701798
0.16523536 0.11018991 0.2375005 -0.048066918 0.33082426 -0.20292848 -0.42168048 -0.4407046
00000000: 5acf 80be 31c3 f2bd c4e0 8b3d 1d34 9bbe
00000010: ee57 e4be 5d13 e23d 0efe 9c3e 98f7 15be
00000020: 1e2c 38bd f4df 94be 1c2f 26bf 394e 4abe
00000030: bb94 76be 138f 3dbe 6cc2 54be 229c 23bd
00000040: 09f8 18be 8a63 0c3f 9bf9 493d 44a4 20be
00000050: e4ae a03e b703 bebe 6bfd a3bd 0cd2 f0be
00000060: 7aa6 3cbc 05c5 963e 0e2c c73e f10a 58be
00000070: aa12 a03c b8e6 073d b581 463e f9c9 82be
00000080: 6d27 6ebd 8cd2 903c d273 a4bb fa49 2d3e
00000090: 89c2 403e d3ac 6b3e aa80 bf3e 53dd b0bd
000000a0: 053a 1abe 497c c4bd e02b a3be bdf8 f9bc
000000b0: d84d 26be 5890 d8bd f020 473e ebbc 32be
000000c0: 3171 bdbd 3c3a 613e 0e35 373e 47b5 4ebc
000000d0: 82de 553e c41f a7be 7150 48be 447a c3be
000000e0: c2a4 c0be 7bbd 0c3f 0b99 dd3c 02ca 3dbd
000000f0: 4c04 683e 889e d53d 1884 983e b3b3 54bd
00000100: 2eeb 073e b31c d53c 8212 bb3d 1595 103e
00000110: 06c9 fe3e ee7c 0ebe fb21 453b 5a11 73be
00000120: 652d 61be 2283 33bb aff8 00bf c906 fcbc
00000130: 3e08 033f 4be8 8fbe 64fd 473e e78c 86be
00000140: 0a35 09be 6635 9c3e 0dc2 fa3e 3018 a73b
00000150: 048a c2bc 6e67 1ebf 362f f3be 3210 0fbe
00000160: 3b8f b63e f6d8 163d 3796 413c 9ef5 aa3d
00000170: 8c55 9b3e 59fc 18bd 3346 773d a7ef 7a3e
00000180: 536f 5c3e 5de6 b2be deeb 883e bcfa dbbd
00000190: 03c1 acbe 98d5 abbd 928f a1bd c6ad 98bd
000001a0: 79c7 2ebe 9c0b 92bd 580d 63be da01 25bc
000001b0: 4b56 51bd 9248 bf3d 98c6 2abe 3ddc e93e
000001c0: 161b 6a3d 0c40 f73e a009 e83d d3ae acbd
000001d0: b53a efbd e601 c73e 9356 b63d 6422 ac3e
000001e0: 4ea9 bebe 1caf 9ebd 06ad d9bd 0204 debd
000001f0: 87e9 c13e 4890 713e 32cb 9dbe 0fd8 04be
00000200: afe9 0d3e 430b b1bd b411 083e aaaf f5bd
00000210: 1b57 5ebe d4e6 abbd e25c 3bbe cdcb 8abe
00000220: f096 cdbe 228d b83e 2c38 57bd 8aa5 f3bb
00000230: 310e 9f3d dca5 72be b408 8ebd daa8 22be
00000240: d9f2 21be 77ca 6fbe e304 863e 3ea9 75be
00000250: 1c27 8c3e fc78 4e3e 69ad 8cbe c5c6 2bbe
00000260: bce0 0d3e 7d7c 8f3d 2ce6 f5bd c07c 1bbe
00000270: 6297 9f3d ccc9 6a3d 9c77 6c3e 96c5 413e
00000280: 6f46 963e dce5 7bbe 6961 cd3d c25e f0bd
00000290: 9752 923e 6933 0c3b 72d0 12be fba3 f9be
000002a0: d9f9 1bbe 808b 71bd 62e5 ebbd 91a4 dfbd
000002b0: 1cca 8e3e 8904 a9bd 129c 8cbe 4571 9a3e
000002c0: 9056 2ebe 5a4f 0c3e adc7 653e ae09 cabc
000002d0: bf05 733c 1b20 86be f680 f73d 203b 72bd
000002e0: 7259 aabe 708f adba 45dd 92be 26f4 15be
000002f0: a336 ae3d 6806 0b3e 8935 a1be 9c12 413e
00000300: f5c8 debe 04f9 01bb 4cae eb3d a573 d73d
00000310: fe18 8ebd 3072 903d 632b 6a3d 8a40 18bf
00000320: 8bdb 443f 4521 18be 0a75 aebe 4e90 023f
00000330: 4e5d 933e e92a dbbc f6fb 253c bcac fb3c
00000340: d505 a4be ed72 8a3e 2963 953e e188 8ebd
00000350: 39b2 99bd f5ea 753d 43cd 9dbe de1f 4d3e
00000360: ad7a 323d d746 963e 6e44 1a3e bf96 d13c
00000370: 3522 99be 8a08 1dbf bb19 8e3c b2a6 f4be
00000380: 5482 6e3e aeff 493e 47d7 403d 0c18 d3bd
00000390: 754b d9be ccda 423b 67cf a1bc 64b3 c4be
000003a0: b481 1abe 9a77 1fbe 4b80 5dbe 2405 29bd
000003b0: 9aef ef3e 155d e1bd a18a 89be 0d20 89bc
000003c0: ded9 133d 9bc4 523f 293c d83d 4c80 623e
000003d0: a5b0 dbbd 674f 9bbe 6006 8aba fb1c efbe
000003e0: 7533 293e 3fab e13d 5533 733e d1e1 44bd
000003f0: cc61 a93e 7ccc 4fbe 81e6 d7be 09a4 e1be

relation_embed.weight f4 [116, 32]
-0.05476126 0.0109061785 0.09317386 -0.13865691 -0.09500357 -0.15767734 0.016738094 -0.046607416
0.048568964 -0.124270305 -0.06859024 -0.11193759 -0.14448045 0.08423891 -0.058718137 0.028781703
0.05533926 0.058905248 -0.02134927 -0.18118212 0.15610574 -0.0367429 -0.087421395 -0.07155932
-0.059494264 -0.10511046 0.09257144 -0.12074843 -0.10398404 0.08391673 -0.07908049 -0.046762414
0.009613066 0.17814356 -0.086655274 0.09747196 0.07534643 -0.119251534 -0.023789415 -0.09857702
-0.032098405 0.07782881 0.074777365 0.056206673 0.09282904 0.13239178 0.073850505 -0.017437445
0.15634783 -0.050919022 0.047419872 0.12655038 -0.10493314 0.042261135 -0.14107952 0.097303115
0.117479995 -0.112586424 -0.02724681 0.100622535 0.05695802 -0.08299603 -0.13446331 0.048233304
-0.022242295 0.1887817 -0.06494302 -0.1225754 -0.19735304 0.10253047 0.050494876 0.12342138
0.0718507 0.13519041 0.29378888 0.18238623 0.034190215 -0.07263316 -0.085884206 -0.03984012
-0.06453756 -0.021177553 -0.0918436 0.060866445 0.032244958 -0.037266456 0.12262399 0.08126451
-0.0847478 -0.06748543 -0.11025716 0.02754427 -0.1429214 -0.18755291 -0.0008187911 0.0405363
0.07226762 -0.08482631 0.07801343 0.18736304 0.08778223 -0.08348566 0.21846838 -0.08206836
-0.09185019 -0.06974406 -0.07487588 -0.11783743 0.091001496 -0.08775981 0.060607914 -0.12560667
0.16646113 0.11904662 0.089200586 -0.12064472 -0.10387503 0.08471604 -0.11691924 -0.08049168
-0.053856943 0.11323638 0.06702186 -0.07763837 0.06959072 0.10795139 -0.113676675 -0.11925031
0.051301356 0.1824639 0.09849964 -0.09648581 -0.081185564 0.20132375 -0.11317719 -0.09216069
-0.0377626 -0.06476241 -0.08981296 0.14626932 0.09406209 -0.10330945 0.045481388 0.13908942
-0.113040395 -0.07586566 0.09942641 0.1953455 0.032882422 0.11986225 -0.07741542 0.20642114
-0.06399891 0.12376133 0.10186313 -0.081368454 0.07088703 0.051942565 0.0842132 -0.08317376
-0.16943842 0.013817373 -0.40858707 -0.0026781296 0.09528512 -0.04482519 -0.18738414 0.05974454
0.03181556 -0.047552325 -0.107959166 -0.05859203 0.0067636655 -0.03825468 0.048532583 -0.06380088
0.17670056 -0.031811062 -0.046244 -0.25039616 0.09146981 -0.032667223 -0.07124217 0.007809052
0.13202621 0.049889386 0.07638915 -0.20131075 0.08073411 0.019086672 0.007922325 0.039335
0.059114058 -0.08511038 0.07829632 0.12470532 -0.15747398 0.16837463 -0.11404336 -0.08933601
-0.09120426 -0.058858268 0.15361272 0.020833446 -0.11824666 -0.039836768 0.08622406 -0.09432304
-0.13100402 -0.17393413 -0.18156818 -0.084490724 0.15618661 0.09417498 0.014018963 -0.08631633
0.13024943 0.0700169 -0.14266804 0.14438233 0.086468786 -0.1758986 -0.11888641 0.14213067
-0.063026845 0.033569273 -0.00870607 -0.1135426 -0.13193826 -0.118071884 -0.1403758 -0.1904403
0.08952651 -0.03401547 -0.09540505 -0.11460771 -0.027592871 -0.06845498 0.110724606 -0.082076564
0.32097673 -0.09226339 0.004076044 -0.19637792 0.28972128 -0.019266086 0.05126644 -0.0479083
0.19728236 0.04099512 0.10704892 -0.10907691 0.1360975 -0.061619684 -0.05458275 0.043045577
00000000: 584d 60bd d4af 323c f0d1 be3d 14fc 0dbe
00000010: 3b91 c2bd 2b76 21be 541e 893c 6be7 3ebd
00000020: 40f0 463d 6e81 febd 0a79 8cbd 893f e5bd
00000030: aff2 13be 7385 ac3d 6e82 70bd 9bc7 eb3c
00000040: 6bab 623d a146 713d aae4 aebc ce87 39be
00000050: 2fda 1f3e b97f 16bd fd09 b3bd b18d 92bd
00000060: 42b0 73bd 2744 d7bd 1896 bd3d f44a f7bd
00000070: 96f5 d4bd 89dc ab3d f4f4 a1bd f289 3fbd
00000080: 1f80 1d3c 446b 363e 5278 b1bd 619f c73d
00000090: 3b4f 9a3d 263a f4bd 05e2 c2bc c0e2 c9bd
000000a0: 9e79 03bd b664 9f3d e024 993d f838 663d
000000b0: 271d be3d b691 073e ef3e 973d f9d8 8ebc
000000c0: a519 203e 7790 50bd 573b 423d 6c96 013e
000000d0: 30e7 d6bd 031a 2d3d 2677 10be db46 c73d
000000e0: 5a99 f03d b693 e6bd b434 dfbc 3013 ce3d
000000f0: d04c 693d d3f9 a9bd c0b0 09be 4990 453d
00000100: 7935 b6bc fd4f 413e d900 85bd d008 fbbd
00000110: ea16 4abe 7ffb d13d b7d3 4e3d 59c4 fc3d
00000120: 7626 933d 5b6f 0a3e 7f6b 963e 75c3 3a3e
00000130: 0a0b 0c3d b2c0 94bd 0fe4 afbd 652f 23bd
00000140: 452c 84bd 8c7c adbc 7f18 bcbd 184f 793d
00000150: 4a13 043d b6a4 18bd 4922 fb3d 026e a63d
00000160: 4190 adbd cd35 8abd 82ce e1bd 85a4 e13c
00000170: fd59 12be df0d 40be 24a4 56ba 6409 263d
00000180: 0c01 943d 6bb9 adbd 81c5 9f3d 19dc 3f3e
00000190: 2bc7 b33d 88fa aabd 2db6 5f3e 7513 a8bd
000001a0: f41b bcbd f9d5 8ebd 8658 99bd c054 f1bd
000001b0: fe5e ba3d 6abb b3bd 0140 783d 099f 00be
000001c0: c974 2a3e b7ce f33d ccae b63d 9414 f7bd
000001d0: 6fbc d4bd 9a7f ad3d 5b73 efbd d2d8 a4bd
000001e0: 1999 5cbd 7ae8 e73d c242 893d de00 9fbd
000001f0: 9485 8e3d 9e15 dd3d 51cf e8bd 8239 f4bd
00000200: 5f21 523d d1d7 3a3e 2eba c93d 5a9a c5bd
00000210: 9e44 a6bd d027 4e3e 71c9 e7bd bebe bcbd
00000220: f5ac 1abd 28a2 84bd dbef b7bd a0c7 153e
00000230: a0a3 c03d e893 d3bd b14a 3a3d 756d 0e3e
00000240: b981 e7bd 755f 9bbd 13a0 cb3d a708 483e
00000250: b8af 063d 577a f53d fa8b 9ebd 1060 533e
00000260: dc11 83bd 9576 fd3d 9e9d d03d 81a4 a6bd
00000270: 382d 913d bac1 543d f877 ac3d 0157 aabd
00000280: 4481 2dbe 4362 623c 5332 d1be 8f83 2fbb
00000290: d824 c33d 9e9a 37bd a1e1 3fbe b1b6 743d
000002a0: 0851 023d 3ac6 42bd b219 ddbd 32fe 6fbd
000002b0: bda1 dd3b f0b0 1cbd 1aca 463d 09aa 82bd
000002c0: fef0 343e 514c 02bd 596a 3dbd ed33 80be
000002d0: 8654 bb3d 11ce 05bd 6ae7 91bd 13e3 ff3b
000002e0: e131 073e d058 4c3d ea71 9c3d 6824 4ebe
000002f0: ed57 a53d a75b 9c3c a4cc 013c bd1d 213d
00000300: 9521 723d 5a4e aebd d259 a03d 8165 ff3d
00000310: dc40 21be 666a 2c3e 918f e9bd ccf5 b6bd
00000320: 4dc9 babd 5e15 71bd a74c 1d3e e7aa aa3c
00000330: 4e2b f2bd e12b 23bd 3d96 b03d 702c c1bd
00000340: eb25 06be ca1b 32be 02ed 39be 7909 adbd
00000350: 62ef 1f3e d0de c03d cbaf 653c 9ec6 b0bd
00000360: 1b60 053e 0565 8f3d 9217 12be f6d8 133e
00000370: 8c16 b13d c31e 34be b87a f3bd b48a 113e
00000380: 3814 81bd ef7f 093d e7a3 0ebc 0689 e8bd
00000390: d31a 07be accf f1bd acbe 0fbe c802 43be
000003a0: ad59 b73d ce53 0bbd b963 c3bd 72b7 eabd
000003b0: 720a e2bc 2032 8cbd 95c3 e23d c217 a8bd
000003c0: 1057 a43e 97f4 bcbd 5690 853b 4b17 49be
000003d0: 5956 943e e9d3 9dbc c2fc 513d 7e3b 44bd
000003e0: 6304 4a3e 80ea 273d 773c db3d b763 dfbd
000003f0: 255d 0b3e ec64 7cbd 2992 5fbd 8f50 303d
