Knowledge_Graph_Recommendation/recommendation/stage2/trained_model/Douban/GNN_based/nlayer2_dim32_TransE_lightgcn/model0_epoch30.pth (torch, 662471 bytes, 3 tensors)

trans_M f4 [116, 32, 32]
00000000: f83e f53b aca0 1cbc f5a9 033d 344a a23c
00000010: bfce 0bbd 2467 b1bb 0023 033b 8e1a cf3c
00000020: 139b e1bc 7a62 80bc 3fda 10bd da50 a13c
00000030: e459 9d3c 18f1 b03c 98d2 d83b 25ad 023d
00000040: 4ebd f8bc 7472 93bc a201 0fbc 00dd f539
00000050: 802a 463c ce0b a3bc 5286 1bbc 382a 8e3c
00000060: ae66 34bc cb07 103d dafc 4abc 3487 0c3c
00000070: 0058 f9bc 3408 653c 50ed ee3b f8cc d8bb
00000080: 0074 9c39 c23d e33c 16df 973c ea5c ed3c
00000090: a852 0ebc c226 adbc d0da a7bc a0fc 03bd
000000a0: 00ce 8fb9 65ed 09bd 2c29 7d3c fecd e63c
000000b0: a02f 053b e035 d63c de98 df3c 04ad 4dbc
000000c0: 58c6 0cbc 7b43 043d 110e d4bc c074 6fba
000000d0: 585e ba3c 41e5 ebbc c003 c7ba 80c4 9b3c
000000e0: f8d0 a23b 6aa8 90bc a2d8 41bc 9f2b 103d
000000f0: da4e cfbc 5e86 aa3c 4600 dd3c 7063 4fbc
00000100: 70dd 7dbb 3237 aabc ecee 643c 28c6 abbc
00000110: 0860 d1bb 8d53 0c3d 821c df3c 604d bc3c
00000120: f8f6 04bd 2a1a fb3c e040 58bc 00fb 833b
00000130: 105f 53bc cf84 093d 1c74 1d3c 70f2 d5bc
00000140: df33 e6bc c201 31bc d49e 263c e451 5c3c
00000150: 38f7 0dbd c4b2 98bb 896b 003d 4ca6 513c
00000160: fb7d 0bbd 7aaa 08bd 1677 dd3c dcaa 90bc
00000170: b251 aabc c83d 573c 9f49 d5bc 582d 2fbc
00000180: 7cf4 c03c d066 253b d0c7 183c 8057 31bb
00000190: eada e03c 18dd c23c 8e07 04bc 0e9c a5bc
000001a0: 493f 093d 1c0d 18bc 6221 c7bc e2b5 d7bc
000001b0: c004 7d3a 244a debc 9f25 103d 703c 19bc
000001c0: 080d 36bc 804f 7cba ec6c a03c 1043 64bc
000001d0: 30a1 1f3b 2baa 0a3d 1e66 c6bc 9ff9 81bc
000001e0: acc4 d1bc 2482 473c e776 08bd 259b a4bc
000001f0: 3e72 fa3c 5a05 dbbc 7291 be3c 5b0c abbc
00000200: c010 9a3b f6a0 a7bc b261 c93c c528 ddbc
00000210: 604c 05bc 40e7 d93a b86a ba3c 0075 b03c
00000220: f2d9 83bc 54d9 babb 0f5c 033d c38c e5bc
00000230: 0427 cd3c e0c3 aa3a e20c adbc 09e1 98bc
00000240: 944f a23c 6e19 e53c 4098 c5ba 3cc0 b43c
00000250: 7c51 653c 0ca7 7f3c 42ad 24bc 1412 00bd
00000260: b41f 173c 46ba b73c cc76 42bc f49f 9fbb
00000270: 5d22 84bc 90f0 b1bc ba5a fd3c 0a0e 86bc
00000280: e87b b3bb fcb8 a5bc b043 323c 5890 833b
00000290: 14a5 01bd 66c2 5cbc caae 33bc 6e84 b43c
000002a0: e45b 053c 2c1b aabb 2cc8 d9bc 2ef9 20bc
000002b0: b826 0ebc c1af 003d 5ab5 d8bc 6c90 673c
000002c0: 2084 bd3b 645f 183c 8031 9bb9 d86a 15bc
000002d0: 81cc 0f3d b837 443c a6c7 8c3c 2eaa c8bc
000002e0: 2534 053d 54f6 7bbc d04f 6b3c c20b 40bc
000002f0: e030 d8ba a0f9 ba3c 20a1 ab3c 2630 9b3c
00000300: 780d 8ebb f6d3 9ebc a867 a83b d7d5 043d
00000310: 900c 523c 4e16 ccbc 762e d0bc 8599 013d
00000320: 58d2 78bc 60e5 3e3b 600e d4ba d83a 903c
00000330: 33ad efbc 0bfd 0fbd bedc 86bc 94e9 883c
00000340: c06f 163c f9c7 013d 2cf0 ecbb d880 ecbb
00000350: 625a 8abc dc0c ab3c 0b60 10bd f42c 333c
00000360: a2f3 a93c 8e59 dd3c 4032 343a 7dc5 dabc
00000370: b0b0 6dbb 968a 38bc 00e0 e838 71d5 95bc
00000380: 3830 bc3b bcfd 863c 89c6 8dbc 5b1f c9bc
00000390: 900d ff3b 528a da3c b405 11bc c2f3 79bc
000003a0: 841e a9bc 09f7 b0bc c072 8cbc e6bd 8b3c
000003b0: ec69 183c 60c7 a3ba 2a41 d33c c011 a53a
000003c0: 2049 d33c c819 763c 7eef ad3c 8013 efba
000003d0: 6041 f03a c0d9 ce3c 2ed0 d13c b896 31bc
000003e0: 52b4 e0bc 8245 04bd 4028 713c e916 0dbd
000003f0: 1872 febc 72ee f93c 80c4 dcbc 862d dabc
0.007484313 -0.009559792 0.032144506 0.019810773 -0.034132715 -0.0054139066 0.0020009875 0.025281217
-0.027539765 -0.015671957 -0.035364386 0.019691873 0.019207902 0.021599337 0.0066169016 0.031903405
-0.030363705 -0.017998911 -0.008728417 0.000468947 0.012095094 -0.01990309 -0.009492474 0.017354116
-0.011010809 0.035163682 -0.012389386 0.008577157 -0.03043747 0.013979007 0.0072914734 -0.006616231
0.00029841065 0.02773941 0.018538993 0.028974969 -0.008686699 -0.021136645 -0.02049008 -0.032223344
-0.00027428567 -0.033673663 0.015451711 0.028174397 0.0020322576 0.026148736 0.027294572 -0.012553457
-0.008592211 0.032290917 -0.025885614 -0.00091345236 0.022750065 -0.02879584 -0.0015183613 0.019014597
0.0049687587 -0.017658431 -0.011831434 0.03519785 -0.025306154 0.020816024 0.02697767 -0.012657985
-0.0038736723 -0.020778272 0.013972979 -0.020968512 -0.0063896216 0.034259368 0.027235273 0.022986114
-0.03246209 0.030652124 -0.013199061 0.0040277243 -0.012901083 0.03357392 0.009610202 -0.02611658
-0.028100906 -0.010803642 0.0101697035 0.013447259 -0.034659594 -0.0046599824 0.031352554 0.012795996
-0.03405569 -0.033365704 0.027034324 -0.017659597 -0.020790908 0.013137288 -0.026036082 -0.010691963
0.02355408 0.0025238283 0.009324983 -0.002706021 0.027448136 0.023787066 -0.008058442 -0.020216014
0.03350762 -0.009280469 -0.02430791 -0.026331846 0.0009651892 -0.027134962 0.03519213 -0.009352788
-0.011111505 -0.00096248835 0.019583188 -0.013932005 0.002435755 0.03385369 -0.024218615 -0.015866099
-0.025606476 0.012177024 -0.03331652 -0.02009351 0.030572053 -0.02673595 0.023262713 -0.020879915
0.004701704 -0.020462494 0.024582718 -0.02699698 -0.008135885 0.0016624704 0.022755966 0.021540165
-0.016095135 -0.005702177 0.032070216 -0.028021222 0.025043018 0.0013028346 -0.021124307 -0.018661993
0.019813336 0.027966227 -0.0015075281 0.02206432 0.013996478 0.015603792 -0.0100510735 -0.03126724
0.009223867 0.02242769 -0.011869144 -0.004871363 -0.016129667 -0.021721154 0.03092705 -0.016364116
-0.0054774173 -0.020229809 0.010880396 0.00401501 -0.03165157 -0.013474083 -0.010966966 0.022035804
0.008139584 -0.0051912274 -0.026584707 -0.009825034 -0.008676223 0.031417612 -0.026453663 0.014133554
0.005783573 0.009300087 -0.00029600784 -0.009119712 0.03510714 0.011976175 0.017185044 -0.02449521
0.032520432 -0.015378553 0.0143622905 -0.011721553 -0.0016494058 0.022824109 0.020950854 0.018943857
-0.0043351017 -0.01938818 0.00513931 0.032430496 0.012820378 -0.02491298 -0.02541278 0.03164055
-0.015186869 0.0029128417 -0.00161786 0.017606184 -0.029257393 -0.03515343 -0.01646268 0.016712941
0.009181917 0.03168485 -0.007230779 -0.007217508 -0.016888801 0.020880155 -0.035247844 0.010936011
0.020746056 0.027020242 0.0006873943 -0.026705498 -0.0036268644 -0.01126351 0.00011104345 -0.018290253
0.005743053 0.016478412 -0.017306583 -0.024551084 0.007783599 0.026677284 -0.008851457 -0.01525587
-0.020644434 -0.02160217 -0.01714456 0.017058324 0.0093025975 -0.0012495331 0.025787909 0.0012593791
0.025791705 0.015020795 0.021232363 -0.0018240064 0.001833003 0.025250316 0.025611963 -0.010839157
-0.027429733 -0.03229285 0.014719069 -0.034445677 -0.031060264 0.030509207 -0.026949167 -0.026633035

entity_user_embed.weight f4 [1333, 32]
00000000: d2e5 88be 78c1 bbbd 2028 a53d 67b1 88be
00000010: e4ed bcbe b0ca c63d ade3 973e e88a 07be
00000020: 4752 ac3b 8b62 79be 77f4 06bf d159 37be
00000030: e8de 47be e666 30be 242a 2abe 90fe 0cbd
00000040: 06d5 e6bd fdb1 de3e bf23 773d f8f5 d9bd
00000050: 0105 8b3e 4fac a2be 5750 95bd cbb3 d7be
00000060: 4d5c 18bd 91ad 853e acbb b03e 488d 4bbe
00000070: d0d4 03bd b9ba 7a3d 3c9b 063e b8cd 7dbe
00000080: cac1 1ebd 11e1 403c 9e6b 483d 22e1 f43d
00000090: 7954 0e3e 0852 3e3e 40cb a63e d370 e2bd
000000a0: d9b9 0ebe d9e9 f5bd b176 7fbe 10e7 46bd
000000b0: f35d 02be f684 cfbd 438a 413e 2ff2 11be
000000c0: 889a b6bc 5d38 323e e539 1a3e 276d 3bbc
000000d0: 742c 3a3e 91a6 62be cdb9 38be 99a1 a5be
000000e0: f49e afbe 7406 ce3e 2ae7 e43c e056 5cbd
000000f0: 6aed 113e 01e3 c13d 41f7 783e 4ae7 51bd
00000100: 7f44 503e 2071 c23c 63ff ce3d 44ba 0f3e
00000110: bdf1 ea3e 3bc6 18be 21e8 81bc 547f 47be
00000120: 7f31 3dbe 43a8 123d cd2f d1be 0d05 87bd
00000130: 50b3 f03e fa03 96be ba38 303e 029f 5ebe
00000140: d0a5 38be 6f94 6a3e 86da cc3e a7f8 a83b
00000150: 108c 9b3b f568 f2be c8df a1be d1e3 00be
00000160: 9ad4 993e 4ee2 283d 93a6 7c3d 9a40 f43c
00000170: 3973 5d3e 5382 0bbd 5357 ee3b fe92 3e3e
00000180: ecde 503e dd9a 9abe 416f 703e 56fb 95bd
00000190: c73a 7dbe f712 9dbd 1324 98bd cea1 63bd
000001a0: c032 1dbe 6953 bcbc 9999 22be fb9f 9cbc
000001b0: 7533 883c 4d91 8f3d d301 05be 2347 ca3e
000001c0: 07dd f63c 2319 c93e d364 e73d 4d04 96bd
000001d0: 490b efbd 9a75 9f3e 9d31 a33d 15a6 8a3e
000001e0: 7d3a 9dbe 0e0d 28bd f9e2 99bd 50da bcbd
000001f0: 08de a43e d866 513e 1d5f 96be e847 efbd
00000200: 26ed db3d 6d82 8bbd 1192 fb3d d8d9 ccbd
00000210: 64ff 37be 1b02 6dbd 36f5 06be 44a9 68be
00000220: 903b abbe e80d a03e a650 21bd fbeb 20bd
00000230: a951 8e3d e8dd 4cbe 4b8c 49bd 5031 01be
00000240: 3b0b 03be 05a6 5abe ce55 4d3e ee2b 38be
00000250: 2b08 633e ba70 303e 09e8 5bbe 9f11 11be
00000260: 2c7c a83d 6571 803c e4d3 eabd 3891 f8bd
00000270: d805 643d b7f2 0b3d 8181 323e f7bb 243e
00000280: 31c8 733e 9105 72be 6544 bb3d 8caa cdbd
00000290: 29ba 8e3e 8a24 3a3c 40fb f8bd e5f4 b7be
000002a0: 3241 01be f560 6abd 819f bfbd ca84 a6bd
000002b0: 4a20 7f3e 3734 bbbd 271a 41be bd2a 7f3e
000002c0: ad78 0dbe 86a6 e73d f0d9 483e baa1 7dbc
000002d0: eb71 b23c 9616 7bbe 9066 143e 2234 40bd
000002e0: 9752 99be 904d 4f3d f274 6abe 37a3 d7bd
000002f0: 3b86 d33d 2c80 ae3d 6f1f 87be 7d27 ff3d
00000300: 5810 cfbe 315e 0b3a 312b 1b3e 585c ca3d
00000310: 46c5 d5bc 5043 8c3d 6690 763d c580 00bf
00000320: 8089 2d3f a14e 2cbe 7bd2 adbe d78b f53e
00000330: b552 693e a4e1 24bd b083 583d 91d1 1b3d
00000340: c602 8ebe 5e76 853e 436c 723e 7ae0 86bd
00000350: 05f2 30be 7c47 e33d 21bf a8be bb12 f63d
00000360: 8d2a 4d3c a340 803e 5116 483e 16b7 f23c
00000370: 46e5 97be 16c6 06bf 0d0b a4bc 9717 f6be
00000380: cd39 523e 22ff 273e 1cb7 453d 5eb2 85bd
00000390: ca38 b8be 34a8 803c 130d 83bc 4317 c1be
000003a0: 961a debd 9e58 17be 02fa 58be d861 10bd
000003b0: 18d3 df3e 7703 adbd ac35 77be d2d6 31bd
000003c0: 3566 aa3c f7e8 293f ab49 ba3d e819 593e
000003d0: b665 ffbd d864 83be 4b52 103d dc68 eebe
000003e0: 61bb fb3d cfaa 9c3d bda5 513e d91f f1bc
000003f0: bfcd 8f3e f976 23be 06e6 b3be 6681 c0be
-0.2673784 -0.091677606 0.08064294 -0.26697847 -0.36900246 0.09706628 0.2966589 -0.13236582
0.0052588317 -0.24353997 -0.52716774 -0.17905356 -0.19518626 -0.17226753 -0.16617638 -0.034422457
-0.112711 0.4349517 0.060336825 -0.10642618 0.27152255 -0.31772086 -0.07290714 -0.4212936
-0.0371974 0.26108983 0.34518182 -0.19878113 -0.032185376 0.06121323 0.13145155 -0.24785507
-0.03875903 0.01177241 0.048930757 0.11957003 0.13899411 0.1858598 0.32576942 -0.11056676
-0.13938083 -0.120074935 -0.24947621 -0.048560202 -0.12731151 -0.10132782 0.18900399 -0.14252542
-0.022290483 0.17404313 0.15061148 -0.011439598 0.1818102 -0.22133853 -0.18039627 -0.32349852
-0.3430096 0.40239298 0.027942259 -0.053793788 0.14250723 0.09467126 0.2431307 -0.051245965
0.20338629 0.023735583 0.10107305 0.14035898 0.45887557 -0.14919369 -0.015857758 -0.19482166
-0.18475913 0.035804998 -0.40856782 -0.0659276 0.47011805 -0.2929991 0.1720914 -0.21740344
-0.18032002 0.22908185 0.4001047 0.005156595 0.0047469214 -0.473457 -0.31616044 -0.12586905
0.30045015 0.041231446 0.061682295 0.02981596 0.21625985 -0.034059834 0.0072735935 0.1861076
0.20397538 -0.30196276 0.2347994 -0.07323329 -0.24729453 -0.07669633 -0.074287556 -0.05557423
-0.15351391 -0.022988992 -0.15878905 -0.019119253 0.0166261 0.07010136 -0.12988977 0.39507398
0.03013469 0.3927699 0.112985276 -0.07325039 -0.11672074 0.3114441 0.07968447 0.27079836
-0.30708686 -0.041028075 -0.07513995 -0.09221327 0.32200646 0.20449388 -0.2936944 -0.11683637
0.10738592 -0.06811986 0.12283719 -0.10002488 -0.17968518 -0.057863336 -0.13179478 -0.2272082
-0.3344388 0.3126061 -0.039383553 -0.03928755 0.06949169 -0.20006526 -0.04920606 -0.12616467
-0.12797253 -0.21352394 0.20052263 -0.17985508 0.22171085 0.17230502 -0.21475233 -0.14166878
0.08226809 0.01567907 -0.11466196 -0.12137073 0.055669636 0.034167018 0.17432214 0.16087328
0.23806836 -0.23634936 0.091439046 -0.10042295 0.27876404 0.011361251 -0.12157297 -0.35929027
-0.12622526 -0.05722137 -0.09356595 -0.08130796 0.24914661 -0.091408186 -0.18857633 0.24918647
-0.13815565 0.11311059 0.19614387 -0.015480453 0.021782836 -0.24520335 0.1449225 -0.046924718
-0.29945824 0.05061108 -0.22896174 -0.10529178 0.10328337 0.085205406 -0.2639117 0.12458704
-0.40442157 0.0005316465 0.15153195 0.098808944 -0.026095044 0.06848776 0.060196303 -0.50196487
0.67787933 -0.1682687 -0.33949646 0.47958252 0.22785456 -0.04025425 0.052859962 0.038041655
-0.2773649 0.2606687 0.23674111 -0.06585784 -0.17279823 0.11097619 -0.3295832 0.12015291
0.012522352 0.25049314 0.19539763 0.029628318 -0.2966711 -0.52646005 -0.0200248 -0.48064873
0.20529862 0.16405919 0.04827033 -0.065281615 -0.35980827 0.015705206 -0.015997445 -0.3771306
-0.108449146 -0.14779899 -0.2118912 -0.03524956 0.4371574 -0.084479265 -0.24141568 -0.04341776
0.02080069 0.663711 0.09096082 0.21201289 -0.12470572 -0.25662875 0.03523473 -0.46564376
0.12291599 0.07649767 0.2047338 -0.029434131 0.2808666 -0.15963353 -0.3513643 -0.37598723

relation_embed.weight f4 [116, 32]
00000000: b544 01bd 1a4f 613c 27de a43d 73ba 0abe
00000010: 498a a2bd bbe8 13be 4d5b 733c 905d 43bd
00000020: 10e1 043d d6f1 08be 8611 94bd e515 08be
00000030: 3ead 09be 57e5 913d d6ac 71bd d9d2 0c3d
00000040: 125a 2f3d 87c1 493d f97d a0bc 796f 39be
00000050: 3559 1a3e 860b 9cbc 78c8 a0bd ff88 a5bd
00000060: 06ba 59bd c575 cebd 2940 bf3d 88b9 f0bd
00000070: d994 e2bd 558c ae3d aa76 aabd 3a96 27bd
00000080: 165d cb3b 996a 2f3e 1889 9dbd 9dc8 c23d
00000090: 7e47 433d 5088 01be 95c7 66bc 0502 e5bd
000000a0: e14a 82bc bdbb 6a3d a972 893d 6a18 753d
000000b0: cc90 a73d 279a 093e b55c af3d d984 9bbc
000000c0: 9242 353e 9524 02bd 6a33 333d 733b e13d
000000d0: fb2e c4bd 6690 223d 607b 18be 4d12 af3d
000000e0: 6033 bb3d 43ad cfbd 3888 7dbc 5df9 d23d
000000f0: 47a2 5e3d 6810 a7bd d5e0 08be 555c 383d
00000100: 2add d0bc 2e3a 1b3e c290 46bd bfd2 04be
00000110: dbd0 43be d95d ce3d 9598 f23c 4b9e c93d
00000120: 7937 443d 5ee7 103e 96d6 7d3e bad5 2b3e
00000130: 7183 113d 3115 82bd aa80 9fbd 52c2 5abd
00000140: 903d 27be 0c56 d0bc fc9c c3bd 0ef4 733d
00000150: d123 673d 2a0e 2cbd 00fa f23d e6e6 a43d
00000160: 5c6e c1bd 163e 9dbd 09ea f5bd c55b ca3c
00000170: c0bc 1abe 5901 39be e36d 4c3b b2e0 0b3d
00000180: e70b 913d 962d 9dbd e7da a53d 06f4 443e
00000190: c238 b13d 0e4e b8bd e4a4 533e 4dd0 a5bd
000001a0: f8f9 afbd 3e42 82bd e29b 8dbd b573 f9bd
000001b0: 59d2 d03d c349 afbd 69ea 883d 26b7 fbbd
000001c0: 3943 2b3e 55a1 e83d 327e a83d 6705 f1bd
000001d0: f308 ddbd 9afa 953d 469e 02be a265 7fbd
000001e0: d353 29bd b49d fa3d 7c4e 873d aa8f 90bd
000001f0: 97d7 673d c812 c63d 09a7 ebbd 0deb edbd
00000200: e98e d13c 94f9 363e 42ee 9f3d 85c3 babd
00000210: 3f02 f1bd ef9d 4f3e d0b9 cbbd ef16 abbd
00000220: ac5c 3bbd 525f 45bd 3c99 95bd 5ef8 153e
00000230: bae8 a63d 1d2d a5bd ba91 213d f3c6 123e
00000240: ba8f f0bd 9ffa 76bd a6de af3d 4bbe 423e
00000250: 189f b73c 9002 e23d 9404 a1bd a660 533e
00000260: ad5e 10bd 94de eb3d 6555 b63d d4fe 8cbd
00000270: ea65 8a3d fef8 513d 33f3 e63d e4d0 b5bd
00000280: bcf6 1bbe e74f b83c 6d66 cebe d9ce 2c3d
00000290: f8fb 913d 04c8 03ba cd9a 18be 3bdc 113d
000002a0: f5d6 2a3d 6709 1cbd 8573 cabd f552 36bd
000002b0: a398 dc3b 4054 cbbd 02b7 6a3e 3ab7 89bd
000002c0: a39a 033e cb43 6abd 2001 61bd f141 73be
000002d0: c385 db3d 4501 dfbc 5d11 4abd 4995 a63c
000002e0: 5f00 f33d a980 b53d 1517 8b3d 9ab1 2dbe
000002f0: bbc9 7f3d 8a93 62bc 880a 8cbc b13b eb3c
00000300: 7074 4b3d 93c8 bcbd 3e6d 9e3d 9480 0a3e
00000310: 7b52 0ebe da23 2c3e d418 c5bd 75b4 b7bd
00000320: 877e b5bd 55b0 86bd 087f 2d3e 36ed 153d
00000330: ca78 e4bd ecf6 d9bc cd78 b43d 40e5 ddbd
00000340: 116a f5bd c12a 29be 5469 37be 606f b3bd
00000350: 2141 123e e46d b63d d68d 443d b09b a8bd
00000360: f86a a43d c9b9 963d 5bff 16be 221b 1f3e
00000370: 8c7a ba3d 678e 37be d4a8 07be 7efd 073e
00000380: 2a94 29bd 2de6 4c3d 9aeb 983c 369b 94bd
00000390: b15c 0dbe 1bad 11be 8179 dcbd 309f 4abe
000003a0: 46b3 b83d c17f 9bbc 32ec b2bd 7bbf cebd
000003b0: 9522 13bd 4101 86bd 50e6 e53d fefd a9bd
000003c0: ec59 a23e aa5b a4bd 1ff7 a53c cbb4 1bbe
000003d0: 9831 893e 97c0 88bb 1962 dd3d 6f61 73be
000003e0: 8ae9 3d3e 383d 703d 5100 ae3d 264d bebc
000003f0: 2fba f23d f7ff a9bd 9c6b c8bd 4fdc e93c
-0.031559665 0.013751769 0.08050185 -0.13547687 -0.07936532 -0.14444248 0.014853311 -0.04769665
0.0324412 -0.13373503 -0.07229905 -0.13289602 -0.13444993 0.07123821 -0.05900272 0.034380767
0.042810507 0.049256828 -0.019591318 -0.1810893 0.15073092 -0.019048464 -0.078507364 -0.080827706
-0.05315592 -0.100810565 0.093384095 -0.11754137 -0.11063547 0.0852286 -0.083234146 -0.04091475
0.006206165 0.17130508 -0.07692164 0.0951092 0.047675602 -0.12649655 -0.01408567 -0.11182026
-0.015904846 0.057307947 0.06711323 0.059837736 0.08181915 0.1343771 0.08562604 -0.018984245
0.17701176 -0.03177317 0.043750204 0.10997667 -0.09579273 0.03968849 -0.14890814 0.085484125
0.091406584 -0.10140469 -0.015474372 0.103014685 0.05435398 -0.08157426 -0.13367017 0.04500993
-0.025496084 0.15158913 -0.048477896 -0.12971018 -0.19122641 0.10076494 0.029613772 0.09844645
0.047904465 0.1415076 0.2478889 0.16780749 0.035525743 -0.06351698 -0.077882126 -0.053407975
-0.16332078 -0.025431655 -0.09551427 0.05955892 0.05643064 -0.042005695 0.1186409 0.08051853
-0.094448775 -0.076778576 -0.12007529 0.024701962 -0.15111065 -0.1806692 0.0031193427 0.034149833
0.07082348 -0.076747105 0.08098393 0.19233713 0.08653404 -0.08999263 0.2066837 -0.08096371
-0.085926 -0.06360291 -0.06914498 -0.121802725 0.10196371 -0.08558991 0.06685335 -0.12290792
0.16724862 0.11358897 0.08227195 -0.117686085 -0.107927226 0.07323189 -0.12755689 -0.062352784
-0.041339707 0.12237111 0.066067666 -0.07058652 0.056602087 0.09671551 -0.11506469 -0.11617098
0.02558084 0.17868644 0.07809116 -0.09119324 -0.117680065 0.2027509 -0.0994755 -0.083539836
-0.045742676 -0.048186608 -0.07304618 0.14645526 0.08149858 -0.08065245 0.039445616 0.14333706
-0.11746164 -0.060297605 0.08587389 0.19017904 0.022414729 0.11035645 -0.07862201 0.20642337
-0.03524654 0.11517063 0.089030065 -0.06884542 0.0675772 0.051262848 0.11276855 -0.08877733
-0.1523084 0.022499038 -0.4031252 0.042189453 0.07128137 -0.0005027058 -0.14902802 0.03561042
0.041708905 -0.038094904 -0.09885315 -0.044512708 0.006732063 -0.09928179 0.22921374 -0.06724401
0.12851958 -0.05719356 -0.054932714 -0.23755623 0.107188724 -0.027222285 -0.049332965 0.020334857
0.11865305 0.088624306 0.06791512 -0.16962281 0.062448245 -0.013829121 -0.017094865 0.028714987
0.04967159 -0.09217944 0.0773568 0.13525611 -0.13898651 0.16810551 -0.09623876 -0.08969966
-0.08862024 -0.065766014 0.1694299 0.036603175 -0.11155851 -0.026607 0.088121034 -0.108347416
-0.11983121 -0.16520216 -0.17911273 -0.087614775 0.14282657 0.08907679 0.047986828 -0.0823282
0.08028215 0.073596545 -0.14745848 0.15537694 0.09105405 -0.17925416 -0.13247997 0.13280293
-0.041401066 0.0500242 0.018667031 -0.07256167 -0.1380489 -0.14226191 -0.107653625 -0.19787288
0.09018569 -0.018981816 -0.08736457 -0.10095116 -0.035921652 -0.06543208 0.11225569 -0.08300398
0.3170923 -0.08025296 0.020259438 -0.15205686 0.2679565 -0.004173349 0.10809726 -0.23767637
0.1854612 0.058652133 0.08496154 -0.023230147 0.11851918 -0.083007745 -0.0978615 0.028547434
