Knowledge_Graph_Recommendation/recommendation/stage2/trained_model/Douban/Embedding_based/dim32_lr0.001_l20.0001_TransR/dot/model0_epoch50.pth (torch, 728343 bytes, 5 tensors)

trans_M f4 [114, 32, 32]
-0.0010633243 0.00205913 0.009600003 0.021193264 0.005529806 0.03378066 0.0086093135 0.029558232
-0.011431092 -0.002814704 0.021903165 -0.016566895 -0.009525217 0.0037426916 -0.03200259 0.011789452
-0.02171928 0.02162573 -0.0065588844 0.017680764 -0.0026316077 0.0136983935 0.0031525327 0.003066512
0.011248466 -0.0059774513 0.017810205 0.03434467 0.025682928 0.027945973 -0.032499414 0.019252589
0.00045944197 -0.0217008 0.027074972 0.010571007 -0.023004048 -0.032572135 -0.021374637 -0.012163322
0.0044074506 0.0008355073 0.01827642 -0.039864164 -0.02167365 -0.03573767 0.026047917 0.035187334
0.026377352 -0.027171945 0.008222081 -0.027322175 0.039074745 0.02666488 0.040632907 -0.035803948
0.006830544 -0.027548928 -0.018254107 0.015082631 -0.023027811 0.024061585 -0.005595841 0.013192932
0.013995562 -0.00011099867 0.02454348 -0.04059777 0.019013217 -0.008089325 0.024770955 0.027414685
0.017633863 5.187198e-05 0.002425412 0.0070722625 -0.0037490602 0.026146749 -0.020128282 -0.0025943057
-0.016439037 0.0024246406 -0.031900957 0.01241397 -0.008720433 0.020132745 -0.0017496593 0.027756615
0.014114843 -0.010333753 0.02323475 0.024582671 -0.029419597 -0.020316461 0.016422791 0.01924332
0.008641379 0.0067978324 0.0344725 -0.007527923 -0.038560588 0.039668065 -0.040541142 0.028450066
0.020760575 -0.009191677 -0.015299723 0.005886562 -0.010724515 0.024886364 0.026516747 0.014356962
-0.018041378 -0.032982886 0.018079588 -0.0012161233 -0.04134132 -0.0049020005 0.033503693 0.017904157
0.010190111 -0.016968235 -0.03392216 -0.014931649 -0.020303153 -0.012142304 -0.033683855 -0.021695595
1.5659072e-05 0.023778284 -0.0028929955 -0.01474788 0.019852461 0.012605887 0.035835028 -0.027296035
-0.027480276 0.002196743 -0.010325324 0.037016187 -0.0053637167 -0.0059955954 -0.033323508 -0.0009612768
-0.032973208 -0.024514046 0.036599424 0.025569098 -0.011712918 -0.02053341 0.030877495 -0.019938873
0.02574951 0.013857098 0.01108725 -0.009954207 0.03294543 -0.03257828 -0.03502494 -0.0013984612
0.023950526 0.0388922 -0.0063419123 0.034568924 0.009509511 0.03462067 0.025331398 -0.0021167416
-0.032611284 0.0066915303 0.013559925 0.02964398 0.0032672032 -0.009680409 -0.014805108 -0.004974824
0.0061434163 -0.034539312 -0.016750516 -0.018922271 -0.013383219 0.029248077 0.023085022 -0.030062374
0.01678945 -0.034512598 0.007032422 0.025051562 0.020954346 -0.039614268 -0.002935631 -0.010724738
-0.0195432 -0.0007462235 0.008987512 0.018876141 0.003233855 0.025362786 -0.010036971 -0.0018726948
-0.04122614 -0.013481719 -0.016602596 -0.04119586 -0.0016394316 0.024298208 0.014545005 -0.018761536
0.026213551 -0.021264061 -0.003738413 -0.0053058267 -0.02440637 0.01062132 0.040174652 -0.0007415734
0.015699899 0.016884038 -0.036314193 0.015808178 0.024945995 -0.019835541 -0.008745629 -0.00837842
0.029376093 0.014027495 -0.0085797515 -0.03313527 -0.009682806 0.0072816615 0.00071647204 0.026246976
0.007215505 -0.002519959 -0.020647585 0.02210028 -0.0015295226 0.038532462 -0.008793835 -0.028199602
-0.027352488 0.00919731 0.0157485 0.022323215 0.014204703 -0.017425599 -0.015482201 -0.00027549537
0.02911272 -0.016148975 -0.003650777 0.03313858 0.020889962 0.010516603 -0.006489909 -0.009406258
00000000: 3e5f 8bba 78f2 063b 5549 1d3c 7f9d ad3c
00000010: 6033 b53b 975d 0a3d 140e 0d3c 1b24 f23c
00000020: 7a49 3bbc e676 38bb 446e b33c 4cb7 87bc
00000030: a80f 1cbc f247 753b 2615 03bd 8c28 413c
00000040: a2ec b1bc 7128 b13c e9eb d6bb 40d7 903c
00000050: 0d77 2cbb 3a6f 603c b99a 4e3b 89f7 483b
00000060: 7c4b 383c 7fde c3bb b5e6 913c ffac 0c3d
00000070: 0165 d23c f4ee e43c 1b1e 05bd 9bb7 9d3c
00000080: 42e1 f039 e0c5 b1bc 55cc dd3c 0432 2d3c
00000090: fc72 bcbc 5c6a 05bd dd19 afbc ac48 47bc
000000a0: 606c 903b f205 5b3a 6eb8 953c 9b48 23bd
000000b0: f08c b1bc aa61 12bd 7162 d53c 9820 103d
000000c0: 5115 d83c b397 debc e8b5 063c c1d2 dfbc
000000d0: d70c 203d 4e70 da3c b16e 263d 29a7 12bd
000000e0: c2d2 df3b 4aae e1bc a389 95bc 241d 773c
000000f0: d2a4 bcbc cd1c c53c 515d b7bb 2b27 583c
00000100: a44d 653c f5c7 e8b8 680f c93c d949 26bd
00000110: 9bc1 9b3c 1789 04bc 75ec ca3c c394 e03c
00000120: e474 903c 1d91 5938 a9f3 1e3b 70be e73b
00000130: cbb2 75bb b531 d63c 11e4 a4bc 3a05 2abb
00000140: 29ab 86bc b8e6 1e3b 94aa 02bd f763 4b3c
00000150: 26e0 0ebc 6ded a43c d354 e5ba d761 e33c
00000160: f141 673c e74e 29bc cd56 be3c 9961 c93c
00000170: 5e01 f1bc b56e a6bc 1789 863c 2ba4 9d3c
00000180: 9294 0d3c 5ac0 de3b 0933 0d3d ccac f6bb
00000190: b5f1 1dbd fb7a 223d 780e 26bd 1d10 e93c
000001a0: 1512 aa3c b098 16bc b0ab 7abc 10e4 c03b
000001b0: e0b5 2fbc 7dde cb3c a639 d93c 7739 6b3c
000001c0: 83cb 93bc 1019 07bd a51b 943c 5466 9fba
000001d0: 8455 29bd f6a0 a0bb 2b3b 093d bdab 923c
000001e0: 6cf4 263c f800 8bbc f6f1 0abd e0a3 74bc
000001f0: cc52 a6bc 84f0 46bc 15f8 09bd f6ba b1bc
00000200: 9a5b 8337 adca c23c 6998 3dbb 18a1 71bc
00000210: a1a1 a23c ec88 4e3c c0c7 123d ef9b dfbc
00000220: 511e e1bc 3bf7 0f3b 8c2b 29bc 499e 173d
00000230: 1ec2 afbb b376 c4bb 3b7e 08bd 32fe 7bba
00000240: ea0e 07bd aed1 c8bc 47e9 153d 4976 d13c
00000250: 8ae7 3fbc af35 a8bc cdf2 fc3c d956 a3bc
00000260: a3f0 d23c e208 633c 4ca7 353c f816 23bc
00000270: caf1 063d cd70 05bd 5076 0fbd 924c b7ba
00000280: e533 c43c 6d4d 1f3d d1cf cfbb 2598 0d3d
00000290: c8cd 1b3c 67ce 0d3d cb83 cf3c 08b9 0abb
000002a0: 6993 05bd a044 db3b 732a 5e3c efd7 f23c
000002b0: 931e 563b 949a 1ebc 2091 72bc d903 a3bb
000002c0: b64e c93b 1879 0dbd 6138 89bc e102 9bbc
000002d0: 4a45 5bbc aa99 ef3c cd1c bd3c 5e45 f6bc
000002e0: 078a 893c 155d 0dbd 3b70 e63b ef38 cd3c
000002f0: 73a8 ab3c 9242 22bd b763 40bb d0b6 2fbc
00000300: 1019 a0bc 369e 43ba 5c40 133c 23a2 9a3c
00000310: 15ef 533b 9ec5 cf3c 1c72 24bc 3675 f5ba
00000320: bedc 28bd 6ee2 5cbc 2b02 88bc fdbc 28bd
00000330: 32e2 d6ba 090d c73c 2c4e 6e3c cbb1 99bc
00000340: cdbd d63c f831 aebc 2a00 75bb 80dc adbb
00000350: deef c7bc 0c05 2e3c 2d8e 243d 2666 42ba
00000360: 139d 803c 6550 8a3c 31be 14bd 2780 813c
00000370: 8b5b cc3c 257e a2bc d449 0fbc a445 09bc
00000380: 22a6 f03c 94d3 653c 1692 0cbc d9b8 07bd
00000390: a2a4 1ebc 019b ee3b a0d1 3b3a e603 d73c
000003a0: 0b70 ec3b e525 25bb 2025 a9bc a50b b53c
000003b0: 437a c8ba 37d4 1d3d 0414 10bc da02 e7bc
000003c0: 5312 e0bc 50b0 163c 0003 813c 2ddf b63c
000003d0: d8ba 683c 21c0 8ebc 0fa9 7dbc 5d70 90b9
000003e0: cd7d ee3c db4a 84bc e041 6fbb 52bc 073d
000003f0: 6d21 ab3c d44d 2c3c 4da9 d4bb b51c 1abc

user_embed.weight f4 [447, 32]
0.62854487 -0.5371661 0.6935036 0.5465354 -0.6656778 -0.65487254 -0.6488372 0.30718914
-1.0138882 -0.27793494 0.8518745 0.52802145 0.43127397 -0.027788093 -1.0393013 0.6454936
-0.8180598 -0.010804129 0.30328685 -0.36204287 0.3362191 -0.25467676 0.310201 -0.47961283
-0.8890913 -0.91691417 -0.20598161 0.9353499 -0.5234953 0.43647614 0.39255953 0.65624803
0.37343806 -0.46683955 0.86179936 0.3298373 -0.37546077 -0.6090388 -0.3591476 0.14089961
-0.8621466 0.07935689 0.84882647 0.48456037 0.5317599 0.12102467 -0.525561 1.0185407
-0.9989725 -0.60776454 0.00026423836 0.32248408 0.040695336 -0.34653664 0.25135344 0.15997182
-0.8544471 -0.110494316 -0.29375398 0.5278057 -0.21982774 0.28246444 0.88496196 0.8145532
0.11411476 -1.0562483 0.37171766 0.6077806 -0.9916915 -0.71252686 -1.321973 0.492407
-1.2700627 0.141378 0.90653324 0.6173171 0.7106126 -0.0962001 -0.31484485 0.010622552
-0.8838523 -0.66001606 -0.082322106 0.27901992 0.55233884 -0.04946929 0.31829935 -0.2894392
-0.75359124 -0.6193615 -0.73684204 0.7377383 -0.870116 0.4825331 0.38167903 0.41965392
0.7513933 -1.3847675 0.3040246 1.2303696 -1.3158834 -0.68585354 -0.7335873 0.6996068
-1.2237388 -0.9157948 0.9885572 1.107373 0.9640182 -0.12297777 -1.2555751 0.6655407
-1.2434489 -0.46176142 -0.060181 0.23290402 0.62949705 -0.38834038 1.0701752 -1.2535152
-1.3083113 -0.52145606 -0.5377343 1.4470887 -0.18278214 1.0817932 1.0405151 1.2289244
0.6997512 -0.7705802 0.6805831 0.23543976 -0.41090235 -0.6746338 -0.5917561 0.56730443
-0.28713736 -0.4043899 0.8349467 0.6926342 0.11650189 0.10008756 -0.82305896 0.14366053
-0.35554528 -0.6340845 0.35278577 -0.2646948 0.5379508 0.10995857 0.35795692 -0.053170394
-0.69802475 -0.248851 -0.14480859 0.64448446 -0.3092726 0.4413559 0.40477002 0.5716066
-1.1674889 -0.18074733 1.168887 1.5487701 1.3221043 1.726511 1.0629932 -0.7997072
-0.12430291 1.1148143 0.089465596 0.76388896 1.4987732 -0.46800447 1.6044964 1.6957895
0.56737006 -0.88057595 -0.55969805 1.6867162 -0.28740335 -1.070514 1.3537679 -0.52969265
-1.7978126 -1.0477927 -1.2328969 -0.3851782 -0.74398524 -1.6151459 1.0389891 1.9020096
-0.40219054 -0.07598062 -0.31304955 0.31070688 -0.29688787 -0.38119513 -0.48924586 0.39237565
-0.26066718 0.39159814 0.7400299 -0.04772792 0.24555267 0.4995084 -0.39687318 0.90315616
-0.16917124 -0.052820183 -0.35788932 0.20161235 0.4070941 -0.34958962 0.032568965 0.50750333
-0.5728542 0.5092328 -0.10566037 0.44868755 -0.5879783 0.28506613 0.532869 0.55809015
0.22566132 -0.8181153 -0.34206638 0.6017317 -1.1582958 -1.3183533 -1.0423206 1.3178687
-0.8038638 0.10909261 0.8997847 1.0842278 1.006276 -0.068445206 -0.26202315 0.034202132
-0.9864564 -0.40446174 0.00021500007 0.3017928 0.5960628 -0.11454446 0.5449217 0.5595319
-1.3319012 -0.3034688 -0.48361093 0.5995576 -0.8140187 0.8624941 0.40210673 1.1631191
00000000: 51e8 203f b883 09bf 7489 313f bee9 0b3f
00000010: dc69 2abf baa5 27bf 321a 26bf e547 9d3e
00000020: 17c7 81bf 7d4d 8ebe 7214 5a3f 6a2c 073f
00000030: f1cf dc3e dba3 e3bc d307 85bf 123f 253f
00000040: 5e6c 51bf cd03 31bc 6a48 9b3e af5d b9be
00000050: e924 ac3e fe64 82be aad2 9e3e d08f f5be
00000060: 7d9b 63bf e3ba 6abf d8ec 52be 1773 6f3f
00000070: ca03 06bf cd79 df3e 90fd c83e dfff 273f
00000080: 4633 bf3e 9805 efbe e29e 5c3f 6fe0 a83e
00000090: 653c c0be f7e9 1bbf 32e2 b7be fd47 103e
000000a0: a4b5 5cbf dd85 a23d b14c 593f 4c18 f83e
000000b0: 6b21 083f c8db f73d 2a8b 06bf 8b5f 823f
000000c0: a9bc 7fbf 7596 1bbf 7989 8a39 a21c a53e
000000d0: 27b0 263d 406d b1be 66b1 803e a7cf 233e
000000e0: 0cbd 5abf d84a e2bd ec66 96be 461e 073f
000000f0: 861a 61be 2e9f 903e de8c 623f 8f86 503f
00000100: 00b5 e93d 2533 87bf c751 be3e 8297 1b3f
00000110: 7fdf 7dbf 2968 36bf 6936 a9bf c51c fc3e
00000120: 6a91 a2bf 65c5 103e 9012 683f 7e08 1e3f
00000130: b5ea 353f 8f04 c5bd 5833 a1be 360a 2e3c
00000140: 2544 62bf d0f6 28bf 7e98 a8bd b3db 8e3e
00000150: 1466 0d3f 4fa0 4abd 22f8 a23e 6031 94be
00000160: 5beb 40bf 7a8e 1ebf aea1 3cbf 6bdc 3c3f
00000170: ecbf 5ebf 940e f73e 6f6b c33e e1dc d63e
00000180: 505b 403f 1040 b1bf 1da9 9b3e c07c 9d3f
00000190: de6e a8bf 1994 2fbf 61cc 3bbf 6e19 333f
000001a0: 79a3 9cbf 8771 6abf 1612 7d3f 66be 8d3f
000001b0: e6c9 763f c5db fbbd afb6 a0bf e060 2a3f
000001c0: 5529 9fbf fe6b ecbe 5a80 76bd 647e 6e3e
000001d0: b826 213f 8dd4 c6be 80fb 883f 3073 a0bf
000001e0: bf76 a7bf 257e 05bf f5a8 09bf 343a b93f
000001f0: 3e2b 3bbe 3378 8a3f 992f 853f 654d 9d3f
00000200: e522 333f be44 45bf b23a 2e3f 1f17 713e
00000210: cb61 d2be cdb4 2cbf 547d 17bf dd3a 113f
00000220: ab03 93be 310c cfbe 11bf 553f 7a50 313f
00000230: 8b98 ee3d b5fa cc3d feb3 52bf bf1b 133e
00000240: 080a b6be 5d53 22bf 56a0 b43e 1486 87be
00000250: 25b7 093f f531 e13d 2146 b73e 33c9 59bd
00000260: c0b1 32bf ccd2 7ebe b448 14be effc 243f
00000270: fa58 9ebe 67f9 e13e 043e cf3e cf54 123f
00000280: 4770 95bf d415 39be 179e 953f 193e c63f
00000290: b73a a93f 50fe dc3f 2910 883f 9cb9 4cbf
000002a0: 8692 febd 3cb2 8e3f bd39 b73d 3a8e 433f
000002b0: cdd7 bf3f 489e efbe 2360 cd3f a10f d93f
000002c0: 2a3f 113f 6d6d 61bf 5f48 0fbf 51e6 d73f
000002d0: 8826 93be 9a06 89bf 4448 ad3f f099 07bf
000002e0: b91e e6bf 121e 86bf 91cf 9dbf 1436 c5be
000002f0: d175 3ebf 1abd cebf 98fd 843f 0d75 f33f
00000300: ebeb cdbe ba9b 9bbd 0848 a0be f914 9f3e
00000310: b001 98be 022c c3be 6f7e fabe 76e5 c83e
00000320: 2b76 85be 8d7f c83e 9972 3d3f 5a7e 43bd
00000330: 2972 7b3e 91bf ff3e f632 cbbe 3e35 673f
00000340: 3a3b 2dbe fa59 58bd 453d b7be 7873 4e3e
00000350: a36e d03e 69fd b2be 0967 053d bdeb 013f
00000360: 93a6 12bf 155d 023f 7764 d8bd 60ba e53e
00000370: bf85 16bf 30f4 913e 1a6a 083f ffde 0e3f
00000380: c313 673e 0170 51bf 5323 afbe 170b 1a3f
00000390: 0943 94bf cdbf a8bf c36a 85bf ecaf a83f
000003a0: 05ca 4dbf f26b df3d 4a58 663f fac7 8a3f
000003b0: a7cd 803f 002d 8cbd e627 86be 8917 0c3d
000003c0: 6888 7cbf 9c15 cfbe a471 6139 9684 9a3e
000003d0: 9297 183f 4996 eabd fd7f 0b3f 7c3d 0f3f
000003e0: bd7b aabf 4360 9bbe da9b f7be 9b7c 193f
000003f0: 8863 50bf 6acc 5c3f efe0 cd3e 16e1 943f

item_embed.weight f4 [578, 32]
1.8826747 0.12356366 -0.80867213 0.7816718 -0.42273274 0.42068097 -0.2837846 -1.5842252
-0.21235706 -1.3927485 -0.20208757 1.0266508 -1.0765427 -0.4345317 -0.8965313 0.7306365
-0.016246919 0.19181536 -1.0273045 1.6532365 -0.8889004 -0.7146073 -0.7156569 0.91220903
0.30959925 0.5558089 -1.2693093 -1.2305144 0.9355441 -0.0897842 -1.0015513 -0.58346486
-1.5242248 0.164287 0.2792413 0.60017943 0.3108796 -1.5993137 0.9020278 1.6944977
-0.93552387 -0.7171096 -0.87790304 0.30594411 0.7569079 -0.16973932 -0.13605675 1.2812699
0.94060016 0.5191401 -1.2054979 -1.7270136 -0.10928917 0.35022905 0.6896295 0.36569855
-0.7725638 1.1395258 1.323034 -0.46789047 -1.3771993 -0.23157237 0.646051 0.50788677
-1.6761869 -0.09683879 -1.0549595 -1.4685813 0.26275232 1.172009 -0.040707342 0.9593293
-1.265083 -0.8158024 -0.6588183 -0.07282763 0.8695547 0.64031243 0.009657401 -0.088765524
0.47389543 -1.3666309 1.9404163 1.7765715 -1.3906597 -0.54836214 0.77401054 0.047156643
0.79555863 -0.5149566 1.8511622 -0.7104074 -1.6995665 0.44953534 1.3278645 -0.6080936
-0.43703634 0.54171425 0.10914773 -0.28011802 -0.6481907 -0.61249715 0.13660944 0.6111963
-0.070067525 0.0022036727 0.071158126 -0.72093517 0.0342453 -0.15337616 0.010104679 -0.097137146
-0.18844339 0.76885694 -1.0049917 -0.5128283 -0.21704304 0.25997916 0.173296 0.044489115
-0.2876833 0.32752436 0.66558725 0.5181158 0.20798188 -0.04844735 0.36662856 0.16437817
0.15681402 -1.3783548 -0.2501924 -1.1699703 -1.1896983 -1.389527 -1.1532557 0.5940657
1.1382135 0.15770246 1.2487712 -1.0643247 1.1092265 0.3955995 -0.8434963 1.0529122
1.3574443 0.9275094 -0.113236636 -0.6117722 0.70019406 -0.5414111 -1.1000924 0.49691695
-1.7626766 -0.75523114 1.1990265 0.57080317 -1.1635004 -1.6092006 0.8815592 -1.0915273
0.28854367 0.6957053 -0.6556643 0.8362943 0.7840835 1.2589929 0.68134993 -0.8447983
1.1072109 -0.045993276 -1.0427394 0.688272 0.65319884 0.14597917 -0.27132532 -0.51347655
-0.80777836 -0.012717304 0.052122142 -0.18200786 -0.58954185 -0.05496732 -0.6073774 0.3271578
-1.0613648 0.7825457 0.24209811 0.7760658 0.61327815 0.78106606 1.2872378 0.5718289
1.4264147 1.3793924 -0.66032183 -2.0384655 1.3740184 1.8467238 -1.7966859 1.2088258
-1.8833578 2.0082414 1.6432229 -0.57115954 1.8126026 1.2843797 0.8832737 -1.8443155
-1.5952803 1.4153106 -1.8196753 -2.1329165 -0.21292813 2.3097813 -1.5182259 -0.8871004
1.8243964 1.2892458 1.4698241 -0.22557032 2.5264168 -1.4108776 1.5332489 1.750186
1.5531943 0.93097883 -0.33079526 -1.8802012 -0.5233443 1.5246011 -1.0785798 1.5689846
-1.7961704 -1.7249942 1.5706906 -0.02930454 1.8347272 -0.92740345 -1.5826781 -1.7835952
1.01546 -0.038080532 -0.7094665 2.2271476 -0.93641096 2.187221 1.8267782 1.301766
-1.8680285 -1.2838272 1.9052815 0.13384731 -1.7871768 0.5287423 1.3153746 1.4979609
00000000: 7cfb f03f f20e fd3d 2305 4fbf a51b 483f
00000010: 6d70 d8be 7f63 d73e 374c 91be e4c7 cabf
00000020: 2174 59be 9545 b2bf 0bf0 4ebe 4b69 833f
00000030: 27cc 89bf f07a debe 1383 65bf fe0a 3b3f
00000040: 4218 85bc 3f6b 443e b77e 83bf 419d d33f
00000050: fa8e 63bf 81f0 36bf 4a35 37bf 8886 693f
00000060: cb83 9e3e 7e49 0e3f ba78 a2bf 7f81 9dbf
00000070: d17f 6f3f c7e0 b7bd d532 80bf f45d 15bf
00000080: cc19 c3bf da3a 283e b7f8 8e3e 5ca5 193f
00000090: 9c2b 9f3e 50b6 ccbf 4beb 663f 4de5 d83f
000000a0: 7e7e 6fbf 7f94 37bf 41be 60bf b5a4 9c3e
000000b0: b7c4 413f 25d0 2dbe 7652 0bbe a700 a43f
000000c0: 2ccb 703f 5ee6 043f c14d 9abf c80e ddbf
000000d0: 00d3 dfbd 3951 b33e 8f8b 303f d73c bb3e
000000e0: bec6 45bf fbdb 913f 2e59 a93f 578f efbe
000000f0: 1148 b0bf 4f21 6dbe 9963 253f de04 023f
00000100: 4b8d d6bf 6a53 c6bd ea08 87bf 79fa bbbf
00000110: 7987 863e 6404 963f bebc 26bd 9b96 753f
00000120: 3dee a1bf 6dd8 50bf 51a8 28bf a726 95bd
00000130: 239b 5e3f 84eb 233f 133a 1e3c b3ca b5bd
00000140: 6ca2 f23e c3ed aebf 905f f83f b266 e33f
00000150: 2301 b2bf 7661 0cbf 8e25 463f 5327 413d
00000160: bba9 4b3f 32d4 03bf e2f2 ec3f 42dd 35bf
00000170: 658b d9bf 7f29 e63e 77f7 a93f 06ac 1bbf
00000180: 3ac3 dfbe c9ad 0a3f d888 df3d a16b 8fbe
00000190: d3ef 25bf 9dcc 1cbf 58e3 0b3e 5c77 1c3f
000001a0: 907f 8fbd 7e6b 103b 5abb 913d 358f 38bf
000001b0: cd44 0c3d a40e 1dbe 188e 253c d7ef c6bd
000001c0: 4ef7 40be cfd3 443f 91a3 80bf b748 03bf
000001d0: 8840 5ebe fd1b 853e 8274 313e 383a 363d
000001e0: 3a4b 93be 46b1 a73e ed63 2a3f 3da3 043f
000001f0: 34f9 543e ba70 46bd bdb6 bb3e c052 283e
00000200: db93 203e ee6d b0bf 3819 80be 96c1 95bf
00000210: 0948 98bf 05dc b1bf e29d 93bf b114 183f
00000220: fbb0 913f c17c 213e bcd7 9f3f cb3b 88bf
00000230: 22fb 8d3f 058c ca3e 60ef 57bf d4c5 863f
00000240: bcc0 ad3f 4271 6d3f 9ce8 e7bd 1a9d 1cbf
00000250: eb3f 333f eb99 0abf d4cf 8cbf e66b fe3e
00000260: 639f e1bf d456 41bf b379 993f 2820 123f
00000270: 95ed 94bf 49fa cdbf ddad 613f 2bb7 8bbf
00000280: ffbb 933e be19 323f 9ed9 27bf 6217 563f
00000290: b2b9 483f ae26 a13f f36c 2e3f b444 58bf
000002a0: 16b9 8d3f 7263 3cbd 7c78 85bf 9832 303f
000002b0: 0a38 273f 907b 153e 27eb 8abe 3373 03bf
000002c0: 90ca 4ebf 3d5c 50bc 077e 553d 4560 3abe
000002d0: 37ec 16bf 6a25 61bd 167d 1bbf 3a81 a73e
000002e0: cdda 87bf ea54 483f 91e8 773e 40ac 463f
000002f0: ccff 1c3f f2f3 473f 35c4 a43f 6163 123f
00000300: c294 b63f ee8f b03f da0a 29bf 3876 02c0
00000310: d6df af3f 7261 ec3f cef9 e5bf ceba 9a3f
00000320: de11 f1bf 0787 0040 2155 d23f 8337 12bf
00000330: 5d03 e83f 8e66 a43f 3a1e 623f 8812 ecbf
00000340: 2532 ccbf e628 b53f 1feb e8bf b481 08c0
00000350: d509 5abe 75d3 1340 3a55 c2bf 0319 63bf
00000360: d285 e93f 0206 a53f 3223 bc3f e8fb 66be
00000370: d0b0 2140 a397 b4bf 8041 c43f 1806 e03f
00000380: 12cf c63f a154 6e3f ff5d a9be 6faa f0bf
00000390: e4f9 05bf 2126 c33f e70e 8abf 7dd4 c83f
000003a0: e9e8 e5bf 9ccc dcbf 640c c93f 1310 f0bc
000003b0: 57d8 ea3f 506a 6dbf 3295 cabf d94c e4bf
000003c0: 98fa 813f 55fa 1bbd 999f 35bf 9689 0e40
000003d0: a1b8 6fbf 6efb 0b40 ded3 e93f 45a0 a63f
000003e0: 8f1b efbf 7354 a4bf 44e0 f33f 450f 093e
000003f0: 36c2 e4bf a85b 073f 325e a83f 2fbd bf3f

entity_embed.weight f4 [886, 32]
-0.17904772 -0.07804425 0.051556066 0.034431342 -0.01440718 -0.036693368 0.074670725 0.08902188
0.029960811 -0.07201537 -0.031646285 -0.0874817 -0.051221184 -0.023298621 -0.01731876 0.045351274
-0.06599394 0.042714506 0.029508794 0.17465709 0.07484256 0.012173073 -0.01581177 0.062268253
-0.02477021 -0.0124365445 0.032369643 0.054847054 -0.03285152 0.056303155 -0.08256769 -0.04801289
0.08116482 -0.07622636 0.050824873 0.015573701 0.031292733 0.32113484 -0.018893106 -0.053020127
0.07490686 -0.049333055 -0.009057819 -0.01494494 0.09291657 -0.0007664244 0.062271625 0.07889357
-0.010941269 0.07396883 0.13377498 -0.05603904 -0.081312664 -0.025253808 0.1179516 0.0452143
0.0572906 -0.07897909 -0.06977177 0.056833465 0.06827923 0.05642812 0.074752234 0.008324182
0.13324735 0.037086103 0.061771836 -0.05338623 0.0636478 -0.038513124 0.007177157 -0.08892319
0.033222172 -0.028237617 -0.03776083 0.032064427 0.06848938 -0.092239834 0.038504664 -0.07080926
-0.03608279 0.07026743 -0.044535168 0.05284953 0.08820053 -0.070764825 0.008491991 0.058653884
-0.011308959 0.04473277 -0.21608958 0.059642382 0.053370256 0.02023733 0.03357354 -0.0691045
-0.026752107 -0.056991164 0.044348378 -0.078127116 0.07483206 0.06922989 -0.033279587 0.053586397
-0.029193288 -0.0015248754 0.05979888 -0.074872084 0.054894663 0.0011830332 -0.019975204 -0.056960657
0.022291651 0.043080784 -0.032705024 0.045111462 -0.001751241 -0.035727326 0.047323838 -0.06096155
0.056032278 0.015040326 0.11649633 0.03319277 0.004665222 -0.036541387 0.0012525736 0.06390327
-0.01600639 -0.0096209105 0.039134584 0.035639826 -0.054746315 -0.018500837 -0.010523554 -0.037986934
0.012384208 -0.07450856 -0.10734661 0.022743654 -0.005432612 -0.02388256 -0.010036297 -0.010241615
0.075014435 0.058907032 -0.019440161 0.083828196 -0.0028984835 -0.055747733 0.031315032 -0.02624299
-0.023996301 -0.008354256 0.050164018 -0.0047015944 -0.07845559 0.042337935 -0.065844096 0.05693429
-0.06897977 0.022472782 0.010543421 -0.009263599 0.034515303 0.022215458 0.07602806 0.013647637
0.030483276 0.065303795 0.009743565 -0.08031307 -0.06506652 0.033123158 -0.00089998264 0.060584683
-0.035074484 -0.025022276 0.018054185 0.04217324 0.03049341 -0.001570491 0.014511245 0.030295191
-0.03248105 0.022563212 0.0037084133 -0.043396257 0.048569396 -0.009052094 -0.06544013 -0.060534447
-0.048730176 -0.017031454 0.028183583 -0.088277124 -0.08272078 -0.08002325 0.052312657 -0.08245207
0.05509218 0.08019492 0.023819882 0.016099267 0.13723508 0.083533235 0.008777253 -0.033443853
0.06520575 -0.039091945 0.041901827 -0.10603041 -0.04623291 -0.11111192 -0.037770614 -0.0065919696
-0.038509786 -0.040856216 -0.044954948 0.016873343 -0.070594765 -0.022707408 0.009186315 0.016015355
-0.061451558 -0.018871844 -0.015472236 -0.10087925 -0.028351419 -0.011498455 0.019194672 -0.065301016
0.048244376 -0.009525223 0.06902354 -0.0068110037 0.050837915 -0.021301998 -0.08112445 -0.087443024
-0.07978558 0.037935376 0.06954606 0.13622062 0.040007327 -0.25688124 0.08510853 0.058075648
0.09146967 0.042706557 -0.06401544 0.008481018 0.021352962 0.00093172624 0.0052440013 0.015358771
00000000: 4958 37be aad5 9fbd 742c 533d e107 0d3d
00000010: 180c 6cbc c94b 16bd f7ec 983d 1a51 b63d
00000020: 6070 f53c cb7c 93bd 899f 01bd 9b29 b3bd
00000030: 4ecd 51bd c0dc bebc 12e0 8dbc 42c2 393d
00000040: d527 87bd 68f5 2e3d 6dbc f13c 4fd9 323e
00000050: 0e47 993d 9271 473c af87 81bc ff0c 7f3d
00000060: e5ea cabc a6c2 4bbc 0896 043d 4ea7 603d
00000070: 518f 06bd 239e 663d 4019 a9bd 2aa9 44bd
00000080: be39 a63d 911c 9cbd be2d 503d d628 7f3c
00000090: cf2c 003d c96b a43e b7c5 9abc a22b 59bd
000000a0: c568 993d 7511 4abd 3f67 14bc 9fdb 74bc
000000b0: 0b4b be3d dfe9 48ba 8810 7f3d f492 a13d
000000c0: 0243 33bc f87c 973d 4ffc 083e 3189 65bd
000000d0: 4187 a6bd 13e1 cebc 9c90 f13d a132 393d
000000e0: 8ca9 6a3d cabf a1bd 80e4 8ebd 35ca 683d
000000f0: fbd5 8b3d 2c21 673d b317 993d 2662 083c
00000100: fe71 083e 99e7 173d 7704 7d3d 85ab 5abd
00000110: c759 823d f0bf 1dbd 5b2e eb3b 5d1d b6bd
00000120: f913 083d 9352 e7bc 1aab 1abd fd55 033d
00000130: 2944 8c3d 3de8 bcbd 11b7 1d3d 7204 91bd
00000140: 8ccb 13bd 5fe8 8f3d 826a 36bd c078 583d
00000150: 7ba2 b43d 26ed 90bd fe21 0b3c 0e3f 703d
00000160: 3649 39bc b639 373d 9646 5dbe 924b 743d
00000170: c59a 5a3d c2c8 a53c 6984 093d a986 8dbd
00000180: 3c27 dbbc 916f 69bd a5a6 353d 1c01 a0bd
00000190: 8d41 993d 67c8 8d3d 2d50 08bd 697d 5b3d
000001a0: c326 efbc 54de c7ba acef 743d 8956 99bd
000001b0: 3ad9 603d 0210 9b3a 0aa3 a3bc 944f 69bd
000001c0: fb9c b63c 7a75 303d b4f5 05bd ccc6 383d
000001d0: e689 e5ba d156 12bd a4d6 413d d1b2 79bd
000001e0: 1a82 653d b36b 763c a195 ee3d 24f5 073d
000001f0: b8de 983b 6cac 15bd 652d a43a b8df 823d
00000200: d51f 83bc 06a1 1dbc 964b 203d 11fb 113d
00000210: ac3d 60bd 118f 97bc fc6a 2cbc 3098 1bbd
00000220: 22e7 4a3c f297 98bd 8ad8 dbbd e650 ba3c
00000230: 0d04 b2bb 5ca5 c3bc 486f 24bc 72cc 27bc
00000240: 2ba1 993d 8048 713d f940 9fbc 1eae ab3d
00000250: 7cf4 3dbb bc57 64bd 3144 003d 8afb d6bc
00000260: e493 c4bc 4ae0 08bc c978 4d3d d50f 9abb
00000270: 53ad a0bd 8b6a 2d3d 45d9 86bd ee33 693d
00000280: 4445 8dbd d718 b83c 50be 2c3c 5ac6 17bc
00000290: eb5f 0d3d 31fd b53c 99b4 9b3d 579a 5f3c
000002a0: 10b8 f93c ffbd 853d 79a3 1f3c 2e7b a4bd
000002b0: 9841 85bd 26ac 073d d0ec 6bba a527 783d
000002c0: 43aa 0fbd 84fb ccbc 5fe6 933c d9bd 2c3d
000002d0: 51cd f93c efd8 cdba 93c0 6d3c 9f2d f83c
000002e0: d90a 05bd 7cd6 b83c da08 733b 46c0 31bd
000002f0: b4f0 463d 3c4f 14bc 7a05 86bd f8f2 77bd
00000300: 4b99 47bd 8c85 8bbc 42e1 e63c a3ca b4bd
00000310: 8369 a9bd 3be3 a3bd cc45 563d a2dc a8bd
00000320: 56a8 613d 3c3d a43d ea21 c33c 9ce2 833c
00000330: 5a87 0c3e 7913 ab3d 78ce 0f3c 6cfc 08bd
00000340: 988a 853d e01e 20bd 40a1 2b3d 7926 d9bd
00000350: b85e 3dbd a58e e3bd 5cb5 1abd 7301 d8bb
00000360: 70bc 1dbd d958 27bd ae22 38bd f739 8a3c
00000370: fd93 90bd e304 babc 3382 163c a232 833c
00000380: a1b4 7bbd 2099 9abc 437f 7dbc c899 cebd
00000390: 3c41 e8bc 0464 3cbc 253e 9d3c 8abc 85bd
000003a0: e59b 453d ae0f 1cbc 375c 8d3d d72e dfbb
000003b0: 6b3b 503d 8781 aebc 9324 a6bd 5415 b3bd
000003c0: 9f66 a3bd 2062 1b3d 2a6e 8e3d 6b7d 0b3e
000003d0: b9de 233d f085 83be 624d ae3d bbe0 6d3d
000003e0: 7354 bb3d 12ed 2e3d 871a 83bd f8f3 0a3c
000003f0: 68ec ae3c 173f 743a dfd5 ab3b 5ba3 7b3c

relation_embed.weight f4 [114, 32]
-0.010685883 0.025804454 -0.024133945 -0.1530806 0.08885413 0.10602728 0.06760395 -0.17434312
-0.108349696 -0.038813405 -0.0098342085 -0.047862433 0.07581834 0.18357323 0.09428985 -0.09524677
-0.10600461 -0.05727423 0.03896954 -0.09326068 -0.06218157 0.014353114 0.021405717 -0.09933437
0.14093406 0.05821733 0.16688363 -0.20287946 -0.012789271 -0.03154009 0.15281089 0.16283642
-0.037660234 0.16748364 0.05154199 -0.040656053 -0.09980889 -0.20844184 0.07563243 -0.15735622
0.19325303 -0.0239894 -0.17044438 0.2045738 -0.12502804 -0.09094975 -0.06936761 -0.04077769
-0.09258989 -0.1222415 -0.0017507032 -0.2056674 -0.15419063 0.0737853 -0.014602336 0.17820318
0.1026796 -0.018911755 0.120056085 -0.045946054 0.009151138 0.04886221 -0.025587102 -0.14517555
0.13884495 -0.054286428 -0.006313432 0.08194534 0.04390564 -0.15154694 0.009332397 -0.17477886
0.003102461 -0.18445675 0.097366326 -0.023536036 -0.0033749437 -0.19281347 0.097429045 -0.1706978
-0.12884632 0.12523738 0.161997 0.1906627 0.09611433 -0.1273446 0.09043766 0.11177314
0.17391334 -0.106439315 0.094552465 0.008343616 0.10076014 0.08812105 0.10543417 -0.12545313
0.06666563 -0.17096134 -0.10633127 -0.021151638 -0.09436753 -0.06453415 0.010227241 0.13316838
-0.11178555 0.07134848 -0.10286356 -0.06252391 0.0075863963 -0.19635181 -0.009813048 -0.15050541
0.11642716 -0.07223173 0.019465914 0.080527864 -0.13087498 -0.20689802 -0.059501193 -0.109888606
0.15759589 -0.14902216 -0.073817365 0.18825014 -0.057845972 -0.17840864 0.17434597 0.13985707
-0.10135608 0.060490645 -0.14348306 -0.08079144 -0.039965115 0.12436741 -0.034058467 -0.10912795
0.13809489 0.090343766 0.011899509 -0.109843075 0.008738347 -0.097772874 0.11811914 -0.027618298
0.040026415 0.11405372 0.021882037 0.0965173 0.06044913 0.13472725 -0.025753161 -0.19791569
-0.09408353 -0.060608584 0.034172162 0.037038855 -0.083236955 -0.18861653 -0.10974803 -0.09119654
-0.1617424 -0.071389966 -0.123761974 0.09199362 0.06133259 0.0865911 0.070984475 0.05146461
-0.057249136 -0.058733024 -0.05926877 -0.13287595 -0.016654229 -0.13691945 -0.19460975 0.11257032
-0.056588 0.031683635 -0.0650075 -0.10378525 0.09160154 -0.06743914 0.17795037 0.07617212
-0.004584874 -0.08594159 -0.00017063736 -0.13809237 0.0146740405 0.16227514 -0.05083575 -0.104984
0.11363038 0.1823674 0.08802926 0.17182715 -0.02078883 0.17022248 -0.015673328 -0.046126224
0.026475245 -0.03140332 -0.0042600743 -0.022259632 -0.11336094 -0.11031383 0.07148964 -0.09090311
0.029027207 -0.1390254 -0.03462422 0.13641323 0.065708645 0.025312385 0.18677948 0.10290442
-0.035742767 0.043925785 0.025467793 -0.06746378 -0.09080299 0.030042563 -0.17658305 -0.14020862
0.018326335 -0.16906644 -0.14723268 -0.068393774 0.07217077 0.085900225 -0.16702811 0.052648656
-0.09298383 -0.037955068 0.15275441 0.099535085 0.09130099 -0.14043169 -0.10401458 -0.16399665
0.13598265 0.10318228 0.17812355 -0.11787463 0.11751496 -0.19028229 0.07589244 -0.1379434
0.1172565 -0.19269033 -0.12242594 -0.101256505 -0.04204131 -0.17259084 -0.17478734 -0.08070456
00000000: d813 2fbc dd63 d33c 8db4 c5bc 29c1 1cbe
00000010: 27f9 b53d d524 d93d f173 8a3d 0187 32be
00000020: 72e6 ddbd cefa 1ebd a91f 21bc 660b 44bd
00000030: a546 9b3d 9ffa 3b3e 091b c13d bd10 c3bd
00000040: f218 d9bd 6298 6abd 869e 1f3d 75ff bebd
00000050: 1ab2 7ebd 5329 6b3c 0b5b af3c d16f cbbd
00000060: 0551 103e 4c75 6e3d 8be3 2a3e a2bf 4fbe
00000070: 178a 51bc 2e30 01bd 757a 1c3e 97be 263e
00000080: 9e41 1abd d580 2b3e b21d 533d f686 26bd
00000090: 9a68 ccbd c771 55be 2de5 9a3d fd21 21be
000000a0: 1fe4 453e 6b85 c4bc f988 2ebe cb7b 513e
000000b0: 5a07 00be dd43 babd 9b10 8ebd 8206 27bd
000000c0: c59f bdbd c059 fabd da77 e5ba 7a9a 52be
000000d0: 26e4 1dbe bf1c 973d a33e 6fbc e57a 363e
000000e0: af49 d23d d3ec 9abc f7df f53d ee31 3cbd
000000f0: a8ee 153c be23 483d 0b9c d1bc e6a8 14be
00000100: 5f2d 0e3e 725b 5ebd e8e0 cebb f5d2 a73d
00000110: 66d6 333d 1f2f 1bbe e9e6 183c 3bf9 32be
00000120: a952 4b3b 3be2 3cbe ff67 c73d a5ce c0bc
00000130: 292e 5dbb e570 45be e188 c73d 67cb 2ebe
00000140: 4af0 03be 3a3e 003e 8be2 253e 153d 433e
00000150: 97d7 c43d 9f66 02be 6137 b93d 51e9 e43d
00000160: 5716 323e dbfc d9bd b9a4 c13d a9b3 083c
00000170: 555b ce3d cf78 b43d dfed d73d c976 00be
00000180: fd87 883d 7d10 2fbe 35c4 d9bd 3346 adbc
00000190: c343 c1bd 7b2a 84bd 2890 273c 4b5d 083e
000001a0: d3ef e4bd 271f 923d 21aa d2bd 890c 80bd
000001b0: 4e97 f83b 7310 49be e8c6 20bc 171e 1abe
000001c0: 5d71 ee3d 3bee 93bd fb76 9f3c cbeb a43d
000001d0: 1704 06be 13dd 53be 86b7 73bd 470d e1bd
000001e0: d160 213e 4499 18be 8f2d 97bd a5c4 403e
000001f0: e6ef 6cbd c1b0 36be c087 323e b136 0f3e
00000200: c793 cfbd 0ac5 773d 39ed 12be fc75 a5bd
00000210: 76b2 23bd 57b4 fe3d e480 0bbd 7a7e dfbd
00000220: bf68 0d3e 2706 b93d 28f6 423c 68f5 e0bd
00000230: 492b 0f3c 253d c8bd 73e8 f13d c53f e2bc
00000240: bdf2 233d ff94 e93d f541 b33c ddaa c53d
00000250: 8299 773d f1f5 093e 4bf8 d2bc 69aa 4abe
00000260: deae c0bd b540 78bd 1cf8 0b3d 0eb6 173d
00000270: 2378 aabd b124 41be 93c3 e0bd 40c5 babd
00000280: cd9f 25be e734 92bd eb76 fdbd 2767 bc3d
00000290: e237 7b3d ad56 b13d 4f60 913d 8ecc 523d
000002a0: 127e 6abd 0a92 70bd cfc3 72bd a210 08be
000002b0: 736e 88bc 9d34 0cbe c747 47be 458b e63d
000002c0: d2c8 67bd b3c6 013d a722 85bd 5c8d d4bd
000002d0: 9799 bb3d 881d 8abd 9f38 363e 2100 9c3d
000002e0: b63c 96bb 2502 b0bd 1eed 32b9 1668 0dbe
000002f0: 636b 703c 742b 263e 2639 50bd da01 d7bd
00000300: 0bb7 e83d 85be 3a3e af48 b43d 75f3 2f3e
00000310: 564d aabc cd4e 2e3e 5a65 80bc daee 3cbd
00000320: 9de2 d83c c5a0 00bd 1898 8bbb d559 b6bc
00000330: c829 e8bd 38ec e1bd 2969 923d 692b babd
00000340: 77ca ed3c ad5c 0ebe 20d2 0dbd e9af 0b3e
00000350: 4192 863d eb5b cf3c 1f43 3f3e 8dbf d23d
00000360: 0267 12bd 86eb 333d d5a1 d03c 732a 8abd
00000370: ebf6 b9bd d21b f63c 30d2 34be d992 0fbe
00000380: 1c21 963c c11f 2dbe 2ac4 16be 0912 8cbd
00000390: 45ce 933d 75ec af3d 6b09 2bbe 1ea6 573d
000003a0: 4e6e bebd c676 1bbd a76b 1c3e 0dd9 cb3d
000003b0: 03fc ba3d 53cd 0fbe 9905 d5bd bdee 27be
000003c0: 093f 0b3e 3b51 d33d 0566 363e 4168 f1bd
000003d0: afab f03d 5cd9 42be 7f6d 9b3d 0941 0dbe
000003e0: 2d24 f03d 9d50 45be 74ba fabd 925f cfbd
000003f0: 8233 2cbd a7bb 30be 74fb 32be 6f48 a5bd
