Knowledge_Graph_Recommendation/recommendation/stage2/trained_model/Douban/Embedding_based/dim32_lr0.001_l20.0001_TransR/dot/model0_epoch150.pth (torch, 728343 bytes, 5 tensors)

trans_M f4 [114, 32, 32]
00000000: 3e5f 8bba 78f2 063b 5549 1d3c 7f9d ad3c
00000010: 6033 b53b 975d 0a3d 140e 0d3c 1b24 f23c
00000020: 7a49 3bbc e676 38bb 446e b33c 4cb7 87bc
00000030: a80f 1cbc f247 753b 2615 03bd 8c28 413c
00000040: a2ec b1bc 7128 b13c e9eb d6bb 40d7 903c
00000050: 0d77 2cbb 3a6f 603c b99a 4e3b 89f7 483b
00000060: 7c4b 383c 7fde c3bb b5e6 913c ffac 0c3d
00000070: 0165 d23c f4ee e43c 1b1e 05bd 9bb7 9d3c
00000080: 42e1 f039 e0c5 b1bc 55cc dd3c 0432 2d3c
00000090: fc72 bcbc 5c6a 05bd dd19 afbc ac48 47bc
000000a0: 606c 903b f205 5b3a 6eb8 953c 9b48 23bd
000000b0: f08c b1bc aa61 12bd 7162 d53c 9820 103d
000000c0: 5115 d83c b397 debc e8b5 063c c1d2 dfbc
000000d0: d70c 203d 4e70 da3c b16e 263d 29a7 12bd
000000e0: c2d2 df3b 4aae e1bc a389 95bc 241d 773c
000000f0: d2a4 bcbc cd1c c53c 515d b7bb 2b27 583c
00000100: a44d 653c f5c7 e8b8 680f c93c d949 26bd
00000110: 9bc1 9b3c 1789 04bc 75ec ca3c c394 e03c
00000120: e474 903c 1d91 5938 a9f3 1e3b 70be e73b
00000130: cbb2 75bb b531 d63c 11e4 a4bc 3a05 2abb
00000140: 29ab 86bc b8e6 1e3b 94aa 02bd f763 4b3c
00000150: 26e0 0ebc 6ded a43c d354 e5ba d761 e33c
00000160: f141 673c e74e 29bc cd56 be3c 9961 c93c
00000170: 5e01 f1bc b56e a6bc 1789 863c 2ba4 9d3c
00000180: 9294 0d3c 5ac0 de3b 0933 0d3d ccac f6bb
00000190: b5f1 1dbd fb7a 223d 780e 26bd 1d10 e93c
000001a0: 1512 aa3c b098 16bc b0ab 7abc 10e4 c03b
000001b0: e0b5 2fbc 7dde cb3c a639 d93c 7739 6b3c
000001c0: 83cb 93bc 1019 07bd a51b 943c 5466 9fba
000001d0: 8455 29bd f6a0 a0bb 2b3b 093d bdab 923c
000001e0: 6cf4 263c f800 8bbc f6f1 0abd e0a3 74bc
000001f0: cc52 a6bc 84f0 46bc 15f8 09bd f6ba b1bc
00000200: 9a5b 8337 adca c23c 6998 3dbb 18a1 71bc
00000210: a1a1 a23c ec88 4e3c c0c7 123d ef9b dfbc
00000220: 511e e1bc 3bf7 0f3b 8c2b 29bc 499e 173d
00000230: 1ec2 afbb b376 c4bb 3b7e 08bd 32fe 7bba
00000240: ea0e 07bd aed1 c8bc 47e9 153d 4976 d13c
00000250: 8ae7 3fbc af35 a8bc cdf2 fc3c d956 a3bc
00000260: a3f0 d23c e208 633c 4ca7 353c f816 23bc
00000270: caf1 063d cd70 05bd 5076 0fbd 924c b7ba
00000280: e533 c43c 6d4d 1f3d d1cf cfbb 2598 0d3d
00000290: c8cd 1b3c 67ce 0d3d cb83 cf3c 08b9 0abb
000002a0: 6993 05bd a044 db3b 732a 5e3c efd7 f23c
000002b0: 931e 563b 949a 1ebc 2091 72bc d903 a3bb
000002c0: b64e c93b 1879 0dbd 6138 89bc e102 9bbc
000002d0: 4a45 5bbc aa99 ef3c cd1c bd3c 5e45 f6bc
000002e0: 078a 893c 155d 0dbd 3b70 e63b ef38 cd3c
000002f0: 73a8 ab3c 9242 22bd b763 40bb d0b6 2fbc
00000300: 1019 a0bc 369e 43ba 5c40 133c 23a2 9a3c
00000310: 15ef 533b 9ec5 cf3c 1c72 24bc 3675 f5ba
00000320: bedc 28bd 6ee2 5cbc 2b02 88bc fdbc 28bd
00000330: 32e2 d6ba 090d c73c 2c4e 6e3c cbb1 99bc
00000340: cdbd d63c f831 aebc 2a00 75bb 80dc adbb
00000350: deef c7bc 0c05 2e3c 2d8e 243d 2666 42ba
00000360: 139d 803c 6550 8a3c 31be 14bd 2780 813c
00000370: 8b5b cc3c 257e a2bc d449 0fbc a445 09bc
00000380: 22a6 f03c 94d3 653c 1692 0cbc d9b8 07bd
00000390: a2a4 1ebc 019b ee3b a0d1 3b3a e603 d73c
000003a0: 0b70 ec3b e525 25bb 2025 a9bc a50b b53c
000003b0: 437a c8ba 37d4 1d3d 0414 10bc da02 e7bc
000003c0: 5312 e0bc 50b0 163c 0003 813c 2ddf b63c
000003d0: d8ba 683c 21c0 8ebc 0fa9 7dbc 5d70 90b9
000003e0: cd7d ee3c db4a 84bc e041 6fbb 52bc 073d
000003f0: 6d21 ab3c d44d 2c3c 4da9 d4bb b51c 1abc
-0.0010633243 0.00205913 0.009600003 0.021193264 0.005529806 0.03378066 0.0086093135 0.029558232
-0.011431092 -0.002814704 0.021903165 -0.016566895 -0.009525217 0.0037426916 -0.03200259 0.011789452
-0.02171928 0.02162573 -0.0065588844 0.017680764 -0.0026316077 0.0136983935 0.0031525327 0.003066512
0.011248466 -0.0059774513 0.017810205 0.03434467 0.025682928 0.027945973 -0.032499414 0.019252589
0.00045944197 -0.0217008 0.027074972 0.010571007 -0.023004048 -0.032572135 -0.021374637 -0.012163322
0.0044074506 0.0008355073 0.01827642 -0.039864164 -0.02167365 -0.03573767 0.026047917 0.035187334
0.026377352 -0.027171945 0.008222081 -0.027322175 0.039074745 0.02666488 0.040632907 -0.035803948
0.006830544 -0.027548928 -0.018254107 0.015082631 -0.023027811 0.024061585 -0.005595841 0.013192932
0.013995562 -0.00011099867 0.02454348 -0.04059777 0.019013217 -0.008089325 0.024770955 0.027414685
0.017633863 5.187198e-05 0.002425412 0.0070722625 -0.0037490602 0.026146749 -0.020128282 -0.0025943057
-0.016439037 0.0024246406 -0.031900957 0.01241397 -0.008720433 0.020132745 -0.0017496593 0.027756615
0.014114843 -0.010333753 0.02323475 0.024582671 -0.029419597 -0.020316461 0.016422791 0.01924332
0.008641379 0.0067978324 0.0344725 -0.007527923 -0.038560588 0.039668065 -0.040541142 0.028450066
0.020760575 -0.009191677 -0.015299723 0.005886562 -0.010724515 0.024886364 0.026516747 0.014356962
-0.018041378 -0.032982886 0.018079588 -0.0012161233 -0.04134132 -0.0049020005 0.033503693 0.017904157
0.010190111 -0.016968235 -0.03392216 -0.014931649 -0.020303153 -0.012142304 -0.033683855 -0.021695595
1.5659072e-05 0.023778284 -0.0028929955 -0.01474788 0.019852461 0.012605887 0.035835028 -0.027296035
-0.027480276 0.002196743 -0.010325324 0.037016187 -0.0053637167 -0.0059955954 -0.033323508 -0.0009612768
-0.032973208 -0.024514046 0.036599424 0.025569098 -0.011712918 -0.02053341 0.030877495 -0.019938873
0.02574951 0.013857098 0.01108725 -0.009954207 0.03294543 -0.03257828 -0.03502494 -0.0013984612
0.023950526 0.0388922 -0.0063419123 0.034568924 0.009509511 0.03462067 0.025331398 -0.0021167416
-0.032611284 0.0066915303 0.013559925 0.02964398 0.0032672032 -0.009680409 -0.014805108 -0.004974824
0.0061434163 -0.034539312 -0.016750516 -0.018922271 -0.013383219 0.029248077 0.023085022 -0.030062374
0.01678945 -0.034512598 0.007032422 0.025051562 0.020954346 -0.039614268 -0.002935631 -0.010724738
-0.0195432 -0.0007462235 0.008987512 0.018876141 0.003233855 0.025362786 -0.010036971 -0.0018726948
-0.04122614 -0.013481719 -0.016602596 -0.04119586 -0.0016394316 0.024298208 0.014545005 -0.018761536
0.026213551 -0.021264061 -0.003738413 -0.0053058267 -0.02440637 0.01062132 0.040174652 -0.0007415734
0.015699899 0.016884038 -0.036314193 0.015808178 0.024945995 -0.019835541 -0.008745629 -0.00837842
0.029376093 0.014027495 -0.0085797515 -0.03313527 -0.009682806 0.0072816615 0.00071647204 0.026246976
0.007215505 -0.002519959 -0.020647585 0.02210028 -0.0015295226 0.038532462 -0.008793835 -0.028199602
-0.027352488 0.00919731 0.0157485 0.022323215 0.014204703 -0.017425599 -0.015482201 -0.00027549537
0.02911272 -0.016148975 -0.003650777 0.03313858 0.020889962 0.010516603 -0.006489909 -0.009406258

user_embed.weight f4 [447, 32]
00000000: 165c 553f 0b53 97be b225 913f 846c bb3e
00000010: 78d7 59bd e0af 77bf 988c 1dbf 47cf d5bd
00000020: 7629 8dbf 5abc 76be f448 613f 0808 2e3e
00000030: 7fcc 94bd e834 c5bd ae6c 92bf b902 3d3f
00000040: 64aa 87bf 8645 963e 3f71 b23e c58c 91bf
00000050: a7c9 763e 3aa7 79be 21ad f23d 0d0f 3fbf
00000060: 8bdf 76bf 0193 acbf a377 89be b147 313f
00000070: 5eb5 a0bf c3db 6d3f 9272 203f 193f 523f
00000080: dd91 893f 4d0a b03c 5486 a53f 805c 4cbd
00000090: 927c a4bd d16a 89bf a358 833c 0243 48bd
000000a0: 723f 88bf 8e31 1e3f 4ceb 243f e365 09be
000000b0: 0b1b fb3d bcd0 0d3f aee6 16bf 5cb1 dd3f
000000c0: 1be2 b0bf e7de 37bf 8a75 a03d 3c43 de3c
000000d0: 3312 e0be 721f f4be 8a40 343e 1fc9 813f
000000e0: b99a 95bf 3a49 1a3f 507c d4be 18aa b0be
000000f0: cd80 b3bd 299d 733d 0aa5 913f 0285 5b3f
00000100: f089 d5bc 9c5e acbf 3a0f 033f 9adf 0a3f
00000110: f225 a9bf 5e53 46bf 958c 0ac0 b3e1 b43e
00000120: b771 a2bf 1cfd cf3e 9259 803f 32c1 ec3e
00000130: 8ee0 2b3f 8fda 6ebd 7aba a03e 3533 78bd
00000140: 814a 75bf ef1c 12bf 5fca 333d 97c2 6c3e
00000150: a288 c83e 9ccf 073f 5f48 72be f00b babe
00000160: c987 3bbf a8a6 40bf 4db6 67bf 095a 5c3e
00000170: 68c8 9cbf 3c6f 853e f50e d53d bf3b 02be
00000180: 97a6 633f 5a5c 19c0 0df6 84be 9a73 c43f
00000190: f874 c7bf b95d abbd 704b ddbe aa25 143f
000001a0: d6ea a4bf 89b9 eebf e7bd 7e3f d7f0 bb3f
000001b0: b363 833f c615 c7be 51f5 d6bf 89b2 a63e
000001c0: 44e0 fabf 8d83 9e3c cc4a c5be 4a83 ce3e
000001d0: 3a66 653f eb2e 56bf bab4 c93f eb7d 36c0
000001e0: abb9 f8bf 9fcc 82bf 7cb1 d2be 84f2 e43f
000001f0: 4c37 013f f5d9 a03f c0a3 633f 6ca0 e73f
00000200: 1cc2 513f 4e7a 4fbf 7098 503f b923 abbd
00000210: d62e 58be 4c91 c1be c8f9 dabe 95fb 443f
00000220: edfc abbe bc89 90be f55b 5e3f ba8a 953f
00000230: ce46 0dbe 5367 533e c6ec 2cbf ac93 503e
00000240: 96cb b1be ed42 87be 1998 483c 65ae 4abf
00000250: 9129 213f cd46 613e 4b92 0c3f 98a7 e03d
00000260: 1c56 73bf f6f5 c63d 4b20 f3bd 7b3d 6a3e
00000270: 6a12 17bf dbcf a83e dd31 a83e 496d 543f
00000280: b92d c8bf 3923 b4be beb6 1b40 92f4 1640
00000290: 38e0 fa3f ea15 1740 b9b8 9e3f b786 dcbe
000002a0: 9cdf bf3d 336c bc3f 8c06 0ebd b499 d93f
000002b0: d61d bb3f fbe8 a7bf e49f 2340 d065 4040
000002c0: 937f 9d3f c699 adbf 5e9a b83e 628d d93f
000002d0: 88dc 1bbe d7d8 cabf 086d be3f e0b1 93bf
000002e0: b655 45c0 338d b7bf 5a2c 04c0 d64a b4be
000002f0: a125 6fbf 6365 07c0 31e1 7e3f be04 4640
00000300: 6a99 bebe c523 c03e 115a ffbe 066e 543e
00000310: cc4f 05bf f50f c4bd b479 63bf 6de5 aa3e
00000320: eb8d 1fbe 27d7 163f 376f 933f b238 3fbe
00000330: 014f 623c 2a8f 6f3f 7bfd 53bf d1c3 e33f
00000340: 33f1 8fbe ec41 8d3e a5b0 20be cf6d ddbc
00000350: 4905 533e 99bc 10bf a236 81be 0bd1 8a3f
00000360: 9595 86bf 30e1 b43f 668d e43d 73fc b23e
00000370: 74ad f6be 95ab a43e eec0 f73e f135 3a3e
00000380: 8046 51bd 3b8c 34bf cc36 9cbf 5a52 053e
00000390: a908 a2bf aa0b dcbf 563d a0bf 2e8d 0e40
000003a0: 9a6a 0abf 5c49 a83c 7943 3a3f 429f 7a3f
000003b0: 68c2 983f e38b ef3d 284b c73e 7777 c33e
000003c0: 192e 49bf 9d2f a0be e9cc f83e 218e 0a3f
000003d0: fb15 b43f ad89 ac3d ed35 993e c972 4f3f
000003e0: f5cd abbf 846e bc3e a3b3 10be 0f60 063f
000003f0: 769b e5be 9d29 813f eda1 713d 4d40 ed3f
0.83343637 -0.29555544 1.1339629 0.36606228 -0.053184003 -0.9675274 -0.61542654 -0.10439926
-1.1028278 -0.24095288 0.8800194 0.16995251 -0.07265567 -0.09629232 -1.1439416 0.7383228
-1.0598874 0.29349917 0.34852025 -1.1371084 0.24100362 -0.24380198 0.11849428 -0.7463234
-0.9643485 -1.3482362 -0.26849088 0.6925002 -1.2555349 0.92913455 0.6267482 0.8212753
1.0747639 0.021489287 1.2931619 -0.049892902 -0.080315724 -1.0735723 0.016033476 -0.04889203
-1.0644362 0.61794364 0.64421535 -0.13417773 0.122610174 0.5539663 -0.5894574 1.7319751
-1.3819002 -0.71824497 0.07834919 0.02713167 -0.43763885 -0.4768024 0.17602745 1.0139502
-1.1687843 0.60267985 -0.41501093 -0.3450477 -0.08764801 0.05947605 1.1378491 0.8574983
-0.02606675 -1.3466372 0.5119511 0.5424744 -1.3214705 -0.7747096 -2.1648304 0.35328445
-1.2690953 0.40622795 1.0027335 0.46241146 0.6713952 -0.058313902 0.3139227 -0.06059571
-0.9581681 -0.570754 0.043894168 0.23121105 0.39166743 0.5305116 -0.2366042 -0.36337233
-0.73254067 -0.752543 -0.90512544 0.2151872 -1.2248659 0.26061428 0.104032435 -0.12718104
0.8892607 -2.3962617 -0.25968972 1.5347779 -1.5582571 -0.083674856 -0.43221617 0.5786997
-1.2884166 -1.8650371 0.9950852 1.4682873 1.0264801 -0.388838 -1.6793615 0.32558087
-1.959969 0.019349838 -0.38533628 0.4033454 0.8960911 -0.8366534 1.5758278 -2.8514354
-1.9431661 -1.0218695 -0.41151035 1.788651 0.50475 1.2566515 0.8892174 1.8095832
0.8193681 -0.81046 0.814826 -0.08356423 -0.21111616 -0.37806165 -0.42768693 0.76946384
-0.33591405 -0.28230083 0.86859065 1.1682961 -0.13796541 0.20644884 -0.6754879 0.20368832
-0.34725636 -0.26418248 0.012243294 -0.79172355 0.6295405 0.21999665 0.54910725 0.10969466
-0.9505327 0.09714882 -0.11871394 0.22875015 -0.5901247 0.3297108 0.32850543 0.82979256
-1.5638953 -0.35183123 2.4330287 2.3586774 1.9599676 2.3607125 1.2400123 -0.4307153
0.09368822 1.472052 -0.034674212 1.7000031 1.461848 -1.3117975 2.556634 3.0062141
1.2304558 -1.3562553 0.36055273 1.6996272 -0.15220845 -1.5847424 1.4877024 -1.1538658
-3.0833564 -1.4339966 -2.065207 -0.35213345 -0.9341679 -2.1155632 0.99562365 3.0940394
-0.3722642 0.3752729 -0.49873403 0.20745096 -0.52074885 -0.09573356 -0.8885758 0.33378163
-0.15581481 0.58922046 1.1518315 -0.18673971 0.013812781 0.93577826 -0.82808656 1.7794133
-0.28113708 0.27589357 -0.15692385 -0.0270299 0.20607485 -0.5653778 -0.25236994 1.0845045
-1.0514399 1.4131222 0.11159782 0.34958228 -0.4817921 0.32162157 0.4838938 0.1818464
-0.051092625 -0.70526475 -1.2204223 0.13019696 -1.2658893 -1.719106 -1.2518718 2.227367
-0.5406891 0.020542793 0.72759205 0.9789926 1.1934328 0.11696603 0.38924527 0.38177082
-0.78585964 -0.31286326 0.48593834 0.5412312 1.4069208 0.08424697 0.29923955 0.81034523
-1.3422228 0.36803067 -0.14131026 0.52490324 -0.4484517 1.0090824 0.058992315 1.8535248

item_embed.weight f4 [578, 32]
00000000: c3cd 2940 f6e8 a53e 7b58 92bf 7cb8 603f
00000010: 409c b63d 6817 d83e aa72 8aba 5f4c d5bf
00000020: 1c70 1dbd 6627 ccbf 56c8 83be 7b4b ae3f
00000030: 59a1 8fbf d1d1 fd3e a0fc 33bf b1f3 b83d
00000040: 1179 2bbd ee85 003f c754 78bf 8856 d23f
00000050: d97e 6dbf 3a19 0abf 6060 93bf 5e1c 753f
00000060: 401a 723e bd9b e93e d026 b5bf 66c1 b8bf
00000070: cd12 643f cde5 22be c342 9fbf 0bbb 1dbf
00000080: f104 0ac0 f4cd 11be af81 cc3e 6875 fa3d
00000090: c9ba 703f e339 edbf 4ba2 6e3f 8906 4240
000000a0: a12d 28bf 0a2a cebd 5035 49bf 0a9c 913f
000000b0: b148 a13e 69a0 453f c6dd 8dbd 4ddf ab3f
000000c0: fa92 2d3f 7cd2 8d3f 6a50 b4bf 0f8d 06c0
000000d0: 68b8 523e 55f9 41bf ce10 023f 5905 0ebe
000000e0: 1e0c 3ebe 19ff d83f d779 d03f fe25 89bf
000000f0: e9fd b7bf 38ed 64bf 64c7 113f 0b9e 65bb
00000100: 109a 18c0 fc57 b23e a96e bdbf a834 f5bf
00000110: 90dd 863e 7e66 c53f a348 213e ddfd c33f
00000120: fae8 9ebf 9c86 87bf 7cc4 c6be 20be 9cbe
00000130: e8bb 403f 4710 983f ef62 9a3e 5d8d f83d
00000140: 7144 883d 8371 c9bf bb0d 1940 9ec0 0040
00000150: b698 fbbf 8e6e a8bf 5def 5e3f 7a45 443e
00000160: c449 343f b0f9 c2be a694 0740 0736 9dbf
00000170: 5179 f8bf df9f e33e 1472 c03f 5ab3 1bbf
00000180: 4c68 10be 434b 603f 4143 0ebf 302e 44bf
00000190: a57f 82bf ea4c adbf 93bf 0a3f d562 a13f
000001a0: 983d 3fbe 22d0 a3bf 22ef 1c3e be3a abbf
000001b0: ec88 8f3e ef47 813f 4af4 0cbf d443 43bf
000001c0: 5182 4dbe f128 0740 e691 e6bf 55a6 22bf
000001d0: 974e fc3e 0b2f 833f 7a86 253f 845e 61bf
000001e0: f129 83bf 308c 373f c963 8b3f 1a37 073f
000001f0: a201 da3e 3fa4 56be c383 8e3f 6fbd 433f
00000200: 9ffb d33e 6024 03c0 97c0 a43e 0543 9cbf
00000210: d16f cebf 1c98 f1bf 418c a3bf 3036 163f
00000220: e756 683f bba9 4bbe 1457 ad3f 4f1f 91bf
00000230: 0812 d03f 4040 0b3f 469c 82bf 366f c03f
00000240: 9fdb ac3f 899e 803f e69a 013f 025a c1be
00000250: d4f9 833f c92c 493d a15c 4ebf cf15 c93f
00000260: b179 01c0 32fc 93bf 2f36 c73f a872 023f
00000270: 31ce d3bf 2b08 48c0 09e1 2e3f 9960 9dbf
00000280: 26e6 eb3e bbb7 3d3f 62ee 7cbf 6cef 913f
00000290: ddc5 3b3f 1871 eb3f cb98 743f dea3 efbf
000002a0: 5378 8c3f c43d 403e 63ae a1bf c4aa 663f
000002b0: ec6a d53e 4582 773f c857 25bf 4686 45be
000002c0: 42db 0dbf 6535 3d3f 6ddb afbe 9828 323f
000002d0: 7b91 70bf ac09 af3f 0c50 193c 2e1f 903f
000002e0: e76b 80bf 7033 443f f3ac 3fbf e2f1 3c3f
000002f0: cea6 f63d 6389 3d3f 003b 0940 175d b83e
00000300: 2cc2 0540 d794 a73f 7a82 b0bf a6a7 19c0
00000310: ed86 d93f 70ae f43f 82ed debf 5143 f53f
00000320: 2a57 f0bf 886e 2340 01cc c13f b4be 95bf
00000330: 3fac e23f a8a0 bc3f a9b2 c33f 2ab1 f9bf
00000340: ba5b d9bf 1a7e 0040 9d53 10c0 60a6 22c0
00000350: 0a48 d8be a795 2f40 a16d cfbf 84ea 7cbf
00000360: 3efd dd3f 0da3 c73f fa5d b63f e6ca 4ebf
00000370: 29cb 3740 9056 99bf 1a7b e43f 4c60 da3f
00000380: 7bbc de3f 367d 5b3f 539b 45bf 7112 0dc0
00000390: 8a7a 36bf acff eb3f 0c38 82bf 7440 1040
000003a0: feed e2bf bb7c f4bf 297f d83f 7f5c a03e
000003b0: 9a77 de3f fa1a 3fbe bc6f 1ec0 a50a e8bf
000003c0: b22a 163f 0837 073c 94e7 7e3d 95d2 1b40
000003d0: ac73 93bf b9b8 0740 5afb 1140 be7f eb3f
000003e0: 9d56 ffbf b2e0 c4bf c3ca 2840 62ea 7cbc
000003f0: 1469 e7bf d564 923f fbf1 913f 9db7 b63f
2.6531837 0.32404298 -1.1433252 0.877815 0.08916521 0.42205358 -0.0010562737 -1.6663932
-0.038436994 -1.5949523 -0.25738782 1.3616785 -1.1221114 0.4957414 -0.7030735 0.090308554
-0.041863505 0.5020436 -0.9700436 1.6432657 -0.9277168 -0.5394474 -1.1513786 0.9574641
0.23642826 0.4562663 -1.415247 -1.443402 0.8909119 -0.15907975 -1.2442249 -0.6161353
-2.1565516 -0.14238721 0.3994269 0.12229425 0.9403501 -1.8533291 0.9321639 3.0316489
-0.65694624 -0.10066612 -0.78596973 1.1375744 0.31500772 0.7719789 -0.069270656 1.3427521
0.67802393 1.107986 -1.408704 -2.1023595 0.20578158 -0.75771075 0.5080689 -0.13869227
-0.1855931 1.695285 1.6287183 -1.0714719 -1.4374362 -0.8942447 0.5694487 -0.0035036828
-2.3844032 0.34832752 -1.4799396 -1.9156694 0.26340914 1.5421903 0.15750365 1.5311848
-1.2414849 -1.0587955 -0.3882178 -0.30613804 0.7528672 1.1879967 0.30153605 0.12136338
0.06653679 -1.5737766 2.391463 2.0117564 -1.9655979 -1.3158739 0.8708399 0.19167128
0.7042506 -0.3808112 2.1184478 -1.2282113 -1.9412023 0.4445791 1.5034814 -0.60820544
-0.14102286 0.8761484 -0.5557137 -0.76632977 -1.0195204 -1.3539097 0.5419857 1.2608286
-0.1867584 -1.2797892 0.15325597 -1.3377302 0.2803415 1.0100077 -0.55060256 -0.7627537
-0.20069243 2.1118739 -1.8013275 -0.6353505 0.4927871 1.0248731 0.6465832 -0.88034844
-1.0247175 0.71698284 1.0889827 0.52818453 0.4257937 -0.20961092 1.113396 0.7646093
0.4140291 -2.0490952 0.32178184 -1.2207953 -1.6127874 -1.8874545 -1.2777177 0.58676434
0.907576 -0.19888966 1.3542199 -1.133768 1.6255503 0.5439491 -1.0203941 1.5033939
1.3504523 1.0048381 0.5062698 -0.37763983 1.0310616 0.049114976 -0.8061009 1.570978
-2.0230525 -1.1561339 1.556341 0.509562 -1.65473 -3.1254985 0.68312126 -1.2295104
0.46074027 0.74108475 -0.98801243 1.1401191 0.7334879 1.8393888 0.95545644 -1.8721883
1.097422 0.18773562 -1.2631344 0.9010432 0.41683137 0.9668315 -0.6458707 -0.19289503
-0.55412686 0.739096 -0.34347096 0.6959319 -0.93971986 1.3674827 0.009357464 1.1259515
-1.0032929 0.7664099 -0.74873275 0.73806584 0.12043534 0.7403776 2.144226 0.36008522
2.0899763 1.3092297 -1.3789818 -2.4008574 1.6994301 1.9115734 -1.7416232 1.9161168
-1.87766 2.5536213 1.5140382 -1.1698823 1.7708815 1.4736528 1.5288898 -1.9507191
-1.6981118 2.0076966 -2.2551033 -2.5414047 -0.4224246 2.743509 -1.6205331 -0.9879534
1.7342908 1.5596634 1.4247429 -0.8077835 2.871775 -1.1979542 1.7850068 1.7060637
1.740127 0.8573793 -0.7719013 -2.2042506 -0.7128073 1.84374 -1.0173354 2.253934
-1.772888 -1.9100565 1.6913806 0.3132057 1.738025 -0.18662634 -2.4755697 -1.8128248
0.586589 0.008252867 0.06223257 2.434728 -1.1519675 2.1206496 2.2809663 1.8398359
-1.9948307 -1.5381072 2.6373756 -0.015436741 -1.8078942 1.1437021 1.1401972 1.4274784

entity_embed.weight f4 [886, 32]
00000000: f980 01bf 0e56 b5bd e35f 703d 06ab 103d
00000010: 8c13 39bc 7eab 15bd c103 963d 039e 983d
00000020: 88f2 ef3c 8c4f 9cbd 79a6 04bd 1193 d4bd
00000030: 51dd 4fbd 097a 15bd 53aa ebbb ac2a 233d
00000040: 18e0 86bd 9592 913d afbc 923c ed53 ed3d
00000050: c5c2 953d 19e6 203c 7d99 debd 2c23 7a3d
00000060: 7826 e53c 8aa5 1abc ddc4 3d3d 60cc 733d
00000070: 999a dbbc 68a3 653d 274a f4bd 385f 60bd
00000080: 38b0 bc3d 4776 9bbd 5270 663d e676 5d3c
00000090: f82c 3e3d 2d66 0d3f 2b38 a2bc a923 12be
000000a0: c2b6 903d d312 35bd 4878 0bbc 0cb6 e4bd
000000b0: da52 883c e59c 11bc 4bed 7e3d ef55 a23d
000000c0: bcdc 24bb a2b5 a53d 9cea 413e e88d 84bd
000000d0: 44c1 a8bd 0199 8cbd bccb 793b 89da 323d
000000e0: 4db2 1a3d 513c 05be 5fbd aebd 96c6 8d3e
000000f0: 8391 8c3d 526f 853d a2dc 993d 46e8 e53b
00000100: a4c6 bd3e 804e 3a3d e5f0 9b3d ecd0 b0bd
00000110: 6fde 973c 7acb 6bbd 4efb f93b f840 debd
00000120: 1f45 f13c 1f4f 04bd 8c1e 653b 0f5d 023d
00000130: b46a 743d 6b11 65be ba7a 353d 098c 91bd
00000140: 6838 01bd 7dc2 a33d 631a 97bd 658d 663d
00000150: 105f 033e 919a b6bd e4ee 8f3c f976 933d
00000160: 903e 18bc ae45 313d 9165 a6be b51b 373e
00000170: 1ff5 993d 2f61 ce3c d125 2c3d dba2 98bd
00000180: 1870 cfbc 2104 7dbd 2525 823d 7b6e abbd
00000190: f961 a83d 4064 af3d 3a2d 59be 0072 313e
000001a0: c080 03bd 1f2a efbd da24 763d a9bf debd
000001b0: 7f23 6b3d a225 ad3c 5dbe 5cbd a8d1 aebd
000001c0: 0e43 ae3c 1411 1a3e 8570 5dbd c91b 403d
000001d0: 810f 9dbb 3691 80bd a46a 573d 153c 9dbd
000001e0: 932b 8f3d 53d9 073d a550 cb3e 69d7 053d
000001f0: 0160 143c 3d6e 17bd 3591 573d 31dd 8d3d
00000200: 22f2 96bc a883 a7bc 21e7 3b3d 25be c73c
00000210: ab3b a2bd beb2 f6bc 4090 22bc b819 05bd
00000220: ce18 9d3b 9876 99bd 0b31 b9bd 51e7 923c
00000230: f2e5 053d 850b e0bc e70b 58bc 104a d8bc
00000240: 939f 7b3d 42e7 533d b60c 4fbd fb4b a73d
00000250: f5ce 93bc ab7e 5ebd b720 7e3c 57b4 78bd
00000260: 4971 d5bc 4a1c 3c3d 36f4 6f3d af81 b63b
00000270: 832d d3bd 68b2 aa3e a951 b9bb 6ee9 933d
00000280: 87f7 8dbd a5c8 ac3c a98e 5b3c 8642 133d
00000290: c200 053d 58a5 003d c424 a03d 7d3a c93d
000002a0: c1a5 e13c 89b8 853d 40e7 83bd 2c99 c8bd
000002b0: f4a2 82bd b6c5 773d de5f 093c 58d1 5e3d
000002c0: 0427 febc 4610 5dbd 1fc9 ac3c 7188 7d3d
000002d0: 9a7b 263d 24dc 45bc 3056 5a3c 86d3 223d
000002e0: d248 80bb d866 9f3c 52af 723c 5d8f 27bd
000002f0: 41e2 ac3c a20d 303c 9fa8 b3bd 5d35 833c
00000300: a389 80bd f18d 89bc 1bb7 803d c306 d2bd
00000310: 0376 29be b843 a4bd f26e 0d3d b88f d8bd
00000320: 1386 6b3d ea25 ce3d ecd3 92bc eb7e c83c
00000330: 8118 f23d 7742 bd3d 7a06 9e3c 83e0 0bbd
00000340: a638 ce3d eab2 8abd a1ec 793d 2bf9 29be
00000350: a995 54bd 3b49 56be beb9 30bd 4fc5 3c3c
00000360: dd99 02bd 46cb 5cbd 84ca 2ebd d5f3 0b3d
00000370: 9d79 1cbe 05c5 95bc 2676 4dbd ffcf 363c
00000380: 4452 7fbd efea 97bc 12e7 b8bc a833 03be
00000390: 6ff3 f5bc 53c0 0ebd b687 863c 1675 d7bd
000003a0: 1f24 403d dabc 5fbc 7c4c 9c3d 0a72 37bc
000003b0: 48f2 023d bd88 05bc cdbb 37be 12fc a2bd
000003c0: d0f4 30bd edc5 1a3d d285 813d fa8d 1e3e
000003d0: e561 2a3d 6917 38be 758a d43d 826c aa3d
000003e0: ac9c 023e 0cf3 853d f4dc 12be 5408 093c
000003f0: 7dd9 9d3c 25e5 a6bc 4cff 43bb 8e58 aabc
-0.5058742 -0.08854304 0.058685195 0.03531935 -0.011296164 -0.0365405 0.07324935 0.07452013
0.029290453 -0.0763236 -0.032385323 -0.10379613 -0.050748173 -0.036493335 -0.007191935 0.039835617
-0.06585711 0.071080364 0.017912237 0.11588273 0.0731254 0.009820485 -0.10869119 0.0610687
0.027972445 -0.009438882 0.04633032 0.05952108 -0.026807116 0.05606404 -0.11928206 -0.054778308
0.092132986 -0.07590919 0.05625946 0.013517117 0.046429604 0.5523403 -0.019802174 -0.14271416
0.07066108 -0.044207405 -0.008512564 -0.11167535 0.01664107 -0.008887504 0.06223802 0.07926547
-0.0025155982 0.08091284 0.18937153 -0.06472379 -0.082399875 -0.06865121 0.003811582 0.043665443
0.037767697 -0.1301129 -0.085322134 0.27690572 0.06863692 0.06515373 0.075127855 0.0070162145
0.37065613 0.04548502 0.07614306 -0.08633599 0.018538682 -0.057567097 0.007628835 -0.108522356
0.029451905 -0.03230202 0.0034960834 0.03182703 0.059672073 -0.22369926 0.044306494 -0.07106788
-0.031547934 0.0799608 -0.0737808 0.056287188 0.12829232 -0.089162 0.017569967 0.072004266
-0.00929226 0.043279342 -0.32499364 0.17881663 0.07517456 0.025192825 0.042028252 -0.07452937
-0.025322005 -0.061771516 0.06354741 -0.08370682 0.08221812 0.08564043 -0.21208659 0.17328644
-0.032105207 -0.11677956 0.06009374 -0.108764 0.0574069 0.021136109 -0.053892482 -0.085360825
0.021272209 0.15045577 -0.054062385 0.046901498 -0.004793108 -0.06277697 0.052591935 -0.07677475
0.06990733 0.03316624 0.39709964 0.032676134 0.009056092 -0.036970366 0.052628715 0.069269545
-0.018426005 -0.02044852 0.04587472 0.02438266 -0.07921537 -0.030114528 -0.009922087 -0.03249523
0.0047942167 -0.07493323 -0.09042557 0.017932566 0.032689996 -0.027349243 -0.0131864315 -0.026402503
0.06143148 0.051734217 -0.05054923 0.08168789 -0.01804302 -0.05432002 0.0155107295 -0.06071886
-0.026054995 0.045925416 0.058582507 0.0055696587 -0.10311415 0.33339238 -0.0056554866 0.072222576
-0.06931978 0.021091769 0.013400712 0.035952114 0.032471426 0.031407684 0.078195125 0.09825609
0.027544858 0.06529338 -0.06440592 -0.0979484 -0.06378737 0.060491286 0.008384673 0.054398865
-0.031024463 -0.053970598 0.021091996 0.0618977 0.04064522 -0.012076411 0.013326213 0.039752506
-0.003914931 0.01945822 0.014812307 -0.040908206 0.02110398 0.010745438 -0.08772396 0.016016657
-0.06276252 -0.016791316 0.062849246 -0.10255196 -0.16548924 -0.08020729 0.034529634 -0.10574287
0.05750091 0.10065825 -0.017923318 0.024474582 0.1182108 0.09241193 0.019290198 -0.034149658
0.100693986 -0.067724064 0.061016683 -0.16598956 -0.05190054 -0.20926373 -0.043145888 0.011521651
-0.031885017 -0.053904794 -0.042673603 0.034168083 -0.15280767 -0.018282423 -0.050161503 0.011157989
-0.062334314 -0.018544642 -0.02257112 -0.12812674 -0.030023305 -0.034851383 0.016422134 -0.10520379
0.046909448 -0.013655866 0.07631776 -0.011196623 0.03196934 -0.008150277 -0.17942734 -0.07958235
-0.04320222 0.037786413 0.06324352 0.15483847 0.041597266 -0.1797768 0.10377971 0.083214775
0.12755078 0.06540498 -0.143421 0.008363802 0.019268746 -0.020372937 -0.0029906807 -0.02079418

relation_embed.weight f4 [114, 32]
00000000: d813 2fbc dd63 d33c 8db4 c5bc 29c1 1cbe
00000010: 27f9 b53d d524 d93d f173 8a3d 0187 32be
00000020: 72e6 ddbd cefa 1ebd a91f 21bc 660b 44bd
00000030: a546 9b3d 9ffa 3b3e 091b c13d bd10 c3bd
00000040: f218 d9bd 6298 6abd 869e 1f3d 75ff bebd
00000050: 1ab2 7ebd 5329 6b3c 0b5b af3c d16f cbbd
00000060: 0551 103e 4c75 6e3d 8be3 2a3e a2bf 4fbe
00000070: 178a 51bc 2e30 01bd 757a 1c3e 97be 263e
00000080: 9e41 1abd d580 2b3e b21d 533d f686 26bd
00000090: 9a68 ccbd c771 55be 2de5 9a3d fd21 21be
000000a0: 1fe4 453e 6b85 c4bc f988 2ebe cb7b 513e
000000b0: 5a07 00be dd43 babd 9b10 8ebd 8206 27bd
000000c0: c59f bdbd c059 fabd da77 e5ba 7a9a 52be
000000d0: 26e4 1dbe bf1c 973d a33e 6fbc e57a 363e
000000e0: af49 d23d d3ec 9abc f7df f53d ee31 3cbd
000000f0: a8ee 153c be23 483d 0b9c d1bc e6a8 14be
00000100: 5f2d 0e3e 725b 5ebd e8e0 cebb f5d2 a73d
00000110: 66d6 333d 1f2f 1bbe e9e6 183c 3bf9 32be
00000120: a952 4b3b 3be2 3cbe ff67 c73d a5ce c0bc
00000130: 292e 5dbb e570 45be e188 c73d 67cb 2ebe
00000140: 4af0 03be 3a3e 003e 8be2 253e 153d 433e
00000150: 97d7 c43d 9f66 02be 6137 b93d 51e9 e43d
00000160: 5716 323e dbfc d9bd b9a4 c13d a9b3 083c
00000170: 555b ce3d cf78 b43d dfed d73d c976 00be
00000180: fd87 883d 7d10 2fbe 35c4 d9bd 3346 adbc
00000190: c343 c1bd 7b2a 84bd 2890 273c 4b5d 083e
000001a0: d3ef e4bd 271f 923d 21aa d2bd 890c 80bd
000001b0: 4e97 f83b 7310 49be e8c6 20bc 171e 1abe
000001c0: 5d71 ee3d 3bee 93bd fb76 9f3c cbeb a43d
000001d0: 1704 06be 13dd 53be 86b7 73bd 470d e1bd
000001e0: d160 213e 4499 18be 8f2d 97bd a5c4 403e
000001f0: e6ef 6cbd c1b0 36be c087 323e b136 0f3e
00000200: c793 cfbd 0ac5 773d 39ed 12be fc75 a5bd
00000210: 76b2 23bd 57b4 fe3d e480 0bbd 7a7e dfbd
00000220: bf68 0d3e 2706 b93d 28f6 423c 68f5 e0bd
00000230: 492b 0f3c 253d c8bd 73e8 f13d c53f e2bc
00000240: bdf2 233d ff94 e93d f541 b33c ddaa c53d
00000250: 8299 773d f1f5 093e 4bf8 d2bc 69aa 4abe
00000260: deae c0bd b540 78bd 1cf8 0b3d 0eb6 173d
00000270: 2378 aabd b124 41be 93c3 e0bd 40c5 babd
00000280: cd9f 25be e734 92bd eb76 fdbd 2767 bc3d
00000290: e237 7b3d ad56 b13d 4f60 913d 8ecc 523d
000002a0: 127e 6abd 0a92 70bd cfc3 72bd a210 08be
000002b0: 736e 88bc 9d34 0cbe c747 47be 458b e63d
000002c0: d2c8 67bd b3c6 013d a722 85bd 5c8d d4bd
000002d0: 9799 bb3d 881d 8abd 9f38 363e 2100 9c3d
000002e0: b63c 96bb 2502 b0bd 1eed 32b9 1668 0dbe
000002f0: 636b 703c 742b 263e 2639 50bd da01 d7bd
00000300: 0bb7 e83d 85be 3a3e af48 b43d 75f3 2f3e
00000310: 564d aabc cd4e 2e3e 5a65 80bc daee 3cbd
00000320: 9de2 d83c c5a0 00bd 1898 8bbb d559 b6bc
00000330: c829 e8bd 38ec e1bd 2969 923d 692b babd
00000340: 77ca ed3c ad5c 0ebe 20d2 0dbd e9af 0b3e
00000350: 4192 863d eb5b cf3c 1f43 3f3e 8dbf d23d
00000360: 0267 12bd 86eb 333d d5a1 d03c 732a 8abd
00000370: ebf6 b9bd d21b f63c 30d2 34be d992 0fbe
00000380: 1c21 963c c11f 2dbe 2ac4 16be 0912 8cbd
00000390: 45ce 933d 75ec af3d 6b09 2bbe 1ea6 573d
000003a0: 4e6e bebd c676 1bbd a76b 1c3e 0dd9 cb3d
000003b0: 03fc ba3d 53cd 0fbe 9905 d5bd bdee 27be
000003c0: 093f 0b3e 3b51 d33d 0566 363e 4168 f1bd
000003d0: afab f03d 5cd9 42be 7f6d 9b3d 0941 0dbe
000003e0: 2d24 f03d 9d50 45be 74ba fabd 925f cfbd
000003f0: 8233 2cbd a7bb 30be 74fb 32be 6f48 a5bd
-0.010685883 0.025804454 -0.024133945 -0.1530806 0.08885413 0.10602728 0.06760395 -0.17434312
-0.108349696 -0.038813405 -0.0098342085 -0.047862433 0.07581834 0.18357323 0.09428985 -0.09524677
-0.10600461 -0.05727423 0.03896954 -0.09326068 -0.06218157 0.014353114 0.021405717 -0.09933437
0.14093406 0.05821733 0.16688363 -0.20287946 -0.012789271 -0.03154009 0.15281089 0.16283642
-0.037660234 0.16748364 0.05154199 -0.040656053 -0.09980889 -0.20844184 0.07563243 -0.15735622
0.19325303 -0.0239894 -0.17044438 0.2045738 -0.12502804 -0.09094975 -0.06936761 -0.04077769
-0.09258989 -0.1222415 -0.0017507032 -0.2056674 -0.15419063 0.0737853 -0.014602336 0.17820318
0.1026796 -0.018911755 0.120056085 -0.045946054 0.009151138 0.04886221 -0.025587102 -0.14517555
0.13884495 -0.054286428 -0.006313432 0.08194534 0.04390564 -0.15154694 0.009332397 -0.17477886
0.003102461 -0.18445675 0.097366326 -0.023536036 -0.0033749437 -0.19281347 0.097429045 -0.1706978
-0.12884632 0.12523738 0.161997 0.1906627 0.09611433 -0.1273446 0.09043766 0.11177314
0.17391334 -0.106439315 0.094552465 0.008343616 0.10076014 0.08812105 0.10543417 -0.12545313
0.06666563 -0.17096134 -0.10633127 -0.021151638 -0.09436753 -0.06453415 0.010227241 0.13316838
-0.11178555 0.07134848 -0.10286356 -0.06252391 0.0075863963 -0.19635181 -0.009813048 -0.15050541
0.11642716 -0.07223173 0.019465914 0.080527864 -0.13087498 -0.20689802 -0.059501193 -0.109888606
0.15759589 -0.14902216 -0.073817365 0.18825014 -0.057845972 -0.17840864 0.17434597 0.13985707
-0.10135608 0.060490645 -0.14348306 -0.08079144 -0.039965115 0.12436741 -0.034058467 -0.10912795
0.13809489 0.090343766 0.011899509 -0.109843075 0.008738347 -0.097772874 0.11811914 -0.027618298
0.040026415 0.11405372 0.021882037 0.0965173 0.06044913 0.13472725 -0.025753161 -0.19791569
-0.09408353 -0.060608584 0.034172162 0.037038855 -0.083236955 -0.18861653 -0.10974803 -0.09119654
-0.1617424 -0.071389966 -0.123761974 0.09199362 0.06133259 0.0865911 0.070984475 0.05146461
-0.057249136 -0.058733024 -0.05926877 -0.13287595 -0.016654229 -0.13691945 -0.19460975 0.11257032
-0.056588 0.031683635 -0.0650075 -0.10378525 0.09160154 -0.06743914 0.17795037 0.07617212
-0.004584874 -0.08594159 -0.00017063736 -0.13809237 0.0146740405 0.16227514 -0.05083575 -0.104984
0.11363038 0.1823674 0.08802926 0.17182715 -0.02078883 0.17022248 -0.015673328 -0.046126224
0.026475245 -0.03140332 -0.0042600743 -0.022259632 -0.11336094 -0.11031383 0.07148964 -0.09090311
0.029027207 -0.1390254 -0.03462422 0.13641323 0.065708645 0.025312385 0.18677948 0.10290442
-0.035742767 0.043925785 0.025467793 -0.06746378 -0.09080299 0.030042563 -0.17658305 -0.14020862
0.018326335 -0.16906644 -0.14723268 -0.068393774 0.07217077 0.085900225 -0.16702811 0.052648656
-0.09298383 -0.037955068 0.15275441 0.099535085 0.09130099 -0.14043169 -0.10401458 -0.16399665
0.13598265 0.10318228 0.17812355 -0.11787463 0.11751496 -0.19028229 0.07589244 -0.1379434
0.1172565 -0.19269033 -0.12242594 -0.101256505 -0.04204131 -0.17259084 -0.17478734 -0.08070456
