Knowledge_Graph_Recommendation/recommendation/stage2/trained_model/Douban/Embedding_based/dim32_lr0.001_l20.0001_TransR/dot/model0_epoch30.pth (torch, 728343 bytes, 5 tensors)

trans_M f4 [114, 32, 32]
0	0xba8b5f3e	-0.0010633243
1	0x3b06f278	0.00205913
2	0x3c1d4955	0.009600003
3	0x3cad9d7f	0.021193264
4	0x3bb53360	0.005529806
5	0x3d0a5d97	0.03378066
6	0x3c0d0e14	0.0086093135
7	0x3cf2241b	0.029558232
8	0xbc3b497a	-0.011431092
9	0xbb3876e6	-0.002814704
10	0x3cb36e44	0.021903165
11	0xbc87b74c	-0.016566895
12	0xbc1c0fa8	-0.009525217
13	0x3b7547f2	0.0037426916
14	0xbd031526	-0.03200259
15	0x3c41288c	0.011789452
16	0xbcb1eca2	-0.02171928
17	0x3cb12871	0.02162573
18	0xbbd6ebe9	-0.0065588844
19	0x3c90d740	0.017680764
20	0xbb2c770d	-0.0026316077
21	0x3c606f3a	0.0136983935
22	0x3b4e9ab9	0.0031525327
23	0x3b48f789	0.003066512
24	0x3c384b7c	0.011248466
25	0xbbc3de7f	-0.0059774513
26	0x3c91e6b5	0.017810205
27	0x3d0cacff	0.03434467
28	0x3cd26501	0.025682928
29	0x3ce4eef4	0.027945973
30	0xbd051e1b	-0.032499414
31	0x3c9db79b	0.019252589
32	0x39f0e142	0.00045944197
33	0xbcb1c5e0	-0.0217008
34	0x3cddcc55	0.027074972
35	0x3c2d3204	0.010571007
36	0xbcbc72fc	-0.023004048
37	0xbd056a5c	-0.032572135
38	0xbcaf19dd	-0.021374637
39	0xbc4748ac	-0.012163322
40	0x3b906c60	0.0044074506
41	0x3a5b05f2	0.0008355073
42	0x3c95b86e	0.01827642
43	0xbd23489b	-0.039864164
44	0xbcb18cf0	-0.02167365
45	0xbd1261aa	-0.03573767
46	0x3cd56271	0.026047917
47	0x3d102098	0.035187334
48	0x3cd81551	0.026377352
49	0xbcde97b3	-0.027171945
50	0x3c06b5e8	0.008222081
51	0xbcdfd2c1	-0.027322175
52	0x3d200cd7	0.039074745
53	0x3cda704e	0.02666488
54	0x3d266eb1	0.040632907
55	0xbd12a729	-0.035803948
56	0x3bdfd2c2	0.006830544
57	0xbce1ae4a	-0.027548928
58	0xbc9589a3	-0.018254107
59	0x3c771d24	0.015082631
60	0xbcbca4d2	-0.023027811
61	0x3cc51ccd	0.024061585
62	0xbbb75d51	-0.005595841
63	0x3c58272b	0.013192932
64	0x3c654da4	0.013995562
65	0xb8e8c7f5	-0.00011099867
66	0x3cc90f68	0.02454348
67	0xbd2649d9	-0.04059777
68	0x3c9bc19b	0.019013217
69	0xbc048917	-0.008089325
70	0x3ccaec75	0.024770955
71	0x3ce094c3	0.027414685
72	0x3c9074e4	0.017633863
73	0x3859911d	5.187198e-05
74	0x3b1ef3a9	0.002425412
75	0x3be7be70	0.0070722625
76	0xbb75b2cb	-0.0037490602
77	0x3cd631b5	0.026146749
78	0xbca4e411	-0.020128282
79	0xbb2a053a	-0.0025943057
80	0xbc86ab29	-0.016439037
81	0x3b1ee6b8	0.0024246406
82	0xbd02aa94	-0.031900957
83	0x3c4b63f7	0.01241397
84	0xbc0ee026	-0.008720433
85	0x3ca4ed6d	0.020132745
86	0xbae554d3	-0.0017496593
87	0x3ce361d7	0.027756615
88	0x3c6741f1	0.014114843
89	0xbc294ee7	-0.010333753
90	0x3cbe56cd	0.02323475
91	0x3cc96199	0.024582671
92	0xbcf1015e	-0.029419597
93	0xbca66eb5	-0.020316461
94	0x3c868917	0.016422791
95	0x3c9da42b	0.01924332
96	0x3c0d9492	0.008641379
97	0x3bdec05a	0.0067978324
98	0x3d0d3309	0.0344725
99	0xbbf6accc	-0.007527923
100	0xbd1df1b5	-0.038560588
101	0x3d227afb	0.039668065
102	0xbd260e78	-0.040541142
103	0x3ce9101d	0.028450066
104	0x3caa1215	0.020760575
105	0xbc1698b0	-0.009191677
106	0xbc7aabb0	-0.015299723
107	0x3bc0e410	0.005886562
108	0xbc2fb5e0	-0.010724515
109	0x3ccbde7d	0.024886364
110	0x3cd939a6	0.026516747
111	0x3c6b3977	0.014356962
112	0xbc93cb83	-0.018041378
113	0xbd071910	-0.032982886
114	0x3c941ba5	0.018079588
115	0xba9f6654	-0.0012161233
116	0xbd295584	-0.04134132
117	0xbba0a0f6	-0.0049020005
118	0x3d093b2b	0.033503693
119	0x3c92abbd	0.017904157
120	0x3c26f46c	0.010190111
121	0xbc8b00f8	-0.016968235
122	0xbd0af1f6	-0.03392216
123	0xbc74a3e0	-0.014931649
124	0xbca652cc	-0.020303153
125	0xbc46f084	-0.012142304
126	0xbd09f815	-0.033683855
127	0xbcb1baf6	-0.021695595
128	0x37835b9a	1.5659072e-05
129	0x3cc2caad	0.023778284
130	0xbb3d9869	-0.0028929955
131	0xbc71a118	-0.01474788
132	0x3ca2a1a1	0.019852461
133	0x3c4e88ec	0.012605887
134	0x3d12c7c0	0.035835028
135	0xbcdf9bef	-0.027296035
136	0xbce11e51	-0.027480276
137	0x3b0ff73b	0.002196743
138	0xbc292b8c	-0.010325324
139	0x3d179e49	0.037016187
140	0xbbafc21e	-0.0053637167
141	0xbbc476b3	-0.0059955954
142	0xbd087e3b	-0.033323508
143	0xba7bfe32	-0.0009612768
144	0xbd070eea	-0.032973208
145	0xbcc8d1ae	-0.024514046
146	0x3d15e947	0.036599424
147	0x3cd17649	0.025569098
148	0xbc3fe78a	-0.011712918
149	0xbca835af	-0.02053341
150	0x3cfcf2cd	0.030877495
151	0xbca356d9	-0.019938873
152	0x3cd2f0a3	0.02574951
153	0x3c6308e2	0.013857098
154	0x3c35a74c	0.01108725
155	0xbc2316f8	-0.009954207
156	0x3d06f1ca	0.03294543
157	0xbd0570cd	-0.03257828
158	0xbd0f7650	-0.03502494
159	0xbab74c92	-0.0013984612
160	0x3cc433e5	0.023950526
161	0x3d1f4d6d	0.0388922
162	0xbbcfcfd1	-0.0063419123
163	0x3d0d9825	0.034568924
164	0x3c1bcdc8	0.009509511
165	0x3d0dce67	0.03462067
166	0x3ccf83cb	0.025331398
167	0xbb0ab908	-0.0021167416
168	0xbd059369	-0.032611284
169	0x3bdb44a0	0.0066915303
170	0x3c5e2a73	0.013559925
171	0x3cf2d7ef	0.02964398
172	0x3b561e93	0.0032672032
173	0xbc1e9a94	-0.009680409
174	0xbc729120	-0.014805108
175	0xbba303d9	-0.004974824
176	0x3bc94eb6	0.0061434163
177	0xbd0d7918	-0.034539312
178	0xbc893861	-0.016750516
179	0xbc9b02e1	-0.018922271
180	0xbc5b454a	-0.013383219
181	0x3cef99aa	0.029248077
182	0x3cbd1ccd	0.023085022
183	0xbcf6455e	-0.030062374
184	0x3c898a07	0.01678945
185	0xbd0d5d15	-0.034512598
186	0x3be6703b	0.007032422
187	0x3ccd38ef	0.025051562
188	0x3caba873	0.020954346
189	0xbd224292	-0.039614268
190	0xbb4063b7	-0.002935631
191	0xbc2fb6d0	-0.010724738
192	0xbca01910	-0.0195432
193	0xba439e36	-0.0007462235
194	0x3c13405c	0.008987512
195	0x3c9aa223	0.018876141
196	0x3b53ef15	0.003233855
197	0x3ccfc59e	0.025362786
198	0xbc24721c	-0.010036971
199	0xbaf57536	-0.0018726948
200	0xbd28dcbe	-0.04122614
201	0xbc5ce26e	-0.013481719
202	0xbc88022b	-0.016602596
203	0xbd28bcfd	-0.04119586
204	0xbad6e232	-0.0016394316
205	0x3cc70d09	0.024298208
206	0x3c6e4e2c	0.014545005
207	0xbc99b1cb	-0.018761536
208	0x3cd6bdcd	0.026213551
209	0xbcae31f8	-0.021264061
210	0xbb75002a	-0.003738413
211	0xbbaddc80	-0.0053058267
212	0xbcc7efde	-0.02440637
213	0x3c2e050c	0.01062132
214	0x3d248e2d	0.040174652
215	0xba426626	-0.0007415734
216	0x3c809d13	0.015699899
217	0x3c8a5065	0.016884038
218	0xbd14be31	-0.036314193
219	0x3c818027	0.015808178
220	0x3ccc5b8b	0.024945995
221	0xbca27e25	-0.019835541
222	0xbc0f49d4	-0.008745629
223	0xbc0945a4	-0.00837842
224	0x3cf0a622	0.029376093
225	0x3c65d394	0.014027495
226	0xbc0c9216	-0.0085797515
227	0xbd07b8d9	-0.03313527
228	0xbc1ea4a2	-0.009682806
229	0x3bee9b01	0.0072816615
230	0x3a3bd1a0	0.00071647204
231	0x3cd703e6	0.026246976
232	0x3bec700b	0.007215505
233	0xbb2525e5	-0.002519959
234	0xbca92520	-0.020647585
235	0x3cb50ba5	0.02210028
236	0xbac87a43	-0.0015295226
237	0x3d1dd437	0.038532462
238	0xbc101404	-0.008793835
239	0xbce702da	-0.028199602
240	0xbce01253	-0.027352488
241	0x3c16b050	0.00919731
242	0x3c810300	0.0157485
243	0x3cb6df2d	0.022323215
244	0x3c68bad8	0.014204703
245	0xbc8ec021	-0.017425599
246	0xbc7da90f	-0.015482201
247	0xb990705d	-0.00027549537
248	0x3cee7dcd	0.02911272
249	0xbc844adb	-0.016148975
250	0xbb6f41e0	-0.003650777
251	0x3d07bc52	0.03313858
252	0x3cab216d	0.020889962
253	0x3c2c4dd4	0.010516603
254	0xbbd4a94d	-0.006489909
255	0xbc1a1cb5	-0.009406258

user_embed.weight f4 [447, 32]
0	0x3ed99eb5	0.42503896
1	0xbecbf22d	-0.39833203
2	0x3ee92462	0.4553557
3	0x3eced2df	0.40395257
4	0xbf1be210	-0.6089182
5	0xbee3c3f3	-0.44485435
6	0xbeff8439	-0.49905565
7	0x3eb22aa8	0.3479817
8	0xbf46bb21	-0.77629286
9	0xbe1e3582	-0.15450099
10	0x3f271e6f	0.6528081
11	0x3ed9927a	0.42494565
12	0x3ec78324	0.3896724
13	0xbd7bcc70	-0.061474264
14	0xbf440efa	-0.7658535
15	0x3eede91e	0.46466917
16	0xbf23be07	-0.63961834
17	0xbd273b52	-0.040828057
18	0x3e21b162	0.15790322
19	0xbe351e8c	-0.17687434
20	0x3e8c04ba	0.27347356
21	0xbe2a64da	-0.16640034
22	0x3e5c77aa	0.21530023
23	0xbea13053	-0.3148218
24	0xbf2bbcc9	-0.6708494
25	0xbf163be2	-0.58685124
26	0xbdb4f3eb	-0.08835586
27	0x3f376355	0.71635944
28	0xbebabc75	-0.36471906
29	0x3e925dd9	0.28587225
30	0x3e52575b	0.20541136
31	0x3ee252dd	0.44203845
32	0x3e71d3bd	0.23615928
33	0xbee7e513	-0.45291957
34	0x3f07ec8e	0.5309533
35	0x3e4a3260	0.19745779
36	0xbe997aad	-0.29976407
37	0xbed4de86	-0.41576022
38	0xbe8035f9	-0.25041178
39	0x3e5bfe51	0.21483733
40	0xbf25becb	-0.6474425
41	0x3c37cd7b	0.011218424
42	0x3f2e1a79	0.68009144
43	0x3edba621	0.42900184
44	0x3ebff9bb	0.37495217
45	0xbc733a70	-0.014845476
46	0xbeb14587	-0.34623358
47	0x3f302cb9	0.6881824
48	0xbf3b0257	-0.73050445
49	0xbed98cf4	-0.4249035
50	0x3cbc6988	0.02299954
51	0x3e894ceb	0.26816496
52	0x3e04140f	0.12898277
53	0xbe60bbe9	-0.21946682
54	0x3e57ea22	0.21085408
55	0x3dab838e	0.083747014
56	0xbf21b262	-0.63162816
57	0xbe1a80ae	-0.1508815
58	0xbe3dd581	-0.18538477
59	0x3ef38755	0.47564188
60	0xbe512dbd	-0.20427604
61	0x3e8d3107	0.27576467
62	0x3f1e1d90	0.6176386
63	0x3f1f489c	0.6222017
64	0x3e378b7d	0.17924304
65	0xbf4b9a70	-0.7953253
66	0x3e490abb	0.19633
67	0x3ed231a1	0.4105349
68	0xbf38235d	-0.7192896
69	0xbefdce1a	-0.49571306
70	0xbf7fa4f2	-0.9986106
71	0x3eb4f2e6	0.35341567
72	0xbf7b9838	-0.9827914
73	0x3de6b724	0.112654
74	0x3f45dd2c	0.77290606
75	0x3edfd6b2	0.43718487
76	0x3ef802d9	0.48439673
77	0xbd4bb2e1	-0.04973114
78	0xbe916001	-0.28393558
79	0xbae3af4c	-0.0017370968
80	0xbf2f8893	-0.6856777
81	0xbee7c49c	-0.4526719
82	0xbdb5c095	-0.08874623
83	0x3e716c19	0.23576392
84	0x3ed11629	0.4083722
85	0xbd549f82	-0.05190993
86	0x3ec477e4	0.3837272
87	0xbe1e1b34	-0.15440065
88	0xbf19e9f8	-0.60122633
89	0xbee28df6	-0.44248933
90	0xbf092f85	-0.53588134
91	0x3f2f8faf	0.6857862
92	0xbf1adc2e	-0.6049222
93	0x3ed99e0a	0.42503387
94	0x3e814356	0.25246686
95	0x3eb17cdc	0.34665573
96	0x3f0ae8f3	0.542617
97	0xbf6b1f82	-0.9184495
98	0x3e35f1ee	0.1776807
99	0x3f549fa1	0.83056074
100	0xbf79fee1	-0.9765454
101	0xbf215a4b	-0.630284
102	0xbef7c9f4	-0.48396266
103	0x3efd1fcf	0.4943833
104	0xbf7464a4	-0.95466065
105	0xbf130d8b	-0.5744254
106	0x3f423123	0.75856227
107	0x3f40d3cb	0.7532317
108	0x3f3a741a	0.72833407
109	0xbd14aba8	-0.036296517
110	0xbf5c5eeb	-0.86082333
111	0x3f06b139	0.5261417
112	0xbf620295	-0.8828519
113	0xbecfb7d4	-0.40569937
114	0x3cbbd0a3	0.022926634
115	0x3e2615ea	0.16219297
116	0x3eb4dc37	0.3532426
117	0xbe7a8138	-0.24463356
118	0x3f46f3ad	0.7771557
119	0xbf420c10	-0.75799656
120	0xbf671c09	-0.90277153
121	0xbe9edeae	-0.31029266
122	0xbec7ff83	-0.39062127
123	0x3f84861a	1.0353425
124	0xbe032e7e	-0.12810704
125	0x3f61014c	0.87892604
126	0x3f5c1c11	0.85980326
127	0x3f5fbaa1	0.8739415
128	0x3edea8dc	0.43488204
129	0xbefa6c02	-0.48910528
130	0x3efeff62	0.49804217
131	0x3e45ba6c	0.19309396
132	0xbea5998a	-0.32343704
133	0xbeec06ca	-0.4609893
134	0xbeba41f3	-0.3637844
135	0x3eb76ff2	0.35827595
136	0xbe6a60dc	-0.22888511
137	0xbe9e01f0	-0.30860853
138	0x3f20ced7	0.6281561
139	0x3f024b31	0.50895983
140	0x3df1256b	0.11774715
141	0x3cab6306	0.020921241
142	0xbf154d70	-0.58321285
143	0x3d200e92	0.039076395
144	0xbe91ddd2	-0.28489548
145	0xbebdfd33	-0.37107238
146	0x3e422709	0.18960203
147	0xbe2eed66	-0.17082748
148	0x3eaa50a5	0.33264652
149	0x3dd2ec71	0.10299004
150	0x3e7dadd9	0.24773349
151	0xbd96a973	-0.073565386
152	0xbefb5aaa	-0.4909261
153	0xbe60e647	-0.21962844
154	0xbddfd7fb	-0.10929867
155	0x3f03f133	0.51539916
156	0xbe0ce631	-0.13759686
157	0x3ecd3d4c	0.40085828
158	0x3e8efd6f	0.2792773
159	0x3ea738b3	0.32660446
160	0xbf49f49a	-0.7888886
161	0xbdead54c	-0.114664644
162	0x3f4a3beb	0.7899768
163	0x3f8a4336	1.0801761
164	0x3f72f905	0.94911224
165	0x3f96f1ad	1.1792504
166	0x3f51f1ef	0.82009786
167	0xbf11a779	-0.5689617
168	0xbe370117	-0.1787151
169	0x3f39e474	0.72614217
170	0x3e078861	0.13235618
171	0x3f0cc991	0.54995066
172	0x3f95a2f0	1.169035
173	0xbe8f8bb1	-0.28036264
174	0x3f88ef68	1.0698061
175	0x3f910ab5	1.1331393
176	0x3e9c3bac	0.30514276
177	0xbf10b9f7	-0.5653376
178	0xbede1eb3	-0.43382797
179	0x3fa241e9	1.2676364
180	0xbe3e8668	-0.1860596
181	0xbf17158f	-0.5901727
182	0x3f982584	1.1886449
183	0xbec8d831	-0.3922744
184	0xbfa97651	-1.3239232
185	0xbf4ca313	-0.7993633
186	0xbf394929	-0.7237726
187	0xbeb65ff1	-0.35620072
188	0xbf03fbbb	-0.51555985
189	0xbf899dbf	-1.0751265
190	0x3f53f7e2	0.82800114
191	0x3fa8cead	1.3188072
192	0xbea01d6d	-0.3127245
193	0xbdaea3e1	-0.08527351
194	0xbe69c424	-0.22828728
195	0x3e94fcad	0.29099026
196	0xbe45b942	-0.19308951
197	0xbe94dbc2	-0.29073912
198	0xbe9569df	-0.29182336
199	0x3ec09941	0.37616923
200	0xbe88aab7	-0.26692745
201	0x3e90faac	0.28316247
202	0x3ef658cf	0.4811463
203	0xbd45201f	-0.048126336
204	0x3e84d763	0.25945577
205	0x3e93d85e	0.28876013
206	0xbe986bed	-0.2976984
207	0x3f0e4e50	0.55588245
208	0xbdd46d17	-0.1037237
209	0xbd912a89	-0.07088191
210	0xbe8c5ac9	-0.27413014
211	0x3e68963e	0.22713563
212	0x3eb1557a	0.34635526
213	0xbe53a11f	-0.20666932
214	0x3dd130b4	0.102143675
215	0x3ea4250e	0.3205952
216	0xbec13c24	-0.37741196
217	0x3ea792a0	0.32729053
218	0xbde0edac	-0.10982832
219	0x3e9e87a5	0.30962864
220	0xbed35d8a	-0.41282302
221	0x3e73bd22	0.23802617
222	0x3e94a9bb	0.29035744
223	0x3ecdb756	0.40178937
224	0x3e592838	0.21206748
225	0xbf27f655	-0.6561025
226	0xbe480d99	-0.19536437
227	0x3ede83a5	0.43459812
228	0xbf575baa	-0.84124243
229	0xbf7d7609	-0.9900823
230	0xbf375ac0	-0.7162285
231	0x3f6475b7	0.8924212
232	0xbf210a48	-0.6290631
233	0x3d8aa905	0.06770519
234	0x3f326cb8	0.6969714
235	0x3f522451	0.82086664
236	0x3f4155fb	0.7552182
237	0xbd882081	-0.06646825
238	0xbe6e221f	-0.23255204
239	0xbcb1eb2f	-0.02171859
240	0xbf511ab0	-0.81681347
241	0xbeadc526	-0.33939475
242	0xbd5139fb	-0.051080685
243	0x3e2a6bc6	0.16642675
244	0x3ee604ae	0.44925445
245	0xbd69db3f	-0.057093855
246	0x3f02ae11	0.51046854
247	0x3eb53a46	0.35396022
248	0xbf84a548	-1.036294
249	0xbe7e6a9a	-0.24845353
250	0xbee041c2	-0.4380017
251	0x3ee1fd52	0.4413858
252	0xbf0f9456	-0.5608572
253	0x3f2c09fb	0.6720273
254	0x3e839cd9	0.25705603
255	0x3f4d9a4e	0.80313575

item_embed.weight f4 [578, 32]
0	0x3f91a729	1.1379138
1	0x3dd74b8f	0.105124585
2	0xbefdd953	-0.49579868
3	0x3f0992b4	0.53739476
4	0xbec17741	-0.37786296
5	0x3e8fbcd5	0.28073755
6	0xbe64ff58	-0.22363031
7	0xbf88bbe0	-1.0682335
8	0xbde34945	-0.110979594
9	0xbf603f4d	-0.8759659
10	0xbe18307f	-0.1486225
11	0x3f33fb90	0.7030573
12	0xbf4e1ece	-0.80515754
13	0xbe6f5cec	-0.2337529
14	0xbf1c39d9	-0.6102577
15	0x3edfd8e6	0.43720168
16	0xbd95e0ea	-0.073182896
17	0x3e1f8866	0.15579376
18	0xbf1bae3a	-0.60812724
19	0x3f8a1973	1.0789016
20	0xbf103fad	-0.5634716
21	0xbec5c8d9	-0.38629797
22	0xbee95131	-0.45569757
23	0x3f13caab	0.5773112
24	0x3e55dee7	0.20885812
25	0x3ecc5f57	0.3991649
26	0xbf622d7a	-0.8835064
27	0xbf64f46e	-0.8943547
28	0x3f2f1d2d	0.68403894
29	0xbc270ba4	-0.010195646
30	0xbf3377c7	-0.7010464
31	0xbebec1cc	-0.3725723
32	0xbf81484d	-1.010019
33	0x3e748e90	0.23882508
34	0x3ea319e8	0.31855702
35	0x3f03ec0b	0.5153205
36	0x3d28e0d6	0.041230045
37	0xbfa931bb	-1.3218302
38	0x3f3e6d6d	0.7438572
39	0x3f88396e	1.0642526
40	0xbf4b7045	-0.79468185
41	0xbee7b882	-0.45257956
42	0xbf461702	-0.7737886
43	0x3cc71104	0.024300106
44	0x3f214a3b	0.6300389
45	0xbd9d312d	-0.07675395
46	0xbe9079f3	-0.2821804
47	0x3f7c7a37	0.98623985
48	0x3f583b9a	0.84465945
49	0x3ebf0b3d	0.37313262
50	0xbf416a8d	-0.7555321
51	0xbfa21490	-1.2662525
52	0xbe9570ef	-0.29187724
53	0x3e8350bf	0.25647542
54	0x3f1456d4	0.5794499
55	0x3e4bb6dd	0.19893976
56	0xbf396cec	-0.72431827
57	0x3f4cf9c7	0.8006863
58	0x3f828c62	1.0199091
59	0xbe52b95e	-0.20578524
60	0xbf8ccbf7	-1.0999745
61	0xbc938a55	-0.018010298
62	0x3ef4dd92	0.47825295
63	0x3eeff28a	0.4686473
64	0xbf7b7e4e	-0.982396
65	0xbe283a3e	-0.16428468
66	0xbf3509e0	-0.70718193
67	0xbf8a715f	-1.0815848
68	0x3d4ad1b4	0.049516395
69	0x3f6ea240	0.93216324
70	0xbd3002df	-0.042971488
71	0x3ef6d8a1	0.4821215
72	0xbf78e7ea	-0.9722887
73	0xbedb21e0	-0.42799282
74	0xbf0e76b6	-0.5564989
75	0x3dae7f02	0.085203186
76	0x3f2014e0	0.6253185
77	0x3f0e9ba4	0.5570624
78	0xbe483282	-0.19550517
79	0x3d0e1b01	0.03469372
80	0x3ebae4c5	0.36502662
81	0xbf803177	-1.0015095
82	0x3fa20e43	1.2660602
83	0x3f97df47	1.1865014
84	0xbf5b897f	-0.8575668
85	0xbef7b1cd	-0.4837784
86	0x3f1efa5d	0.62100774
87	0xbce58296	-0.02801637
88	0x3f19c9f2	0.6007377
89	0xbed4ff9a	-0.4160126
90	0x3fa1ec16	1.2650173
91	0xbeb84404	-0.35989392
92	0xbfa04258	-1.2520247
93	0x3edf0144	0.43555653
94	0x3f73e81b	0.9527604
95	0xbee46c74	-0.44613993
96	0xbea5fe3c	-0.32420528
97	0x3eaf519f	0.3424196
98	0x3d93aa28	0.07210189
99	0xbe161f3d	-0.14660354
100	0xbec8e67e	-0.39238352
101	0xbeb997f0	-0.36248732
102	0x3c474044	0.012161318
103	0x3ea3574c	0.3190254
104	0xbdc607cc	-0.09669456
105	0x3d8e5c21	0.06951166
106	0xbd16818d	-0.036744643
107	0xbee8a22d	-0.4543623
108	0xbd40ac59	-0.047039364
109	0xbdfd80fd	-0.12378118
110	0xbdc049e2	-0.09389092
111	0x3c6d2087	0.014473087
112	0xbdfdf01c	-0.12399313
113	0x3f009dc7	0.5024075
114	0xbf18fdde	-0.5976237
115	0xbea8d34b	-0.32973704
116	0xbe2c73ff	-0.16841124
117	0x3dada752	0.084791794
118	0x3d1c2c55	0.038128216
119	0x3dbb4497	0.09143942
120	0xbdd0286b	-0.10163959
121	0x3e8b9fcd	0.27270356
122	0x3eef52f4	0.46742976
123	0x3eb8d890	0.36102724
124	0x3e47d190	0.19513535
125	0x3daf4a69	0.085591145
126	0x3e27110f	0.16315101
127	0xbc8a4ef7	-0.016883356
128	0x3dbf2f19	0.09335155
129	0xbf65fc9e	-0.8983859
130	0xbe2a618a	-0.1663877
131	0xbf3f04da	-0.7461678
132	0xbf4d671c	-0.8023546
133	0xbf6d2019	-0.926271
134	0xbf3a2b82	-0.7272264
135	0x3eb3743f	0.35049626
136	0x3f4a4cd8	0.79023504
137	0x3de31096	0.11087148
138	0x3f5b8009	0.8574224
139	0xbf430abf	-0.7618827
140	0x3f3f378a	0.7469412
141	0x3e675944	0.22592646
142	0xbf117539	-0.5681949
143	0x3f27e38e	0.65581596
144	0x3f78a2b1	0.9712325
145	0x3f0c5e9d	0.5483187
146	0xbda193e2	-0.078895345
147	0xbebe350e	-0.37149853
148	0x3e9e0641	0.30864146
149	0xbea4784a	-0.32123023
150	0xbf48627a	-0.78275263
151	0x3e9e4d0f	0.30918166
152	0xbf95ad8a	-1.1693585
153	0xbee6a3d8	-0.45046878
154	0x3f39e8be	0.7262076
155	0x3ed1829b	0.40919957
156	0xbf31db45	-0.69475204
157	0xbf82ac05	-1.0208746
158	0x3f0beeb8	0.5466113
159	0xbf2c9e2b	-0.67428845
160	0x3e359e1c	0.17736095
161	0x3f06dc09	0.52679497
162	0xbee6df2f	-0.4509215
163	0x3f396030	0.72412395
164	0x3f1dc350	0.6162615
165	0x3f71ce81	0.94455725
166	0x3f0497ff	0.5179443
167	0xbf16ee36	-0.5895723
168	0x3f661487	0.8987507
169	0xbdcb26be	-0.09919499
170	0xbf552af6	-0.8326868
171	0x3ef804fc	0.48441303
172	0x3f065dbf	0.52486795
173	0x3bedf414	0.0072617624
174	0xbe843f2a	-0.2582944
175	0xbecea25c	-0.40358245
176	0xbf2af4d9	-0.6677986
177	0x3b69ae56	0.003565689
178	0x3ddd2036	0.107971594
179	0xbe446ac0	-0.19181347
180	0xbeb5b6c7	-0.3549101
181	0xbe1c4b48	-0.15263093
182	0xbf022001	-0.50830084
183	0x3dd9348c	0.10605726
184	0xbf6203b6	-0.8828691
185	0x3f2163ec	0.63043094
186	0x3e89f825	0.26947132
187	0x3f0fff43	0.56248873
188	0x3f048f16	0.5178083
189	0x3f27844a	0.6543623
190	0x3f705adf	0.9388866
191	0x3ee292d9	0.4425266
192	0x3f750378	0.9570842
193	0x3f8a880e	1.082277
194	0xbedda092	-0.43286568
195	0xbfc8eceb	-1.5697302
196	0x3f841b9b	1.0320925
197	0x3fb4acdd	1.4115254
198	0xbfa4f1a6	-1.2886245
199	0x3f5bb6bb	0.858257
200	0xbfbc60c0	-1.4717026
201	0x3fbd3566	1.4781921
202	0x3f9d5e3f	1.2294387
203	0xbee4f34f	-0.4471688
204	0x3fa9291c	1.321567
205	0x3f589b35	0.8461183
206	0x3f22287f	0.6334304
207	0xbfb03131	-1.3765012
208	0xbf9a0e97	-1.2035702
209	0x3f78096b	0.9688937
210	0xbf93f3da	-1.1558793
211	0xbfc374f1	-1.5270063
212	0xbdc31b86	-0.09526734
213	0x3fb93fd0	1.4472599
214	0xbf98306c	-1.1889777
215	0xbf211c74	-0.6293404
216	0x3fb1ccd5	1.3890635
217	0x3f6e7a76	0.9315561
218	0x3f8487a6	1.0353897
219	0xbe398b26	-0.18119487
220	0x3fd8537d	1.6900479
221	0xbf97f246	-1.1870811
222	0x3f83d882	1.0300448
223	0x3fa29469	1.2701541
224	0x3f92d6d4	1.147181
225	0x3f3aa927	0.72914356
226	0xbe3c277c	-0.18374437
227	0xbfbc435b	-1.4708055
228	0xbec0ba29	-0.3764203
229	0x3f90a7ba	1.1301186
230	0xbf46e764	-0.77696824
231	0x3f9129d3	1.1340889
232	0xbfbbdc73	-1.4676651
233	0xbfa1ec14	-1.265017
234	0x3fa14af4	1.2600999
235	0xbe04135b	-0.12898009
236	0x3fb7ddfc	1.4364619
237	0xbf3921a6	-0.7231697
238	0xbf95586b	-1.1667608
239	0xbfac94e8	-1.3482943
240	0x3f4b2832	0.7935821
241	0x3d888334	0.0666565
242	0xbeff9a88	-0.49922585
243	0x3fccd828	1.6003466
244	0xbf3a4e9b	-0.7277619
245	0x3fc39087	1.5278481
246	0x3fb8bdb1	1.4432889
247	0x3f7286d5	0.9473699
248	0xbfb9d9ab	-1.4519552
249	0xbf620c2c	-0.8829982
250	0x3fb4bf4c	1.4120879
251	0x3e3700fb	0.17871468
252	0xbfade606	-1.3585823
253	0x3f0a8979	0.54116017
254	0x3f7621d4	0.9614537
255	0x3f9aae61	1.2084466

entity_embed.weight f4 [886, 32]
0	0xbdb73ffe	-0.089477524
1	0xbd9fced2	-0.0780312
2	0x3d4f5505	0.05061819
3	0x3d0bd110	0.034134924
4	0xbc69d103	-0.014271024
5	0xbd158e79	-0.036512826
6	0x3d98cfa8	0.07461482
7	0x3d9931d5	0.07480208
8	0x3cf4c478	0.02987884
9	0xbd82f793	-0.06394877
10	0xbd0166ff	-0.031592365
11	0xbdada748	-0.08479172
12	0xbd4a6a4b	-0.049417775
13	0xbcb7e796	-0.022449296
14	0xbc834323	-0.016023224
15	0x3d37899c	0.04480897
16	0xbd873543	-0.06601956
17	0x3d2df57c	0.04247044
18	0x3cd1e0df	0.025619922
19	0x3d8ed631	0.069744475
20	0x3d97a563	0.07404592
21	0x3c41a39a	0.011818791
22	0xbc1b9cf4	-0.00949787
23	0x3d7b0ba8	0.061290413
24	0xbcb2f174	-0.02184365
25	0xbc441202	-0.011967184
26	0x3c919f53	0.017776167
27	0x3d5a2a8b	0.05326323
28	0xbcfa2358	-0.030534431
29	0x3d667b1b	0.056269746
30	0xbd9c260a	-0.07624443
31	0xbd305cb0	-0.043057144
32	0x3da1b295	0.0789539
33	0xbd9c5750	-0.07633841
34	0x3d50fa98	0.051020235
35	0x3c7d9d28	0.0154793635
36	0x3cfd181b	0.030895283
37	0x3e2f68e1	0.17129852
38	0xbc980418	-0.01855664
39	0xbd3de93f	-0.04636502
40	0x3d986d08	0.07442671
41	0xbd488733	-0.04895706
42	0xbc0322f8	-0.008003943
43	0xbc57439c	-0.013138678
44	0x3db61edc	0.08892605
45	0xba41356d	-0.0007370327
46	0x3d7fc81b	0.062446695
47	0x3d8e4b8e	0.06948005
48	0xbc28ded5	-0.010307034
49	0x3d9723c9	0.07379872
50	0x3d8af4d3	0.06784978
51	0xbd579801	-0.052635197
52	0xbda870cb	-0.082246386
53	0xbcccf198	-0.025017545
54	0x3dc4eab0	0.096150756
55	0x3d385c7a	0.045010068
56	0x3d691b5c	0.056910858
57	0xbd99fde4	-0.07519129
58	0xbd8ac0fc	-0.0677509
59	0x3d1ad078	0.037796468
60	0x3d863b2b	0.06554254
61	0x3d669225	0.056291718
62	0x3d963e35	0.07336084
63	0x3c07ca8e	0.008288039
64	0x3d8a1cf3	0.06743803
65	0x3d193b6c	0.037410185
66	0x3d74df45	0.05978324
67	0xbd4872e6	-0.0489377
68	0x3d778ab1	0.060435
69	0xbd16f5c9	-0.036855493
70	0x3bebade5	0.0071923607
71	0xbdb1012b	-0.08642801
72	0x3cea1a33	0.028576946
73	0xbcdc9eac	-0.02693113
74	0xbd11d04b	-0.035599034
75	0x3d035a81	0.032068733
76	0x3d858d23	0.0652106
77	0xbdb60f0c	-0.08889589
78	0x3d1fbd25	0.03899874
79	0xbd90fcac	-0.07079443
80	0xbd127241	-0.035753492
81	0x3d8a41bc	0.06750819
82	0xbcee77f7	-0.029109938
83	0x3d12245d	0.03567921
84	0x3da4cffe	0.08047484
85	0xbd909f4b	-0.07061633
86	0x3bf32390	0.007420011
87	0x3d700431	0.058597747
88	0xbc225250	-0.00990732
89	0x3d367ca1	0.04455245
90	0xbde4493a	-0.11146779
91	0x3d2c3cc1	0.042050127
92	0x3d2969df	0.041360732
93	0x3ca65c97	0.020307822
94	0x3cfe11c5	0.031014333
95	0xbd89f246	-0.06735663
96	0xbcda648d	-0.026659274
97	0xbd681bd6	-0.05666717
98	0x3d358df1	0.04432482
99	0xbd9fdad3	-0.07805409
100	0x3d97f2b7	0.07419341
101	0x3d8ce637	0.068798475
102	0xbcf54df1	-0.029944392
103	0x3d486d90	0.048932612
104	0xbcefbe1e	-0.02926546
105	0xbad1e9ae	-0.0016015077
106	0x3d74c0ab	0.059754055
107	0xbd9686c6	-0.07349925
108	0x3d60e272	0.054903455
109	0x3a98a9e0	0.0011647306
110	0xbca48860	-0.02008456
111	0xbd692af2	-0.05692572
112	0x3cb531a4	0.022118397
113	0x3d2af9f6	0.041742288
114	0xbd024ce9	-0.03181163
115	0x3d376f2e	0.044783764
116	0xbae24637	-0.0017263357
117	0xbd11965e	-0.035543792
118	0x3d418f4c	0.0472558
119	0xbd79c50a	-0.060978927
120	0x3d64ef77	0.055892434
121	0x3c732fdf	0.014842956
122	0x3da206a4	0.07911423
123	0x3d071740	0.032981157
124	0x3b97cc12	0.0046324814
125	0xbd15b39e	-0.03654825
126	0x39c168da	0.0003688995
127	0x3d82cd99	0.06386871
128	0xbc82c067	-0.015960885
129	0xbc058e04	-0.008151535
130	0x3d1f8f1d	0.038954843
131	0x3cfdad96	0.030966561
132	0xbd4afdca	-0.04955844
133	0xbc830540	-0.015993714
134	0xbc09b2b7	-0.008404425
135	0xbd18c51d	-0.037297357
136	0x3c3a87c0	0.011384904
137	0xbd989470	-0.07450187
138	0xbda5c842	-0.08094837
139	0x3ca963cf	0.020677475
140	0xbb74b02f	-0.003733646
141	0xbcc16413	-0.02360729
142	0xbc1484a8	-0.009064831
143	0xbc0ece01	-0.008716107
144	0x3d8f7783	0.07005217
145	0x3d3e1143	0.04640318
146	0xbc9eff09	-0.01940872
147	0x3daadcb0	0.08342874
148	0xba350341	-0.0006905087
149	0xbd63b4ae	-0.05559223
150	0x3cee80d4	0.029114164
151	0xbcd49825	-0.025951454
152	0xbc334d86	-0.010943776
153	0xbbce5a3c	-0.006297378
154	0x3d450822	0.04810346
155	0xbb8ccd2f	-0.0042969207
156	0xbd995c4d	-0.07488308
157	0x3cb3eaa4	0.021962471
158	0xbd7185c9	-0.058965478
159	0x3d31c6ae	0.043402366
160	0xbd8d37cb	-0.06895407
161	0x3cb02f3a	0.021506894
162	0x3c29bbf4	0.010359753
163	0xbc0ef423	-0.008725199
164	0x3d0bbd94	0.034116343
165	0x3cb0a854	0.02156464
166	0x3d9b70a3	0.07589843
167	0x3c3f82ec	0.011688929
168	0x3cf10f55	0.029426256
169	0x3d85c210	0.06531155
170	0x3ba9e772	0.005185061
171	0xbd9dbbe9	-0.07701857
172	0xbd84fa19	-0.06493015
173	0x3d075c36	0.033046924
174	0xba6f0651	-0.00091180677
175	0x3d763c56	0.060116135
176	0xbd0ec906	-0.03485968
177	0xbccd0e6e	-0.025031295
178	0x3c94237e	0.01808333
179	0x3d2cefa6	0.042220734
180	0x3cf23d89	0.029570358
181	0xbacfbace	-0.0015848519
182	0x3c6cc465	0.014451121
183	0x3cf7681a	0.030201007
184	0xbcc65dcd	-0.02421465
185	0x3cb4ad43	0.022055274
186	0x3b77c6bb	0.0037807662
187	0xbd308f42	-0.04310537
188	0x3d440dd8	0.047864765
189	0xbc0a31b0	-0.008434698
190	0xbd8413f5	-0.06449119
191	0xbd6a7f85	-0.05725052
192	0xbd4076b7	-0.046988215
193	0xbc821f93	-0.015884196
194	0x3cdd8bbd	0.027044171
195	0xbdabc764	-0.0838764
196	0xbd8c23e1	-0.06842781
197	0xbd961d28	-0.0732978
198	0x3cff41a4	0.03115923
199	0xbda5af59	-0.080900855
200	0x3d4258bd	0.04744791
201	0x3d97ebfc	0.07418057
202	0x3c598b92	0.013277905
203	0x3c817ba2	0.015806023
204	0x3dc04ec0	0.0939002
205	0x3d9ac102	0.075563446
206	0x3c06079e	0.008180527
207	0xbce755c3	-0.028239137
208	0x3d52f334	0.051501468
209	0xbd1610ea	-0.036637224
210	0x3cee4af3	0.029088473
211	0xbd9797a3	-0.07401969
212	0xbd3c56f2	-0.045981355
213	0xbd1d4f9c	-0.038406
214	0xbd0ee634	-0.034887508
215	0xbbb1e381	-0.005428732
216	0xbcf80236	-0.030274492
217	0xbd1fe720	-0.039038777
218	0xbd214849	-0.039375577
219	0x3c88ecaf	0.016714422
220	0xbcce3cc7	-0.025175465
221	0xbcab8814	-0.02093891
222	0x3b775382	0.0037738984
223	0x3c4c99bd	0.012487826
224	0xbd76e885	-0.06028034
225	0xbc943abf	-0.018094419
226	0xbc7b4677	-0.015336624
227	0xbdbbb325	-0.091650285
228	0xbce32206	-0.027726185
229	0xbbf39b3a	-0.007434276
230	0x3c6f7072	0.014614211
231	0xbd7bc361	-0.061465625
232	0x3d3af7da	0.045646526
233	0xbbc51099	-0.0060139415
234	0x3d8678c5	0.06566004
235	0xbbe39094	-0.0069447253
236	0x3d2ab8f8	0.041680306
237	0xbca89501	-0.020578863
238	0xbd979791	-0.07401956
239	0xbd9c880b	-0.07643136
240	0xbd9bc368	-0.0760563
241	0x3d1b66cb	0.037939828
242	0x3d8d822b	0.06909593
243	0x3d9f7592	0.07786097
244	0x3d22410e	0.039612822
245	0xbdc1b358	-0.09458035
246	0x3da59aa5	0.08086137
247	0x3d640494	0.05566843
248	0x3d8940cf	0.067018144
249	0x3d1e0f8a	0.038589038
250	0xbd6051a1	-0.054765347
251	0x3c0bad61	0.0085252235
252	0x3c7d57ec	0.015462857
253	0x3a960167	0.001144451
254	0x3b777f6b	0.0037765156
255	0x3c48ce94	0.012256283

relation_embed.weight f4 [114, 32]
0	0xbc2f13d8	-0.010685883
1	0x3cd363dd	0.025804454
2	0xbcc5b48d	-0.024133945
3	0xbe1cc129	-0.1530806
4	0x3db5f927	0.08885413
5	0x3dd924d5	0.10602728
6	0x3d8a73f1	0.06760395
7	0xbe328701	-0.17434312
8	0xbddde672	-0.108349696
9	0xbd1eface	-0.038813405
10	0xbc211fa9	-0.0098342085
11	0xbd440b66	-0.047862433
12	0x3d9b46a5	0.07581834
13	0x3e3bfa9f	0.18357323
14	0x3dc11b09	0.09428985
15	0xbdc310bd	-0.09524677
16	0xbdd918f2	-0.10600461
17	0xbd6a9862	-0.05727423
18	0x3d1f9e86	0.03896954
19	0xbdbeff75	-0.09326068
20	0xbd7eb21a	-0.06218157
21	0x3c6b2953	0.014353114
22	0x3caf5b0b	0.021405717
23	0xbdcb6fd1	-0.09933437
24	0x3e105105	0.14093406
25	0x3d6e754c	0.05821733
26	0x3e2ae38b	0.16688363
27	0xbe4fbfa2	-0.20287946
28	0xbc518a17	-0.012789271
29	0xbd01302e	-0.03154009
30	0x3e1c7a75	0.15281089
31	0x3e26be97	0.16283642
32	0xbd1a419e	-0.037660234
33	0x3e2b80d5	0.16748364
34	0x3d531db2	0.05154199
35	0xbd2686f6	-0.040656053
36	0xbdcc689a	-0.09980889
37	0xbe5571c7	-0.20844184
38	0x3d9ae52d	0.07563243
39	0xbe2121fd	-0.15735622
40	0x3e45e41f	0.19325303
41	0xbcc4856b	-0.0239894
42	0xbe2e88f9	-0.17044438
43	0x3e517bcb	0.2045738
44	0xbe00075a	-0.12502804
45	0xbdba43dd	-0.09094975
46	0xbd8e109b	-0.06936761
47	0xbd270682	-0.04077769
48	0xbdbd9fc5	-0.09258989
49	0xbdfa59c0	-0.1222415
50	0xbae577da	-0.0017507032
51	0xbe529a7a	-0.2056674
52	0xbe1de426	-0.15419063
53	0x3d971cbf	0.0737853
54	0xbc6f3ea3	-0.014602336
55	0x3e367ae5	0.17820318
56	0x3dd249af	0.1026796
57	0xbc9aecd3	-0.018911755
58	0x3df5dff7	0.120056085
59	0xbd3c31ee	-0.045946054
60	0x3c15eea8	0.009151138
61	0x3d4823be	0.04886221
62	0xbcd19c0b	-0.025587102
63	0xbe14a8e6	-0.14517555
64	0x3e0e2d5f	0.13884495
65	0xbd5e5b72	-0.054286428
66	0xbbcee0e8	-0.006313432
67	0x3da7d2f5	0.08194534
68	0x3d33d666	0.04390564
69	0xbe1b2f1f	-0.15154694
70	0x3c18e6e9	0.009332397
71	0xbe32f93b	-0.17477886
72	0x3b4b52a9	0.003102461
73	0xbe3ce23b	-0.18445675
74	0x3dc767ff	0.097366326
75	0xbcc0cea5	-0.023536036
76	0xbb5d2e29	-0.0033749437
77	0xbe4570e5	-0.19281347
78	0x3dc788e1	0.097429045
79	0xbe2ecb67	-0.1706978
80	0xbe03f04a	-0.12884632
81	0x3e003e3a	0.12523738
82	0x3e25e28b	0.161997
83	0x3e433d15	0.1906627
84	0x3dc4d797	0.09611433
85	0xbe02669f	-0.1273446
86	0x3db93761	0.09043766
87	0x3de4e951	0.11177314
88	0x3e321657	0.17391334
89	0xbdd9fcdb	-0.106439315
90	0x3dc1a4b9	0.094552465
91	0x3c08b3a9	0.008343616
92	0x3dce5b55	0.10076014
93	0x3db478cf	0.08812105
94	0x3dd7eddf	0.10543417
95	0xbe0076c9	-0.12545313
96	0x3d8887fd	0.06666563
97	0xbe2f107d	-0.17096134
98	0xbdd9c435	-0.10633127
99	0xbcad4633	-0.021151638
100	0xbdc143c3	-0.09436753
101	0xbd842a7b	-0.06453415
102	0x3c279028	0.010227241
103	0x3e085d4b	0.13316838
104	0xbde4efd3	-0.11178555
105	0x3d921f27	0.07134848
106	0xbdd2aa21	-0.10286356
107	0xbd800c89	-0.06252391
108	0x3bf8974e	0.0075863963
109	0xbe491073	-0.19635181
110	0xbc20c6e8	-0.009813048
111	0xbe1a1e17	-0.15050541
112	0x3dee715d	0.11642716
113	0xbd93ee3b	-0.07223173
114	0x3c9f76fb	0.019465914
115	0x3da4ebcb	0.080527864
116	0xbe060417	-0.13087498
117	0xbe53dd13	-0.20689802
118	0xbd73b786	-0.059501193
119	0xbde10d47	-0.109888606
120	0x3e2160d1	0.15759589
121	0xbe189944	-0.14902216
122	0xbd972d8f	-0.073817365
123	0x3e40c4a5	0.18825014
124	0xbd6cefe6	-0.057845972
125	0xbe36b0c1	-0.17840864
126	0x3e3287c0	0.17434597
127	0x3e0f36b1	0.13985707
128	0xbdcf93c7	-0.10135608
129	0x3d77c50a	0.060490645
130	0xbe12ed39	-0.14348306
131	0xbda575fc	-0.08079144
132	0xbd23b276	-0.039965115
133	0x3dfeb457	0.12436741
134	0xbd0b80e4	-0.034058467
135	0xbddf7e7a	-0.10912795
136	0x3e0d68bf	0.13809489
137	0x3db90627	0.090343766
138	0x3c42f628	0.011899509
139	0xbde0f568	-0.109843075
140	0x3c0f2b49	0.008738347
141	0xbdc83d25	-0.097772874
142	0x3df1e873	0.11811914
143	0xbce23fc5	-0.027618298
144	0x3d23f2bd	0.040026415
145	0x3de994ff	0.11405372
146	0x3cb341f5	0.021882037
147	0x3dc5aadd	0.0965173
148	0x3d779982	0.06044913
149	0x3e09f5f1	0.13472725
150	0xbcd2f84b	-0.025753161
151	0xbe4aaa69	-0.19791569
152	0xbdc0aede	-0.09408353
153	0xbd7840b5	-0.060608584
154	0x3d0bf81c	0.034172162
155	0x3d17b60e	0.037038855
156	0xbdaa7823	-0.083236955
157	0xbe4124b1	-0.18861653
158	0xbde0c393	-0.10974803
159	0xbdbac540	-0.09119654
160	0xbe259fcd	-0.1617424
161	0xbd9234e7	-0.071389966
162	0xbdfd76eb	-0.123761974
163	0x3dbc6727	0.09199362
164	0x3d7b37e2	0.06133259
165	0x3db156ad	0.0865911
166	0x3d91604f	0.070984475
167	0x3d52cc8e	0.05146461
168	0xbd6a7e12	-0.057249136
169	0xbd70920a	-0.058733024
170	0xbd72c3cf	-0.05926877
171	0xbe0810a2	-0.13287595
172	0xbc886e73	-0.016654229
173	0xbe0c349d	-0.13691945
174	0xbe4747c7	-0.19460975
175	0x3de68b45	0.11257032
176	0xbd67c8d2	-0.056588
177	0x3d01c6b3	0.031683635
178	0xbd8522a7	-0.0650075
179	0xbdd48d5c	-0.10378525
180	0x3dbb9997	0.09160154
181	0xbd8a1d88	-0.06743914
182	0x3e36389f	0.17795037
183	0x3d9c0021	0.07617212
184	0xbb963cb6	-0.004584874
185	0xbdb00225	-0.08594159
186	0xb932ed1e	-0.00017063736
187	0xbe0d6816	-0.13809237
188	0x3c706b63	0.0146740405
189	0x3e262b74	0.16227514
190	0xbd503926	-0.05083575
191	0xbdd701da	-0.104984
192	0x3de8b70b	0.11363038
193	0x3e3abe85	0.1823674
194	0x3db448af	0.08802926
195	0x3e2ff375	0.17182715
196	0xbcaa4d56	-0.02078883
197	0x3e2e4ecd	0.17022248
198	0xbc80655a	-0.015673328
199	0xbd3ceeda	-0.046126224
200	0x3cd8e29d	0.026475245
201	0xbd00a0c5	-0.03140332
202	0xbb8b9818	-0.0042600743
203	0xbcb659d5	-0.022259632
204	0xbde829c8	-0.11336094
205	0xbde1ec38	-0.11031383
206	0x3d926929	0.07148964
207	0xbdba2b69	-0.09090311
208	0x3cedca77	0.029027207
209	0xbe0e5cad	-0.1390254
210	0xbd0dd220	-0.03462422
211	0x3e0bafe9	0.13641323
212	0x3d869241	0.065708645
213	0x3ccf5beb	0.025312385
214	0x3e3f431f	0.18677948
215	0x3dd2bf8d	0.10290442
216	0xbd126702	-0.035742767
217	0x3d33eb86	0.043925785
218	0x3cd0a1d5	0.025467793
219	0xbd8a2a73	-0.06746378
220	0xbdb9f6eb	-0.09080299
221	0x3cf61bd2	0.030042563
222	0xbe34d230	-0.17658305
223	0xbe0f92d9	-0.14020862
224	0x3c96211c	0.018326335
225	0xbe2d1fc1	-0.16906644
226	0xbe16c42a	-0.14723268
227	0xbd8c1209	-0.068393774
228	0x3d93ce45	0.07217077
229	0x3dafec75	0.085900225
230	0xbe2b096b	-0.16702811
231	0x3d57a61e	0.052648656
232	0xbdbe6e4e	-0.09298383
233	0xbd1b76c6	-0.037955068
234	0x3e1c6ba7	0.15275441
235	0x3dcbd90d	0.099535085
236	0x3dbafc03	0.09130099
237	0xbe0fcd53	-0.14043169
238	0xbdd50599	-0.10401458
239	0xbe27eebd	-0.16399665
240	0x3e0b3f09	0.13598265
241	0x3dd3513b	0.10318228
242	0x3e366605	0.17812355
243	0xbdf16841	-0.11787463
244	0x3df0abaf	0.11751496
245	0xbe42d95c	-0.19028229
246	0x3d9b6d7f	0.07589244
247	0xbe0d4109	-0.1379434
248	0x3df0242d	0.1172565
249	0xbe45509d	-0.19269033
250	0xbdfaba74	-0.12242594
251	0xbdcf5f92	-0.101256505
252	0xbd2c3382	-0.04204131
253	0xbe30bba7	-0.17259084
254	0xbe32fb74	-0.17478734
255	0xbda5486f	-0.08070456
