Knowledge_Graph_Recommendation/recommendation/stage2/trained_model/Douban/Embedding_based/dim32_lr0.001_l20.0001_TransR/dot/model0_epoch20.pth (torch, 728343 bytes, 5 tensors)

trans_M f4 [114, 32, 32]
-0.0010633243 0.00205913 0.009600003 0.021193264 0.005529806 0.03378066 0.0086093135 0.029558232
-0.011431092 -0.002814704 0.021903165 -0.016566895 -0.009525217 0.0037426916 -0.03200259 0.011789452
-0.02171928 0.02162573 -0.0065588844 0.017680764 -0.0026316077 0.0136983935 0.0031525327 0.003066512
0.011248466 -0.0059774513 0.017810205 0.03434467 0.025682928 0.027945973 -0.032499414 0.019252589
0.00045944197 -0.0217008 0.027074972 0.010571007 -0.023004048 -0.032572135 -0.021374637 -0.012163322
0.0044074506 0.0008355073 0.01827642 -0.039864164 -0.02167365 -0.03573767 0.026047917 0.035187334
0.026377352 -0.027171945 0.008222081 -0.027322175 0.039074745 0.02666488 0.040632907 -0.035803948
0.006830544 -0.027548928 -0.018254107 0.015082631 -0.023027811 0.024061585 -0.005595841 0.013192932
0.013995562 -0.00011099867 0.02454348 -0.04059777 0.019013217 -0.008089325 0.024770955 0.027414685
0.017633863 5.187198e-05 0.002425412 0.0070722625 -0.0037490602 0.026146749 -0.020128282 -0.0025943057
-0.016439037 0.0024246406 -0.031900957 0.01241397 -0.008720433 0.020132745 -0.0017496593 0.027756615
0.014114843 -0.010333753 0.02323475 0.024582671 -0.029419597 -0.020316461 0.016422791 0.01924332
0.008641379 0.0067978324 0.0344725 -0.007527923 -0.038560588 0.039668065 -0.040541142 0.028450066
0.020760575 -0.009191677 -0.015299723 0.005886562 -0.010724515 0.024886364 0.026516747 0.014356962
-0.018041378 -0.032982886 0.018079588 -0.0012161233 -0.04134132 -0.0049020005 0.033503693 0.017904157
0.010190111 -0.016968235 -0.03392216 -0.014931649 -0.020303153 -0.012142304 -0.033683855 -0.021695595
1.5659072e-05 0.023778284 -0.0028929955 -0.01474788 0.019852461 0.012605887 0.035835028 -0.027296035
-0.027480276 0.002196743 -0.010325324 0.037016187 -0.0053637167 -0.0059955954 -0.033323508 -0.0009612768
-0.032973208 -0.024514046 0.036599424 0.025569098 -0.011712918 -0.02053341 0.030877495 -0.019938873
0.02574951 0.013857098 0.01108725 -0.009954207 0.03294543 -0.03257828 -0.03502494 -0.0013984612
0.023950526 0.0388922 -0.0063419123 0.034568924 0.009509511 0.03462067 0.025331398 -0.0021167416
-0.032611284 0.0066915303 0.013559925 0.02964398 0.0032672032 -0.009680409 -0.014805108 -0.004974824
0.0061434163 -0.034539312 -0.016750516 -0.018922271 -0.013383219 0.029248077 0.023085022 -0.030062374
0.01678945 -0.034512598 0.007032422 0.025051562 0.020954346 -0.039614268 -0.002935631 -0.010724738
-0.0195432 -0.0007462235 0.008987512 0.018876141 0.003233855 0.025362786 -0.010036971 -0.0018726948
-0.04122614 -0.013481719 -0.016602596 -0.04119586 -0.0016394316 0.024298208 0.014545005 -0.018761536
0.026213551 -0.021264061 -0.003738413 -0.0053058267 -0.02440637 0.01062132 0.040174652 -0.0007415734
0.015699899 0.016884038 -0.036314193 0.015808178 0.024945995 -0.019835541 -0.008745629 -0.00837842
0.029376093 0.014027495 -0.0085797515 -0.03313527 -0.009682806 0.0072816615 0.00071647204 0.026246976
0.007215505 -0.002519959 -0.020647585 0.02210028 -0.0015295226 0.038532462 -0.008793835 -0.028199602
-0.027352488 0.00919731 0.0157485 0.022323215 0.014204703 -0.017425599 -0.015482201 -0.00027549537
0.02911272 -0.016148975 -0.003650777 0.03313858 0.020889962 0.010516603 -0.006489909 -0.009406258
00000000: 3e5f 8bba 78f2 063b 5549 1d3c 7f9d ad3c
00000010: 6033 b53b 975d 0a3d 140e 0d3c 1b24 f23c
00000020: 7a49 3bbc e676 38bb 446e b33c 4cb7 87bc
00000030: a80f 1cbc f247 753b 2615 03bd 8c28 413c
00000040: a2ec b1bc 7128 b13c e9eb d6bb 40d7 903c
00000050: 0d77 2cbb 3a6f 603c b99a 4e3b 89f7 483b
00000060: 7c4b 383c 7fde c3bb b5e6 913c ffac 0c3d
00000070: 0165 d23c f4ee e43c 1b1e 05bd 9bb7 9d3c
00000080: 42e1 f039 e0c5 b1bc 55cc dd3c 0432 2d3c
00000090: fc72 bcbc 5c6a 05bd dd19 afbc ac48 47bc
000000a0: 606c 903b f205 5b3a 6eb8 953c 9b48 23bd
000000b0: f08c b1bc aa61 12bd 7162 d53c 9820 103d
000000c0: 5115 d83c b397 debc e8b5 063c c1d2 dfbc
000000d0: d70c 203d 4e70 da3c b16e 263d 29a7 12bd
000000e0: c2d2 df3b 4aae e1bc a389 95bc 241d 773c
000000f0: d2a4 bcbc cd1c c53c 515d b7bb 2b27 583c
00000100: a44d 653c f5c7 e8b8 680f c93c d949 26bd
00000110: 9bc1 9b3c 1789 04bc 75ec ca3c c394 e03c
00000120: e474 903c 1d91 5938 a9f3 1e3b 70be e73b
00000130: cbb2 75bb b531 d63c 11e4 a4bc 3a05 2abb
00000140: 29ab 86bc b8e6 1e3b 94aa 02bd f763 4b3c
00000150: 26e0 0ebc 6ded a43c d354 e5ba d761 e33c
00000160: f141 673c e74e 29bc cd56 be3c 9961 c93c
00000170: 5e01 f1bc b56e a6bc 1789 863c 2ba4 9d3c
00000180: 9294 0d3c 5ac0 de3b 0933 0d3d ccac f6bb
00000190: b5f1 1dbd fb7a 223d 780e 26bd 1d10 e93c
000001a0: 1512 aa3c b098 16bc b0ab 7abc 10e4 c03b
000001b0: e0b5 2fbc 7dde cb3c a639 d93c 7739 6b3c
000001c0: 83cb 93bc 1019 07bd a51b 943c 5466 9fba
000001d0: 8455 29bd f6a0 a0bb 2b3b 093d bdab 923c
000001e0: 6cf4 263c f800 8bbc f6f1 0abd e0a3 74bc
000001f0: cc52 a6bc 84f0 46bc 15f8 09bd f6ba b1bc
00000200: 9a5b 8337 adca c23c 6998 3dbb 18a1 71bc
00000210: a1a1 a23c ec88 4e3c c0c7 123d ef9b dfbc
00000220: 511e e1bc 3bf7 0f3b 8c2b 29bc 499e 173d
00000230: 1ec2 afbb b376 c4bb 3b7e 08bd 32fe 7bba
00000240: ea0e 07bd aed1 c8bc 47e9 153d 4976 d13c
00000250: 8ae7 3fbc af35 a8bc cdf2 fc3c d956 a3bc
00000260: a3f0 d23c e208 633c 4ca7 353c f816 23bc
00000270: caf1 063d cd70 05bd 5076 0fbd 924c b7ba
00000280: e533 c43c 6d4d 1f3d d1cf cfbb 2598 0d3d
00000290: c8cd 1b3c 67ce 0d3d cb83 cf3c 08b9 0abb
000002a0: 6993 05bd a044 db3b 732a 5e3c efd7 f23c
000002b0: 931e 563b 949a 1ebc 2091 72bc d903 a3bb
000002c0: b64e c93b 1879 0dbd 6138 89bc e102 9bbc
000002d0: 4a45 5bbc aa99 ef3c cd1c bd3c 5e45 f6bc
000002e0: 078a 893c 155d 0dbd 3b70 e63b ef38 cd3c
000002f0: 73a8 ab3c 9242 22bd b763 40bb d0b6 2fbc
00000300: 1019 a0bc 369e 43ba 5c40 133c 23a2 9a3c
00000310: 15ef 533b 9ec5 cf3c 1c72 24bc 3675 f5ba
00000320: bedc 28bd 6ee2 5cbc 2b02 88bc fdbc 28bd
00000330: 32e2 d6ba 090d c73c 2c4e 6e3c cbb1 99bc
00000340: cdbd d63c f831 aebc 2a00 75bb 80dc adbb
00000350: deef c7bc 0c05 2e3c 2d8e 243d 2666 42ba
00000360: 139d 803c 6550 8a3c 31be 14bd 2780 813c
00000370: 8b5b cc3c 257e a2bc d449 0fbc a445 09bc
00000380: 22a6 f03c 94d3 653c 1692 0cbc d9b8 07bd
00000390: a2a4 1ebc 019b ee3b a0d1 3b3a e603 d73c
000003a0: 0b70 ec3b e525 25bb 2025 a9bc a50b b53c
000003b0: 437a c8ba 37d4 1d3d 0414 10bc da02 e7bc
000003c0: 5312 e0bc 50b0 163c 0003 813c 2ddf b63c
000003d0: d8ba 683c 21c0 8ebc 0fa9 7dbc 5d70 90b9
000003e0: cd7d ee3c db4a 84bc e041 6fbb 52bc 073d
000003f0: 6d21 ab3c d44d 2c3c 4da9 d4bb b51c 1abc

user_embed.weight f4 [447, 32]
0.28903264 -0.23661429 0.2622917 0.2143458 -0.3983511 -0.2410044 -0.30115068 0.19051565
-0.5191943 -0.062042776 0.44139042 0.252348 0.26610863 -0.04697204 -0.48456377 0.27888942
-0.40377495 0.008907257 0.06232052 -0.1184998 0.19120605 -0.11136098 0.101176724 -0.23479824
-0.44907346 -0.3627825 0.017430881 0.44388598 -0.24906376 0.13851738 0.022265999 0.23480755
0.20563231 -0.25667647 0.37030086 0.05522793 -0.18788297 -0.15529616 -0.09139966 0.14392093
-0.41645542 -0.040250726 0.49377102 0.25750265 0.19027 -0.10844841 -0.22705714 0.42114323
-0.48337972 -0.2923436 0.016051471 0.12208564 0.14224893 -0.08460866 0.11291315 0.030782377
-0.3812288 -0.065389484 -0.025098886 0.36067006 -0.048912082 0.20044692 0.35661566 0.37969613
0.109791525 -0.49068388 0.02070407 0.19827361 -0.41885796 -0.23648363 -0.6051613 0.13259222
-0.6571401 0.114482 0.501839 0.17679854 0.24116796 0.009897118 -0.14591528 0.019188624
-0.4192 -0.24397935 -0.02956851 0.09112912 0.18389218 -0.038621545 0.22906028 -0.10424503
-0.3261443 -0.2218712 -0.2662779 0.4388167 -0.34908882 0.24728899 0.10721879 0.21062435
0.3674346 -0.529883 -0.06184395 0.4633953 -0.59049684 -0.36392388 -0.16220555 0.2462784
-0.61809653 -0.35912675 0.42244297 0.3784478 0.42897004 0.022644117 -0.46192887 0.3332977
-0.5488113 -0.22683725 -0.022536661 0.06845874 0.12563394 -0.1924925 0.43972945 -0.4828985
-0.5030852 -0.14560963 -0.15754193 0.62665546 -0.014856743 0.5194489 0.5056683 0.5142533
0.26702186 -0.34399152 0.31777808 0.13615608 -0.23922026 -0.31570637 -0.14490943 0.2563954
-0.16566415 -0.15288238 0.46100372 0.34501958 0.09600492 0.018503195 -0.35677972 -0.0536508
-0.23570742 -0.22436997 0.07464237 -0.08601872 0.18653962 0.09282452 0.13301645 0.00634297
-0.28740096 -0.14903274 -0.08198489 0.32573974 -0.03770413 0.2770012 0.15201552 0.16860475
-0.58269 0.009115094 0.5838059 0.6715871 0.6957539 0.85716057 0.64139307 -0.33949184
-0.02547779 0.5312725 0.04335212 0.38192278 0.8436734 -0.23226076 0.70048624 0.72172326
0.3117284 -0.34369808 -0.19044662 0.85748994 -0.13110597 -0.33067948 0.8659188 -0.33599517
-0.9052312 -0.47705743 -0.32211688 -0.2988007 -0.33748645 -0.653395 0.52428263 0.91702217
-0.24606213 -0.07785993 -0.19992124 0.21564324 -0.07666569 -0.09584918 -0.17650913 0.25511226
-0.16877964 0.2141609 0.29455897 -0.08532578 0.18762532 0.21876857 -0.19504742 0.40041685
-0.04859774 -0.05274407 -0.16136625 0.16493368 0.21356913 -0.087404445 0.09075642 0.22667399
-0.2358695 0.2626684 -0.022214416 0.18690029 -0.24722017 0.15528393 0.1606746 0.2605287
0.15948503 -0.3571382 -0.17815112 0.19046937 -0.5101061 -0.62330043 -0.3694826 0.5744361
-0.3114924 0.06693813 0.44524938 0.505911 0.48491693 -0.016448736 -0.04618907 -0.010338924
-0.4998991 -0.13537325 -0.066292986 0.018974375 0.31354195 -0.05380066 0.32664043 0.28686064
-0.6829688 -0.046359908 -0.21902785 0.19524255 -0.33403352 0.37115464 0.080062926 0.51544046
00000000: 16fc 933e 044b 72be 194b 863e 777d 5b3e
00000010: adf4 cbbe dcc9 76be 6c30 9abe 8916 433e
00000020: ebe9 04bf 9120 7ebd edfd e13e c233 813e
00000030: 643f 883e c165 40bd be18 f8be 98ca 8e3e
00000040: 97bb cebe beef 113c cd43 7f3d 06b0 f2bd
00000050: 85cb 433e 3a11 e4bd be35 cf3d f36e 70be
00000060: f5ec e5be a1be b9be 35cb 8e3c 0645 e33e
00000070: 920a 7fbe 80d7 0d3e 2f67 b63c 6471 703e
00000080: 4791 523e 196b 83be 1398 bd3e af36 623d
00000090: 6564 40be f505 1fbe bf2f bbbd 0260 133e
000000a0: a539 d5be f2dd 24bd 8ecf fc3e 63d7 833e
000000b0: 24d6 423e 331a debd ab81 68be 16a0 d73e
000000c0: 8c7d f7be 0fae 95be 607e 833c 0908 fa3d
000000d0: b4a9 113e 4e47 adbd 023f e73d 532b fc3c
000000e0: 6c30 c3be ecea 85bd 2e9c cdbc bfa9 b83e
000000f0: 0958 48bd f541 4d3e 5496 b63e 8867 c23e
00000100: 61da e03d eb3a fbbe 959b a93c 3d08 4b3e
00000110: 8d74 d6be c428 72be daeb 1abf 41c6 073e
00000120: 553a 28bf 8a75 ea3d 8578 003f ad0a 353e
00000130: bcf4 763e 8627 223c d16a 15be 7631 9d3c
00000140: 62a1 d6be b9d5 79be a939 f2bc e7a1 ba3d
00000150: 3b4e 3c3e a031 1ebd c78e 6a3e 6b7e d5bd
00000160: 63fc a6be 3432 63be 9455 88be 95ac e03e
00000170: c5bb b2be 5339 7d3e 8695 db3d e9ad 573e
00000180: 6320 bc3e 6aa6 07bf 1550 7dbd 2642 ed3e
00000190: cd2a 17bf 3b54 babe 3619 26be 6830 7c3e
000001a0: 933b 1ebf 76df b7be 724a d83e e9c3 c13e
000001b0: f6a1 db3e 2880 b93c f181 ecbe ffa5 aa3e
000001c0: e67e 0cbf 0648 68be ce9e b8bc 1934 8c3d
000001d0: 2fa6 003e c11c 45be 3824 e13e 793e f7be
000001e0: 31ca 00bf b11a 15be ac52 21be 7e6c 203f
000001f0: b269 73bc 9afa 043f 7a73 013f 1ba6 033f
00000200: 17b7 883e a81f b0be cfb3 a23e 806c 0b3e
00000210: 28f6 74be 44a4 a1be 2363 14be 4246 833e
00000220: dda3 29be 338d 1cbe ae08 ec3e 68a6 b03e
00000230: 3a9e c43d 0394 973c d5ab b6be f1c0 5bbd
00000240: 495d 71be 3ec1 65be 19de 983d 952a b0bd
00000250: 3e04 3f3e c81a be3d 7735 083e b0d8 cf3b
00000260: 3826 93be 0a9c 18be b2e7 a7bd 5cc7 a63e
00000270: a56f 1abd 1ad3 8d3e f5a9 1b3e b9a6 2c3e
00000280: 2c2b 15bf 7a57 153c 4e74 153f 22ed 2b3f
00000290: ed1c 323f e06e 5b3f 5632 243f e0d1 adbe
000002a0: ccb6 d0bc 7901 083f fe91 313d 628b c33e
000002b0: fbfa 573f c4d5 6dbe 1153 333f dbc2 383f
000002c0: dd9a 9f3e 32f9 afbe 7004 43be 7684 5b3f
000002d0: a540 06be d24e a9be dbac 5d3f 8f07 acbe
000002e0: 3bbd 67bf df40 f4be 81ec a4be 68fc 98be
000002f0: 06cb acbe e544 27bf 6337 063f f7c1 6a3f
00000300: b6f7 7bbe 0775 9fbd 27b8 4cbe 95d1 5c3e
00000310: e702 9dbd 934c c4bd cfbe 34be 139e 823e
00000320: 92d4 2cbe ff4c 5b3e 6fd0 963e 48bf aebd
00000330: da20 403e de04 603e 83ba 47be 7003 cd3e
00000340: 6c0e 47bd 2a0a 58bd 323d 25be 60e4 283e
00000350: deb1 5a3e 1a01 b3bd 80de b93d 3a1d 683e
00000360: c687 71be 797c 863e 02fb b5bc ca62 3f3e
00000370: 4927 7dbe c002 1f3e e287 243e 0564 853e
00000380: 0b50 233e d1da b6be 3f6d 36be 670a 433e
00000390: 5096 02bf 9e90 1fbf d32c bdbe 3f0e 133f
000003a0: ef7b 9fbe dc16 893d baf7 e33e 6283 013f
000003b0: 0847 f83e 80bf 86bc c030 3dbd 9764 29bc
000003c0: c6f2 ffbe 499f 0abe 9ec4 87bd 2670 9b3c
000003d0: 9288 a03e 155e 5cbd 6a3d a73e 66df 923e
000003e0: 0bd7 2ebf e3e3 3dbd d648 60be aaed 473e
000003f0: 7106 abbe fb07 be3e 08f8 a33d e8f3 033f

item_embed.weight f4 [578, 32]
0.7047679 0.11049544 -0.24383178 0.3265149 -0.29042995 0.165908 -0.12657161 -0.69438285
0.019558113 -0.49718043 -0.0802345 0.45142683 -0.5487801 -0.024482155 -0.35326266 0.23037769
-0.120502144 0.12815753 -0.33246866 0.6829582 -0.28311232 -0.15840392 -0.2636276 0.2950224
0.105555646 0.17111526 -0.594674 -0.58815235 0.42639434 -0.024966154 -0.4735997 -0.2276809
-0.6906371 0.08974138 0.18603827 0.22159861 0.09376782 -0.78817916 0.41661498 0.72935724
-0.46663713 -0.25999832 -0.46536955 0.08306484 0.31856132 0.04045674 -0.1819378 0.62819487
0.5418712 0.3665023 -0.46161985 -0.86908 -0.2354703 0.09449673 0.24996223 0.071297154
-0.4273877 0.41453984 0.6576703 -0.26114514 -0.73005044 -0.114812315 0.17288409 0.18727328
-0.60085595 0.014470499 -0.5092655 -0.6689634 -0.020992883 0.61664546 0.020609513 0.25277156
-0.6136658 -0.19901697 -0.29320678 0.06110554 0.34567866 0.5009806 -0.21436736 0.14577751
0.13921891 -0.6592252 0.790954 0.7480024 -0.5209438 -0.42790118 0.35777313 -0.045389526
0.29186216 -0.24879318 0.7887643 -0.2016474 -0.823394 0.24895667 0.55190545 -0.14009126
-0.25131384 0.2603564 0.062532395 -0.08636755 -0.26663 -0.2191506 -0.03549615 0.16819783
-0.11407234 0.06112751 -0.0829978 -0.29477695 -0.07092851 -0.09219831 -0.13615951 0.06477483
-0.08176095 0.33918568 -0.40681478 -0.22330534 -0.12818794 0.025315197 -0.039080072 0.09144842
-0.00511961 0.21067128 0.38706604 0.26489997 0.19767334 0.12803817 0.04898528 -0.09640459
0.023700438 -0.49809113 -0.040877532 -0.3813478 -0.49728468 -0.53414625 -0.37064207 0.141373
0.43689868 0.082871616 0.50810117 -0.46200126 0.4031871 0.12436866 -0.30830017 0.35084426
0.6254764 0.2606508 -0.01495397 -0.14557919 0.11989309 -0.16402072 -0.42194492 0.24326524
-0.7312112 -0.1363878 0.36555687 0.18201399 -0.33240393 -0.61489683 0.22039615 -0.31597388
0.10267996 0.25734854 -0.29024673 0.43583408 0.4254218 0.6249678 0.26584762 -0.35103053
0.6095178 -0.06571997 -0.46605137 0.26134568 0.2825854 -0.011574068 -0.11336786 -0.2378553
-0.4127594 0.09064505 0.073316365 -0.057558097 -0.21048631 -0.0880344 -0.27421668 0.05097559
-0.5878041 0.3749447 0.09406804 0.3251619 0.2816204 0.40485606 0.57691026 0.18466955
0.5678323 0.63497365 -0.28999782 -1.0481086 0.62876916 0.9119799 -0.7412173 0.5891063
-0.9635905 1.0187737 0.6719162 -0.44905904 0.7923864 0.41837394 0.5252093 -0.8625078
-0.7256296 0.5494523 -0.62280256 -0.98291045 -0.034148853 0.7644991 -0.7007394 -0.36081728
0.8591578 0.48687437 0.5279271 -0.2670979 0.9794052 -0.76694405 0.3777574 0.7324476
0.77677566 0.3668148 -0.0051608076 -1.0070151 -0.34864143 0.68547726 -0.4043869 0.7829687
-1.0240836 -0.84911305 0.8557197 -0.068848945 0.97894967 -0.40015057 -0.86844 -0.8751328
0.39886618 0.20604867 -0.15828706 1.0559 -0.5268426 0.8252775 0.9803525 0.63099533
-0.9712692 -0.42215043 0.89335316 0.07198577 -0.8872962 0.2983846 0.4733851 0.7515864
00000000: ab6b 343f 6f4b e23d 0aaf 79be f62c a73e
00000010: 3cb3 94be c9e3 293e fd9b 01be 13c3 31bf
00000020: 5638 a03c 6f8e febe fc51 a4bd 6b21 e73e
00000030: da7c 0cbf cd8e c8bc d8de b4be 21e8 6b3e
00000040: d4c9 f6bd ba3b 033e 5539 aabe 59d6 2e3f
00000050: 19f4 90be a334 22be 32fa 86be 2d0d 973e
00000060: 8f2d d83d d738 2f3e 8e3c 18bf 2791 16bf
00000070: 5c50 da3e d285 ccbc a97b f2be 2f25 69be
00000080: 98cd 30bf 54ca b73d d180 3e3e bfea 623e
00000090: 5809 c03d 1cc6 49bf 8f4e d53e 28b7 3a3f
000000a0: 10eb eebe 801e 85be eb44 eebe e61d aa3d
000000b0: 781a a33e f7b5 253d e74d 3abe 61d1 203f
000000c0: 12b8 0a3f 31a6 bb3e 7059 ecbe 077c 5ebf
000000d0: 201f 71be 8087 c13d 19f6 7f3e 3e04 923d
000000e0: 90d2 dabe 913e d43e 155d 283f d1b4 85be
000000f0: 96e4 3abf b822 ebbd 8708 313e 91c4 3f3e
00000100: b2d1 19bf ac15 6d3c 395f 02bf 2f41 2bbf
00000110: 44f9 abbc 7adc 1d3f 48d5 a83c 466b 813e
00000120: 3419 1dbf 1bcb 4bbe 331f 96be cd49 7a3d
00000130: cbfc b03e 4440 003f 1e83 5bbe b346 153e
00000140: 678f 0e3e fcc2 28bf f67b 4a3f 167d 3f3f
00000150: 935c 05bf dd15 dbbe 0a2e b73e 5eea 39bd
00000160: f56e 953e a4c3 7ebe 75ec 493f a87c 4ebe
00000170: f3c9 52bf 7fee 7e3e ad49 0d3f 1574 0fbe
00000180: 35ac 80be 6f4d 853e fc10 803d 78e1 b0bd
00000190: ba83 88be 0469 60be 6964 11bd 0d3c 2c3e
000001a0: c29e e9bd d760 7a3d c0fa a9bd 01ed 96be
000001b0: f742 91bd 78d2 bcbd 666d 0bbe aba8 843d
000001c0: 4972 a7bd bfa9 ad3e 074a d0be 28aa 64be
000001d0: b343 03be d161 cf3c 6d12 20bd 4f49 bb3d
000001e0: 67c2 a7bb 36ba 573e 852d c63e f8a0 873e
000001f0: e16a 4a3e 701c 033e caa4 483d c56f c5bd
00000200: 6c27 c23c cd05 ffbe 336f 27bd 0540 c3be
00000210: 199c febe cfbd 08bf ccc4 bdbe 15c4 103e
00000220: 2fb1 df3e 98b8 a93d eb12 023f 6e8b ecbe
00000230: 8a6e ce3e ffb4 fe3d 85d9 9dbe dca1 b33e
00000240: 391f 203f 0674 853e 7f01 75bc b612 15be
00000250: 828a f53d 0cf5 27be 2a09 d8be 861a 793e
00000260: a830 3bbf 3ea9 0bbe 452a bb3e e061 3a3e
00000270: d930 aabe e169 1dbf 87af 613e 54c7 a1be
00000280: df49 d23d 30c3 833e 389b 94be a525 df3e
00000290: e3d0 d93e e4fd 1f3f 2e1d 883e 46ba b3be
000002a0: 5c09 1c3f 3198 86bd 499e eebe 1acf 853e
000002b0: 09af 903e 29a1 3dbc 692d e8bd 5790 73be
000002c0: 3355 d3be 1da4 b93d e426 963d 0ac2 6bbd
000002d0: b989 57be 614b b4bd 2166 8cbe c8cb 503d
000002e0: 547a 16bf c0f8 bf3e bfa6 c03d 9f7b a63e
000002f0: 8d30 903e 4b49 cf3e 64b0 133f 041a 3d3e
00000300: 755d 113f a28d 223f 987a 94be 6c28 86bf
00000310: 04f7 203f 8477 693f 6bc0 3dbf accf 163f
00000320: dead 76bf 2d67 823f b302 2c3f 11eb e5be
00000330: d6d9 4a3f 1c35 d63e 1e74 063f 50cd 5cbf
00000340: ddc2 39bf e8a8 0c3f fd6f 1fbf 05a0 7bbf
00000350: abdf 0bbd 37b6 433f a863 33bf 0bbd b8be
00000360: c4f1 5b3f 9947 f93e 3b26 073f 0ec1 88be
00000370: 4dba 7a3f 7256 44bf 6b69 c13e b081 3b3f
00000380: c5da 463f 26cf bb3e fe1b a9bb dfe5 80bf
00000390: 2181 b2be 707b 2f3f cd0b cfbe a370 483f
000003a0: 2c15 83bf 795f 59bf 7210 5b3f ad00 8dbd
000003b0: 729c 7a3f 89e0 ccbe 1552 5ebf b408 60bf
000003c0: 3038 cc3e 6cfe 523e 0116 22be bb27 873f
000003d0: 28df 06bf 6345 533f 62f8 7a3f e988 213f
000003e0: 19a5 78bf 1a24 d8be cbb2 643f 466d 933d
000003f0: d825 63bf dec5 983e 885f f23e f767 403f

entity_embed.weight f4 [886, 32]
-0.07044758 -0.07802643 0.0504207 0.034050602 -0.014175073 -0.036464505 0.074568756 0.07144839
0.029859485 -0.062040918 -0.031562187 -0.08419462 -0.04879142 -0.022264997 -0.015702093 0.044698287
-0.066042855 0.042416643 0.024917055 0.040714357 0.073858224 0.011757857 -0.0077368934 0.061035283
-0.020621931 -0.01175619 0.01365816 0.052792847 -0.029716317 0.056271996 -0.07473408 -0.041994818
0.07849569 -0.0762619 0.050779656 0.015354999 0.030906368 0.048621755 -0.018307244 -0.04529835
0.07398301 -0.04886587 -0.0066489424 -0.013185747 0.085238956 -0.0007325643 0.062392104 0.06524444
-0.009455032 0.073796034 0.05251405 -0.0514891 -0.08209662 -0.02481753 0.07236645 0.04497013
0.055631258 -0.07392849 -0.06687842 0.03888056 0.064141914 0.05630535 0.072688065 0.008175932
0.054799236 0.037281945 0.05945234 -0.047301553 0.060406677 -0.03600472 0.0071923584 -0.086140424
0.026341401 -0.026732767 -0.0327867 0.032064665 0.063927084 -0.08767588 0.0390489 -0.070818394
-0.03548136 0.06654168 -0.02543702 0.030862493 0.07894107 -0.07055816 0.0066840798 0.058656592
-0.009122433 0.044417158 -0.07714225 0.040271334 0.03688229 0.019647412 0.030092249 -0.066401094
-0.026641697 -0.056629993 0.04432129 -0.07804613 0.074111 0.06874162 -0.030104907 0.048400674
-0.02930643 -0.0015985366 0.05979532 -0.073272966 0.054915667 0.0011588637 -0.020151036 -0.056936085
0.022083474 0.041523617 -0.031709645 0.04472973 -0.0017202093 -0.03553458 0.047256388 -0.060980346
0.055884015 0.014786557 0.07424334 0.0329383 0.0046395063 -0.036559105 0.00025398456 0.06387323
-0.015951047 -0.0077951113 0.038890064 0.02981833 -0.048301503 -0.015344366 -0.007905245 -0.037152845
0.011062794 -0.07449912 -0.07288346 0.020023515 -0.003216238 -0.02355519 -0.008792112 -0.008368577
0.06849976 0.044179242 -0.019378994 0.083327554 -0.00039623855 -0.055558473 0.028304445 -0.02591676
-0.0073960647 -0.005788877 0.04770359 -0.004129901 -0.07420206 0.017096799 -0.057261925 0.040261313
-0.06894913 0.021022832 0.01031166 -0.008086288 0.033948094 0.02133564 0.07583161 0.011097387
0.028852375 0.06530908 0.0020467301 -0.075880855 -0.064832255 0.03304853 -0.0008445725 0.059854314
-0.034701154 -0.025050767 0.018075865 0.04215646 0.029406263 -0.0015803687 0.014388061 0.030197484
-0.0182525 0.021745685 0.0037182923 -0.042996455 0.047130216 -0.007928177 -0.06416783 -0.055013914
-0.046457324 -0.015167903 0.026839128 -0.08173706 -0.06155239 -0.06997691 0.02122429 -0.08047121
0.042978365 0.071847625 0.0064607393 0.01581082 0.071679324 0.07280927 0.00809156 -0.025754413
0.04394045 -0.035864923 0.025611449 -0.060542926 -0.045952443 -0.014623129 -0.033002846 -0.0049484046
-0.025631847 -0.038214765 -0.037038308 0.016820513 -0.009070681 -0.019235082 0.0011212365 0.010841301
-0.059797462 -0.017549569 -0.015303051 -0.08673061 -0.027688053 -0.0053719324 0.012338483 -0.060243357
0.043913603 -0.00434625 0.06356083 -0.0069103655 0.03623593 -0.020051673 -0.07202585 -0.07093644
-0.07339253 0.037967764 0.06887923 0.050843075 0.03945849 -0.02108645 0.078372024 0.054699305
0.05319824 0.036984332 -0.050607227 0.00849938 0.012345484 0.00072849577 0.002983399 0.009971958
00000000: d246 90bd 52cc 9fbd f085 4e3d a578 0b3d
00000010: 913e 68bc ce5b 15bd 81b7 983d 8953 923d
00000020: e19b f43c 9e1e 7ebd 5a47 01bd 3b6e acbd
00000030: 83d9 47bd 1565 b6bc ada1 80bc 8d15 373d
00000040: 7a41 87bd 13bd 2d3d da1e cc3c 19c4 263d
00000050: fb42 973d 07a4 403c c485 fdbb 2200 7a3d
00000060: 53ef a8bc 099d 40bc 7ac6 5f3c 503d 583d
00000070: a26f f3bc 777d 663d 2e0e 99bd c202 2cbd
00000080: 59c2 a03d 332f 9cbd 54fe 4f3d 8993 7b3c
00000090: 5a2f fd3c 9b27 473d 13f9 95bc c38a 39bd
000000a0: 6884 973d 9427 48bd 5fdf d9bb 0809 58bc
000000b0: c391 ae3d 8f09 40ba dd8e 7f3d e19e 853d
000000c0: 47e9 1abc 6022 973d f918 573d 3ce6 52bd
000000d0: 4622 a8bd 224e cbbc dd34 943d 9932 383d
000000e0: 9add 633d d267 97bd 8ef7 88bd 3941 1f3d
000000f0: d65c 833d 70a0 663d 7bdd 943d 58f4 053c
00000100: 2a75 603d f4b4 183d 4c84 733d 46bf 41bd
00000110: fe6c 773d af79 13bd e0ad eb3b 646a b0bd
00000120: ecc9 d73c adfe dabc 594b 06bd 3d56 033d
00000130: 34ec 823d 698f b3bd bdf1 1f3d 3c09 91bd
00000140: e754 11bd 0147 883d 4c61 d0bc 57d3 fc3c
00000150: dbab a13d cc80 90bd 2006 db3b e541 703d
00000160: 4276 15bc c4ee 353d c2fc 9dbd 8ef3 243d
00000170: e211 173d 9cf3 a03c 0584 f63c 4cfd 87bd
00000180: b03f dabc daf4 67bd 3e8a 353d a6d6 9fbd
00000190: 82c7 973d 68c8 8c3d 919e f6bc c93f 463d
000001a0: 0a14 f0bc fd85 d1ba f0eb 743d 2310 96bd
000001b0: 40ef 603d 03e5 973a c913 a5bc d035 69bd
000001c0: 67e8 b43c ab14 2a3d f9e1 01bd 8536 373d
000001d0: a578 e1ba b58c 11bd ea8f 413d 87c6 79bd
000001e0: a3e6 643d 5143 723c e40c 983d 50ea 063d
000001f0: 0007 983b 00bf 15bd 3b29 8539 f8cf 823d
00000200: c5ab 82bc 226e ffbb 304b 1f3d 9245 f43c
00000210: ccd7 45bd f066 7bbc 0085 01bc 952d 18bd
00000220: b940 353c ff92 98bd ec43 95bd 5b08 a43c
00000230: 85c7 52bb d0f6 c0bc ca0c 10bc 5b1c 09bc
00000240: 9a49 8c3d 4bf5 343d b2c0 9ebc a3a7 aa3d
00000250: 3dbe cfb9 4891 63bd b9de e73c 634f d4bc
00000260: b05a f2bb 9fb0 bdbb d764 433d 1f54 87bb
00000270: 40f7 97bd 960e 8c3c 7b8b 6abd 0ce9 243d
00000280: 3435 8dbd 1338 ac3c 3df2 283c 5a7c 04bc
00000290: 280d 0b3d 15c8 ae3c 9a4d 9b3d d1d1 353c
000002a0: d15b ec3c c4c0 853d 6f22 063b 6c67 9bbd
000002b0: c6c6 84bd e55d 073d 4d66 5dba cc29 753d
000002c0: cc22 0ebd 4437 cdbc d613 943c 41ac 2c3d
000002d0: 67e5 f03c 6024 cfba e7bb 6b3c b760 f73c
000002e0: 4486 95bc 0224 b23c 98ae 733b 0d1d 30bd
000002f0: 9d0b 413d 2fe5 01bc 6c6a 83bd 4556 61bd
00000300: 094a 3ebd cc82 78bc bbdd db3c c265 a7bd
00000310: 5c1e 7cbd 0e50 8fbd 90de ad3c 17ce a4bd
00000320: 150a 303d d924 933d 9cb4 d33b b185 813c
00000330: 9ccc 923d 071d 953d 7692 043c ebfa d2bc
00000340: e7fa 333d 19e7 12bd 1acf d13c dcfb 77bd
00000350: a138 3cbd d995 6fbc fe2d 07bd 3a26 a2bb
00000360: e1f9 d1bc 1687 1cbd 7bb5 17bd 2ccb 893c
00000370: 329d 14bc e492 9dbc 74f6 923a b69f 313c
00000380: 2fee 74bd 1dc4 8fbc a6b9 7abc d19f b1bd
00000390: 0ed2 e2bc 0907 b0bb 5927 4a3c bdc1 76bd
000003a0: c0de 333d fd6a 8ebb 2e2c 823d 5970 e2bb
000003b0: 206c 143d 6843 a4bc 4a82 93bd 2047 91bd
000003c0: d34e 96bd 1684 1b3d 8e10 8d3d d440 503d
000003d0: 3a9f 213d 7ebd acbc 8381 a03d 610c 603d
000003e0: 66e6 593d e27c 173d 8649 4fbd fc40 0b3c
000003f0: b744 4a3c 86f8 3e3a 2185 433b 6c61 233c

relation_embed.weight f4 [114, 32]
-0.010685883 0.025804454 -0.024133945 -0.1530806 0.08885413 0.10602728 0.06760395 -0.17434312
-0.108349696 -0.038813405 -0.0098342085 -0.047862433 0.07581834 0.18357323 0.09428985 -0.09524677
-0.10600461 -0.05727423 0.03896954 -0.09326068 -0.06218157 0.014353114 0.021405717 -0.09933437
0.14093406 0.05821733 0.16688363 -0.20287946 -0.012789271 -0.03154009 0.15281089 0.16283642
-0.037660234 0.16748364 0.05154199 -0.040656053 -0.09980889 -0.20844184 0.07563243 -0.15735622
0.19325303 -0.0239894 -0.17044438 0.2045738 -0.12502804 -0.09094975 -0.06936761 -0.04077769
-0.09258989 -0.1222415 -0.0017507032 -0.2056674 -0.15419063 0.0737853 -0.014602336 0.17820318
0.1026796 -0.018911755 0.120056085 -0.045946054 0.009151138 0.04886221 -0.025587102 -0.14517555
0.13884495 -0.054286428 -0.006313432 0.08194534 0.04390564 -0.15154694 0.009332397 -0.17477886
0.003102461 -0.18445675 0.097366326 -0.023536036 -0.0033749437 -0.19281347 0.097429045 -0.1706978
-0.12884632 0.12523738 0.161997 0.1906627 0.09611433 -0.1273446 0.09043766 0.11177314
0.17391334 -0.106439315 0.094552465 0.008343616 0.10076014 0.08812105 0.10543417 -0.12545313
0.06666563 -0.17096134 -0.10633127 -0.021151638 -0.09436753 -0.06453415 0.010227241 0.13316838
-0.11178555 0.07134848 -0.10286356 -0.06252391 0.0075863963 -0.19635181 -0.009813048 -0.15050541
0.11642716 -0.07223173 0.019465914 0.080527864 -0.13087498 -0.20689802 -0.059501193 -0.109888606
0.15759589 -0.14902216 -0.073817365 0.18825014 -0.057845972 -0.17840864 0.17434597 0.13985707
-0.10135608 0.060490645 -0.14348306 -0.08079144 -0.039965115 0.12436741 -0.034058467 -0.10912795
0.13809489 0.090343766 0.011899509 -0.109843075 0.008738347 -0.097772874 0.11811914 -0.027618298
0.040026415 0.11405372 0.021882037 0.0965173 0.06044913 0.13472725 -0.025753161 -0.19791569
-0.09408353 -0.060608584 0.034172162 0.037038855 -0.083236955 -0.18861653 -0.10974803 -0.09119654
-0.1617424 -0.071389966 -0.123761974 0.09199362 0.06133259 0.0865911 0.070984475 0.05146461
-0.057249136 -0.058733024 -0.05926877 -0.13287595 -0.016654229 -0.13691945 -0.19460975 0.11257032
-0.056588 0.031683635 -0.0650075 -0.10378525 0.09160154 -0.06743914 0.17795037 0.07617212
-0.004584874 -0.08594159 -0.00017063736 -0.13809237 0.0146740405 0.16227514 -0.05083575 -0.104984
0.11363038 0.1823674 0.08802926 0.17182715 -0.02078883 0.17022248 -0.015673328 -0.046126224
0.026475245 -0.03140332 -0.0042600743 -0.022259632 -0.11336094 -0.11031383 0.07148964 -0.09090311
0.029027207 -0.1390254 -0.03462422 0.13641323 0.065708645 0.025312385 0.18677948 0.10290442
-0.035742767 0.043925785 0.025467793 -0.06746378 -0.09080299 0.030042563 -0.17658305 -0.14020862
0.018326335 -0.16906644 -0.14723268 -0.068393774 0.07217077 0.085900225 -0.16702811 0.052648656
-0.09298383 -0.037955068 0.15275441 0.099535085 0.09130099 -0.14043169 -0.10401458 -0.16399665
0.13598265 0.10318228 0.17812355 -0.11787463 0.11751496 -0.19028229 0.07589244 -0.1379434
0.1172565 -0.19269033 -0.12242594 -0.101256505 -0.04204131 -0.17259084 -0.17478734 -0.08070456
00000000: d813 2fbc dd63 d33c 8db4 c5bc 29c1 1cbe
00000010: 27f9 b53d d524 d93d f173 8a3d 0187 32be
00000020: 72e6 ddbd cefa 1ebd a91f 21bc 660b 44bd
00000030: a546 9b3d 9ffa 3b3e 091b c13d bd10 c3bd
00000040: f218 d9bd 6298 6abd 869e 1f3d 75ff bebd
00000050: 1ab2 7ebd 5329 6b3c 0b5b af3c d16f cbbd
00000060: 0551 103e 4c75 6e3d 8be3 2a3e a2bf 4fbe
00000070: 178a 51bc 2e30 01bd 757a 1c3e 97be 263e
00000080: 9e41 1abd d580 2b3e b21d 533d f686 26bd
00000090: 9a68 ccbd c771 55be 2de5 9a3d fd21 21be
000000a0: 1fe4 453e 6b85 c4bc f988 2ebe cb7b 513e
000000b0: 5a07 00be dd43 babd 9b10 8ebd 8206 27bd
000000c0: c59f bdbd c059 fabd da77 e5ba 7a9a 52be
000000d0: 26e4 1dbe bf1c 973d a33e 6fbc e57a 363e
000000e0: af49 d23d d3ec 9abc f7df f53d ee31 3cbd
000000f0: a8ee 153c be23 483d 0b9c d1bc e6a8 14be
00000100: 5f2d 0e3e 725b 5ebd e8e0 cebb f5d2 a73d
00000110: 66d6 333d 1f2f 1bbe e9e6 183c 3bf9 32be
00000120: a952 4b3b 3be2 3cbe ff67 c73d a5ce c0bc
00000130: 292e 5dbb e570 45be e188 c73d 67cb 2ebe
00000140: 4af0 03be 3a3e 003e 8be2 253e 153d 433e
00000150: 97d7 c43d 9f66 02be 6137 b93d 51e9 e43d
00000160: 5716 323e dbfc d9bd b9a4 c13d a9b3 083c
00000170: 555b ce3d cf78 b43d dfed d73d c976 00be
00000180: fd87 883d 7d10 2fbe 35c4 d9bd 3346 adbc
00000190: c343 c1bd 7b2a 84bd 2890 273c 4b5d 083e
000001a0: d3ef e4bd 271f 923d 21aa d2bd 890c 80bd
000001b0: 4e97 f83b 7310 49be e8c6 20bc 171e 1abe
000001c0: 5d71 ee3d 3bee 93bd fb76 9f3c cbeb a43d
000001d0: 1704 06be 13dd 53be 86b7 73bd 470d e1bd
000001e0: d160 213e 4499 18be 8f2d 97bd a5c4 403e
000001f0: e6ef 6cbd c1b0 36be c087 323e b136 0f3e
00000200: c793 cfbd 0ac5 773d 39ed 12be fc75 a5bd
00000210: 76b2 23bd 57b4 fe3d e480 0bbd 7a7e dfbd
00000220: bf68 0d3e 2706 b93d 28f6 423c 68f5 e0bd
00000230: 492b 0f3c 253d c8bd 73e8 f13d c53f e2bc
00000240: bdf2 233d ff94 e93d f541 b33c ddaa c53d
00000250: 8299 773d f1f5 093e 4bf8 d2bc 69aa 4abe
00000260: deae c0bd b540 78bd 1cf8 0b3d 0eb6 173d
00000270: 2378 aabd b124 41be 93c3 e0bd 40c5 babd
00000280: cd9f 25be e734 92bd eb76 fdbd 2767 bc3d
00000290: e237 7b3d ad56 b13d 4f60 913d 8ecc 523d
000002a0: 127e 6abd 0a92 70bd cfc3 72bd a210 08be
000002b0: 736e 88bc 9d34 0cbe c747 47be 458b e63d
000002c0: d2c8 67bd b3c6 013d a722 85bd 5c8d d4bd
000002d0: 9799 bb3d 881d 8abd 9f38 363e 2100 9c3d
000002e0: b63c 96bb 2502 b0bd 1eed 32b9 1668 0dbe
000002f0: 636b 703c 742b 263e 2639 50bd da01 d7bd
00000300: 0bb7 e83d 85be 3a3e af48 b43d 75f3 2f3e
00000310: 564d aabc cd4e 2e3e 5a65 80bc daee 3cbd
00000320: 9de2 d83c c5a0 00bd 1898 8bbb d559 b6bc
00000330: c829 e8bd 38ec e1bd 2969 923d 692b babd
00000340: 77ca ed3c ad5c 0ebe 20d2 0dbd e9af 0b3e
00000350: 4192 863d eb5b cf3c 1f43 3f3e 8dbf d23d
00000360: 0267 12bd 86eb 333d d5a1 d03c 732a 8abd
00000370: ebf6 b9bd d21b f63c 30d2 34be d992 0fbe
00000380: 1c21 963c c11f 2dbe 2ac4 16be 0912 8cbd
00000390: 45ce 933d 75ec af3d 6b09 2bbe 1ea6 573d
000003a0: 4e6e bebd c676 1bbd a76b 1c3e 0dd9 cb3d
000003b0: 03fc ba3d 53cd 0fbe 9905 d5bd bdee 27be
000003c0: 093f 0b3e 3b51 d33d 0566 363e 4168 f1bd
000003d0: afab f03d 5cd9 42be 7f6d 9b3d 0941 0dbe
000003e0: 2d24 f03d 9d50 45be 74ba fabd 925f cfbd
000003f0: 8233 2cbd a7bb 30be 74fb 32be 6f48 a5bd
