Knowledge_Graph_Recommendation/recommendation/stage2/trained_model/Douban/Embedding_based/dim32_lr0.001_l20.0001_TransR/dot/model0_epoch10.pth (torch, 728343 bytes, 5 tensors)

trans_M f4 [114, 32, 32]
0	0xba8b5f3e	-0.0010633243
1	0x3b06f278	0.00205913
2	0x3c1d4955	0.009600003
3	0x3cad9d7f	0.021193264
4	0x3bb53360	0.005529806
5	0x3d0a5d97	0.03378066
6	0x3c0d0e14	0.0086093135
7	0x3cf2241b	0.029558232
8	0xbc3b497a	-0.011431092
9	0xbb3876e6	-0.002814704
10	0x3cb36e44	0.021903165
11	0xbc87b74c	-0.016566895
12	0xbc1c0fa8	-0.009525217
13	0x3b7547f2	0.0037426916
14	0xbd031526	-0.03200259
15	0x3c41288c	0.011789452
16	0xbcb1eca2	-0.02171928
17	0x3cb12871	0.02162573
18	0xbbd6ebe9	-0.0065588844
19	0x3c90d740	0.017680764
20	0xbb2c770d	-0.0026316077
21	0x3c606f3a	0.0136983935
22	0x3b4e9ab9	0.0031525327
23	0x3b48f789	0.003066512
24	0x3c384b7c	0.011248466
25	0xbbc3de7f	-0.0059774513
26	0x3c91e6b5	0.017810205
27	0x3d0cacff	0.03434467
28	0x3cd26501	0.025682928
29	0x3ce4eef4	0.027945973
30	0xbd051e1b	-0.032499414
31	0x3c9db79b	0.019252589
32	0x39f0e142	0.00045944197
33	0xbcb1c5e0	-0.0217008
34	0x3cddcc55	0.027074972
35	0x3c2d3204	0.010571007
36	0xbcbc72fc	-0.023004048
37	0xbd056a5c	-0.032572135
38	0xbcaf19dd	-0.021374637
39	0xbc4748ac	-0.012163322
40	0x3b906c60	0.0044074506
41	0x3a5b05f2	0.0008355073
42	0x3c95b86e	0.01827642
43	0xbd23489b	-0.039864164
44	0xbcb18cf0	-0.02167365
45	0xbd1261aa	-0.03573767
46	0x3cd56271	0.026047917
47	0x3d102098	0.035187334
48	0x3cd81551	0.026377352
49	0xbcde97b3	-0.027171945
50	0x3c06b5e8	0.008222081
51	0xbcdfd2c1	-0.027322175
52	0x3d200cd7	0.039074745
53	0x3cda704e	0.02666488
54	0x3d266eb1	0.040632907
55	0xbd12a729	-0.035803948
56	0x3bdfd2c2	0.006830544
57	0xbce1ae4a	-0.027548928
58	0xbc9589a3	-0.018254107
59	0x3c771d24	0.015082631
60	0xbcbca4d2	-0.023027811
61	0x3cc51ccd	0.024061585
62	0xbbb75d51	-0.005595841
63	0x3c58272b	0.013192932
64	0x3c654da4	0.013995562
65	0xb8e8c7f5	-0.00011099867
66	0x3cc90f68	0.02454348
67	0xbd2649d9	-0.04059777
68	0x3c9bc19b	0.019013217
69	0xbc048917	-0.008089325
70	0x3ccaec75	0.024770955
71	0x3ce094c3	0.027414685
72	0x3c9074e4	0.017633863
73	0x3859911d	5.187198e-05
74	0x3b1ef3a9	0.002425412
75	0x3be7be70	0.0070722625
76	0xbb75b2cb	-0.0037490602
77	0x3cd631b5	0.026146749
78	0xbca4e411	-0.020128282
79	0xbb2a053a	-0.0025943057
80	0xbc86ab29	-0.016439037
81	0x3b1ee6b8	0.0024246406
82	0xbd02aa94	-0.031900957
83	0x3c4b63f7	0.01241397
84	0xbc0ee026	-0.008720433
85	0x3ca4ed6d	0.020132745
86	0xbae554d3	-0.0017496593
87	0x3ce361d7	0.027756615
88	0x3c6741f1	0.014114843
89	0xbc294ee7	-0.010333753
90	0x3cbe56cd	0.02323475
91	0x3cc96199	0.024582671
92	0xbcf1015e	-0.029419597
93	0xbca66eb5	-0.020316461
94	0x3c868917	0.016422791
95	0x3c9da42b	0.01924332
96	0x3c0d9492	0.008641379
97	0x3bdec05a	0.0067978324
98	0x3d0d3309	0.0344725
99	0xbbf6accc	-0.007527923
100	0xbd1df1b5	-0.038560588
101	0x3d227afb	0.039668065
102	0xbd260e78	-0.040541142
103	0x3ce9101d	0.028450066
104	0x3caa1215	0.020760575
105	0xbc1698b0	-0.009191677
106	0xbc7aabb0	-0.015299723
107	0x3bc0e410	0.005886562
108	0xbc2fb5e0	-0.010724515
109	0x3ccbde7d	0.024886364
110	0x3cd939a6	0.026516747
111	0x3c6b3977	0.014356962
112	0xbc93cb83	-0.018041378
113	0xbd071910	-0.032982886
114	0x3c941ba5	0.018079588
115	0xba9f6654	-0.0012161233
116	0xbd295584	-0.04134132
117	0xbba0a0f6	-0.0049020005
118	0x3d093b2b	0.033503693
119	0x3c92abbd	0.017904157
120	0x3c26f46c	0.010190111
121	0xbc8b00f8	-0.016968235
122	0xbd0af1f6	-0.03392216
123	0xbc74a3e0	-0.014931649
124	0xbca652cc	-0.020303153
125	0xbc46f084	-0.012142304
126	0xbd09f815	-0.033683855
127	0xbcb1baf6	-0.021695595
128	0x37835b9a	1.5659072e-05
129	0x3cc2caad	0.023778284
130	0xbb3d9869	-0.0028929955
131	0xbc71a118	-0.01474788
132	0x3ca2a1a1	0.019852461
133	0x3c4e88ec	0.012605887
134	0x3d12c7c0	0.035835028
135	0xbcdf9bef	-0.027296035
136	0xbce11e51	-0.027480276
137	0x3b0ff73b	0.002196743
138	0xbc292b8c	-0.010325324
139	0x3d179e49	0.037016187
140	0xbbafc21e	-0.0053637167
141	0xbbc476b3	-0.0059955954
142	0xbd087e3b	-0.033323508
143	0xba7bfe32	-0.0009612768
144	0xbd070eea	-0.032973208
145	0xbcc8d1ae	-0.024514046
146	0x3d15e947	0.036599424
147	0x3cd17649	0.025569098
148	0xbc3fe78a	-0.011712918
149	0xbca835af	-0.02053341
150	0x3cfcf2cd	0.030877495
151	0xbca356d9	-0.019938873
152	0x3cd2f0a3	0.02574951
153	0x3c6308e2	0.013857098
154	0x3c35a74c	0.01108725
155	0xbc2316f8	-0.009954207
156	0x3d06f1ca	0.03294543
157	0xbd0570cd	-0.03257828
158	0xbd0f7650	-0.03502494
159	0xbab74c92	-0.0013984612
160	0x3cc433e5	0.023950526
161	0x3d1f4d6d	0.0388922
162	0xbbcfcfd1	-0.0063419123
163	0x3d0d9825	0.034568924
164	0x3c1bcdc8	0.009509511
165	0x3d0dce67	0.03462067
166	0x3ccf83cb	0.025331398
167	0xbb0ab908	-0.0021167416
168	0xbd059369	-0.032611284
169	0x3bdb44a0	0.0066915303
170	0x3c5e2a73	0.013559925
171	0x3cf2d7ef	0.02964398
172	0x3b561e93	0.0032672032
173	0xbc1e9a94	-0.009680409
174	0xbc729120	-0.014805108
175	0xbba303d9	-0.004974824
176	0x3bc94eb6	0.0061434163
177	0xbd0d7918	-0.034539312
178	0xbc893861	-0.016750516
179	0xbc9b02e1	-0.018922271
180	0xbc5b454a	-0.013383219
181	0x3cef99aa	0.029248077
182	0x3cbd1ccd	0.023085022
183	0xbcf6455e	-0.030062374
184	0x3c898a07	0.01678945
185	0xbd0d5d15	-0.034512598
186	0x3be6703b	0.007032422
187	0x3ccd38ef	0.025051562
188	0x3caba873	0.020954346
189	0xbd224292	-0.039614268
190	0xbb4063b7	-0.002935631
191	0xbc2fb6d0	-0.010724738
192	0xbca01910	-0.0195432
193	0xba439e36	-0.0007462235
194	0x3c13405c	0.008987512
195	0x3c9aa223	0.018876141
196	0x3b53ef15	0.003233855
197	0x3ccfc59e	0.025362786
198	0xbc24721c	-0.010036971
199	0xbaf57536	-0.0018726948
200	0xbd28dcbe	-0.04122614
201	0xbc5ce26e	-0.013481719
202	0xbc88022b	-0.016602596
203	0xbd28bcfd	-0.04119586
204	0xbad6e232	-0.0016394316
205	0x3cc70d09	0.024298208
206	0x3c6e4e2c	0.014545005
207	0xbc99b1cb	-0.018761536
208	0x3cd6bdcd	0.026213551
209	0xbcae31f8	-0.021264061
210	0xbb75002a	-0.003738413
211	0xbbaddc80	-0.0053058267
212	0xbcc7efde	-0.02440637
213	0x3c2e050c	0.01062132
214	0x3d248e2d	0.040174652
215	0xba426626	-0.0007415734
216	0x3c809d13	0.015699899
217	0x3c8a5065	0.016884038
218	0xbd14be31	-0.036314193
219	0x3c818027	0.015808178
220	0x3ccc5b8b	0.024945995
221	0xbca27e25	-0.019835541
222	0xbc0f49d4	-0.008745629
223	0xbc0945a4	-0.00837842
224	0x3cf0a622	0.029376093
225	0x3c65d394	0.014027495
226	0xbc0c9216	-0.0085797515
227	0xbd07b8d9	-0.03313527
228	0xbc1ea4a2	-0.009682806
229	0x3bee9b01	0.0072816615
230	0x3a3bd1a0	0.00071647204
231	0x3cd703e6	0.026246976
232	0x3bec700b	0.007215505
233	0xbb2525e5	-0.002519959
234	0xbca92520	-0.020647585
235	0x3cb50ba5	0.02210028
236	0xbac87a43	-0.0015295226
237	0x3d1dd437	0.038532462
238	0xbc101404	-0.008793835
239	0xbce702da	-0.028199602
240	0xbce01253	-0.027352488
241	0x3c16b050	0.00919731
242	0x3c810300	0.0157485
243	0x3cb6df2d	0.022323215
244	0x3c68bad8	0.014204703
245	0xbc8ec021	-0.017425599
246	0xbc7da90f	-0.015482201
247	0xb990705d	-0.00027549537
248	0x3cee7dcd	0.02911272
249	0xbc844adb	-0.016148975
250	0xbb6f41e0	-0.003650777
251	0x3d07bc52	0.03313858
252	0x3cab216d	0.020889962
253	0x3c2c4dd4	0.010516603
254	0xbbd4a94d	-0.006489909
255	0xbc1a1cb5	-0.009406258

user_embed.weight f4 [447, 32]
0	0x3de4a6cd	0.11164627
1	0xbbe2f076	-0.006925638
2	0x3d1fbe19	0.03899965
3	0x3d2167ca	0.03940562
4	0xbde45591	-0.11149133
5	0xbcf90d2d	-0.03040179
6	0xbd9b46ab	-0.07581838
7	0xbd491dd4	-0.049100712
8	0xbe28e442	-0.16493323
9	0x3d04677f	0.032325264
10	0x3e5aa486	0.21351823
11	0x3d3970ba	0.04527352
12	0x3e0a7d48	0.13524354
13	0x3d2fcdea	0.042920984
14	0xbde1e98f	-0.11030876
15	0x3e014a23	0.12625937
16	0xbdf6a873	-0.12043848
17	0xbbcaffcd	-0.0061950446
18	0xbd053dc9	-0.032529626
19	0xbd8d151c	-0.06888792
20	0x3d501760	0.050803542
21	0xbdd6a575	-0.10480777
22	0xbd8ed7f7	-0.06974786
23	0xbdcbd9c5	-0.099536456
24	0xbe1ae704	-0.15127188
25	0xbe1f935a	-0.15583554
26	0xbc6c08c7	-0.01440639
27	0x3e061d84	0.13097197
28	0xbe02c5ce	-0.12770769
29	0xbcf05d26	-0.029341292
30	0xbe0c4df5	-0.13701613
31	0x3c04335b	0.008068885
32	0x3de76189	0.112979
33	0xbd10286c	-0.0351948
34	0x3e37317d	0.17889972
35	0xbd4042dd	-0.046938766
36	0xbda6e78c	-0.08149633
37	0x3cd0c15b	0.025482824
38	0x3d812de1	0.06307579
39	0xbba0dc42	-0.0049090693
40	0xbe242297	-0.1602882
41	0xbc48c1fc	-0.012253281
42	0x3e8375d6	0.2567584
43	0x3d14348b	0.03618292
44	0x3d9a8470	0.07544792
45	0xbd5afad1	-0.053461853
46	0xbd866644	-0.06562474
47	0x3e1131ed	0.14179201
48	0xbe353cc9	-0.17698969
49	0xbe13125d	-0.14362474
50	0x3d607b78	0.05480525
51	0xbcd13345	-0.025537143
52	0x3da76129	0.08172829
53	0xbc36c830	-0.011156127
54	0xbc15f0ce	-0.009151651
55	0x3db6d28a	0.08926876
56	0xbdff44d5	-0.124643005
57	0xbcde3d14	-0.027128734
58	0x3e087693	0.13326482
59	0x3e187636	0.14888844
60	0x3ccfaf66	0.025352191
61	0x3e100dbd	0.1406774
62	0x3dee5c57	0.11638706
63	0x3e154180	0.14575768
64	0x3da204ed	0.07911096
65	0xbe25dbb3	-0.1619709
66	0xbdce870c	-0.10084352
67	0x3cad33cf	0.021142868
68	0xbe29b5aa	-0.16573206
69	0xbbadd1b4	-0.0053045396
70	0xbe645801	-0.22299196
71	0xbcc755b4	-0.024332859
72	0xbe940aa9	-0.28914383
73	0x3dc05f27	0.09393149
74	0x3e462c5d	0.19352861
75	0xbd40cbc1	-0.047069315
76	0x3d083fde	0.033264033
77	0x3d49c1f1	0.049257223
78	0x3cbc1fef	0.022964446
79	0xbd0ea566	-0.034825705
80	0xbe026e13	-0.12737302
81	0xbd96641d	-0.07343314
82	0xbc563b19	-0.013075613
83	0xbc5bc7e7	-0.01341436
84	0x3d073ae6	0.033015154
85	0xbc535f24	-0.012901101
86	0x3d09fa7d	0.03368615
87	0xbd09811a	-0.033570386
88	0xbd4cd740	-0.050009966
89	0xbd39179d	-0.045188535
90	0xbd86e2fb	-0.06586262
91	0x3e434ffc	0.1907348
92	0xbe02bfc7	-0.1276847
93	0x3da9f2f0	0.0829829
94	0xbcf7caf9	-0.030248152
95	0x3d04f01c	0.03245555
96	0x3e35bd05	0.17747886
97	0xbdb0d161	-0.08633686
98	0xbe038329	-0.12843002
99	0x3dc90fc3	0.098174594
100	0xbe4ca465	-0.19984587
101	0xbd1d4b70	-0.03840202
102	0x3d41d143	0.04731871
103	0x3bcebaec	0.006308904
104	0xbe534f91	-0.20635821
105	0xbe4107ad	-0.18850584
106	0x3db2950b	0.08719834
107	0x3cd96706	0.026538383
108	0x3e05ae8e	0.13054869
109	0x3d2c061f	0.041998025
110	0xbd42ef3d	-0.047591437
111	0x3e0508cd	0.12991638
112	0xbe34e0db	-0.176639
113	0xbda59bd7	-0.08086365
114	0x3c20cd08	0.009814508
115	0xbd5a346a	-0.053272642
116	0xbcd50025	-0.026001045
117	0xbe02c079	-0.12768735
118	0x3d381c63	0.044948947
119	0xbe94abda	-0.29037362
120	0xbd841aac	-0.064504
121	0xbd7134e6	-0.05888834
122	0x3cd2865b	0.025698831
123	0x3e43a812	0.19107082
124	0x3bcc7c0d	0.006240374
125	0x3e30cfd2	0.17266777
126	0x3e6d37ac	0.23165768
127	0x3de8f92c	0.11375651
128	0x3da8c5bf	0.08240842
129	0xbe019eea	-0.12658277
130	0x3e1c0d92	0.15239552
131	0x3d518dc0	0.051160574
132	0xbda2179e	-0.07914661
133	0xbdf1634d	-0.11786518
134	0x3d369a63	0.04458083
135	0x3c943670	0.018092364
136	0xbd904ce3	-0.07045915
137	0xbd47cc4b	-0.048778813
138	0x3e83b604	0.25724804
139	0x3e33a505	0.17543419
140	0x3caa6d3d	0.020804042
141	0x3cc590a9	0.02411683
142	0xbd9a96de	-0.07548307
143	0xbdd7bfd2	-0.10534634
144	0xbda45a7a	-0.080250695
145	0xbddec366	-0.10877113
146	0x3d700d5e	0.058606498
147	0xbc1b86d8	-0.0094925985
148	0x3c533d33	0.012893009
149	0x3d85ecb6	0.0653929
150	0xbd879552	-0.066202775
151	0x3d2b06f9	0.041754697
152	0xbd3e0649	-0.046392713
153	0xbd5aadc8	-0.053388387
154	0xbd487338	-0.048938006
155	0x3d7f64f0	0.06235212
156	0x3d6ceb4b	0.05784158
157	0x3de06035	0.1095585
158	0x3d8a235e	0.06745027
159	0xbd380051	-0.044922177
160	0xbe553c5e	-0.2082381
161	0x3d30080f	0.042976435
162	0x3e849304	0.25893414
163	0x3e77b3c8	0.24189675
164	0x3eaeeb9f	0.3416414
165	0x3ed572e6	0.41689223
166	0x3e9284a5	0.28616825
167	0xbd673589	-0.05644754
168	0x3e010f7f	0.12603568
169	0x3e52aa7d	0.20572849
170	0xbd096fe0	-0.033553958
171	0x3e3cb69d	0.18429036
172	0x3edf8759	0.4365795
173	0xbe157a0d	-0.1459734
174	0x3e7fb407	0.24971019
175	0x3e9e8521	0.30960944
176	0x3e7a3e9e	0.24437949
177	0xbdc442a8	-0.09583026
178	0xbd1f3850	-0.038872063
179	0x3ec2e384	0.38064206
180	0x3c817c0e	0.015806224
181	0xbd7b335d	-0.06132828
182	0x3ec60d57	0.38682052
183	0xbe626cb3	-0.22111778
184	0xbeca565d	-0.39519015
185	0xbde5965a	-0.11210318
186	0xbd5be4b4	-0.053684905
187	0xbdbe0049	-0.09277398
188	0xbde9f6d5	-0.114240326
189	0xbe533f3a	-0.20629588
190	0x3e22a95d	0.1588492
191	0x3edb0b9f	0.42782304
192	0xbe02bad7	-0.12766586
193	0xbab19b48	-0.0013550306
194	0xbe1debc3	-0.15421967
195	0x3daaae2f	0.08334004
196	0x3cdd1838	0.026989087
197	0x3d91e7d2	0.07124294
198	0xbd200d91	-0.039075438
199	0x3e2ec850	0.170686
200	0xbc4f5ebe	-0.012656866
201	0x3e0b3c31	0.1359718
202	0x3de8b656	0.11362903
203	0xbd65e838	-0.056129664
204	0x3d9c1737	0.076216154
205	0x3d89d733	0.06730499
206	0xbd8c6d3d	-0.06856773
207	0x3e247155	0.16058858
208	0x3cd6bd16	0.02621321
209	0xbdc6c5cb	-0.09705695
210	0xbdcee338	-0.10101932
211	0x3d956561	0.07294727
212	0x3e0a96cd	0.13534088
213	0x3d7a6aff	0.061137196
214	0x3cb6587a	0.022258986
215	0x3e04058f	0.12892745
216	0xbd2ac17a	-0.04168842
217	0x3e08475b	0.1330847
218	0x3d818539	0.06324238
219	0x3d1b78ea	0.03795711
220	0xbda9a2a5	-0.08282975
221	0x3d6af0d6	0.057358585
222	0x3d87fea6	0.06640367
223	0x3dca4d43	0.09878018
224	0x3dfe2050	0.12408507
225	0xbd9fdd02	-0.07805826
226	0xbdfb8620	-0.12281442
227	0x3c2d6603	0.0105834035
228	0xbe43be88	-0.1911565
229	0xbe82b5ee	-0.25529426
230	0xbda80e72	-0.0820588
231	0x3e813824	0.25238144
232	0x392cbab8	0.00016472756
233	0x3d2db035	0.042404372
234	0x3e1d4b27	0.153607
235	0x3e3973ea	0.18110624
236	0x3e111de2	0.14171556
237	0xbc56c146	-0.013107603
238	0x3dc94807	0.09828191
239	0xbdaf9035	-0.08572427
240	0xbe3a2cb2	-0.18181112
241	0xbc0ae709	-0.008477935
242	0xbdda8009	-0.10668952
243	0xbdd27a62	-0.10277249
244	0x3e2febbc	0.1717977
245	0x3d23527b	0.03987358
246	0x3d8d6bbc	0.06905314
247	0x3e403ad5	0.18772443
248	0xbe8bcf03	-0.27306375
249	0x3dcdabee	0.100425586
250	0xbdac4e40	-0.084133625
251	0xbccb8593	-0.024843967
252	0xbde83028	-0.1133731
253	0x3daa032b	0.083013855
254	0xbd9565fc	-0.072948426
255	0x3e18d6d1	0.14925696

item_embed.weight f4 [578, 32]
0	0x3e83af50	0.2571969
1	0x3ddede4b	0.10882243
2	0xbb896bc3	-0.0041937544
3	0x3da73a00	0.081653595
4	0xbe236fd7	-0.15960632
5	0xbc194d6c	-0.009356838
6	0xbd166c23	-0.03672422
7	0xbe8e6421	-0.27810767
8	0x3df97e94	0.12182346
9	0xbdc55618	-0.09635562
10	0xbc95dc79	-0.018293606
11	0x3df0759a	0.11741181
12	0xbe65e3f9	-0.22450246
13	0x3da255bf	0.07926511
14	0xbce1632a	-0.027513105
15	0x3c1debec	0.009638768
16	0xbd9e5ce0	-0.07732558
17	0x3de463c8	0.11151844
18	0xbdcaa57d	-0.09894846
19	0x3e8d6a76	0.27620286
20	0xbce54b52	-0.027990017
21	0x39ae331a	0.0003322594
22	0xbd2b3a3c	-0.041803584
23	0xba8a64d8	-0.0010558618
24	0xbc47aeea	-0.012187699
25	0xbc977667	-0.018489076
26	0xbe78995b	-0.2427725
27	0xbe43ca3c	-0.19120115
28	0x3dcbb143	0.09945919
29	0xbce947fd	-0.02847671
30	0xbe60b6c0	-0.21944714
31	0xbdf57e6a	-0.11987002
32	0xbea43921	-0.32074836
33	0xbcf93181	-0.030419113
34	0x3e1647b7	0.14675795
35	0xbd71b6da	-0.05901227
36	0x3dfe7313	0.124242924
37	0xbea17343	-0.3153325
38	0x3d991d0d	0.07476244
39	0x3ea0f4e3	0.31436834
40	0xbd681c4f	-0.056667622
41	0x3cc7ef91	0.024406226
42	0xbdbbafda	-0.091644004
43	0x3d879815	0.06620804
44	0xbd318873	-0.04334302
45	0x3dc2da3f	0.095142834
46	0xbdcb78a2	-0.09935118
47	0x3e6210d5	0.22076733
48	0x3e1f40f5	0.15552123
49	0x3e6bf313	0.23041944
50	0xbdfd9f21	-0.12383867
51	0xbebd5696	-0.36980122
52	0xbe05f4e6	-0.13081703
53	0xbdaff8a2	-0.08592345
54	0xbd1d5d68	-0.038419157
55	0xbd97e56b	-0.07416805
56	0xbd638637	-0.05554792
57	0x3d189371	0.037249986
58	0x3e829c1f	0.25509736
59	0xbe527522	-0.20552495
60	0xbe8b9036	-0.27258462
61	0xbe1078e5	-0.14108618
62	0xbd7feda2	-0.062482484
63	0xbdab2065	-0.08355788
64	0xbe554a45	-0.20829113
65	0x3dda9199	0.10672302
66	0xbe8bf85f	-0.2733793
67	0xbe3c7e5f	-0.18407582
68	0xbdbe1b10	-0.092825055
69	0x3e652beb	0.22380035
70	0x3d89d2ba	0.06729646
71	0x3d896491	0.06708635
72	0xbe2daca9	-0.16960396
73	0xbba2bac4	-0.004966112
74	0x3c14e240	0.009087145
75	0xbb416f19	-0.0029515682
76	0x3da95800	0.08268738
77	0x3e875438	0.2643144
78	0xbdef5f71	-0.11688126
79	0x3dc58cbf	0.09645986
80	0xbda122f7	-0.07867997
81	0xbe91985b	-0.2843655
82	0x3e9a0783	0.30083856
83	0x3e72d977	0.23715769
84	0xbe356d71	-0.1771753
85	0xbe8147e7	-0.2525017
86	0x3deda931	0.11604536
87	0xbb8cafb2	-0.0042934055
88	0xbd78bcdd	-0.06072699
89	0xbdeeee90	-0.11666596
90	0x3e87e596	0.26542348
91	0xbd40612d	-0.046967674
92	0xbe9acfa1	-0.30236533
93	0x3cec6537	0.028856857
94	0x3e0cce2a	0.1375052
95	0x3d051e51	0.032499615
96	0xbdff387b	-0.12461945
97	0x3e2479f6	0.1606215
98	0x3d31ef9e	0.043441407
99	0xbda7af6d	-0.08187757
100	0xbe2a0645	-0.16603954
101	0xbe0ee759	-0.1395544
102	0x3c31a7f5	0.010843267
103	0x3d69d4be	0.057087652
104	0xbd1757ac	-0.036948845
105	0x3d882994	0.066485554
106	0xbd47c3c6	-0.04877069
107	0xbdeafbe4	-0.114738256
108	0xbd2c6cad	-0.04209583
109	0xbd8fdc19	-0.07024402
110	0xbdf198a4	-0.11796692
111	0x3cf50fc8	0.029914752
112	0xbdc96df4	-0.09835425
113	0x3e0565b9	0.13027085
114	0xbe4eeb12	-0.2020686
115	0xbd9b2f61	-0.07577396
116	0xbddd3189	-0.10800464
117	0xbd38c548	-0.045110017
118	0xbd51d49d	-0.051228154
119	0x3d6f7a6f	0.05846637
120	0x3cade67e	0.021228071
121	0x3dfeec47	0.1244741
122	0x3e38e805	0.18057258
123	0x3e4cf383	0.20014767
124	0x3d9bb952	0.076037064
125	0x3dcf230c	0.101141065
126	0x3c5ebf35	0.013595392
127	0xbd7da298	-0.06192264
128	0xbbb935d1	-0.0056521674
129	0xbdf0395c	-0.117296904
130	0x3d03557a	0.03206394
131	0xbca55cba	-0.020185817
132	0xbe15c5de	-0.14626262
133	0xbdf013e1	-0.117225416
134	0xbd4d5539	-0.050130103
135	0xbd135f40	-0.03597951
136	0x3d848eb0	0.06472528
137	0x3d222224	0.03958334
138	0x3e01dfa3	0.12682967
139	0xbe20c370	-0.15699553
140	0x3d2a35c7	0.041555192
141	0x3d8ad091	0.06778062
142	0xbd79bfba	-0.06097386
143	0x3dcc76ee	0.099836215
144	0x3e5df42d	0.21675177
145	0x3cb4b722	0.02205998
146	0x3c9bb6b0	0.01900801
147	0x3d3033d8	0.043018192
148	0xbcdeb719	-0.027186917
149	0xbc1c7e61	-0.009551615
150	0xbd9128ea	-0.07087882
151	0x3e2594c8	0.16170037
152	0xbe7f6fd6	-0.24945006
153	0x3c8e6894	0.017383851
154	0x3d4bba0c	0.049737975
155	0xbd7ac95a	-0.06122718
156	0xbd21a9fe	-0.039468758
157	0xbe489c57	-0.19590889
158	0xbd132c3f	-0.03593087
159	0x3d0dfc0e	0.034664206
160	0x3d6d9f02	0.05801297
161	0x3d18124c	0.037126824
162	0xbdec7e49	-0.115475245
163	0x3e2e31a4	0.17011124
164	0x3e3c5e1d	0.18395276
165	0x3e826825	0.2547008
166	0x3daf8e24	0.08572033
167	0xbe0835d6	-0.13301787
168	0x3e82aeed	0.25524083
169	0xbcc7ce8e	-0.024390485
170	0xbe2f9d23	-0.17149787
171	0xb931e82e	-0.00016966529
172	0x3c93885a	0.018009353
173	0xbc9582b5	-0.018250803
174	0x3a5b6184	0.0008368718
175	0xbd5fd096	-0.054642282
176	0xbdec16d9	-0.11527795
177	0x3ded3206	0.11581807
178	0x3d6486b9	0.055792544
179	0x3daf0b12	0.08547033
180	0xbd9258a9	-0.07145817
181	0xbda72010	-0.08160412
182	0x3c3648bd	0.011125741
183	0xbd020334	-0.031741336
184	0xbe7f0b9b	-0.24906771
185	0x3e0b47c5	0.13601597
186	0xbca21a38	-0.019787893
187	0x3dafb4b1	0.08579386
188	0x3d99c8c6	0.075089976
189	0x3e04494b	0.12918584
190	0x3e817551	0.25284818
191	0xbcaa01bc	-0.02075278
192	0x3dd7a5c8	0.10529667
193	0x3e31b634	0.17354661
194	0xbd7af07a	-0.061264493
195	0xbed9358c	-0.42423666
196	0x3e40fa46	0.18845472
197	0x3ea1dd61	0.3161421
198	0xbe438ec1	-0.19097425
199	0x3e80145f	0.25015542
200	0xbe9f8599	-0.31156614
201	0x3ef0ce0d	0.47032204
202	0x3db3b1eb	0.087741695
203	0xbe9b00cd	-0.30274048
204	0x3e2d47c4	0.16921908
205	0x3d313529	0.043263588
206	0x3e96e139	0.29468706
207	0xbe998698	-0.299855
208	0xbe072069	-0.13195957
209	0x3e3a4883	0.18191724
210	0xbdff0d83	-0.12453749
211	0xbeb99e87	-0.3625376
212	0xbc907a1f	-0.017636357
213	0x3e3c06a0	0.18361902
214	0xbe19d4e8	-0.15022624
215	0xbd578a0e	-0.052621894
216	0x3e5d21e4	0.2159496
217	0x3d9b0a2a	0.07570298
218	0x3ce93ace	0.028470423
219	0xbe6fb34c	-0.2340824
220	0x3eac542a	0.33657962
221	0xbe618b74	-0.22025853
222	0x3d21e686	0.039526485
223	0x3e0906be	0.13381478
224	0x3e91f35c	0.2850598
225	0x3bc27cd0	0.005935289
226	0x3dde5318	0.108556926
227	0xbedd53cc	-0.43227994
228	0xbe71f9c8	-0.2363044
229	0x3e609bba	0.21934405
230	0xbcee8be8	-0.029119447
231	0x3eaac0a7	0.33350107
232	0xbed33593	-0.4125181
233	0xbec8df25	-0.39232746
234	0x3e9d5a63	0.30733022
235	0xbd8893ef	-0.06668841
236	0x3ed078f1	0.4071727
237	0xbd11332d	-0.035449196
238	0xbed87ec6	-0.4228422
239	0xbe9f9147	-0.31165525
240	0xbdbfd2ef	-0.09366404
241	0x3e2048a0	0.15652704
242	0x3d9fa4ad	0.07795081
243	0x3eec68cc	0.46173704
244	0xbe58ff6b	-0.21191184
245	0x3e28db5b	0.16489927
246	0x3ec2af26	0.38024253
247	0x3e6bcba8	0.23026907
248	0xbec38a5a	-0.3819149
249	0x3cf55281	0.029946567
250	0x3e97891d	0.29596797
251	0x3cbd2985	0.023091087
252	0xbeb85603	-0.36003122
253	0x3da4253a	0.08014913
254	0x3d570abe	0.05250048
255	0x3e8511f4	0.2599026

entity_embed.weight f4 [886, 32]
0	0xbd860820	-0.065445185
1	0xbd9fd0bc	-0.07803485
2	0x3d4e68c1	0.05039287
3	0x3d0b673b	0.034033995
4	0xbc679897	-0.014135501
5	0xbd155116	-0.036454283
6	0x3d98b46b	0.07456287
7	0x3d908514	0.07056633
8	0x3cf4a880	0.029865503
9	0xbd7c6f4e	-0.061629586
10	0xbd01436b	-0.031558435
11	0xbdac1989	-0.08403308
12	0xbd4720e3	-0.048615348
13	0xbcb67597	-0.022272868
14	0xbc801b39	-0.01563798
15	0x3d370236	0.044679843
16	0xbd873f9f	-0.06603932
17	0x3d2dbb74	0.042415097
18	0x3ccb24c1	0.024797799
19	0x3d073dee	0.033018045
20	0x3d9733d0	0.07382929
21	0x3c408cba	0.011752302
22	0xbbf30db2	-0.007417404
23	0x3d79cf36	0.060988627
24	0xbca7b45b	-0.020471742
25	0xbc404bef	-0.011736854
26	0x3c4d53d0	0.0125321895
27	0x3d57b2d7	0.05266079
28	0xbcf1dbda	-0.029523779
29	0x3d667e0e	0.05627256
30	0xbd985643	-0.07438328
31	0xbd2b6293	-0.041842055
32	0x3da0782f	0.07835423
33	0xbd9c2c4d	-0.07625637
34	0x3d4fe077	0.050751176
35	0x3c7b61d6	0.01534315
36	0x3cfd3fa4	0.030914135
37	0x3c91f9ee	0.017819371
38	0xbc95988a	-0.018261213
39	0xbd38285a	-0.044960357
40	0x3d9751a1	0.07388616
41	0xbd481053	-0.048843693
42	0xbbce6ffd	-0.006299971
43	0xbc5827a2	-0.013193043
44	0x3dad6150	0.084658265
45	0xba4133f7	-0.0007370109
46	0x3d7f7f8e	0.062377505
47	0x3d8368a6	0.064164445
48	0xbc16fafd	-0.009215114
49	0x3d97199b	0.07377931
50	0x3d46a63a	0.04849837
51	0xbd516a10	-0.05112654
52	0xbda7eeaa	-0.081998184
53	0xbccb3e9b	-0.024810126
54	0x3d8ef29f	0.0697987
55	0x3d38325d	0.044969905
56	0x3d62bbf0	0.055355012
57	0xbd9701ea	-0.07373412
58	0xbd8889b7	-0.06666892
59	0x3d1e5b4b	0.038661283
60	0x3d828e28	0.063747704
61	0x3d66a722	0.056311734
62	0x3d94c627	0.07264357
63	0x3c05d0e0	0.008167475
64	0x3d53bab7	0.051691737
65	0x3d18cc37	0.03730413
66	0x3d731362	0.059344657
67	0xbd403f98	-0.046935648
68	0x3d77a287	0.060457733
69	0xbd1286d4	-0.035773113
70	0x3bebc3d7	0.007194977
71	0xbdb052b2	-0.08609523
72	0x3cd3238a	0.025773782
73	0xbcdac42e	-0.026704874
74	0xbd044159	-0.032288883
75	0x3d035429	0.032062683
76	0x3d826c11	0.06368268
77	0xbdb01887	-0.08598428
78	0x3d1faca5	0.038983006
79	0xbd91073e	-0.070814595
80	0xbd1141f5	-0.035463292
81	0x3d87ba73	0.06627359
82	0xbcc98a14	-0.024601974
83	0x3cf34799	0.029697226
84	0x3da0e71a	0.07856579
85	0xbd9063db	-0.07050296
86	0x3bd63340	0.006536871
87	0x3d7029a7	0.058633473
88	0xbc13b357	-0.009014926
89	0x3d35d020	0.044387937
90	0xbd8c9783	-0.06864836
91	0x3d237b1f	0.03991234
92	0x3d11fd96	0.03564223
93	0x3c9fc877	0.019504769
94	0x3cf51070	0.029915065
95	0xbd87e753	-0.066359185
96	0xbcda2bfb	-0.0266323
97	0xbd67eaea	-0.056620516
98	0x3d358b60	0.04432237
99	0xbd9fd745	-0.07804731
100	0x3d97c005	0.07409672
101	0x3d8cc567	0.06873589
102	0xbcf67207	-0.03008367
103	0x3d45faf8	0.048335046
104	0xbcefd94e	-0.029278424
105	0xbad1f816	-0.001601937
106	0x3d74e421	0.059787873
107	0xbd95f86b	-0.073227726
108	0x3d60ec46	0.054912828
109	0x3a97a02a	0.0011568118
110	0xbca501c7	-0.020142449
111	0xbd69334c	-0.056933686
112	0x3cb4f8ee	0.022091355
113	0x3d29ccee	0.0414552
114	0xbd01c3a0	-0.031680703
115	0x3d37253b	0.04471324
116	0xbae15b67	-0.0017193378
117	0xbd118d9f	-0.03553545
118	0x3d4190a4	0.04725708
119	0xbd79c583	-0.060979377
120	0x3d64e6f0	0.0558843
121	0x3c71d593	0.014760393
122	0x3d912cc1	0.07088614
123	0x3d06e511	0.0329333
124	0x3b9769e0	0.0046207756
125	0xbd15bd46	-0.03655746
126	0x39829fc7	0.00024914576
127	0x3d82cf76	0.06387226
128	0xbc82ac98	-0.01595144
129	0xbbfd8357	-0.007736604
130	0x3d1f4bd6	0.038890682
131	0x3cf2e69f	0.029650984
132	0xbd449128	-0.047989994
133	0xbc794cde	-0.0152160805
134	0xbc00566b	-0.007833104
135	0xbd181eba	-0.037138678
136	0x3c344b28	0.011004247
137	0xbd98929c	-0.074498385
138	0xbd918e36	-0.07107203
139	0x3ca2d14a	0.019875187
140	0xbb4c6c29	-0.0031192398
141	0xbcc0ebff	-0.023550032
142	0xbc0f408c	-0.0087434165
143	0xbc081dcf	-0.008307888
144	0x3d8b735e	0.06809114
145	0x3d33b7af	0.043876346
146	0xbc9ec5f2	-0.019381497
147	0x3daaa369	0.08331949
148	0xb9bdf3d0	-0.00036230544
149	0xbd638bb7	-0.055553164
150	0x3ce6cd55	0.028174082
151	0xbcd4370a	-0.02590515
152	0xbbd5d768	-0.0065259226
153	0xbbbce688	-0.005764786
154	0x3d4329a6	0.04764714
155	0xbb86b3c4	-0.004110785
156	0xbd97c9f7	-0.074115686
157	0x3c8384fa	0.01605462
158	0xbd69f4a6	-0.05711808
159	0x3d235415	0.03987511
160	0xbd8d34b1	-0.06894816
161	0x3cabc046	0.020965707
162	0x3c28bd42	0.010299029
163	0xbc02755c	-0.007962551
164	0x3d0adaad	0.03389995
165	0x3cae49ca	0.02127542
166	0x3d9b49a6	0.07582407
167	0x3c33c860	0.010973066
168	0x3ceb1d7b	0.02870058
169	0x3d85c0ab	0.06530889
170	0x3aba87f4	0.0014231191
171	0xbd9af8bf	-0.07566976
172	0xbd84beb0	-0.06481683
173	0x3d075ece	0.033049397
174	0xba5b8ab8	-0.0008374858
175	0x3d74f1af	0.0598008
176	0xbd0dfc5c	-0.034664497
177	0xbccd479b	-0.025058558
178	0x3c941121	0.018074574
179	0x3d2cae09	0.04215816
180	0x3cf09a22	0.029370371
181	0xbacf23c2	-0.0015803503
182	0x3c6b8f64	0.014377449
183	0x3cf7600c	0.030197166
184	0xbc8991d4	-0.01679317
185	0x3cb19ffd	0.021682734
186	0x3b737c15	0.0037152816
187	0xbd3007f5	-0.04297634
188	0x3d409118	0.047013372
189	0xbc00119f	-0.007816701
190	0xbd834b63	-0.06410863
191	0xbd609181	-0.054826263
192	0xbd3dbe0f	-0.046323832
193	0xbc7654b5	-0.015034844
194	0x3cdb403f	0.026764033
195	0xbda6434c	-0.081183046
196	0xbd75c980	-0.06000662
197	0xbd8da226	-0.06915693
198	0x3c9e336e	0.019311633
199	0xbda4827f	-0.08032703
200	0x3d2b2250	0.04178077
201	0x3d919072	0.07107629
202	0x3ba44b0f	0.0050138305
203	0x3c813127	0.015770508
204	0x3d87f6dd	0.06638882
205	0x3d944418	0.0723955
206	0x3c03bd0d	0.008040679
207	0xbcce51b8	-0.02518545
208	0x3d2cd777	0.04219767
209	0xbd125e91	-0.035734717
210	0x3ccd66a7	0.025073363
211	0xbd69649a	-0.056980707
212	0xbd3c37d2	-0.045951672
213	0xbc21f93d	-0.009886083
214	0xbd05b3cd	-0.032642175
215	0xbb9dea92	-0.0048192227
216	0xbcc92174	-0.024552085
217	0xbd1bff9a	-0.038085558
218	0xbd165c16	-0.036708914
219	0x3c89cb86	0.01682068
220	0xbbb06fe4	-0.005384432
221	0xbc99a740	-0.018756509
222	0x3a68e716	0.0008884532
223	0x3c2c827a	0.010529155
224	0xbd743976	-0.05962511
225	0xbc8f1d97	-0.017470164
226	0xbc7acd1e	-0.015307693
227	0xbdae7970	-0.08519256
228	0xbce26956	-0.027638119
229	0xbb9ebc0e	-0.004844195
230	0x3c43a7ed	0.011941892
231	0xbd751a69	-0.05983964
232	0x3d3179c0	0.043329
233	0xbb751b97	-0.0037400478
234	0x3d80b3fd	0.0628433
235	0xbbe27234	-0.0069105867
236	0x3d0cbaef	0.03435796
237	0xbca34bd6	-0.019933622
238	0xbd91aa66	-0.07112579
239	0xbd8e17ac	-0.06938109
240	0xbd9576f7	-0.07298081
241	0x3d1b7f34	0.037963107
242	0x3d8d0b58	0.06886929
243	0x3d2c675e	0.042090766
244	0x3d2157a9	0.03939024
245	0xbb431b6a	-0.0029770979
246	0x3d9ee449	0.07758386
247	0x3d5ea82b	0.054359596
248	0x3d48bddd	0.049009193
249	0x3d16a88b	0.03678183
250	0xbd4b24ad	-0.049595524
251	0x3c0b37a8	0.008497156
252	0x3c3b5bd8	0.0114354715
253	0x3a259e04	0.00063177967
254	0x3b3c1d39	0.0028703941
255	0x3c1a8cc0	0.0094329715

relation_embed.weight f4 [114, 32]
0	0xbc2f13d8	-0.010685883
1	0x3cd363dd	0.025804454
2	0xbcc5b48d	-0.024133945
3	0xbe1cc129	-0.1530806
4	0x3db5f927	0.08885413
5	0x3dd924d5	0.10602728
6	0x3d8a73f1	0.06760395
7	0xbe328701	-0.17434312
8	0xbddde672	-0.108349696
9	0xbd1eface	-0.038813405
10	0xbc211fa9	-0.0098342085
11	0xbd440b66	-0.047862433
12	0x3d9b46a5	0.07581834
13	0x3e3bfa9f	0.18357323
14	0x3dc11b09	0.09428985
15	0xbdc310bd	-0.09524677
16	0xbdd918f2	-0.10600461
17	0xbd6a9862	-0.05727423
18	0x3d1f9e86	0.03896954
19	0xbdbeff75	-0.09326068
20	0xbd7eb21a	-0.06218157
21	0x3c6b2953	0.014353114
22	0x3caf5b0b	0.021405717
23	0xbdcb6fd1	-0.09933437
24	0x3e105105	0.14093406
25	0x3d6e754c	0.05821733
26	0x3e2ae38b	0.16688363
27	0xbe4fbfa2	-0.20287946
28	0xbc518a17	-0.012789271
29	0xbd01302e	-0.03154009
30	0x3e1c7a75	0.15281089
31	0x3e26be97	0.16283642
32	0xbd1a419e	-0.037660234
33	0x3e2b80d5	0.16748364
34	0x3d531db2	0.05154199
35	0xbd2686f6	-0.040656053
36	0xbdcc689a	-0.09980889
37	0xbe5571c7	-0.20844184
38	0x3d9ae52d	0.07563243
39	0xbe2121fd	-0.15735622
40	0x3e45e41f	0.19325303
41	0xbcc4856b	-0.0239894
42	0xbe2e88f9	-0.17044438
43	0x3e517bcb	0.2045738
44	0xbe00075a	-0.12502804
45	0xbdba43dd	-0.09094975
46	0xbd8e109b	-0.06936761
47	0xbd270682	-0.04077769
48	0xbdbd9fc5	-0.09258989
49	0xbdfa59c0	-0.1222415
50	0xbae577da	-0.0017507032
51	0xbe529a7a	-0.2056674
52	0xbe1de426	-0.15419063
53	0x3d971cbf	0.0737853
54	0xbc6f3ea3	-0.014602336
55	0x3e367ae5	0.17820318
56	0x3dd249af	0.1026796
57	0xbc9aecd3	-0.018911755
58	0x3df5dff7	0.120056085
59	0xbd3c31ee	-0.045946054
60	0x3c15eea8	0.009151138
61	0x3d4823be	0.04886221
62	0xbcd19c0b	-0.025587102
63	0xbe14a8e6	-0.14517555
64	0x3e0e2d5f	0.13884495
65	0xbd5e5b72	-0.054286428
66	0xbbcee0e8	-0.006313432
67	0x3da7d2f5	0.08194534
68	0x3d33d666	0.04390564
69	0xbe1b2f1f	-0.15154694
70	0x3c18e6e9	0.009332397
71	0xbe32f93b	-0.17477886
72	0x3b4b52a9	0.003102461
73	0xbe3ce23b	-0.18445675
74	0x3dc767ff	0.097366326
75	0xbcc0cea5	-0.023536036
76	0xbb5d2e29	-0.0033749437
77	0xbe4570e5	-0.19281347
78	0x3dc788e1	0.097429045
79	0xbe2ecb67	-0.1706978
80	0xbe03f04a	-0.12884632
81	0x3e003e3a	0.12523738
82	0x3e25e28b	0.161997
83	0x3e433d15	0.1906627
84	0x3dc4d797	0.09611433
85	0xbe02669f	-0.1273446
86	0x3db93761	0.09043766
87	0x3de4e951	0.11177314
88	0x3e321657	0.17391334
89	0xbdd9fcdb	-0.106439315
90	0x3dc1a4b9	0.094552465
91	0x3c08b3a9	0.008343616
92	0x3dce5b55	0.10076014
93	0x3db478cf	0.08812105
94	0x3dd7eddf	0.10543417
95	0xbe0076c9	-0.12545313
96	0x3d8887fd	0.06666563
97	0xbe2f107d	-0.17096134
98	0xbdd9c435	-0.10633127
99	0xbcad4633	-0.021151638
100	0xbdc143c3	-0.09436753
101	0xbd842a7b	-0.06453415
102	0x3c279028	0.010227241
103	0x3e085d4b	0.13316838
104	0xbde4efd3	-0.11178555
105	0x3d921f27	0.07134848
106	0xbdd2aa21	-0.10286356
107	0xbd800c89	-0.06252391
108	0x3bf8974e	0.0075863963
109	0xbe491073	-0.19635181
110	0xbc20c6e8	-0.009813048
111	0xbe1a1e17	-0.15050541
112	0x3dee715d	0.11642716
113	0xbd93ee3b	-0.07223173
114	0x3c9f76fb	0.019465914
115	0x3da4ebcb	0.080527864
116	0xbe060417	-0.13087498
117	0xbe53dd13	-0.20689802
118	0xbd73b786	-0.059501193
119	0xbde10d47	-0.109888606
120	0x3e2160d1	0.15759589
121	0xbe189944	-0.14902216
122	0xbd972d8f	-0.073817365
123	0x3e40c4a5	0.18825014
124	0xbd6cefe6	-0.057845972
125	0xbe36b0c1	-0.17840864
126	0x3e3287c0	0.17434597
127	0x3e0f36b1	0.13985707
128	0xbdcf93c7	-0.10135608
129	0x3d77c50a	0.060490645
130	0xbe12ed39	-0.14348306
131	0xbda575fc	-0.08079144
132	0xbd23b276	-0.039965115
133	0x3dfeb457	0.12436741
134	0xbd0b80e4	-0.034058467
135	0xbddf7e7a	-0.10912795
136	0x3e0d68bf	0.13809489
137	0x3db90627	0.090343766
138	0x3c42f628	0.011899509
139	0xbde0f568	-0.109843075
140	0x3c0f2b49	0.008738347
141	0xbdc83d25	-0.097772874
142	0x3df1e873	0.11811914
143	0xbce23fc5	-0.027618298
144	0x3d23f2bd	0.040026415
145	0x3de994ff	0.11405372
146	0x3cb341f5	0.021882037
147	0x3dc5aadd	0.0965173
148	0x3d779982	0.06044913
149	0x3e09f5f1	0.13472725
150	0xbcd2f84b	-0.025753161
151	0xbe4aaa69	-0.19791569
152	0xbdc0aede	-0.09408353
153	0xbd7840b5	-0.060608584
154	0x3d0bf81c	0.034172162
155	0x3d17b60e	0.037038855
156	0xbdaa7823	-0.083236955
157	0xbe4124b1	-0.18861653
158	0xbde0c393	-0.10974803
159	0xbdbac540	-0.09119654
160	0xbe259fcd	-0.1617424
161	0xbd9234e7	-0.071389966
162	0xbdfd76eb	-0.123761974
163	0x3dbc6727	0.09199362
164	0x3d7b37e2	0.06133259
165	0x3db156ad	0.0865911
166	0x3d91604f	0.070984475
167	0x3d52cc8e	0.05146461
168	0xbd6a7e12	-0.057249136
169	0xbd70920a	-0.058733024
170	0xbd72c3cf	-0.05926877
171	0xbe0810a2	-0.13287595
172	0xbc886e73	-0.016654229
173	0xbe0c349d	-0.13691945
174	0xbe4747c7	-0.19460975
175	0x3de68b45	0.11257032
176	0xbd67c8d2	-0.056588
177	0x3d01c6b3	0.031683635
178	0xbd8522a7	-0.0650075
179	0xbdd48d5c	-0.10378525
180	0x3dbb9997	0.09160154
181	0xbd8a1d88	-0.06743914
182	0x3e36389f	0.17795037
183	0x3d9c0021	0.07617212
184	0xbb963cb6	-0.004584874
185	0xbdb00225	-0.08594159
186	0xb932ed1e	-0.00017063736
187	0xbe0d6816	-0.13809237
188	0x3c706b63	0.0146740405
189	0x3e262b74	0.16227514
190	0xbd503926	-0.05083575
191	0xbdd701da	-0.104984
192	0x3de8b70b	0.11363038
193	0x3e3abe85	0.1823674
194	0x3db448af	0.08802926
195	0x3e2ff375	0.17182715
196	0xbcaa4d56	-0.02078883
197	0x3e2e4ecd	0.17022248
198	0xbc80655a	-0.015673328
199	0xbd3ceeda	-0.046126224
200	0x3cd8e29d	0.026475245
201	0xbd00a0c5	-0.03140332
202	0xbb8b9818	-0.0042600743
203	0xbcb659d5	-0.022259632
204	0xbde829c8	-0.11336094
205	0xbde1ec38	-0.11031383
206	0x3d926929	0.07148964
207	0xbdba2b69	-0.09090311
208	0x3cedca77	0.029027207
209	0xbe0e5cad	-0.1390254
210	0xbd0dd220	-0.03462422
211	0x3e0bafe9	0.13641323
212	0x3d869241	0.065708645
213	0x3ccf5beb	0.025312385
214	0x3e3f431f	0.18677948
215	0x3dd2bf8d	0.10290442
216	0xbd126702	-0.035742767
217	0x3d33eb86	0.043925785
218	0x3cd0a1d5	0.025467793
219	0xbd8a2a73	-0.06746378
220	0xbdb9f6eb	-0.09080299
221	0x3cf61bd2	0.030042563
222	0xbe34d230	-0.17658305
223	0xbe0f92d9	-0.14020862
224	0x3c96211c	0.018326335
225	0xbe2d1fc1	-0.16906644
226	0xbe16c42a	-0.14723268
227	0xbd8c1209	-0.068393774
228	0x3d93ce45	0.07217077
229	0x3dafec75	0.085900225
230	0xbe2b096b	-0.16702811
231	0x3d57a61e	0.052648656
232	0xbdbe6e4e	-0.09298383
233	0xbd1b76c6	-0.037955068
234	0x3e1c6ba7	0.15275441
235	0x3dcbd90d	0.099535085
236	0x3dbafc03	0.09130099
237	0xbe0fcd53	-0.14043169
238	0xbdd50599	-0.10401458
239	0xbe27eebd	-0.16399665
240	0x3e0b3f09	0.13598265
241	0x3dd3513b	0.10318228
242	0x3e366605	0.17812355
243	0xbdf16841	-0.11787463
244	0x3df0abaf	0.11751496
245	0xbe42d95c	-0.19028229
246	0x3d9b6d7f	0.07589244
247	0xbe0d4109	-0.1379434
248	0x3df0242d	0.1172565
249	0xbe45509d	-0.19269033
250	0xbdfaba74	-0.12242594
251	0xbdcf5f92	-0.101256505
252	0xbd2c3382	-0.04204131
253	0xbe30bba7	-0.17259084
254	0xbe32fb74	-0.17478734
255	0xbda5486f	-0.08070456
