Knowledge_Graph_Recommendation/recommendation/stage2/trained_model/Douban/Embedding_based/dim32_lr0.001_l20.0001_TransR/minus/model0_epoch20.pth (torch, 728343 bytes, 5 tensors)

trans_M f4 [114, 32, 32]
0	0xba8b5f42	-0.0010633247
1	0x3b06f278	0.00205913
2	0x3c1d4955	0.009600003
3	0x3cad9d7f	0.021193264
4	0x3bb5335f	0.0055298056
5	0x3d0a5d97	0.03378066
6	0x3c0d0e14	0.0086093135
7	0x3cf2241b	0.029558232
8	0xbc3b497a	-0.011431092
9	0xbb3876e6	-0.002814704
10	0x3cb36e44	0.021903165
11	0xbc87b74c	-0.016566895
12	0xbc1c0fa8	-0.009525217
13	0x3b7547f0	0.0037426911
14	0xbd031526	-0.03200259
15	0x3c41288b	0.011789451
16	0xbcb1eca4	-0.021719284
17	0x3cb12871	0.02162573
18	0xbbd6ebe9	-0.0065588844
19	0x3c90d740	0.017680764
20	0xbb2c770d	-0.0026316077
21	0x3c606f3a	0.0136983935
22	0x3b4e9ab9	0.0031525327
23	0x3b48f789	0.003066512
24	0x3c384b7c	0.011248466
25	0xbbc3de7f	-0.0059774513
26	0x3c91e6b5	0.017810205
27	0x3d0cacff	0.03434467
28	0x3cd26501	0.025682928
29	0x3ce4eef4	0.027945973
30	0xbd051e1b	-0.032499414
31	0x3c9db79b	0.019252589
32	0x39f0e120	0.00045944098
33	0xbcb1c5e0	-0.0217008
34	0x3cddcc55	0.027074972
35	0x3c2d3204	0.010571007
36	0xbcbc72fc	-0.023004048
37	0xbd056a5c	-0.032572135
38	0xbcaf19dd	-0.021374637
39	0xbc4748ac	-0.012163322
40	0x3b906c60	0.0044074506
41	0x3a5b05f2	0.0008355073
42	0x3c95b86e	0.01827642
43	0xbd23489b	-0.039864164
44	0xbcb18cf0	-0.02167365
45	0xbd1261aa	-0.03573767
46	0x3cd56271	0.026047917
47	0x3d102098	0.035187334
48	0x3cd81551	0.026377352
49	0xbcde97b3	-0.027171945
50	0x3c06b5e8	0.008222081
51	0xbcdfd2c1	-0.027322175
52	0x3d200cd7	0.039074745
53	0x3cda704e	0.02666488
54	0x3d266eb1	0.040632907
55	0xbd12a729	-0.035803948
56	0x3bdfd2c2	0.006830544
57	0xbce1ae4a	-0.027548928
58	0xbc9589a3	-0.018254107
59	0x3c771d24	0.015082631
60	0xbcbca4d2	-0.023027811
61	0x3cc51ccd	0.024061585
62	0xbbb75d51	-0.005595841
63	0x3c58272b	0.013192932
64	0x3c654da4	0.013995562
65	0xb8e8c7e5	-0.00011099855
66	0x3cc90f68	0.02454348
67	0xbd2649d9	-0.04059777
68	0x3c9bc19c	0.019013219
69	0xbc048917	-0.008089325
70	0x3ccaec75	0.024770955
71	0x3ce094c3	0.027414685
72	0x3c9074e4	0.017633863
73	0x3859919d	5.1872445e-05
74	0x3b1ef3a9	0.002425412
75	0x3be7be70	0.0070722625
76	0xbb75b2cb	-0.0037490602
77	0x3cd631b5	0.026146749
78	0xbca4e411	-0.020128282
79	0xbb2a053b	-0.002594306
80	0xbc86ab29	-0.016439037
81	0x3b1ee6b9	0.0024246408
82	0xbd02aa94	-0.031900957
83	0x3c4b63f7	0.01241397
84	0xbc0ee026	-0.008720433
85	0x3ca4ed6d	0.020132745
86	0xbae554d1	-0.0017496591
87	0x3ce361d6	0.027756613
88	0x3c6741f1	0.014114843
89	0xbc294ee8	-0.010333754
90	0x3cbe56cd	0.02323475
91	0x3cc96199	0.024582671
92	0xbcf1015e	-0.029419597
93	0xbca66eb5	-0.020316461
94	0x3c868916	0.01642279
95	0x3c9da42b	0.01924332
96	0x3c0d9492	0.008641379
97	0x3bdec05a	0.0067978324
98	0x3d0d3309	0.0344725
99	0xbbf6accc	-0.007527923
100	0xbd1df1b5	-0.038560588
101	0x3d227afb	0.039668065
102	0xbd260e78	-0.040541142
103	0x3ce9101d	0.028450066
104	0x3caa1215	0.020760575
105	0xbc1698b0	-0.009191677
106	0xbc7aabb2	-0.015299724
107	0x3bc0e410	0.005886562
108	0xbc2fb5e0	-0.010724515
109	0x3ccbde7d	0.024886364
110	0x3cd939a6	0.026516747
111	0x3c6b3977	0.014356962
112	0xbc93cb83	-0.018041378
113	0xbd071910	-0.032982886
114	0x3c941ba5	0.018079588
115	0xba9f6653	-0.0012161232
116	0xbd295584	-0.04134132
117	0xbba0a0f4	-0.0049019996
118	0x3d093b2b	0.033503693
119	0x3c92abbd	0.017904157
120	0x3c26f46c	0.010190111
121	0xbc8b00f8	-0.016968235
122	0xbd0af1f6	-0.03392216
123	0xbc74a3e0	-0.014931649
124	0xbca652cc	-0.020303153
125	0xbc46f084	-0.012142304
126	0xbd09f815	-0.033683855
127	0xbcb1baf6	-0.021695595
128	0x37835bdd	1.5659194e-05
129	0x3cc2caad	0.023778284
130	0xbb3d9869	-0.0028929955
131	0xbc71a114	-0.014747877
132	0x3ca2a1a1	0.019852461
133	0x3c4e88ec	0.012605887
134	0x3d12c7c0	0.035835028
135	0xbcdf9bef	-0.027296035
136	0xbce11e51	-0.027480276
137	0x3b0ff73b	0.002196743
138	0xbc292b8c	-0.010325324
139	0x3d179e49	0.037016187
140	0xbbafc21d	-0.0053637163
141	0xbbc476b3	-0.0059955954
142	0xbd087e3b	-0.033323508
143	0xba7bfe32	-0.0009612768
144	0xbd070eea	-0.032973208
145	0xbcc8d1ae	-0.024514046
146	0x3d15e947	0.036599424
147	0x3cd17649	0.025569098
148	0xbc3fe78a	-0.011712918
149	0xbca835af	-0.02053341
150	0x3cfcf2cd	0.030877495
151	0xbca356d9	-0.019938873
152	0x3cd2f0a3	0.02574951
153	0x3c6308e2	0.013857098
154	0x3c35a74c	0.01108725
155	0xbc2316f8	-0.009954207
156	0x3d06f1ca	0.03294543
157	0xbd0570cd	-0.03257828
158	0xbd0f7650	-0.03502494
159	0xbab74c92	-0.0013984612
160	0x3cc433e5	0.023950526
161	0x3d1f4d6d	0.0388922
162	0xbbcfcfd1	-0.0063419123
163	0x3d0d9825	0.034568924
164	0x3c1bcdc8	0.009509511
165	0x3d0dce67	0.03462067
166	0x3ccf83cc	0.0253314
167	0xbb0ab908	-0.0021167416
168	0xbd059369	-0.032611284
169	0x3bdb44a0	0.0066915303
170	0x3c5e2a75	0.013559927
171	0x3cf2d7ef	0.02964398
172	0x3b561e96	0.003267204
173	0xbc1e9a94	-0.009680409
174	0xbc729120	-0.014805108
175	0xbba303d9	-0.004974824
176	0x3bc94eb6	0.0061434163
177	0xbd0d7918	-0.034539312
178	0xbc893861	-0.016750516
179	0xbc9b02e1	-0.018922271
180	0xbc5b454a	-0.013383219
181	0x3cef99aa	0.029248077
182	0x3cbd1ccd	0.023085022
183	0xbcf6455d	-0.030062372
184	0x3c898a07	0.01678945
185	0xbd0d5d15	-0.034512598
186	0x3be6703b	0.007032422
187	0x3ccd38ef	0.025051562
188	0x3caba873	0.020954346
189	0xbd224292	-0.039614268
190	0xbb4063b7	-0.002935631
191	0xbc2fb6d0	-0.010724738
192	0xbca01910	-0.0195432
193	0xba439e29	-0.00074622274
194	0x3c13405c	0.008987512
195	0x3c9aa223	0.018876141
196	0x3b53ef13	0.0032338544
197	0x3ccfc59d	0.025362784
198	0xbc24721c	-0.010036971
199	0xbaf57536	-0.0018726948
200	0xbd28dcbe	-0.04122614
201	0xbc5ce26e	-0.013481719
202	0xbc88022b	-0.016602596
203	0xbd28bcfd	-0.04119586
204	0xbad6e234	-0.0016394318
205	0x3cc70d09	0.024298208
206	0x3c6e4e2c	0.014545005
207	0xbc99b1ca	-0.018761534
208	0x3cd6bdcd	0.026213551
209	0xbcae31f8	-0.021264061
210	0xbb75002a	-0.003738413
211	0xbbaddc82	-0.0053058276
212	0xbcc7efde	-0.02440637
213	0x3c2e050c	0.01062132
214	0x3d248e2d	0.040174652
215	0xba426628	-0.0007415735
216	0x3c809d13	0.015699899
217	0x3c8a5065	0.016884038
218	0xbd14be31	-0.036314193
219	0x3c818027	0.015808178
220	0x3ccc5b8b	0.024945995
221	0xbca27e25	-0.019835541
222	0xbc0f49d4	-0.008745629
223	0xbc0945a5	-0.008378421
224	0x3cf0a622	0.029376093
225	0x3c65d394	0.014027495
226	0xbc0c9216	-0.0085797515
227	0xbd07b8d9	-0.03313527
228	0xbc1ea4a2	-0.009682806
229	0x3bee9b01	0.0072816615
230	0x3a3bd19a	0.0007164717
231	0x3cd703e6	0.026246976
232	0x3bec700b	0.007215505
233	0xbb2525e5	-0.002519959
234	0xbca92520	-0.020647585
235	0x3cb50ba5	0.02210028
236	0xbac87a43	-0.0015295226
237	0x3d1dd437	0.038532462
238	0xbc101404	-0.008793835
239	0xbce702da	-0.028199602
240	0xbce01253	-0.027352488
241	0x3c16b050	0.00919731
242	0x3c810300	0.0157485
243	0x3cb6df2d	0.022323215
244	0x3c68bad8	0.014204703
245	0xbc8ec021	-0.017425599
246	0xbc7da90f	-0.015482201
247	0xb9907052	-0.00027549505
248	0x3cee7dcd	0.02911272
249	0xbc844adb	-0.016148975
250	0xbb6f41e0	-0.003650777
251	0x3d07bc52	0.03313858
252	0x3cab216d	0.020889962
253	0x3c2c4dd4	0.010516603
254	0xbbd4a94d	-0.006489909
255	0xbc1a1cb4	-0.009406257

user_embed.weight f4 [447, 32]
0	0x3e541a6e	0.20713207
1	0x3e64df7c	0.22350878
2	0xbe01e85e	-0.12686297
3	0x3ea0429f	0.31300828
4	0x3dd17d64	0.102289945
5	0xbe348784	-0.1762982
6	0xbe035930	-0.12826991
7	0x3de0dd08	0.10979658
8	0xbe11e983	-0.14249234
9	0x3df8bac2	0.12144996
10	0x3d9dfbe5	0.07714061
11	0x3e2df1da	0.1698679
12	0xbd528639	-0.051397536
13	0x3d52d837	0.05147573
14	0x3e1bdf5d	0.15221925
15	0x3c913600	0.017725945
16	0xbd6d77c9	-0.057975564
17	0xbe976745	-0.29570976
18	0x3dcea2c1	0.100896366
19	0xbe88f9b1	-0.26753
20	0x3e8ba0e3	0.27271184
21	0x3dd09913	0.101854466
22	0xbd5119d0	-0.051050007
23	0xbdf4bfe7	-0.11950665
24	0xbe3a10e2	-0.18170503
25	0xbe0e4636	-0.13893971
26	0x3d0e7b16	0.034785353
27	0x3e5f14ba	0.2178525
28	0xbebb6052	-0.36596924
29	0xbe43aaa3	-0.19108061
30	0x3ddaeff9	0.106903024
31	0xbeb24aef	-0.34822795
32	0x3ddb7bc1	0.107169636
33	0x3e43f627	0.19136868
34	0x3e05d330	0.13068843
35	0x3c72e9ca	0.0148262475
36	0x3d5c5b06	0.053797744
37	0x3dae5c58	0.08513707
38	0xbcfd3f9c	-0.03091412
39	0x3e7d0377	0.24708353
40	0xbe4641d3	-0.19361047
41	0x3da7cabf	0.081929676
42	0xbe644bff	-0.22294615
43	0x3d8c235e	0.06842683
44	0x3e181c2b	0.14854495
45	0x3e19f821	0.1503606
46	0xbd4899a4	-0.048974648
47	0xbcada792	-0.021198068
48	0xbe630ae8	-0.22172129
49	0xbcb540e4	-0.022125669
50	0x3d0e6292	0.034761973
51	0xbe88675e	-0.26641363
52	0x3e61adc9	0.2203895
53	0x3e089583	0.13338284
54	0x3cfaab78	0.03059934
55	0x3e7ae6bd	0.24502082
56	0xbe1d0691	-0.15334536
57	0xbda4e22a	-0.0805095
58	0x3e1bfff5	0.15234359
59	0x3e6d2680	0.23159218
60	0xbddd8399	-0.10816116
61	0x3c4fe003	0.012687686
62	0x3eecc89b	0.462468
63	0xbda1b165	-0.078951634
64	0x3e35435f	0.17701481
65	0x3dcf05cb	0.10108527
66	0xbe189854	-0.14901859
67	0x3ea3b51f	0.31974122
68	0x3d10da46	0.03536441
69	0xbe151e55	-0.14562352
70	0xbeb5fa65	-0.35542598
71	0xbd70ea8c	-0.05881743
72	0xbec113d6	-0.37710446
73	0x3e95a11c	0.2922448
74	0x3e5e32d1	0.21699072
75	0xbc288c1d	-0.010287312
76	0xbd80d96a	-0.062914684
77	0x3e264818	0.16238439
78	0x3ddc6387	0.10761171
79	0xbda685a0	-0.08130956
80	0x3e47254c	0.19447821
81	0xbddda0ba	-0.10821672
82	0x3e21c5b1	0.1579807
83	0xbe006abf	-0.1254072
84	0x3e2889ca	0.16458812
85	0x3ed31b4f	0.41231772
86	0xbd38e18d	-0.045136977
87	0x3d60fc41	0.054928068
88	0xbbf787b0	-0.007554017
89	0x3cdc9102	0.026924614
90	0xbe115f32	-0.1419647
91	0x3e85f895	0.26166216
92	0xbe86443a	-0.26223928
93	0x3ced5122	0.028969351
94	0x3e2109e5	0.1572643
95	0xbc4b82a5	-0.012421285
96	0x3e841f34	0.25805056
97	0x3ec5477f	0.3853111
98	0xbd0c240d	-0.03421407
99	0x3efbafdd	0.4915761
100	0x3ea5a866	0.3235504
101	0xbcd43509	-0.025904195
102	0xbce1cf0b	-0.027564546
103	0x3e2281f5	0.15869887
104	0xbe551b78	-0.2081126
105	0xbc827ee6	-0.01592965
106	0xbd6102a5	-0.054934163
107	0x3e3778ff	0.1791725
108	0xbd88c375	-0.066779055
109	0x3d65c929	0.056100044
110	0x3e26f93c	0.16306013
111	0xbc46055b	-0.012086238
112	0x3ed24e5c	0.41075408
113	0x3d803c21	0.06261469
114	0xbe4ad290	-0.19806886
115	0xbe4b6fd5	-0.1986688
116	0x3da7d534	0.08194962
117	0x3e797f41	0.2436495
118	0xbf0a8fdd	-0.5412577
119	0x3e2ea441	0.17054845
120	0x3dc6636d	0.09686933
121	0xbe865958	-0.2624004
122	0x3f0507f7	0.5196528
123	0x3f06e0cf	0.5268678
124	0xbed7bdb0	-0.42136908
125	0x3a05a441	0.0005098023
126	0x3ee9e5e4	0.45683205
127	0xbe74c984	-0.23904997
128	0x3e413a7f	0.1886997
129	0x3dc92549	0.09821565
130	0x3de4d3b9	0.111731954
131	0x3de72b96	0.1128761
132	0x3e9e47bf	0.30914113
133	0xbe0167e8	-0.12637293
134	0x3e13fd39	0.14452066
135	0x3dec031c	0.115240306
136	0xbe6db0ee	-0.23212025
137	0xbdab6e11	-0.08370603
138	0xbcf9c525	-0.030489514
139	0x3e89f5a7	0.2694523
140	0x3c98938a	0.01862504
141	0xbd7c90a9	-0.061661396
142	0x3da674ff	0.08127784
143	0xbe96e597	-0.29472038
144	0x3ca96970	0.02068016
145	0xbe76a572	-0.2408655
146	0xbe04c9bf	-0.12967585
147	0xbd8748dc	-0.06605694
148	0x3dc31a0e	0.09526454
149	0x3e8e641d	0.27810755
150	0xbe4c3d0b	-0.19945161
151	0x3e90349e	0.28165144
152	0xbe64f376	-0.22358498
153	0xbdc9f7f2	-0.09861745
154	0x3d387c75	0.045040566
155	0x3e2e4f49	0.17022432
156	0xbe0a08f9	-0.13479985
157	0xbdb7b34a	-0.089697435
158	0x3e870e57	0.26378128
159	0xbe539d21	-0.20665409
160	0xbe76ca0d	-0.24100514
161	0x3f0b4ba5	0.544123
162	0x3f22a3f8	0.63531446
163	0xbe1c2015	-0.15246613
164	0x3e20dbb8	0.15708816
165	0x3e579516	0.21052966
166	0xbd289328	-0.041155964
167	0x3e7b3d92	0.24535206
168	0xbd55a36e	-0.05215781
169	0xbe6a9c43	-0.22911172
170	0xbf283300	-0.6570282
171	0xbeef00ba	-0.46680242
172	0xbe11cb3c	-0.14237684
173	0x3eb2dc62	0.34933764
174	0xbec7caf0	-0.39022017
175	0x3ed23d0f	0.4106221
176	0x3eedef97	0.46471855
177	0xbdd64951	-0.10463203
178	0xbf02d0b7	-0.51099724
179	0x3f16dc7e	0.58930194
180	0x3a55d0a7	0.0008156397
181	0x3dc8b1c6	0.097995326
182	0x3f24120b	0.6409003
183	0xbebe782f	-0.37201068
184	0xbf43e461	-0.76520354
185	0xbe97f375	-0.2967793
186	0xbd04e752	-0.032447167
187	0x3d88498f	0.06654655
188	0x3ea54230	0.3227706
189	0x3ee6aa3a	0.45051748
190	0x3ecd97c6	0.40154856
191	0x3f289867	0.6585755
192	0xbd8c24ba	-0.068429425
193	0x3e0aa717	0.13540302
194	0xbdeebb80	-0.116568565
195	0x3e7252ae	0.23664352
196	0x3e6529aa	0.22379175
197	0xbd5a75d3	-0.053335022
198	0x3d325c0a	0.043544807
199	0xbb38ecd8	-0.0028217342
200	0x3bf35097	0.0074253785
201	0x3d6fc43c	0.058536753
202	0xbd13070d	-0.035895396
203	0xbe3d929c	-0.18512958
204	0x3df0e9c7	0.117633395
205	0x3e7aac78	0.24479854
206	0xbcba731b	-0.022759965
207	0xbce11964	-0.027477928
208	0xbc743099	-0.014904165
209	0x3ce8ce62	0.028418723
210	0xbdf7764b	-0.120831095
211	0xbd354db0	-0.04426354
212	0x3e171556	0.14754233
213	0x3dd9920c	0.10623559
214	0xbcd0a85d	-0.025470907
215	0x3e035de9	0.12828793
216	0xbaeba814	-0.0017979168
217	0x3e1033f4	0.14082319
218	0x3e1d5943	0.15366082
219	0x3e531f24	0.20617348
220	0xbe831713	-0.25603542
221	0xbe16eedf	-0.1473956
222	0x3decb1d5	0.11557356
223	0x3e76fb82	0.2411938
224	0x3daa0df6	0.08303444
225	0x3ef82f9c	0.48473823
226	0xbe3b53ae	-0.1829364
227	0x3e59092a	0.21194902
228	0x3e087eac	0.13329571
229	0xbe80a6a5	-0.2512714
230	0xbcf994c7	-0.03046645
231	0x3ebd43b6	0.36965722
232	0xbe24fdb9	-0.16112413
233	0x3d8d4bca	0.06899221
234	0xbc4d0a66	-0.012514686
235	0x3e5b85fb	0.21437828
236	0x3e9bb248	0.30409455
237	0x3bf5e8f7	0.007504578
238	0x3e86580d	0.26239052
239	0xbd03c468	-0.03216973
240	0x3d902585	0.07038406
241	0x3e13609c	0.14392322
242	0xbe4e5bb5	-0.20152171
243	0xbe91360b	-0.28361544
244	0x3e8a390e	0.26996654
245	0x3eb33227	0.349992
246	0xbe253af6	-0.16135773
247	0x3ede8b2e	0.4346556
248	0xbe0d8887	-0.13821612
249	0xbe1c01f6	-0.15235123
250	0xbde3110f	-0.11087238
251	0x3e19183f	0.14950655
252	0xbe895121	-0.2681971
253	0x3cb24cde	0.021765169
254	0x3dd4735a	0.10373564
255	0x3cc00e94	0.023444451

item_embed.weight f4 [578, 32]
0	0xbe238089	-0.15967001
1	0x3e7b6afd	0.24552532
2	0xbdfa11eb	-0.12210449
3	0x3d34fcea	0.04418651
4	0xbe74f5a3	-0.23921828
5	0xbdf17556	-0.11789958
6	0xbed016c3	-0.40642366
7	0xbee276cd	-0.44231263
8	0xbe532f04	-0.20623404
9	0x3eba209d	0.36353007
10	0xbd555de7	-0.052091505
11	0xbe57f9a6	-0.21091327
12	0x3e8c06bf	0.27348897
13	0x3ece6a0d	0.40315285
14	0x3dda277d	0.10652063
15	0xbce3775a	-0.027766872
16	0xbe5d193c	-0.21591657
17	0x3edd8a56	0.43269604
18	0xbe9f28bf	-0.31085774
19	0x3f0500cc	0.5195434
20	0xbe15e2f1	-0.14637353
21	0xbdb8f282	-0.0903063
22	0x3eb148f3	0.34625968
23	0xbdc3a4e7	-0.09552937
24	0xbe2b7e18	-0.1674732
25	0x3e15e80b	0.14639299
26	0xbf08239d	-0.5317934
27	0xbe6c6ac6	-0.23087606
28	0x3d08509e	0.033280008
29	0xbd64b8c5	-0.055840272
30	0x3e4d27b3	0.20034675
31	0xbc00219b	-0.007820512
32	0xbefc1e12	-0.49241692
33	0x3ee13591	0.4398618
34	0xbb4429be	-0.0029932107
35	0x3cf4b19d	0.029869849
36	0x3e60a2a0	0.21937037
37	0xbedb0ad2	-0.42781693
38	0xbf0c70b9	-0.548595
39	0xbe2bbcfc	-0.1677131
40	0xbeb3c6a3	-0.35112485
41	0x3eac020d	0.33595315
42	0x3c5494ed	0.01297496
43	0xbe074607	-0.13210307
44	0xbeab9088	-0.33508706
45	0x3ebf3585	0.3734552
46	0xbdeb2a2c	-0.11482653
47	0x3e875be6	0.264373
48	0x3b84697a	0.004040894
49	0x3e832967	0.25617525
50	0xbee6fd51	-0.4511514
51	0x3ecd8730	0.40142202
52	0x3eacf526	0.33780783
53	0xbe256936	-0.16153416
54	0xbe00c654	-0.12575656
55	0x3dad2453	0.08454194
56	0xbe5d8af2	-0.21635035
57	0x3e09914a	0.1343433
58	0x3d9156c4	0.07096627
59	0xbe31b1f1	-0.17353036
60	0xbeaf8bfb	-0.34286484
61	0xbe8f1bdb	-0.2795094
62	0x3eadbbab	0.33932242
63	0xbdc7d920	-0.0975821
64	0xbeaae6e9	-0.33379295
65	0x3ee15df6	0.44017
66	0xbf02955d	-0.5100916
67	0x3ec18da2	0.3780337
68	0xbe98bd18	-0.29831767
69	0x3c93ecf6	0.018057328
70	0xbed52fcd	-0.41638032
71	0xbc47bf70	-0.012191638
72	0xbed806d0	-0.42192698
73	0xbdb7b16b	-0.08969387
74	0xbea33b7a	-0.31881315
75	0xbe97f08c	-0.2967571
76	0xbdc124cd	-0.09430847
77	0x3eb88c4a	0.36044532
78	0xbe9711f2	-0.2950588
79	0x3d376c7e	0.0447812
80	0xbd8bf918	-0.0683462
81	0xbdb7f310	-0.08981907
82	0xbf11e343	-0.569874
83	0x3f0ab8fc	0.54188514
84	0xbc100b4e	-0.008791758
85	0xbdefa28e	-0.11700927
86	0x3d8b4d05	0.068018
87	0xbd677787	-0.056510475
88	0xbe99b353	-0.30019626
89	0xbe7699d1	-0.24082114
90	0xbeef19c6	-0.4669935
91	0x3e54b045	0.20770366
92	0xbe9729a8	-0.2952397
93	0xbd91242d	-0.07086978
94	0x3eac49cb	0.3365005
95	0xbe606640	-0.21914005
96	0xbcb8faba	-0.022580493
97	0x3d68437b	0.05670498
98	0x3da23c2b	0.079216324
99	0xbd0a4e37	-0.033765998
100	0xbe666563	-0.22499613
101	0xbe31629d	-0.17322774
102	0x3e67b448	0.22627366
103	0x3e2a8664	0.16652828
104	0x3dbb5e5c	0.09148857
105	0xbd059c4b	-0.032619756
106	0xbe135d9a	-0.14391175
107	0x3e91c077	0.28467152
108	0x3ddeb783	0.10874846
109	0xbdeb7d2c	-0.11498484
110	0x3de35a11	0.11101163
111	0xbd1fe8b2	-0.039040275
112	0xbcc65b3d	-0.024213428
113	0x3e45f5cd	0.19332047
114	0x3e020200	0.12696075
115	0xbd910506	-0.07081036
116	0xbe0b4f74	-0.13604528
117	0x3d8110ec	0.06302056
118	0xbdf2bf86	-0.118529364
119	0x3e71d76c	0.23617333
120	0x3c198a7c	0.009371396
121	0x3d20fd92	0.039304323
122	0x3e3a99a7	0.18222676
123	0x3e68e204	0.22742468
124	0x3daa54e4	0.08316973
125	0xbbd1e264	-0.0064051617
126	0x3de2c5a5	0.11072854
127	0xbe55a650	-0.20864224
128	0x3dc5c2bd	0.09656284
129	0xbe85583a	-0.26043874
130	0x3dd62337	0.104559354
131	0xbe980f22	-0.29699045
132	0xbee1fba1	-0.4413729
133	0x3ec91cb2	0.39279705
134	0x3e2c2d1f	0.16814087
135	0xbe258d81	-0.1616726
136	0x3e3694af	0.17830156
137	0xbe32e5c3	-0.1747046
138	0x3c39a127	0.011329926
139	0xbe49e400	-0.19715881
140	0xbdd232ef	-0.10263621
141	0xbde414fd	-0.11136816
142	0xbe82e033	-0.25561675
143	0x3e0a3be5	0.1349941
144	0x3ceac983	0.028660541
145	0xbdbb67cc	-0.09150657
146	0xbe84384c	-0.258242
147	0x3e1fda60	0.15610647
148	0xbee38dc5	-0.444441
149	0xbe6a480c	-0.22879046
150	0x3d47f402	0.04881669
151	0xbe6ceb89	-0.23136725
152	0x3e84ab84	0.25912106
153	0x3db66f50	0.0890795
154	0xbd841f53	-0.06451287
155	0xbec94162	-0.39307696
156	0x3ea6f1af	0.32606265
157	0x3deb5923	0.11491611
158	0xbea211a9	-0.316541
159	0x3e3512cc	0.17682952
160	0x3dd1a975	0.102373995
161	0xbe76de3a	-0.2410821
162	0xbd93effd	-0.072235085
163	0xbe7b49c8	-0.24539864
164	0x3d850001	0.06494141
165	0x3e923bf2	0.2856136
166	0x3d0cddb0	0.034391105
167	0xbe554daa	-0.20830408
168	0x3ee58dc4	0.4483472
169	0xbe021fa9	-0.1270739
170	0xbe2f84fe	-0.17140576
171	0x3d4d4d0d	0.05012231
172	0xbd03acec	-0.032147333
173	0xbd961596	-0.07328336
174	0xbdf900c1	-0.12158347
175	0xbde73c03	-0.11290743
176	0xbd7bd385	-0.061481018
177	0xbd44b432	-0.04802341
178	0x3e1e1e1b	0.15441172
179	0x3e4d4d4d	0.20049019
180	0xbe46c4e3	-0.19411044
181	0xbd119274	-0.03554006
182	0x3e8495d0	0.25895548
183	0xbdcf4e12	-0.101223126
184	0x3dc57850	0.096420884
185	0x3e0a3cd4	0.13499767
186	0xbd94459e	-0.07239841
187	0x3d9dcad7	0.07704704
188	0x3eba3b3b	0.36373314
189	0x3cc20253	0.023682749
190	0xbe0cacee	-0.13737842
191	0x3e9e830b	0.30959353
192	0xbeac5ec4	-0.3366605
193	0x3f4150cb	0.75513905
194	0xbe659422	-0.2241979
195	0x3ea85b6a	0.32882243
196	0x3e9ae6bf	0.3025417
197	0x3e97ffdd	0.29687396
198	0xbf26cb5f	-0.6515407
199	0x3df064f5	0.11738006
200	0xbf3205bf	-0.6954002
201	0x3f2761b2	0.65383446
202	0xbf017c7a	-0.5058056
203	0xbf09b3f2	-0.537902
204	0x3d85d860	0.06535411
205	0x3e8ffeb2	0.28124005
206	0x3ef30d5c	0.4747113
207	0x3d9fe4fb	0.078073464
208	0xbabb5aee	-0.0014294067
209	0x3f2699c7	0.65078396
210	0xbe962cdd	-0.29331103
211	0x3f07ea8d	0.5309227
212	0x3ea111cd	0.31458893
213	0x3bbd4252	0.0057757283
214	0xbe8b630d	-0.27224007
215	0x3f22642d	0.63434106
216	0xbe84e741	-0.25957683
217	0x3e7489df	0.23880719
218	0xbecea104	-0.4035722
219	0x3dffcbe0	0.12490058
220	0xbec71b18	-0.38887858
221	0xbded4a15	-0.11586396
222	0x3f3561de	0.7085246
223	0x3e1f4d45	0.1555682
224	0xbedd4d10	-0.43222857
225	0x3f0d3f5a	0.5517479
226	0x3e75a359	0.23988093
227	0x3e710fe3	0.23541217
228	0x3d223a36	0.039606296
229	0xbebfdda2	-0.3747378
230	0xbec7f803	-0.39056405
231	0xbe01c1d0	-0.1267159
232	0xbf415206	-0.7551578
233	0x3ece12a5	0.402486
234	0xbe9f6f3a	-0.31139547
235	0xbf330895	-0.6993497
236	0x3ea3c01c	0.31982505
237	0x3ec026a6	0.37529486
238	0x3dcce72b	0.10005029
239	0x3e9fed28	0.31235623
240	0x3dabb4e5	0.08384112
241	0x3eb79c1d	0.35861292
242	0xbeb944f6	-0.36185426
243	0x3f2ab7e3	0.6668684
244	0x3ebca67f	0.36845776
245	0x3de84292	0.11340822
246	0x3dc2fe76	0.09521191
247	0x3da700ca	0.081544474
248	0xbeb2df04	-0.34935772
249	0xbd89dffc	-0.06732175
250	0xbe4d4513	-0.20045881
251	0x3ea0516e	0.31312126
252	0xbee0ff1c	-0.43944633
253	0xbd80e177	-0.06293004
254	0x3f1e66fc	0.6187589
255	0x3e86b74c	0.2631172

entity_embed.weight f4 [886, 32]
0	0xbd80f2d0	-0.06296313
1	0xbda12d03	-0.078699134
2	0x3d4eacd6	0.050457798
3	0x3d0b653f	0.034032103
4	0xbc65be6f	-0.014022454
5	0xbd1547a1	-0.036445264
6	0x3d99425c	0.0748336
7	0x3d91a596	0.07111661
8	0x3cf5fe99	0.030028628
9	0xbd7e2c84	-0.062054172
10	0xbd012ff2	-0.031539865
11	0xbdaba2fe	-0.08380698
12	0xbd479103	-0.04872228
13	0xbcba9b6e	-0.022779193
14	0xbc8049e9	-0.015660243
15	0x3d36fb3c	0.04467319
16	0xbd871213	-0.06595244
17	0x3d27b781	0.040946487
18	0x3cce4ba2	0.025182549
19	0x3ccf17ca	0.025279898
20	0x3d9760a4	0.073914796
21	0x3c410048	0.011779852
22	0xbc097478	-0.008389585
23	0x3d79db35	0.061000068
24	0xbca051b5	-0.019570211
25	0xbc422629	-0.011849918
26	0x3c69ad9c	0.014262583
27	0x3d58051f	0.05273926
28	0xbcf287e9	-0.029605823
29	0x3d66989a	0.056297876
30	0xbd99a952	-0.075029984
31	0xbd2c7c13	-0.042110514
32	0x3da0b7ba	0.07847543
33	0xbd9cd15d	-0.076571204
34	0x3d508ce0	0.0509156
35	0x3c7b3475	0.015332331
36	0x3cfc6f4d	0.030814791
37	0x3d05513f	0.032548185
38	0xbc947faa	-0.018127281
39	0xbd3776b9	-0.044790957
40	0x3d9797ea	0.07402022
41	0xbd487820	-0.048942685
42	0xbbcc16be	-0.006228297
43	0xbc4d82c8	-0.012543388
44	0x3dafb0a7	0.08578616
45	0xba6d17be	-0.00090443704
46	0x3d7f9664	0.062399283
47	0x3d8242cd	0.063603975
48	0xbc169511	-0.009190814
49	0x3d96fb47	0.07372146
50	0x3d6edb74	0.058314756
51	0xbd520802	-0.051277168
52	0xbdaa95ea	-0.08329375
53	0xbcca9d4f	-0.024733214
54	0x3d918ebd	0.07107303
55	0x3d37d7a8	0.0448834
56	0x3d63a2a6	0.055575036
57	0xbd974035	-0.073852934
58	0xbd888438	-0.06665844
59	0x3d22e446	0.03976848
60	0x3d82e99d	0.063922144
61	0x3d670d87	0.056409385
62	0x3d9378d3	0.0720078
63	0x3c05dd23	0.008170399
64	0x3d5e7869	0.05431405
65	0x3d1420e7	0.03616419
66	0x3d74235c	0.059604034
67	0xbd4101fd	-0.047121037
68	0x3d7e1214	0.06202896
69	0xbd1255e1	-0.03572643
70	0x3bf6c888	0.0075312294
71	0xbdb04bb3	-0.086081885
72	0x3cd7820d	0.02630713
73	0xbcdabadf	-0.026700435
74	0xbcfd3d62	-0.030913059
75	0x3d043db0	0.032285392
76	0x3d82bf3e	0.06384133
77	0xbdb5a2d6	-0.08868949
78	0x3d2209c3	0.03956009
79	0xbd9111ba	-0.07083459
80	0xbd111e7e	-0.03542947
81	0x3d87a8c8	0.06623989
82	0xbcc24905	-0.023716459
83	0x3cebf7bf	0.028804658
84	0x3da0dc24	0.078544885
85	0xbd904d2f	-0.070459716
86	0x3bd5e5b3	0.0065276264
87	0x3d76c142	0.0602429
88	0xbc10445f	-0.008805363
89	0x3d3615b4	0.04445429
90	0xbd831dd7	-0.06402176
91	0x3d1e5004	0.038650528
92	0x3d12f51f	0.035878297
93	0x3ca189eb	0.019719085
94	0x3cf384b3	0.029726362
95	0xbd87585d	-0.06608651
96	0xbcda3a8a	-0.026639242
97	0xbd67d627	-0.056600716
98	0x3d3553d5	0.0442694
99	0xbd9fd0bd	-0.078034855
100	0x3d97e53f	0.07416772
101	0x3d8cd049	0.06875665
102	0xbd0f6006	-0.035003684
103	0x3d4426a9	0.04788843
104	0xbcf1c85d	-0.029514486
105	0xba9671c4	-0.0011477997
106	0x3d7577fa	0.05992887
107	0xbd9648c7	-0.073381
108	0x3d604340	0.054751635
109	0x3a9c119f	0.0011907107
110	0xbca76096	-0.020431798
111	0xbd69347f	-0.05693483
112	0x3cb48e95	0.022040645
113	0x3d2954b3	0.04134054
114	0xbd01f0b4	-0.031723693
115	0x3d3731cf	0.044725236
116	0xbadc6e0d	-0.0016817466
117	0xbd11dd08	-0.035611182
118	0x3d419912	0.04726512
119	0xbd7a1947	-0.061059263
120	0x3d64f639	0.05589888
121	0x3c724396	0.014786622
122	0x3d8bf726	0.06834249
123	0x3d06cd2d	0.032910515
124	0x3b960805	0.0045785927
125	0xbd15a877	-0.036537614
126	0x387e9b64	6.0703038e-05
127	0x3d82df3f	0.06390237
128	0xbc82f99c	-0.015988164
129	0xbbfb8ec3	-0.0076769306
130	0x3d1ec83f	0.03876519
131	0x3cf615b1	0.03003964
132	0xbd42d537	-0.04756662
133	0xbc7bb192	-0.01536216
134	0xbc0188b3	-0.007906127
135	0xbd17f595	-0.03709944
136	0x3c337967	0.010954238
137	0xbd987dc7	-0.07445865
138	0xbd92548e	-0.07145034
139	0x3ca35baa	0.01994117
140	0xbb4a94be	-0.003091141
141	0xbcc0331b	-0.023461869
142	0xbc0d659a	-0.008630181
143	0xbc091a94	-0.008368153
144	0x3d8b64f6	0.06806366
145	0x3d34de9b	0.044157606
146	0xbc9a4d52	-0.018835697
147	0x3daa952f	0.08329236
148	0x39d6360b	0.00040857526
149	0xbd633efe	-0.055479996
150	0x3ce6b59f	0.028162776
151	0xbcd36d7c	-0.025809042
152	0xbbdc0b0b	-0.0067151836
153	0xbbc18204	-0.0059053916
154	0x3d433471	0.047657434
155	0xbb8236b0	-0.0039738044
156	0xbd984693	-0.07435336
157	0x3c7f11d5	0.015568216
158	0xbd67a27d	-0.056551445
159	0x3d224aa7	0.039621975
160	0xbd8d38b4	-0.06895581
161	0x3caccd38	0.02109395
162	0x3c28b9b0	0.010298178
163	0xbbff5f4d	-0.007793343
164	0x3d0acf8c	0.03388934
165	0x3cae0348	0.021241799
166	0x3d9b4bba	0.07582803
167	0x3c36f2b8	0.011166267
168	0x3ce9e634	0.028552152
169	0x3d85cf53	0.065336846
170	0x3ae5b773	0.0017525986
171	0xbd9b6a79	-0.075886674
172	0xbd84bff8	-0.06481928
173	0x3d07570f	0.03304201
174	0xba4b7c16	-0.00077623257
175	0x3d754679	0.05988166
176	0xbd0dea8c	-0.03464751
177	0xbcccb593	-0.024988925
178	0x3c93a4a0	0.018022835
179	0x3d2c3b4c	0.042048737
180	0x3cf1ffd5	0.029540936
181	0xbacfb5b1	-0.0015846995
182	0x3c6b50b1	0.0143625
183	0x3cf7694f	0.030201582
184	0xbc8daa65	-0.017293165
185	0x3cb1613f	0.021652816
186	0x3b74d686	0.0037359311
187	0xbd3016c8	-0.042990476
188	0x3d3e2a3c	0.046426997
189	0xbc0046df	-0.007829397
190	0xbd833a9c	-0.06407663
191	0xbd66e925	-0.056374688
192	0xbd3d6271	-0.04623646
193	0xbc7b0369	-0.015320637
194	0x3cdd49c0	0.027012706
195	0xbda67eb5	-0.08129636
196	0xbd7a0e69	-0.0610489
197	0xbd8dcf9f	-0.06924366
198	0x3cb205af	0.021731226
199	0xbda493c1	-0.08035994
200	0x3d2dc9ef	0.042428907
201	0x3d90e033	0.070740126
202	0x3bc36e60	0.0059640855
203	0x3c829d90	0.015944272
204	0x3d86ecfc	0.0658817
205	0x3d930e2f	0.0718044
206	0x3c021b4b	0.007941077
207	0xbccf007c	-0.025268786
208	0x3d2d0159	0.042237613
209	0xbd137a3b	-0.03600524
210	0x3cd0f31f	0.025506554
211	0xbd6da868	-0.058021933
212	0xbd3ed284	-0.046587482
213	0xbc2caafe	-0.010538815
214	0xbd053c00	-0.032527924
215	0xbbb221fb	-0.0054361797
216	0xbcc7ee2a	-0.024405558
217	0xbd1c4771	-0.03815407
218	0xbd155f9f	-0.036468145
219	0x3c872760	0.016498268
220	0xbb843066	-0.00403409
221	0xbc99370f	-0.018703012
222	0xb9e9bb2d	-0.0004458068
223	0x3c2b3d64	0.010451648
224	0xbd73d9fb	-0.059534054
225	0xbc921519	-0.017832326
226	0xbc7b967f	-0.015355705
227	0xbdaef1eb	-0.08542236
228	0xbce31d33	-0.027723884
229	0xbb95a157	-0.0045663523
230	0x3c504f31	0.012714193
231	0xbd74a1e3	-0.0597247
232	0x3d32982f	0.043602165
233	0xbb848c99	-0.004045081
234	0x3d810929	0.06300575
235	0xbbbf77f1	-0.0058431556
236	0x3d0b6759	0.034034107
237	0xbca5ec4a	-0.020254273
238	0xbd91d392	-0.07120432
239	0xbd8ecd6c	-0.06972775
240	0xbd95f81d	-0.073227145
241	0x3d1b1047	0.03785732
242	0x3d8d7e20	0.06908822
243	0x3d1e8c11	0.038707796
244	0x3d20ded2	0.039274998
245	0xbbc5fa1c	-0.0060417783
246	0x3d9ec560	0.0775249
247	0x3d5e49ae	0.054269485
248	0x3d4af4b4	0.049549773
249	0x3d171ff0	0.036895692
250	0xbd4a4c36	-0.049389087
251	0x3c096d0d	0.008387816
252	0x3c401d6f	0.0117257675
253	0x3a3a8d47	0.0007116389
254	0x3b2a208c	0.002595934
255	0x3c17debc	0.009269413

relation_embed.weight f4 [114, 32]
0	0xbc2f13d8	-0.010685883
1	0x3cd363dd	0.025804454
2	0xbcc5b48d	-0.024133945
3	0xbe1cc129	-0.1530806
4	0x3db5f927	0.08885413
5	0x3dd924d5	0.10602728
6	0x3d8a73f1	0.06760395
7	0xbe328701	-0.17434312
8	0xbddde672	-0.108349696
9	0xbd1eface	-0.038813405
10	0xbc211fa9	-0.0098342085
11	0xbd440b66	-0.047862433
12	0x3d9b46a5	0.07581834
13	0x3e3bfa9f	0.18357323
14	0x3dc11b09	0.09428985
15	0xbdc310bd	-0.09524677
16	0xbdd918f2	-0.10600461
17	0xbd6a9862	-0.05727423
18	0x3d1f9e86	0.03896954
19	0xbdbeff75	-0.09326068
20	0xbd7eb21a	-0.06218157
21	0x3c6b2953	0.014353114
22	0x3caf5b0b	0.021405717
23	0xbdcb6fd1	-0.09933437
24	0x3e105105	0.14093406
25	0x3d6e754c	0.05821733
26	0x3e2ae38b	0.16688363
27	0xbe4fbfa2	-0.20287946
28	0xbc518a17	-0.012789271
29	0xbd01302e	-0.03154009
30	0x3e1c7a75	0.15281089
31	0x3e26be97	0.16283642
32	0xbd1a419e	-0.037660234
33	0x3e2b80d5	0.16748364
34	0x3d531db2	0.05154199
35	0xbd2686f6	-0.040656053
36	0xbdcc689a	-0.09980889
37	0xbe5571c7	-0.20844184
38	0x3d9ae52d	0.07563243
39	0xbe2121fd	-0.15735622
40	0x3e45e41f	0.19325303
41	0xbcc4856b	-0.0239894
42	0xbe2e88f9	-0.17044438
43	0x3e517bcb	0.2045738
44	0xbe00075a	-0.12502804
45	0xbdba43dd	-0.09094975
46	0xbd8e109b	-0.06936761
47	0xbd270682	-0.04077769
48	0xbdbd9fc5	-0.09258989
49	0xbdfa59c0	-0.1222415
50	0xbae577da	-0.0017507032
51	0xbe529a7a	-0.2056674
52	0xbe1de426	-0.15419063
53	0x3d971cbf	0.0737853
54	0xbc6f3ea3	-0.014602336
55	0x3e367ae5	0.17820318
56	0x3dd249af	0.1026796
57	0xbc9aecd3	-0.018911755
58	0x3df5dff7	0.120056085
59	0xbd3c31ee	-0.045946054
60	0x3c15eea8	0.009151138
61	0x3d4823be	0.04886221
62	0xbcd19c0b	-0.025587102
63	0xbe14a8e6	-0.14517555
64	0x3e0e2d5f	0.13884495
65	0xbd5e5b72	-0.054286428
66	0xbbcee0e8	-0.006313432
67	0x3da7d2f5	0.08194534
68	0x3d33d666	0.04390564
69	0xbe1b2f1f	-0.15154694
70	0x3c18e6e9	0.009332397
71	0xbe32f93b	-0.17477886
72	0x3b4b52a9	0.003102461
73	0xbe3ce23b	-0.18445675
74	0x3dc767ff	0.097366326
75	0xbcc0cea5	-0.023536036
76	0xbb5d2e29	-0.0033749437
77	0xbe4570e5	-0.19281347
78	0x3dc788e1	0.097429045
79	0xbe2ecb67	-0.1706978
80	0xbe03f04a	-0.12884632
81	0x3e003e3a	0.12523738
82	0x3e25e28b	0.161997
83	0x3e433d15	0.1906627
84	0x3dc4d797	0.09611433
85	0xbe02669f	-0.1273446
86	0x3db93761	0.09043766
87	0x3de4e951	0.11177314
88	0x3e321657	0.17391334
89	0xbdd9fcdb	-0.106439315
90	0x3dc1a4b9	0.094552465
91	0x3c08b3a9	0.008343616
92	0x3dce5b55	0.10076014
93	0x3db478cf	0.08812105
94	0x3dd7eddf	0.10543417
95	0xbe0076c9	-0.12545313
96	0x3d8887fd	0.06666563
97	0xbe2f107d	-0.17096134
98	0xbdd9c435	-0.10633127
99	0xbcad4633	-0.021151638
100	0xbdc143c3	-0.09436753
101	0xbd842a7b	-0.06453415
102	0x3c279028	0.010227241
103	0x3e085d4b	0.13316838
104	0xbde4efd3	-0.11178555
105	0x3d921f27	0.07134848
106	0xbdd2aa21	-0.10286356
107	0xbd800c89	-0.06252391
108	0x3bf8974e	0.0075863963
109	0xbe491073	-0.19635181
110	0xbc20c6e8	-0.009813048
111	0xbe1a1e17	-0.15050541
112	0x3dee715d	0.11642716
113	0xbd93ee3b	-0.07223173
114	0x3c9f76fb	0.019465914
115	0x3da4ebcb	0.080527864
116	0xbe060417	-0.13087498
117	0xbe53dd13	-0.20689802
118	0xbd73b786	-0.059501193
119	0xbde10d47	-0.109888606
120	0x3e2160d1	0.15759589
121	0xbe189944	-0.14902216
122	0xbd972d8f	-0.073817365
123	0x3e40c4a5	0.18825014
124	0xbd6cefe6	-0.057845972
125	0xbe36b0c1	-0.17840864
126	0x3e3287c0	0.17434597
127	0x3e0f36b1	0.13985707
128	0xbdcf93c7	-0.10135608
129	0x3d77c50a	0.060490645
130	0xbe12ed39	-0.14348306
131	0xbda575fc	-0.08079144
132	0xbd23b276	-0.039965115
133	0x3dfeb457	0.12436741
134	0xbd0b80e4	-0.034058467
135	0xbddf7e7a	-0.10912795
136	0x3e0d68bf	0.13809489
137	0x3db90627	0.090343766
138	0x3c42f628	0.011899509
139	0xbde0f568	-0.109843075
140	0x3c0f2b49	0.008738347
141	0xbdc83d25	-0.097772874
142	0x3df1e873	0.11811914
143	0xbce23fc5	-0.027618298
144	0x3d23f2bd	0.040026415
145	0x3de994ff	0.11405372
146	0x3cb341f5	0.021882037
147	0x3dc5aadd	0.0965173
148	0x3d779982	0.06044913
149	0x3e09f5f1	0.13472725
150	0xbcd2f84b	-0.025753161
151	0xbe4aaa69	-0.19791569
152	0xbdc0aede	-0.09408353
153	0xbd7840b5	-0.060608584
154	0x3d0bf81c	0.034172162
155	0x3d17b60e	0.037038855
156	0xbdaa7823	-0.083236955
157	0xbe4124b1	-0.18861653
158	0xbde0c393	-0.10974803
159	0xbdbac540	-0.09119654
160	0xbe259fcd	-0.1617424
161	0xbd9234e7	-0.071389966
162	0xbdfd76eb	-0.123761974
163	0x3dbc6727	0.09199362
164	0x3d7b37e2	0.06133259
165	0x3db156ad	0.0865911
166	0x3d91604f	0.070984475
167	0x3d52cc8e	0.05146461
168	0xbd6a7e12	-0.057249136
169	0xbd70920a	-0.058733024
170	0xbd72c3cf	-0.05926877
171	0xbe0810a2	-0.13287595
172	0xbc886e73	-0.016654229
173	0xbe0c349d	-0.13691945
174	0xbe4747c7	-0.19460975
175	0x3de68b45	0.11257032
176	0xbd67c8d2	-0.056588
177	0x3d01c6b3	0.031683635
178	0xbd8522a7	-0.0650075
179	0xbdd48d5c	-0.10378525
180	0x3dbb9997	0.09160154
181	0xbd8a1d88	-0.06743914
182	0x3e36389f	0.17795037
183	0x3d9c0021	0.07617212
184	0xbb963cb6	-0.004584874
185	0xbdb00225	-0.08594159
186	0xb932ed1e	-0.00017063736
187	0xbe0d6816	-0.13809237
188	0x3c706b63	0.0146740405
189	0x3e262b74	0.16227514
190	0xbd503926	-0.05083575
191	0xbdd701da	-0.104984
192	0x3de8b70b	0.11363038
193	0x3e3abe85	0.1823674
194	0x3db448af	0.08802926
195	0x3e2ff375	0.17182715
196	0xbcaa4d56	-0.02078883
197	0x3e2e4ecd	0.17022248
198	0xbc80655a	-0.015673328
199	0xbd3ceeda	-0.046126224
200	0x3cd8e29d	0.026475245
201	0xbd00a0c5	-0.03140332
202	0xbb8b9818	-0.0042600743
203	0xbcb659d5	-0.022259632
204	0xbde829c8	-0.11336094
205	0xbde1ec38	-0.11031383
206	0x3d926929	0.07148964
207	0xbdba2b69	-0.09090311
208	0x3cedca77	0.029027207
209	0xbe0e5cad	-0.1390254
210	0xbd0dd220	-0.03462422
211	0x3e0bafe9	0.13641323
212	0x3d869241	0.065708645
213	0x3ccf5beb	0.025312385
214	0x3e3f431f	0.18677948
215	0x3dd2bf8d	0.10290442
216	0xbd126702	-0.035742767
217	0x3d33eb86	0.043925785
218	0x3cd0a1d5	0.025467793
219	0xbd8a2a73	-0.06746378
220	0xbdb9f6eb	-0.09080299
221	0x3cf61bd2	0.030042563
222	0xbe34d230	-0.17658305
223	0xbe0f92d9	-0.14020862
224	0x3c96211c	0.018326335
225	0xbe2d1fc1	-0.16906644
226	0xbe16c42a	-0.14723268
227	0xbd8c1209	-0.068393774
228	0x3d93ce45	0.07217077
229	0x3dafec75	0.085900225
230	0xbe2b096b	-0.16702811
231	0x3d57a61e	0.052648656
232	0xbdbe6e4e	-0.09298383
233	0xbd1b76c6	-0.037955068
234	0x3e1c6ba7	0.15275441
235	0x3dcbd90d	0.099535085
236	0x3dbafc03	0.09130099
237	0xbe0fcd53	-0.14043169
238	0xbdd50599	-0.10401458
239	0xbe27eebd	-0.16399665
240	0x3e0b3f09	0.13598265
241	0x3dd3513b	0.10318228
242	0x3e366605	0.17812355
243	0xbdf16841	-0.11787463
244	0x3df0abaf	0.11751496
245	0xbe42d95c	-0.19028229
246	0x3d9b6d7f	0.07589244
247	0xbe0d4109	-0.1379434
248	0x3df0242d	0.1172565
249	0xbe45509d	-0.19269033
250	0xbdfaba74	-0.12242594
251	0xbdcf5f92	-0.101256505
252	0xbd2c3382	-0.04204131
253	0xbe30bba7	-0.17259084
254	0xbe32fb74	-0.17478734
255	0xbda5486f	-0.08070456
