Knowledge_Graph_Recommendation/recommendation/stage2/trained_model/Douban/Embedding_based/dim32_lr0.001_l20.0001_TransR/minus/model0_epoch10.pth (torch, 728343 bytes, 5 tensors)

trans_M f4 [114, 32, 32]
0	0xba8b5f42	-0.0010633247
1	0x3b06f278	0.00205913
2	0x3c1d4955	0.009600003
3	0x3cad9d7f	0.021193264
4	0x3bb5335f	0.0055298056
5	0x3d0a5d97	0.03378066
6	0x3c0d0e14	0.0086093135
7	0x3cf2241b	0.029558232
8	0xbc3b497a	-0.011431092
9	0xbb3876e6	-0.002814704
10	0x3cb36e44	0.021903165
11	0xbc87b74c	-0.016566895
12	0xbc1c0fa8	-0.009525217
13	0x3b7547f0	0.0037426911
14	0xbd031526	-0.03200259
15	0x3c41288b	0.011789451
16	0xbcb1eca4	-0.021719284
17	0x3cb12871	0.02162573
18	0xbbd6ebe9	-0.0065588844
19	0x3c90d740	0.017680764
20	0xbb2c770d	-0.0026316077
21	0x3c606f3a	0.0136983935
22	0x3b4e9ab9	0.0031525327
23	0x3b48f789	0.003066512
24	0x3c384b7c	0.011248466
25	0xbbc3de7f	-0.0059774513
26	0x3c91e6b5	0.017810205
27	0x3d0cacff	0.03434467
28	0x3cd26501	0.025682928
29	0x3ce4eef4	0.027945973
30	0xbd051e1b	-0.032499414
31	0x3c9db79b	0.019252589
32	0x39f0e120	0.00045944098
33	0xbcb1c5e0	-0.0217008
34	0x3cddcc55	0.027074972
35	0x3c2d3204	0.010571007
36	0xbcbc72fc	-0.023004048
37	0xbd056a5c	-0.032572135
38	0xbcaf19dd	-0.021374637
39	0xbc4748ac	-0.012163322
40	0x3b906c60	0.0044074506
41	0x3a5b05f2	0.0008355073
42	0x3c95b86e	0.01827642
43	0xbd23489b	-0.039864164
44	0xbcb18cf0	-0.02167365
45	0xbd1261aa	-0.03573767
46	0x3cd56271	0.026047917
47	0x3d102098	0.035187334
48	0x3cd81551	0.026377352
49	0xbcde97b3	-0.027171945
50	0x3c06b5e8	0.008222081
51	0xbcdfd2c1	-0.027322175
52	0x3d200cd7	0.039074745
53	0x3cda704e	0.02666488
54	0x3d266eb1	0.040632907
55	0xbd12a729	-0.035803948
56	0x3bdfd2c2	0.006830544
57	0xbce1ae4a	-0.027548928
58	0xbc9589a3	-0.018254107
59	0x3c771d24	0.015082631
60	0xbcbca4d2	-0.023027811
61	0x3cc51ccd	0.024061585
62	0xbbb75d51	-0.005595841
63	0x3c58272b	0.013192932
64	0x3c654da4	0.013995562
65	0xb8e8c7e5	-0.00011099855
66	0x3cc90f68	0.02454348
67	0xbd2649d9	-0.04059777
68	0x3c9bc19c	0.019013219
69	0xbc048917	-0.008089325
70	0x3ccaec75	0.024770955
71	0x3ce094c3	0.027414685
72	0x3c9074e4	0.017633863
73	0x3859919d	5.1872445e-05
74	0x3b1ef3a9	0.002425412
75	0x3be7be70	0.0070722625
76	0xbb75b2cb	-0.0037490602
77	0x3cd631b5	0.026146749
78	0xbca4e411	-0.020128282
79	0xbb2a053b	-0.002594306
80	0xbc86ab29	-0.016439037
81	0x3b1ee6b9	0.0024246408
82	0xbd02aa94	-0.031900957
83	0x3c4b63f7	0.01241397
84	0xbc0ee026	-0.008720433
85	0x3ca4ed6d	0.020132745
86	0xbae554d1	-0.0017496591
87	0x3ce361d6	0.027756613
88	0x3c6741f1	0.014114843
89	0xbc294ee8	-0.010333754
90	0x3cbe56cd	0.02323475
91	0x3cc96199	0.024582671
92	0xbcf1015e	-0.029419597
93	0xbca66eb5	-0.020316461
94	0x3c868916	0.01642279
95	0x3c9da42b	0.01924332
96	0x3c0d9492	0.008641379
97	0x3bdec05a	0.0067978324
98	0x3d0d3309	0.0344725
99	0xbbf6accc	-0.007527923
100	0xbd1df1b5	-0.038560588
101	0x3d227afb	0.039668065
102	0xbd260e78	-0.040541142
103	0x3ce9101d	0.028450066
104	0x3caa1215	0.020760575
105	0xbc1698b0	-0.009191677
106	0xbc7aabb2	-0.015299724
107	0x3bc0e410	0.005886562
108	0xbc2fb5e0	-0.010724515
109	0x3ccbde7d	0.024886364
110	0x3cd939a6	0.026516747
111	0x3c6b3977	0.014356962
112	0xbc93cb83	-0.018041378
113	0xbd071910	-0.032982886
114	0x3c941ba5	0.018079588
115	0xba9f6653	-0.0012161232
116	0xbd295584	-0.04134132
117	0xbba0a0f4	-0.0049019996
118	0x3d093b2b	0.033503693
119	0x3c92abbd	0.017904157
120	0x3c26f46c	0.010190111
121	0xbc8b00f8	-0.016968235
122	0xbd0af1f6	-0.03392216
123	0xbc74a3e0	-0.014931649
124	0xbca652cc	-0.020303153
125	0xbc46f084	-0.012142304
126	0xbd09f815	-0.033683855
127	0xbcb1baf6	-0.021695595
128	0x37835bdd	1.5659194e-05
129	0x3cc2caad	0.023778284
130	0xbb3d9869	-0.0028929955
131	0xbc71a114	-0.014747877
132	0x3ca2a1a1	0.019852461
133	0x3c4e88ec	0.012605887
134	0x3d12c7c0	0.035835028
135	0xbcdf9bef	-0.027296035
136	0xbce11e51	-0.027480276
137	0x3b0ff73b	0.002196743
138	0xbc292b8c	-0.010325324
139	0x3d179e49	0.037016187
140	0xbbafc21d	-0.0053637163
141	0xbbc476b3	-0.0059955954
142	0xbd087e3b	-0.033323508
143	0xba7bfe32	-0.0009612768
144	0xbd070eea	-0.032973208
145	0xbcc8d1ae	-0.024514046
146	0x3d15e947	0.036599424
147	0x3cd17649	0.025569098
148	0xbc3fe78a	-0.011712918
149	0xbca835af	-0.02053341
150	0x3cfcf2cd	0.030877495
151	0xbca356d9	-0.019938873
152	0x3cd2f0a3	0.02574951
153	0x3c6308e2	0.013857098
154	0x3c35a74c	0.01108725
155	0xbc2316f8	-0.009954207
156	0x3d06f1ca	0.03294543
157	0xbd0570cd	-0.03257828
158	0xbd0f7650	-0.03502494
159	0xbab74c92	-0.0013984612
160	0x3cc433e5	0.023950526
161	0x3d1f4d6d	0.0388922
162	0xbbcfcfd1	-0.0063419123
163	0x3d0d9825	0.034568924
164	0x3c1bcdc8	0.009509511
165	0x3d0dce67	0.03462067
166	0x3ccf83cc	0.0253314
167	0xbb0ab908	-0.0021167416
168	0xbd059369	-0.032611284
169	0x3bdb44a0	0.0066915303
170	0x3c5e2a75	0.013559927
171	0x3cf2d7ef	0.02964398
172	0x3b561e96	0.003267204
173	0xbc1e9a94	-0.009680409
174	0xbc729120	-0.014805108
175	0xbba303d9	-0.004974824
176	0x3bc94eb6	0.0061434163
177	0xbd0d7918	-0.034539312
178	0xbc893861	-0.016750516
179	0xbc9b02e1	-0.018922271
180	0xbc5b454a	-0.013383219
181	0x3cef99aa	0.029248077
182	0x3cbd1ccd	0.023085022
183	0xbcf6455d	-0.030062372
184	0x3c898a07	0.01678945
185	0xbd0d5d15	-0.034512598
186	0x3be6703b	0.007032422
187	0x3ccd38ef	0.025051562
188	0x3caba873	0.020954346
189	0xbd224292	-0.039614268
190	0xbb4063b7	-0.002935631
191	0xbc2fb6d0	-0.010724738
192	0xbca01910	-0.0195432
193	0xba439e29	-0.00074622274
194	0x3c13405c	0.008987512
195	0x3c9aa223	0.018876141
196	0x3b53ef13	0.0032338544
197	0x3ccfc59d	0.025362784
198	0xbc24721c	-0.010036971
199	0xbaf57536	-0.0018726948
200	0xbd28dcbe	-0.04122614
201	0xbc5ce26e	-0.013481719
202	0xbc88022b	-0.016602596
203	0xbd28bcfd	-0.04119586
204	0xbad6e234	-0.0016394318
205	0x3cc70d09	0.024298208
206	0x3c6e4e2c	0.014545005
207	0xbc99b1ca	-0.018761534
208	0x3cd6bdcd	0.026213551
209	0xbcae31f8	-0.021264061
210	0xbb75002a	-0.003738413
211	0xbbaddc82	-0.0053058276
212	0xbcc7efde	-0.02440637
213	0x3c2e050c	0.01062132
214	0x3d248e2d	0.040174652
215	0xba426628	-0.0007415735
216	0x3c809d13	0.015699899
217	0x3c8a5065	0.016884038
218	0xbd14be31	-0.036314193
219	0x3c818027	0.015808178
220	0x3ccc5b8b	0.024945995
221	0xbca27e25	-0.019835541
222	0xbc0f49d4	-0.008745629
223	0xbc0945a5	-0.008378421
224	0x3cf0a622	0.029376093
225	0x3c65d394	0.014027495
226	0xbc0c9216	-0.0085797515
227	0xbd07b8d9	-0.03313527
228	0xbc1ea4a2	-0.009682806
229	0x3bee9b01	0.0072816615
230	0x3a3bd19a	0.0007164717
231	0x3cd703e6	0.026246976
232	0x3bec700b	0.007215505
233	0xbb2525e5	-0.002519959
234	0xbca92520	-0.020647585
235	0x3cb50ba5	0.02210028
236	0xbac87a43	-0.0015295226
237	0x3d1dd437	0.038532462
238	0xbc101404	-0.008793835
239	0xbce702da	-0.028199602
240	0xbce01253	-0.027352488
241	0x3c16b050	0.00919731
242	0x3c810300	0.0157485
243	0x3cb6df2d	0.022323215
244	0x3c68bad8	0.014204703
245	0xbc8ec021	-0.017425599
246	0xbc7da90f	-0.015482201
247	0xb9907052	-0.00027549505
248	0x3cee7dcd	0.02911272
249	0xbc844adb	-0.016148975
250	0xbb6f41e0	-0.003650777
251	0x3d07bc52	0.03313858
252	0x3cab216d	0.020889962
253	0x3c2c4dd4	0.010516603
254	0xbbd4a94d	-0.006489909
255	0xbc1a1cb4	-0.009406257

user_embed.weight f4 [447, 32]
0	0x3decb51d	0.11557982
1	0x3ddc7f74	0.10766497
2	0xbdadc9bd	-0.08485744
3	0x3e132b91	0.14372088
4	0x3c4604aa	0.012086073
5	0xbd19fe65	-0.037596125
6	0xbd39154e	-0.045186333
7	0x3b672d9f	0.0035274995
8	0xbd25af99	-0.040450666
9	0x3da04a5c	0.07826683
10	0x3d495b6c	0.049159452
11	0x3d2fa097	0.04287776
12	0xbc0133e7	-0.00788591
13	0x3d4d7475	0.05015989
14	0x3dcb5694	0.09928623
15	0x3d1d946e	0.03847163
16	0xbcb4e9a4	-0.022084065
17	0xbe1eef4a	-0.15520969
18	0x3d057b64	0.032588378
19	0xbe1468bc	-0.14493078
20	0x3e173b2c	0.14768666
21	0x3c6fac75	0.014628519
22	0xbcc30e5b	-0.023810556
23	0xbd6f78c9	-0.0584648
24	0xbd8a192e	-0.06743084
25	0xbdfc4549	-0.123179026
26	0xbc48f228	-0.012264766
27	0x3db85aa1	0.09001661
28	0xbe3b9ead	-0.18322249
29	0xbe0e6fcf	-0.13909839
30	0x3b909d7c	0.004413305
31	0xbe201da8	-0.15636313
32	0x3d36425b	0.044496875
33	0x3d78d59c	0.06075059
34	0x3de5f84d	0.11229
35	0x3a84c14e	0.001012841
36	0xbd50fbb7	-0.051021304
37	0x3da15c3d	0.07878921
38	0x3bd0f50c	0.006376868
39	0x3e07b255	0.13251622
40	0xbe05a934	-0.13052827
41	0x3d6064ae	0.054783516
42	0xbbf78b5c	-0.0075544547
43	0x3daaaa9a	0.08333321
44	0x3df44524	0.1192725
45	0x3d91642d	0.07099185
46	0xbd220c24	-0.03956236
47	0xbd348108	-0.044068366
48	0xbdb3d20a	-0.08780296
49	0xbd9013cc	-0.07035026
50	0x3d5a2254	0.053255394
51	0xbe42d349	-0.19025911
52	0x3e131a4a	0.14365497
53	0x3d334d23	0.043774735
54	0x3c978712	0.018497024
55	0x3e25e753	0.16201524
56	0xbde4707d	-0.11154268
57	0xbd75e4c7	-0.060032632
58	0x3e24477f	0.16042899
59	0x3e1ca0bd	0.15295692
60	0xbce5fc29	-0.02807434
61	0x3dab9bea	0.083793476
62	0x3e7fc71b	0.24978296
63	0xbd2de57b	-0.042455178
64	0x3dfbd0de	0.12295698
65	0x3c4060fc	0.011741873
66	0xbdc09965	-0.09404258
67	0x3e00e32c	0.12586659
68	0xbd74d6fd	-0.05977534
69	0xbc77f801	-0.015134812
70	0xbe3d72c9	-0.18500818
71	0xbdf65e1c	-0.12029669
72	0xbe4b497d	-0.19852252
73	0x3e10514c	0.14093512
74	0x3e177cec	0.14793748
75	0xbd9fa73b	-0.077955686
76	0xbdd88bec	-0.10573563
77	0x3d572c8a	0.05253271
78	0xbab049bf	-0.0013449712
79	0xbd3f2b3c	-0.04667209
80	0x3de2b2a5	0.1106923
81	0xbdb30abf	-0.08742284
82	0x3d817a2b	0.0632213
83	0xbdc0ccd1	-0.09414066
84	0x3cab87e0	0.020938814
85	0x3e30b893	0.1725791
86	0x3ba80366	0.0051273583
87	0x3c919bd5	0.017774502
88	0x3ccd4c5f	0.02506083
89	0x3d485686	0.04891064
90	0xbd964654	-0.07337633
91	0x3e11827e	0.14209935
92	0xbdf3dc7a	-0.11907287
93	0x3c5f1cb9	0.013617688
94	0x3d78ffc4	0.060790792
95	0x3cec1d61	0.028822603
96	0x3dd25ce6	0.10271625
97	0x3e5f025c	0.21778244
98	0xbd2800ad	-0.04101627
99	0x3e803010	0.2503667
100	0x3e08e933	0.13370208
101	0x3dbeb573	0.093119524
102	0xbbb3273c	-0.0054673236
103	0x3d055e27	0.032560494
104	0xbdcd5bf8	-0.10027307
105	0xbcb4ddb8	-0.02207838
106	0xbd391322	-0.045184262
107	0xbc1d94af	-0.009617968
108	0xbc0987a0	-0.008394152
109	0x3da6ffe6	0.081542775
110	0x3e02ae12	0.12761715
111	0x3d207029	0.039169464
112	0x3e54b2d3	0.20771341
113	0x3d280b81	0.041026596
114	0xbd77a109	-0.06045631
115	0xbd8b7754	-0.068098694
116	0xbd2a2517	-0.041539278
117	0x3ca84f03	0.020545488
118	0xbe878091	-0.26465276
119	0x3d5c4e79	0.053785775
120	0x3d9388c3	0.072038196
121	0xbe29f427	-0.16597043
122	0x3e8eed73	0.27915534
123	0x3e970f2f	0.29503772
124	0xbe69c9f3	-0.22830944
125	0xbd04b06c	-0.03239481
126	0x3e8d3926	0.27582663
127	0xbdb0e474	-0.08637324
128	0x3d8b56bd	0.068036534
129	0xbc8cb086	-0.017174017
130	0x3d8af0e9	0.06784231
131	0x3d44def7	0.0480642
132	0x3e0288f5	0.12747557
133	0xbd96507b	-0.07339569
134	0x3e023b8b	0.12718026
135	0x3d230be5	0.039806265
136	0xbe01f761	-0.12692024
137	0xbd8de516	-0.0692846
138	0x3d9f604e	0.077820405
139	0x3e1a4438	0.15065086
140	0xbabdbfeb	-0.0014476752
141	0xbc8e826c	-0.017396174
142	0x3d7cc266	0.06170883
143	0xbe2e5238	-0.17023551
144	0x3cce7e90	0.025206834
145	0xbe223847	-0.1584178
146	0xbca26d8a	-0.019827623
147	0x3bdd637b	0.0067562438
148	0xbc110dc9	-0.008853384
149	0x3e295433	0.16536026
150	0xbe1973ab	-0.1498553
151	0x3e22ff49	0.15917696
152	0xbe19ba58	-0.15012491
153	0xbd4d1779	-0.050071213
154	0xbd713f02	-0.05889798
155	0x3d4ac9ae	0.049508743
156	0xbd00595c	-0.03133522
157	0xbae6f1d6	-0.001761968
158	0x3e1961d3	0.14978723
159	0xbe087153	-0.1332448
160	0xbd19af36	-0.03752061
161	0x3e8c75a5	0.27433506
162	0x3ec1d35d	0.3785657
163	0xbdffbfa4	-0.124877244
164	0x3da9f558	0.08298749
165	0x3e01aa87	0.12662707
166	0x3d57e525	0.052708764
167	0x3e1462fd	0.14490886
168	0x3d8dbc8e	0.069207296
169	0xbe22ac4e	-0.15886042
170	0xbeb1b87e	-0.3471107
171	0xbe7ff006	-0.24993905
172	0xbd7550d1	-0.059891526
173	0x3dd32f48	0.103117526
174	0xbe517aac	-0.20456952
175	0x3e52eee7	0.20598947
176	0x3e6e4536	0.2326859
177	0xbddf9968	-0.10917932
178	0xbe90e56b	-0.28300032
179	0x3ea93204	0.3304597
180	0xbca17d57	-0.019713087
181	0xbd18eff1	-0.0373382
182	0x3eb55b94	0.3542143
183	0xbe819d2a	-0.2531522
184	0xbee14030	-0.43994284
185	0xbe0a3206	-0.13495645
186	0xbc36d046	-0.011158055
187	0x3c5a5735	0.013326456
188	0x3e54f6f9	0.20797338
189	0x3e7cf798	0.24703825
190	0x3e24ff7f	0.16113089
191	0x3ec21b08	0.37911248
192	0xbd6c1395	-0.057635862
193	0x3d89c37f	0.06726741
194	0xbddd06ea	-0.107923344
195	0x3e17498a	0.14774147
196	0x3e2b9231	0.16754986
197	0x3d0011f8	0.031267136
198	0x3cdf7733	0.027278518
199	0x3d7a164c	0.06105642
200	0x3d06e558	0.032933563
201	0x3dba5df4	0.090999514
202	0x3ce32081	0.02772546
203	0xbdd1b4f3	-0.102395914
204	0x3cef9642	0.029246453
205	0x3d992be3	0.07479074
206	0xbc9c903b	-0.019111743
207	0xbb7483d8	-0.003731003
208	0x3cf7542c	0.030191503
209	0xbd33a623	-0.043859612
210	0xbdd6c725	-0.104872026
211	0xbd1b07b7	-0.037849154
212	0x3d78878d	0.060676146
213	0x3dd79805	0.10527042
214	0xbcba2de3	-0.022726959
215	0x3da5a015	0.08087174
216	0x3d2429eb	0.04007904
217	0x3de7486c	0.1129311
218	0x3e20e764	0.15713269
219	0x3e04c686	0.12966356
220	0xbe144d35	-0.14482577
221	0xbbb44f3a	-0.0055026086
222	0x3d3da373	0.046298455
223	0x3e26402c	0.16235417
224	0x3d30dc90	0.043179095
225	0x3e95a47c	0.29227054
226	0xbd9738ba	-0.073838666
227	0x3dd4a5ea	0.10383208
228	0x3c7182d9	0.014740669
229	0xbe1945b3	-0.14967994
230	0xbc2b9429	-0.010472336
231	0x3e54ef5f	0.20794438
232	0xbd5cc3a4	-0.053897515
233	0x3d8d432f	0.0689758
234	0x3c97c23d	0.018525237
235	0x3dd2b5ff	0.10288619
236	0x3db9bc3c	0.09069106
237	0xbbd6fba6	-0.0065607606
238	0x3e043973	0.1291254
239	0xbd58a154	-0.05288823
240	0xbd2291a3	-0.03968967
241	0x3da3c238	0.07996029
242	0xbe198303	-0.14991383
243	0xbe1a3150	-0.15057874
244	0x3e13fc10	0.14451623
245	0x3e74ec65	0.23918302
246	0xbd3b408d	-0.045715857
247	0x3e791642	0.24324897
248	0xbd9b19d6	-0.07573287
249	0xbcfb4961	-0.030674638
250	0xbdc4b1cd	-0.09604225
251	0x3be79392	0.0070671523
252	0xbe1926b3	-0.14956169
253	0x3d1a7c41	0.037716154
254	0x3c36bc61	0.0111533115
255	0x3cd97920	0.026547015

item_embed.weight f4 [578, 32]
0	0x3c835558	0.016031906
1	0x3e14f047	0.14544784
2	0xbc4b21e8	-0.012398221
3	0x3cd92ac7	0.026509656
4	0xbe0838fe	-0.13302991
5	0xbdcd5829	-0.10026581
6	0xbe1b6ee2	-0.15179017
7	0xbe7831a6	-0.2423769
8	0xbcc924a9	-0.024553614
9	0x3e375bb8	0.17906082
10	0xbcf5de99	-0.03001337
11	0xbd3137aa	-0.043265976
12	0x3e0359bf	0.12827204
13	0x3e72116f	0.23639463
14	0x3d8a9f56	0.06768672
15	0xbd53da69	-0.051721964
16	0xbdebca81	-0.11513234
17	0x3e55bcfd	0.20872875
18	0xbdf3c5ca	-0.1190296
19	0x3e7a826a	0.24463812
20	0xbd13ebe6	-0.036113642
21	0xbc316af3	-0.010828721
22	0x3e4f6bdb	0.20255987
23	0xbdcd1c78	-0.100151956
24	0xbddb2de2	-0.10702111
25	0x3ce990b7	0.028511388
26	0xbe90bf61	-0.2827101
27	0xbdef0505	-0.11670879
28	0xbcd72f79	-0.026267754
29	0xbd121e42	-0.035673387
30	0x3d39618b	0.04525904
31	0xbd4fa2fd	-0.050692547
32	0xbe87a8c2	-0.2649594
33	0x3e696e45	0.2279597
34	0x3da8ec4c	0.08248195
35	0xbc56c377	-0.013108126
36	0x3e19e7a2	0.15029767
37	0xbe8f2dbe	-0.27964586
38	0xbe7774fb	-0.24165718
39	0xbcce31b1	-0.02517018
40	0xbe1b4451	-0.1516278
41	0x3ded7886	0.11595254
42	0x3d9e92c7	0.07742839
43	0xbcc311b7	-0.023812158
44	0xbe535ec9	-0.20641626
45	0x3e315f8e	0.17321607
46	0xbdb4ceef	-0.08828532
47	0x3e3588e3	0.17728
48	0x3d4e1b2e	0.05031889
49	0x3e22875b	0.15871947
50	0xbe4e0695	-0.20119698
51	0x3e1acf4b	0.15118138
52	0x3e0d9d6f	0.13829587
53	0xbe1ac19c	-0.15112919
54	0xbdc297dc	-0.09501621
55	0xbc6212e6	-0.013798451
56	0xbd87660a	-0.06611259
57	0x3d8f08ef	0.06984126
58	0x3d97bbdb	0.074088775
59	0xbe1be206	-0.1522294
60	0xbe6a84b2	-0.22902182
61	0xbe0b3705	-0.13595207
62	0x3dd441b0	0.103640914
63	0xbdd5098d	-0.10402212
64	0xbdef1b52	-0.11675133
65	0x3e84ad62	0.2591353
66	0xbe975c11	-0.2956243
67	0x3e845b98	0.2585113
68	0xbe5129ba	-0.20426074
69	0x3da42efc	0.08016774
70	0xbe1b1fbb	-0.15148823
71	0xbbca4013	-0.006172189
72	0xbe4f4fc4	-0.20245272
73	0xbdeb292c	-0.11482462
74	0xbe0f2afc	-0.13981241
75	0xbdc2f953	-0.09520211
76	0xbcee743e	-0.029108163
77	0x3e11e868	0.14248812
78	0xbe31a241	-0.17347051
79	0x3c8cbebe	0.017180797
80	0xbd18eba2	-0.037334092
81	0xbe0d58db	-0.13803427
82	0xbe8b11bb	-0.27161965
83	0x3e62040c	0.22071856
84	0xbc9d5a82	-0.019208197
85	0xbd90ad68	-0.070643246
86	0x3d31011e	0.043213956
87	0xbd00d0d5	-0.031449158
88	0xbe05583c	-0.1302194
89	0xbe1ee99a	-0.155188
90	0xbe69da29	-0.22837128
91	0x3e0294e9	0.12752117
92	0xbe53ee73	-0.2069643
93	0xbb32645a	-0.0027220459
94	0x3dfd8ada	0.123799995
95	0xbe3728f8	-0.17886722
96	0xbd0fe087	-0.035126235
97	0x3dc51d70	0.096247554
98	0x3d05d4f8	0.032673806
99	0x3bb861fc	0.005626915
100	0xbdd2f7c7	-0.10301166
101	0xbe072d2c	-0.13200825
102	0x3df380fc	0.11889836
103	0x3daa4a26	0.08314924
104	0x3c77430c	0.015091669
105	0x3da41e56	0.080135986
106	0xbdbb939a	-0.09159012
107	0x3e388da8	0.18022788
108	0xbb97945b	-0.0046258396
109	0xbd95c303	-0.07312586
110	0x3c89f51d	0.016840512
111	0xbd31cfad	-0.043410946
112	0xbd83a7aa	-0.06428464
113	0x3dcc6142	0.09979488
114	0x3cfd81c0	0.030945659
115	0xbd71773c	-0.0589516
116	0xbd356e23	-0.044294488
117	0x3cd8d8a3	0.026470488
118	0xbdcd2ad9	-0.10017938
119	0x3e2a37a3	0.16622786
120	0x3d779143	0.060441267
121	0x3d893c30	0.06700933
122	0x3e1d8abd	0.15384956
123	0x3e5724fa	0.21010199
124	0x3d5555d2	0.052083798
125	0x3cffcae1	0.03122467
126	0x3daa3737	0.08311313
127	0xbddab51b	-0.106790744
128	0x3d821c68	0.06353074
129	0xbe1460a7	-0.14489995
130	0x3d372b4a	0.044719018
131	0xbdeb2c73	-0.114830874
132	0xbe74c1ed	-0.23902102
133	0x3e322d06	0.17399988
134	0x3d6df01f	0.058090325
135	0xbe0407bd	-0.12893577
136	0x3d786407	0.06064227
137	0xbda43c07	-0.08019262
138	0xbd6e7269	-0.05821458
139	0xbe0ee5bb	-0.13954823
140	0xbd388b59	-0.045054767
141	0xbd722fc8	-0.0591276
142	0xbd60a74a	-0.05484704
143	0x3d4051d7	0.04695305
144	0x3cdc01e5	0.026856372
145	0xbd4eb2c2	-0.050463445
146	0xbe061d87	-0.13097201
147	0x3de575b5	0.112040915
148	0xbe59bfdc	-0.21264595
149	0xbd734afe	-0.05939769
150	0x3cb9a68c	0.022662424
151	0xbe070ce2	-0.13188508
152	0x3e0cfeb3	0.13769035
153	0x3a576218	0.0008216216
154	0xbcc9d698	-0.02463846
155	0xbe804c55	-0.25058237
156	0x3e1dd1b1	0.15412022
157	0xbac32756	-0.0014889042
158	0xbe60a683	-0.21938519
159	0x3e085c63	0.13316493
160	0x3d86e27e	0.06586169
161	0xbe24d0d0	-0.1609528
162	0xbd8edc42	-0.069756046
163	0xbe27350a	-0.16328827
164	0x3d752447	0.05984905
165	0x3e2af01f	0.16693161
166	0x3d60a59c	0.054845437
167	0xbde83cee	-0.113397464
168	0x3e9010c1	0.28137782
169	0xbd634336	-0.05548402
170	0xbdd2164b	-0.10258158
171	0x3c26ce36	0.010181
172	0xbd3521a8	-0.04422155
173	0xbd96ebf1	-0.07369221
174	0xbd1f39ba	-0.03887341
175	0xbd4e8450	-0.05041915
176	0x3c8d1992	0.017224107
177	0xbb416e3c	-0.0029515168
178	0x3db84ebc	0.089993924
179	0x3e15d33c	0.14631361
180	0xbdf71836	-0.12065165
181	0xbd2bfb48	-0.041987687
182	0x3e3ae3fc	0.18251032
183	0xbdd8f003	-0.105926536
184	0xbb47e629	-0.0030502176
185	0x3ded4088	0.11584574
186	0xbd31f405	-0.043445606
187	0x3d506348	0.050875932
188	0x3e492723	0.19643836
189	0x3bc2f284	0.0059493203
190	0xbd92108f	-0.071320646
191	0x3dec7b85	0.11546997
192	0xbe2b31f9	-0.16718282
193	0x3edac57f	0.42728803
194	0xbd93d641	-0.072186
195	0x3dcd9752	0.10038628
196	0x3da4afc8	0.0804134
197	0x3e50dcb8	0.20396698
198	0xbe924cff	-0.28574368
199	0x3ce0c42d	0.027437294
200	0xbeb8344c	-0.359774
201	0x3ec44847	0.38336393
202	0xbe71b1ca	-0.23602977
203	0xbeae57a4	-0.3405124
204	0xbb09c67c	-0.0021022847
205	0x3da5fb31	0.081045516
206	0x3e98f339	0.29873064
207	0xbd3eb3f5	-0.04655834
208	0x3d27a00c	0.040924117
209	0x3ebb880a	0.36627227
210	0xbd8ade8e	-0.0678073
211	0x3e7ee060	0.2489028
212	0x3de960a2	0.11395384
213	0xbdc94a74	-0.09828654
214	0xbde6a412	-0.11261763
215	0x3eac0447	0.33597013
216	0xbdef335c	-0.11679718
217	0x3e0363d3	0.12831049
218	0xbe7c11a2	-0.24616101
219	0xbd88c256	-0.06677692
220	0xbe38abdd	-0.1803431
221	0xbd8ef2e6	-0.06979923
222	0x3eb5cd6f	0.35508296
223	0x3d10be2c	0.035337612
224	0xbe70b9a6	-0.2350832
225	0x3e9d1579	0.30680445
226	0x3e386587	0.1800748
227	0x3dacbedd	0.08434842
228	0xbd33ae57	-0.043867435
229	0xbe4641b6	-0.19361004
230	0xbe1834fe	-0.14863965
231	0xbd67c523	-0.05658449
232	0xbee9b390	-0.45644808
233	0x3e0bef1c	0.13665432
234	0xbde4668b	-0.11152371
235	0xbecd71eb	-0.40125975
236	0x3e4f9504	0.20271689
237	0x3df357d6	0.11881988
238	0x3c901de3	0.017592376
239	0x3e129362	0.14314035
240	0xbc8b2fda	-0.01699059
241	0x3e3af6ab	0.18258159
242	0xbe149ea0	-0.14513636
243	0x3ec8404a	0.3911155
244	0x3e1b00ae	0.15136978
245	0x3d149ebb	0.03628419
246	0x3da48f69	0.08035166
247	0x3c61d3a5	0.01378337
248	0xbe4b76a1	-0.19869472
249	0x372a1f00	1.0140007e-05
250	0xbdc6e3eb	-0.09711441
251	0x3e320824	0.17385918
252	0xbe92f955	-0.2870585
253	0xbcc61d72	-0.024183962
254	0x3eaeddca	0.34153587
255	0x3e1bbc72	0.15208605

entity_embed.weight f4 [886, 32]
0	0xbd850ce5	-0.064966
1	0xbda02ab6	-0.078206465
2	0x3d4e6ae1	0.050394896
3	0x3d0b6a30	0.034036815
4	0xbc6731e5	-0.014111017
5	0xbd155052	-0.036453553
6	0x3d98d2b6	0.07462065
7	0x3d90bba7	0.07067042
8	0x3cf4e798	0.029895589
9	0xbd7cce39	-0.061720107
10	0xbd013ee3	-0.031554114
11	0xbdac04fe	-0.0839939
12	0xbd473810	-0.04863745
13	0xbcb78af0	-0.022405118
14	0xbc8025c7	-0.015643014
15	0x3d3705fd	0.044683445
16	0xbd87372c	-0.0660232
17	0x3d2c5d77	0.042081323
18	0x3ccbd511	0.024881871
19	0x3cff471d	0.03116184
20	0x3d973e82	0.07384969
21	0x3c409558	0.011754356
22	0xbbfaf56d	-0.0076586516
23	0x3d79dfad	0.06100433
24	0xbca62ec9	-0.02028598
25	0xbc40abe3	-0.011759731
26	0x3c53e5ca	0.012933204
27	0x3d57c63b	0.05267928
28	0xbcf1d716	-0.029521506
29	0x3d668206	0.056276344
30	0xbd989608	-0.07450491
31	0xbd2b93dc	-0.041889057
32	0x3da081ef	0.07837283
33	0xbd9c5a3f	-0.076344006
34	0x3d4fb442	0.050709017
35	0x3c7b6713	0.015344399
36	0x3cfcf87d	0.030880207
37	0x3cb2d40d	0.02182963
38	0xbc955c3f	-0.018232463
39	0xbd37e6e5	-0.044897933
40	0x3d97661d	0.073925234
41	0xbd482296	-0.04886111
42	0xbbced13e	-0.0063115647
43	0xbc55a175	-0.013038983
44	0x3dae44d0	0.08509219
45	0xba48801d	-0.0007648485
46	0x3d7f8425	0.062381882
47	0x3d82e270	0.06390846
48	0xbc171754	-0.00922187
49	0x3d970de7	0.073756985
50	0x3d51e3bf	0.051242586
51	0xbd518635	-0.05115338
52	0xbda88a6f	-0.08229529
53	0xbccab3e7	-0.024743987
54	0x3d8fb242	0.07016422
55	0x3d382580	0.044957638
56	0x3d62efb8	0.055404395
57	0xbd971a9f	-0.073781244
58	0xbd8883ae	-0.06665741
59	0x3d2003f9	0.03906629
60	0x3d82ad0f	0.063806646
61	0x3d66c3cf	0.05633908
62	0x3d947b6c	0.07250103
63	0x3c05e0df	0.008171289
64	0x3d54a57e	0.05191564
65	0x3d172ab7	0.03690597
66	0x3d73597d	0.059411515
67	0xbd408d85	-0.047009964
68	0x3d79668c	0.060888812
69	0xbd1276c6	-0.035757802
70	0x3bee9701	0.0072811847
71	0xbdb05261	-0.086094625
72	0x3cd476e0	0.02593559
73	0xbcda970f	-0.026683358
74	0xbd02b5be	-0.031911604
75	0x3d036b31	0.032084648
76	0x3d8286e2	0.06373383
77	0xbdb0b2c2	-0.08627845
78	0x3d209861	0.03920782
79	0xbd910960	-0.07081866
80	0xbd113cc9	-0.03545836
81	0x3d87bcc0	0.06627798
82	0xbcc74c5d	-0.024328405
83	0x3cf1bf9c	0.029510312
84	0x3da0d875	0.07853786
85	0xbd905ec0	-0.07049322
86	0x3bd74706	0.006569746
87	0x3d738272	0.059450574
88	0xbc13105f	-0.008976071
89	0x3d35e53a	0.04440806
90	0xbd89e523	-0.067331575
91	0x3d21ead8	0.039530605
92	0x3d1257c1	0.03572822
93	0x3ca048a9	0.019565897
94	0x3cf4b4c1	0.029871346
95	0xbd87914d	-0.06619511
96	0xbcda35b8	-0.026636943
97	0xbd67eaaa	-0.056620277
98	0x3d359042	0.044327028
99	0xbd9fd98b	-0.07805165
100	0x3d97c37f	0.07410335
101	0x3d8cc90d	0.06874285
102	0xbcfcb7ff	-0.030849455
103	0x3d455c67	0.048183825
104	0xbcf01405	-0.029306421
105	0xbacf46f7	-0.0015813996
106	0x3d750524	0.059819356
107	0xbd9612c2	-0.073277965
108	0x3d60cd02	0.05488301
109	0x3a985f0f	0.0011625009
110	0xbca58b30	-0.020207971
111	0xbd691e1d	-0.056913484
112	0x3cb4fe64	0.02209396
113	0x3d29c626	0.041448735
114	0xbd01cbc8	-0.03168848
115	0x3d372d03	0.04472066
116	0xbae158ec	-0.0017192638
117	0xbd11b7ef	-0.035575803
118	0x3d4192c0	0.047259092
119	0xbd79e1d2	-0.061006375
120	0x3d64e8ca	0.055886067
121	0x3c71b284	0.014752034
122	0x3d8de66b	0.06928714
123	0x3d06d07a	0.032913662
124	0x3b96f5cb	0.0046069375
125	0xbd15b836	-0.03655263
126	0x392016e4	0.00015267316
127	0x3d82d326	0.063879296
128	0xbc82cac9	-0.015965836
129	0xbbfcd141	-0.0077153747
130	0x3d1f31ff	0.03886604
131	0x3cf3c505	0.029757032
132	0xbd4416a8	-0.04787317
133	0xbc79cff9	-0.015247338
134	0xbc0087e5	-0.0078449
135	0xbd1811e8	-0.03712645
136	0x3c340871	0.010988341
137	0xbd988ca1	-0.07448698
138	0xbd9188f4	-0.071062
139	0x3ca2f785	0.019893417
140	0xbb4c8e9a	-0.0031212927
141	0xbcc095e7	-0.023508979
142	0xbc0ef379	-0.008725041
143	0xbc081bbe	-0.0083073955
144	0x3d8b6848	0.068069994
145	0x3d3418dc	0.04396902
146	0xbc9e4642	-0.01932061
147	0x3daa9fa4	0.0833123
148	0xb94b71ff	-0.00019402055
149	0xbd637b4d	-0.05553751
150	0x3ce6c946	0.028172147
151	0xbcd3e505	-0.025866041
152	0xbbd727b5	-0.0065660127
153	0xbbbd98da	-0.0057860436
154	0x3d432109	0.047638927
155	0xbb8562b6	-0.004070605
156	0xbd97ec5f	-0.07418131
157	0x3c82891b	0.015934518
158	0xbd691238	-0.05690214
159	0x3d22cd24	0.03974642
160	0xbd8d353a	-0.06894918
161	0x3cac456b	0.021029195
162	0x3c28b6d7	0.010297499
163	0xbc00e7e5	-0.007867788
164	0x3d0adcb6	0.033901893
165	0x3cae3074	0.021263339
166	0x3d9b4855	0.075821556
167	0x3c34cfab	0.01103584
168	0x3ceaa241	0.028641822
169	0x3d85c69e	0.06532024
170	0x3abe8f03	0.001453847
171	0xbd9b0681	-0.075696
172	0xbd84be8b	-0.06481656
173	0x3d076708	0.033057243
174	0xba579b08	-0.00082247006
175	0x3d74f7e6	0.059806727
176	0xbd0df8c0	-0.034661055
177	0xbccd1a5d	-0.025036985
178	0x3c93fb4a	0.01806416
179	0x3d2c7f7f	0.042113777
180	0x3cf14c95	0.029455462
181	0xbacedd85	-0.0015782571
182	0x3c6b746a	0.014371017
183	0x3cf7772a	0.030208189
184	0xbc8a53d6	-0.01688568
185	0x3cb17974	0.021664359
186	0x3b73c552	0.003719647
187	0xbd3004bd	-0.04297327
188	0x3d3fcdbb	0.04682706
189	0xbc000102	-0.00781274
190	0xbd8340c7	-0.0640884
191	0xbd61fa55	-0.055170376
192	0xbd3da958	-0.046304077
193	0xbc778dc9	-0.015109488
194	0x3cdbb8c7	0.026821507
195	0xbda64a96	-0.08119695
196	0xbd765c1f	-0.060146447
197	0xbd8dab24	-0.06917408
198	0x3ca2dc29	0.019880371
199	0xbda47d6b	-0.08031734
200	0x3d2bcc55	0.041942913
201	0x3d914665	0.07093505
202	0x3babebcf	0.0052466164
203	0x3c81aa01	0.015828134
204	0x3d87762e	0.06614338
205	0x3d940b5a	0.07228728
206	0x3c030903	0.007997754
207	0xbcce53b4	-0.025186397
208	0x3d2c9b9a	0.04214058
209	0xbd12aab0	-0.03580731
210	0x3cce0471	0.025148602
211	0xbd6a4128	-0.057191044
212	0xbd3cc2dc	-0.04608427
213	0xbc214fe0	-0.009845704
214	0xbd059c1c	-0.03261958
215	0xbba36b47	-0.0049871537
216	0xbcc8d713	-0.024516618
217	0xbd1c0ec3	-0.038100015
218	0xbd1608c5	-0.036629457
219	0x3c896547	0.016771926
220	0xbb9ffef5	-0.004882688
221	0xbc997163	-0.018730825
222	0x3a0dd903	0.00054110604
223	0x3c2c1909	0.010504016
224	0xbd74142d	-0.059589554
225	0xbc902252	-0.01759449
226	0xbc7b1bbf	-0.015326439
227	0xbdae89cb	-0.08522376
228	0xbce288b6	-0.02765308
229	0xbb9b610a	-0.0047417926
230	0x3c472184	0.012153987
231	0xbd74dc1a	-0.059780218
232	0x3d31c675	0.043402154
233	0xbb77c7d1	-0.003780831
234	0x3d80bbcb	0.06285819
235	0xbbd87152	-0.0066053057
236	0x3d0beffc	0.034164414
237	0xbca3e671	-0.020007344
238	0xbd919d64	-0.07110098
239	0xbd8e38ea	-0.06944449
240	0xbd959ca6	-0.07305269
241	0x3d1b5eff	0.037932392
242	0x3d8d2f7c	0.068938226
243	0x3d266532	0.04062385
244	0x3d2135f7	0.039358106
245	0xbb7c7fb3	-0.0038528263
246	0x3d9ecb4a	0.07753618
247	0x3d5e856b	0.054326456
248	0x3d48e212	0.049043722
249	0x3d16df33	0.036833953
250	0xbd4ac15e	-0.049500816
251	0x3c0aa707	0.008462674
252	0x3c3ceffa	0.011531824
253	0x3a30e6ec	0.0006748277
254	0x3b3714dd	0.002793602
255	0x3c19b636	0.009381821

relation_embed.weight f4 [114, 32]
0	0xbc2f13d8	-0.010685883
1	0x3cd363dd	0.025804454
2	0xbcc5b48d	-0.024133945
3	0xbe1cc129	-0.1530806
4	0x3db5f927	0.08885413
5	0x3dd924d5	0.10602728
6	0x3d8a73f1	0.06760395
7	0xbe328701	-0.17434312
8	0xbddde672	-0.108349696
9	0xbd1eface	-0.038813405
10	0xbc211fa9	-0.0098342085
11	0xbd440b66	-0.047862433
12	0x3d9b46a5	0.07581834
13	0x3e3bfa9f	0.18357323
14	0x3dc11b09	0.09428985
15	0xbdc310bd	-0.09524677
16	0xbdd918f2	-0.10600461
17	0xbd6a9862	-0.05727423
18	0x3d1f9e86	0.03896954
19	0xbdbeff75	-0.09326068
20	0xbd7eb21a	-0.06218157
21	0x3c6b2953	0.014353114
22	0x3caf5b0b	0.021405717
23	0xbdcb6fd1	-0.09933437
24	0x3e105105	0.14093406
25	0x3d6e754c	0.05821733
26	0x3e2ae38b	0.16688363
27	0xbe4fbfa2	-0.20287946
28	0xbc518a17	-0.012789271
29	0xbd01302e	-0.03154009
30	0x3e1c7a75	0.15281089
31	0x3e26be97	0.16283642
32	0xbd1a419e	-0.037660234
33	0x3e2b80d5	0.16748364
34	0x3d531db2	0.05154199
35	0xbd2686f6	-0.040656053
36	0xbdcc689a	-0.09980889
37	0xbe5571c7	-0.20844184
38	0x3d9ae52d	0.07563243
39	0xbe2121fd	-0.15735622
40	0x3e45e41f	0.19325303
41	0xbcc4856b	-0.0239894
42	0xbe2e88f9	-0.17044438
43	0x3e517bcb	0.2045738
44	0xbe00075a	-0.12502804
45	0xbdba43dd	-0.09094975
46	0xbd8e109b	-0.06936761
47	0xbd270682	-0.04077769
48	0xbdbd9fc5	-0.09258989
49	0xbdfa59c0	-0.1222415
50	0xbae577da	-0.0017507032
51	0xbe529a7a	-0.2056674
52	0xbe1de426	-0.15419063
53	0x3d971cbf	0.0737853
54	0xbc6f3ea3	-0.014602336
55	0x3e367ae5	0.17820318
56	0x3dd249af	0.1026796
57	0xbc9aecd3	-0.018911755
58	0x3df5dff7	0.120056085
59	0xbd3c31ee	-0.045946054
60	0x3c15eea8	0.009151138
61	0x3d4823be	0.04886221
62	0xbcd19c0b	-0.025587102
63	0xbe14a8e6	-0.14517555
64	0x3e0e2d5f	0.13884495
65	0xbd5e5b72	-0.054286428
66	0xbbcee0e8	-0.006313432
67	0x3da7d2f5	0.08194534
68	0x3d33d666	0.04390564
69	0xbe1b2f1f	-0.15154694
70	0x3c18e6e9	0.009332397
71	0xbe32f93b	-0.17477886
72	0x3b4b52a9	0.003102461
73	0xbe3ce23b	-0.18445675
74	0x3dc767ff	0.097366326
75	0xbcc0cea5	-0.023536036
76	0xbb5d2e29	-0.0033749437
77	0xbe4570e5	-0.19281347
78	0x3dc788e1	0.097429045
79	0xbe2ecb67	-0.1706978
80	0xbe03f04a	-0.12884632
81	0x3e003e3a	0.12523738
82	0x3e25e28b	0.161997
83	0x3e433d15	0.1906627
84	0x3dc4d797	0.09611433
85	0xbe02669f	-0.1273446
86	0x3db93761	0.09043766
87	0x3de4e951	0.11177314
88	0x3e321657	0.17391334
89	0xbdd9fcdb	-0.106439315
90	0x3dc1a4b9	0.094552465
91	0x3c08b3a9	0.008343616
92	0x3dce5b55	0.10076014
93	0x3db478cf	0.08812105
94	0x3dd7eddf	0.10543417
95	0xbe0076c9	-0.12545313
96	0x3d8887fd	0.06666563
97	0xbe2f107d	-0.17096134
98	0xbdd9c435	-0.10633127
99	0xbcad4633	-0.021151638
100	0xbdc143c3	-0.09436753
101	0xbd842a7b	-0.06453415
102	0x3c279028	0.010227241
103	0x3e085d4b	0.13316838
104	0xbde4efd3	-0.11178555
105	0x3d921f27	0.07134848
106	0xbdd2aa21	-0.10286356
107	0xbd800c89	-0.06252391
108	0x3bf8974e	0.0075863963
109	0xbe491073	-0.19635181
110	0xbc20c6e8	-0.009813048
111	0xbe1a1e17	-0.15050541
112	0x3dee715d	0.11642716
113	0xbd93ee3b	-0.07223173
114	0x3c9f76fb	0.019465914
115	0x3da4ebcb	0.080527864
116	0xbe060417	-0.13087498
117	0xbe53dd13	-0.20689802
118	0xbd73b786	-0.059501193
119	0xbde10d47	-0.109888606
120	0x3e2160d1	0.15759589
121	0xbe189944	-0.14902216
122	0xbd972d8f	-0.073817365
123	0x3e40c4a5	0.18825014
124	0xbd6cefe6	-0.057845972
125	0xbe36b0c1	-0.17840864
126	0x3e3287c0	0.17434597
127	0x3e0f36b1	0.13985707
128	0xbdcf93c7	-0.10135608
129	0x3d77c50a	0.060490645
130	0xbe12ed39	-0.14348306
131	0xbda575fc	-0.08079144
132	0xbd23b276	-0.039965115
133	0x3dfeb457	0.12436741
134	0xbd0b80e4	-0.034058467
135	0xbddf7e7a	-0.10912795
136	0x3e0d68bf	0.13809489
137	0x3db90627	0.090343766
138	0x3c42f628	0.011899509
139	0xbde0f568	-0.109843075
140	0x3c0f2b49	0.008738347
141	0xbdc83d25	-0.097772874
142	0x3df1e873	0.11811914
143	0xbce23fc5	-0.027618298
144	0x3d23f2bd	0.040026415
145	0x3de994ff	0.11405372
146	0x3cb341f5	0.021882037
147	0x3dc5aadd	0.0965173
148	0x3d779982	0.06044913
149	0x3e09f5f1	0.13472725
150	0xbcd2f84b	-0.025753161
151	0xbe4aaa69	-0.19791569
152	0xbdc0aede	-0.09408353
153	0xbd7840b5	-0.060608584
154	0x3d0bf81c	0.034172162
155	0x3d17b60e	0.037038855
156	0xbdaa7823	-0.083236955
157	0xbe4124b1	-0.18861653
158	0xbde0c393	-0.10974803
159	0xbdbac540	-0.09119654
160	0xbe259fcd	-0.1617424
161	0xbd9234e7	-0.071389966
162	0xbdfd76eb	-0.123761974
163	0x3dbc6727	0.09199362
164	0x3d7b37e2	0.06133259
165	0x3db156ad	0.0865911
166	0x3d91604f	0.070984475
167	0x3d52cc8e	0.05146461
168	0xbd6a7e12	-0.057249136
169	0xbd70920a	-0.058733024
170	0xbd72c3cf	-0.05926877
171	0xbe0810a2	-0.13287595
172	0xbc886e73	-0.016654229
173	0xbe0c349d	-0.13691945
174	0xbe4747c7	-0.19460975
175	0x3de68b45	0.11257032
176	0xbd67c8d2	-0.056588
177	0x3d01c6b3	0.031683635
178	0xbd8522a7	-0.0650075
179	0xbdd48d5c	-0.10378525
180	0x3dbb9997	0.09160154
181	0xbd8a1d88	-0.06743914
182	0x3e36389f	0.17795037
183	0x3d9c0021	0.07617212
184	0xbb963cb6	-0.004584874
185	0xbdb00225	-0.08594159
186	0xb932ed1e	-0.00017063736
187	0xbe0d6816	-0.13809237
188	0x3c706b63	0.0146740405
189	0x3e262b74	0.16227514
190	0xbd503926	-0.05083575
191	0xbdd701da	-0.104984
192	0x3de8b70b	0.11363038
193	0x3e3abe85	0.1823674
194	0x3db448af	0.08802926
195	0x3e2ff375	0.17182715
196	0xbcaa4d56	-0.02078883
197	0x3e2e4ecd	0.17022248
198	0xbc80655a	-0.015673328
199	0xbd3ceeda	-0.046126224
200	0x3cd8e29d	0.026475245
201	0xbd00a0c5	-0.03140332
202	0xbb8b9818	-0.0042600743
203	0xbcb659d5	-0.022259632
204	0xbde829c8	-0.11336094
205	0xbde1ec38	-0.11031383
206	0x3d926929	0.07148964
207	0xbdba2b69	-0.09090311
208	0x3cedca77	0.029027207
209	0xbe0e5cad	-0.1390254
210	0xbd0dd220	-0.03462422
211	0x3e0bafe9	0.13641323
212	0x3d869241	0.065708645
213	0x3ccf5beb	0.025312385
214	0x3e3f431f	0.18677948
215	0x3dd2bf8d	0.10290442
216	0xbd126702	-0.035742767
217	0x3d33eb86	0.043925785
218	0x3cd0a1d5	0.025467793
219	0xbd8a2a73	-0.06746378
220	0xbdb9f6eb	-0.09080299
221	0x3cf61bd2	0.030042563
222	0xbe34d230	-0.17658305
223	0xbe0f92d9	-0.14020862
224	0x3c96211c	0.018326335
225	0xbe2d1fc1	-0.16906644
226	0xbe16c42a	-0.14723268
227	0xbd8c1209	-0.068393774
228	0x3d93ce45	0.07217077
229	0x3dafec75	0.085900225
230	0xbe2b096b	-0.16702811
231	0x3d57a61e	0.052648656
232	0xbdbe6e4e	-0.09298383
233	0xbd1b76c6	-0.037955068
234	0x3e1c6ba7	0.15275441
235	0x3dcbd90d	0.099535085
236	0x3dbafc03	0.09130099
237	0xbe0fcd53	-0.14043169
238	0xbdd50599	-0.10401458
239	0xbe27eebd	-0.16399665
240	0x3e0b3f09	0.13598265
241	0x3dd3513b	0.10318228
242	0x3e366605	0.17812355
243	0xbdf16841	-0.11787463
244	0x3df0abaf	0.11751496
245	0xbe42d95c	-0.19028229
246	0x3d9b6d7f	0.07589244
247	0xbe0d4109	-0.1379434
248	0x3df0242d	0.1172565
249	0xbe45509d	-0.19269033
250	0xbdfaba74	-0.12242594
251	0xbdcf5f92	-0.101256505
252	0xbd2c3382	-0.04204131
253	0xbe30bba7	-0.17259084
254	0xbe32fb74	-0.17478734
255	0xbda5486f	-0.08070456
