Knowledge_Graph_Recommendation/recommendation/stage2/trained_model/Douban/Embedding_based/dim32_lr0.001_l20.0001_TransE/dot/model0_epoch20.pth (torch, 728343 bytes, 5 tensors)

trans_M f4 [114, 32, 32]
0	0xbbe7a1a4	-0.0070688296
1	0x3c042188	0.008064635
2	0x3b6b91b0	0.003594499
3	0x3c78d614	0.015187759
4	0x3c3cfe9c	0.011535313
5	0x3ce388c6	0.02777518
6	0x3c6f72fc	0.014614817
7	0x3cc0f1a6	0.023552727
8	0xbc8ed731	-0.017436596
9	0xbc1082a4	-0.00882021
10	0x3ce4a0ba	0.027908672
11	0xbcb8e9c1	-0.0225724
12	0xbb66ab00	-0.0035197139
13	0x3c1fb6e8	0.009748198
14	0xbcd4f7e0	-0.025997102
15	0x3bbd8748	0.005783949
16	0xbce31f18	-0.027724788
17	0x3ce25ae6	0.027631234
18	0xbc4ddae0	-0.012564391
19	0x3c3f4998	0.011675261
20	0xbc0d82ae	-0.0086371135
21	0x3ca16a12	0.019703899
22	0xbb3af8f0	-0.0028529726
23	0xbb409c20	-0.0029389933
24	0x3c8d5832	0.017253969
25	0x37eb5800	2.8055161e-05
26	0x3cc3192a	0.02381571
27	0x3ce82796	0.028339189
28	0x3d01cbbb	0.031688433
29	0x3d0b10b3	0.033951472
30	0xbcd909cb	-0.026493927
31	0x3cceea10	0.025258094
32	0x3bd3d7e8	0.006464947
33	0xbc80936b	-0.015695294
34	0x3cac99e0	0.021069467
35	0x3b959a38	0.0045655034
36	0xbc8b4086	-0.01699854
37	0xbcd9a24c	-0.026566647
38	0xbc7bced0	-0.015369132
39	0xbc94d6ca	-0.018168826
40	0xbad175e0	-0.0015980564
41	0xbba96918	-0.005169999
42	0x3c490bf4	0.012270916
43	0xbd0aaf69	-0.03385869
44	0xbce2bf65	-0.027679155
45	0xbcf390ee	-0.029732194
46	0x3d034a73	0.032053422
47	0x3cef0eca	0.029181857
48	0x3ca6e2dc	0.020371847
49	0xbcad653e	-0.02116644
50	0x3c691ad0	0.014227584
51	0xbcaea04c	-0.02131667
52	0x3d0773a5	0.03306927
53	0x3d05d161	0.032670382
54	0x3d0dd57f	0.034627434
55	0xbcf41bec	-0.02979847
56	0x3c524e4c	0.01283605
57	0xbcb07bd4	-0.02154342
58	0xbc48ae5e	-0.012248604
59	0x3c14b83c	0.009077128
60	0xbcedd747	-0.029033316
61	0x3cf64f42	0.03006709
62	0x39d6c880	0.00040966645
63	0x3c9d460a	0.019198436
64	0x3c02e8bc	0.0079900585
65	0xbbc86cf8	-0.0061165057
66	0x3cfa41de	0.030548986
67	0xbd0db0a7	-0.034592297
68	0x3c551e4c	0.013007712
69	0xbb0890b0	-0.0020838194
70	0x3cfc1eea	0.03077646
71	0x3caf624e	0.02140918
72	0x3c3e84dc	0.011628356
73	0xbbc316b4	-0.005953634
74	0x3c0a21d4	0.008430917
75	0x3a8bd260	0.0010667555
76	0xbc1fd19e	-0.0097545665
77	0x3ca4ff40	0.020141244
78	0xbcd61686	-0.026133787
79	0x3b5f8e70	0.0034112
80	0xbc2af16c	-0.010433536
81	0xbb6aacf0	-0.0035808645
82	0xbcd422bd	-0.02589547
83	0x3bd1fe20	0.006408468
84	0xbc71450e	-0.014725937
85	0x3cd61fe2	0.02613825
86	0x3b8b74a0	0.004255846
87	0x3cb22f62	0.02175111
88	0x3ca4d36e	0.020120349
89	0xbb8dd400	-0.004328251
90	0x3cef8942	0.029240254
91	0x3cfa940e	0.030588176
92	0xbd1119e7	-0.035425093
93	0xbcd7a12a	-0.026321966
94	0x3c2aad48	0.01041729
95	0x3cced6a0	0.025248826
96	0x3b2cbea0	0.0026358739
97	0x3a4fb400	0.00079232454
98	0x3ce933aa	0.028467018
99	0xbc5dbb50	-0.013533428
100	0xbd055883	-0.032555114
101	0x3d09e1c9	0.03366259
102	0xbd0d7546	-0.03453567
103	0x3cb7dda8	0.022444561
104	0x3cdb448a	0.02676608
105	0xbc78fd98	-0.01519718
106	0xbcae884e	-0.02130523
107	0x3c42d6f4	0.011892069
108	0xbc890d64	-0.016730018
109	0x3cfd10f2	0.03089187
110	0x3d05360d	0.03252225
111	0x3ca6cf32	0.02036247
112	0xbc45321c	-0.012035873
113	0xbcdcffb6	-0.026977401
114	0x3cc54e1a	0.024085093
115	0x3b9cf040	0.004789382
116	0xbd10bc52	-0.035335846
117	0x3a90a380	0.0011035055
118	0x3ce143ee	0.027498212
119	0x3cc3de32	0.023909662
120	0x3c84acaa	0.016195614
121	0xbc339d0a	-0.010962734
122	0xbce4b183	-0.027916675
123	0xbcab8466	-0.020937156
124	0xbcd78541	-0.026308658
125	0xbc94aab3	-0.018147802
126	0xbce2bdc2	-0.027678374
127	0xbc808881	-0.01569009
128	0xbbc4467c	-0.0059898477
129	0x3c919838	0.017772779
130	0xbc11cb06	-0.008898502
131	0xbcaa02fd	-0.020753378
132	0x3cd3d416	0.025857966
133	0x3bd84808	0.0066003837
134	0x3cf45d1a	0.02982955
135	0xbcae697a	-0.02129053
136	0xbcafebdc	-0.021474771
137	0x3c0662b8	0.008202247
138	0xbc85c83a	-0.016330827
139	0x3cfe0a2e	0.031010713
140	0xbc3a45fa	-0.011369223
141	0xbc44a046	-0.012001103
142	0xbcdfca0e	-0.027318027
143	0x3ba54a10	0.0050442293
144	0xbcdceb6b	-0.026967725
145	0xbc979f39	-0.01850854
146	0x3cfaa02a	0.03059395
147	0x3d01545f	0.031574603
148	0xbc912639	-0.017718421
149	0xbc6e0674	-0.014527906
150	0x3ccbc058	0.02487199
151	0xbc6448c8	-0.013933368
152	0x3ca1be2e	0.019744005
153	0x3ca2b6e6	0.019862603
154	0x3c8c061a	0.017092753
155	0xbb816420	-0.0039487034
156	0x3cdcb12a	0.026939947
157	0xbcd9af2e	-0.02657279
158	0xbcedba39	-0.029019462
159	0xbbf29cf8	-0.007403966
160	0x3c930170	0.017945021
161	0x3d06b43b	0.032886725
162	0xbc4a4cd4	-0.012347419
163	0x3ce9fde2	0.028563444
164	0x3c7e32b0	0.0155150145
165	0x3cea6a66	0.028615188
166	0x3c9e5156	0.019325893
167	0x3b7edaa0	0.0038887635
168	0xbcd9f468	-0.0266058
169	0x3a33d640	0.0006860234
170	0x3ca047ae	0.01956543
171	0x3d12052f	0.035649475
172	0x3c17ec90	0.0092727095
173	0xbc807fbe	-0.015685912
174	0xbc102c38	-0.008799605
175	0x3a871800	0.0010306835
176	0x39109c00	0.00013791025
177	0xbce9bfc8	-0.028533831
178	0xbc300bdc	-0.010745015
179	0xbc53a0d8	-0.012916766
180	0xbbf1c0c4	-0.007377716
181	0x3d10660d	0.035253573
182	0x3c8bea58	0.017079517
183	0xbcc512e8	-0.024056867
184	0x3cbabc7c	0.022794954
185	0xbce987c2	-0.028507117
186	0x3c559d08	0.013037927
187	0x3c9c067a	0.019046057
188	0x3c74ebfc	0.014948841
189	0xbd09a960	-0.033608794
190	0x3b492ff0	0.003069874
191	0xbb9aa3d0	-0.004719235
192	0xbcd14b85	-0.025548706
193	0x3bac5610	0.005259283
194	0x3c75a544	0.014993016
195	0x3c52df5c	0.012870636
196	0x3c1760b0	0.009239361
197	0x3d007c09	0.03136829
198	0xbb841a68	-0.004031468
199	0xbc011392	-0.007878201
200	0xbd10438c	-0.035220668
201	0xbbf4fb0c	-0.007476216
202	0xbcb934a0	-0.022608101
203	0xbd1023cb	-0.035190385
204	0xbbfa8264	-0.0076449383
205	0x3c95da94	0.018292703
206	0x3ca8598c	0.020550512
207	0xbccae440	-0.024767041
208	0x3d03f821	0.032219056
209	0xbc79ff06	-0.015258556
210	0xbc1fa4f6	-0.00974392
211	0x3a376ac0	0.0006996803
212	0xbcf92253	-0.030411875
213	0x3b974048	0.004615817
214	0x3d0bf4fb	0.03416918
215	0x3bac7d10	0.005263932
216	0x3cb1cf88	0.021705404
217	0x3cbb82da	0.022889543
218	0xbcf849fd	-0.030308718
219	0x3c209b68	0.009802677
220	0x3c9b2916	0.01894049
221	0xbcd3b09a	-0.025841046
222	0xbb3393b0	-0.002740126
223	0xbb1b82f0	-0.0023729168
224	0x3d10ec49	0.03538159
225	0x3c036eac	0.008021992
226	0xbc6ef6fe	-0.014585255
227	0xbcde3f48	-0.027129784
228	0xbc8084c5	-0.01568831
229	0x3aa744a0	0.0012761541
230	0xbbad4fa4	-0.005289035
231	0x3d041b2d	0.03225248
232	0x3c589cf0	0.013221011
233	0xbc0bae64	-0.008525465
234	0xbc6fe556	-0.01464208
235	0x3ce63e1a	0.028105784
236	0xbbf6e868	-0.007535029
237	0x3d053b05	0.03252699
238	0xbc7278ec	-0.014799338
239	0xbd0c1aa6	-0.0342051
240	0xbd08a263	-0.03335799
241	0x3c791538	0.015202813
242	0x3cb23576	0.021754008
243	0x3ce811a2	0.02832872
244	0x3ca58fe2	0.02021021
245	0xbcbff296	-0.023431104
246	0xbcb006fe	-0.02148771
247	0x3bbbc2d0	0.0057300106
248	0x3cbd4b58	0.023107216
249	0xbcb57d50	-0.02215448
250	0xbc1e3564	-0.009656284
251	0x3cde463a	0.027133096
252	0x3cdc53e2	0.026895467
253	0x3c87595e	0.016522106
254	0xbc4cb992	-0.012495415
255	0xbb5edf30	-0.0034007542

user_embed.weight f4 [447, 32]
0	0x3e9af1e0	0.3026266
1	0xbe7f1ef8	-0.24914157
2	0x3e6c3d88	0.23070347
3	0x3e5c5d9e	0.21520087
4	0xbeb7f427	-0.3592846
5	0xbeb8e1a2	-0.36109644
6	0xbe74b6e3	-0.23897891
7	0x3e774dbd	0.24150749
8	0xbf06f3c7	-0.52715725
9	0xbe1dc003	-0.15405278
10	0x3f1012d7	0.5627875
11	0x3ea857a9	0.3287938
12	0x3e9b4019	0.3032234
13	0xbe88bcba	-0.26706487
14	0xbee9bd5d	-0.45652285
15	0x3ea3f641	0.32023814
16	0xbeef363f	-0.46721074
17	0x3d7b1a1a	0.06130419
18	0x3db6e106	0.089296386
19	0xbe29c585	-0.16579254
20	0x3ea63e77	0.32469532
21	0xbe30af35	-0.17254336
22	0x3d9e3104	0.07724193
23	0xbe921b86	-0.28536624
24	0xbf045b1b	-0.51701516
25	0xbee42df5	-0.44566312
26	0x3c904b87	0.01761414
27	0x3efcf0ac	0.49402368
28	0xbea10cdc	-0.31455123
29	0x3e5d1e07	0.21593486
30	0x3baf383e	0.0053472808
31	0x3e5695f2	0.20955637
32	0x3e1172f7	0.14204012
33	0xbe462aeb	-0.1935231
34	0x3e91eb08	0.28499627
35	0x3d207964	0.039178267
36	0xbe277372	-0.16352633
37	0xbdd071d0	-0.10177958
38	0x3b28b8a2	0.0025744815
39	0x3d73de44	0.05953814
40	0xbefae877	-0.49005482
41	0xbc0a1308	-0.008427389
42	0x3f1ee54b	0.62068623
43	0x3e749de4	0.23888355
44	0x3e809dca	0.25120384
45	0xbe5aa5f5	-0.2135237
46	0xbdf0556a	-0.117350414
47	0x3ee22864	0.4417144
48	0xbf120d8c	-0.5705192
49	0xbe985a24	-0.29756272
50	0xbbf0015a	-0.00732438
51	0x3dcc4e48	0.099758685
52	0x3e2ea830	0.17056346
53	0xbe0b1712	-0.1358302
54	0x3de24656	0.11048572
55	0x3da15c96	0.078789875
56	0xbee977e0	-0.4559927
57	0xbde36bdf	-0.11104559
58	0x3b4ce07c	0.0031261733
59	0x3ed9e92b	0.42560706
60	0xbdd4a1ec	-0.10382447
61	0x3ea01de2	0.312728
62	0x3e97ff30	0.2968688
63	0x3ec80e2f	0.3907332
64	0x3d0c8583	0.034307014
65	0xbf00def9	-0.5034023
66	0xbdc04b8e	-0.09389411
67	0x3e543080	0.20721626
68	0xbeecc95e	-0.4624738
69	0xbe3cd3ee	-0.1844022
70	0xbf1139b1	-0.56728655
71	0x3e0c1829	0.13681091
72	0xbf2751b2	-0.6535903
73	0x392fa182	0.00016749467
74	0x3f2427b2	0.6412307
75	0x3e2006ef	0.15627645
76	0x3e918eb9	0.284292
77	0xbd8190cb	-0.06326445
78	0xbd840132	-0.064455405
79	0x3e4c5f3f	0.19958209
80	0xbefb8108	-0.4912188
81	0xbd9acf16	-0.0755903
82	0x3c05da6f	0.008169754
83	0x3df7b7c1	0.12095595
84	0x3ea71856	0.32635754
85	0xbddc2a34	-0.10750237
86	0x3e7ba3f2	0.24574259
87	0xbd8e385e	-0.06944345
88	0xbed3417b	-0.41260895
89	0xbe8ca22f	-0.27467486
90	0xbe915fbc	-0.28393352
91	0x3f073401	0.52813727
92	0xbe9f8b14	-0.31160796
93	0x3e968522	0.29398447
94	0x3dd200aa	0.10254033
95	0x3e8e1caf	0.2775626
96	0x3ecf1014	0.40441954
97	0xbefc01c7	-0.49220106
98	0xbe59bcec	-0.21263474
99	0x3f0147d0	0.505002
100	0xbf2e0918	-0.67982626
101	0xbec8eb90	-0.3924222
102	0xbd53155a	-0.051534034
103	0x3eadd02b	0.33947882
104	0xbf2ab461	-0.66681486
105	0xbf07548b	-0.5286338
106	0x3f1a0166	0.60158384
107	0x3ee9e6c4	0.45683873
108	0x3f02aa02	0.5104066
109	0xbeacf5fb	-0.33781418
110	0xbed6d7f6	-0.4196164
111	0x3ef5c939	0.48005083
112	0xbf334bcf	-0.7003755
113	0xbe331ece	-0.1749222
114	0xbd30556b	-0.04305021
115	0x3baf9636	0.0053584827
116	0x3eac9a07	0.33711264
117	0xbe60a711	-0.21938731
118	0x3ecdcd7d	0.40195838
119	0xbf065f60	-0.5248928
120	0xbf015f04	-0.5053561
121	0xbe6affe1	-0.22949173
122	0xbdfc1643	-0.123089336
123	0x3f35170f	0.7073831
124	0xbdfe2d58	-0.124109924
125	0x3f1f68dc	0.6226938
126	0x3ed482f6	0.41506165
127	0x3efa76ea	0.4891885
128	0x3ea0ce1d	0.31407252
129	0xbebc3207	-0.36756918
130	0x3e9ae3ff	0.30252072
131	0x3e955a12	0.2917028
132	0xbeb6e4e2	-0.357215
133	0xbeccf7ce	-0.4003281
134	0xbdd28bfa	-0.10280605
135	0x3e875fb9	0.26440218
136	0xbe9e2f86	-0.30895633
137	0xbe9b0b13	-0.30281886
138	0x3f1d19fe	0.61367786
139	0x3f0aeecd	0.5427063
140	0x3e7721e1	0.24134018
141	0xbe3757b4	-0.1790455
142	0xbee1524d	-0.44008103
143	0xbc21cdad	-0.009875697
144	0xbef2348f	-0.47305724
145	0xbe4682e5	-0.1938587
146	0x3dece808	0.11567694
147	0xbdd87610	-0.10569394
148	0x3eb6cbbc	0.35702312
149	0x3da89281	0.082310684
150	0x3e5058fb	0.20346443
151	0xbd72a8b3	-0.059242915
152	0xbea82b98	-0.3284576
153	0xbe61a1d8	-0.22034395
154	0xbd700aaa	-0.05860392
155	0x3ef573ab	0.4793981
156	0xbd7ebc4a	-0.062191285
157	0x3ef6a139	0.48169878
158	0x3e04c84d	0.12967034
159	0x3e04342c	0.12910527
160	0xbf3e4580	-0.743248
161	0x3e422bbf	0.18962
162	0x3f32b79f	0.69811434
163	0x3f22aced	0.63545114
164	0x3f388d75	0.72090846
165	0x3f611535	0.87922984
166	0x3f3153c3	0.69268435
167	0xbee2b451	-0.44278196
168	0xbe712e0a	-0.23552719
169	0x3f197224	0.5993979
170	0xbda6d7c9	-0.081466265
171	0x3e794f0d	0.24346562
172	0x3f7f00c8	0.9961057
173	0xbecf0736	-0.4043519
174	0x3f53e137	0.82765526
175	0x3f493aeb	0.78605527
176	0x3eb4fe32	0.35350186
177	0xbe86be53	-0.2631708
178	0xbdaa20d8	-0.08307046
179	0x3f700981	0.937645
180	0xbca1135e	-0.019662555
181	0xbef7d6ef	-0.4840617
182	0x3f6333fd	0.887512
183	0xbe8afcc6	-0.27145976
184	0xbf762d4f	-0.96162885
185	0xbf0e2f5e	-0.55541027
186	0xbf0788da	-0.52943194
187	0xbed2708b	-0.41101488
188	0xbed185c4	-0.40922368
189	0xbf0ad8c2	-0.54236996
190	0x3f0257a8	0.50915
191	0x3f69d137	0.9133486
192	0xbe67dca1	-0.22642757
193	0xbdcac39a	-0.09900589
194	0xbdcc719d	-0.099826075
195	0x3e7a12bb	0.24421208
196	0xbdffd283	-0.12491324
197	0xbe28d244	-0.1648646
198	0xbe0ff0b7	-0.14056669
199	0x3e9b716d	0.30359975
200	0xbe6583dd	-0.22413583
201	0x3dd9db5a	0.10637541
202	0x3ea93b13	0.33052883
203	0x3b920902	0.00445664
204	0x3ebc67d4	0.36797965
205	0x3dc637f8	0.09678644
206	0xbe39e675	-0.18154319
207	0x3edc8e61	0.43077376
208	0xbe4c78b2	-0.19967917
209	0x3c31133e	0.01080781
210	0xbe0bb956	-0.13644919
211	0x3e53d1b9	0.20685472
212	0x3eac9c85	0.33713165
213	0xbdf9175a	-0.12162657
214	0x3e20a43e	0.15687653
215	0x3e799043	0.24371438
216	0xbe947287	-0.28993627
217	0x3e8e943f	0.27847478
218	0xbd13a19a	-0.036042787
219	0x3e9261d1	0.28590253
220	0xbe70403a	-0.23462
221	0x3e9e5c5b	0.30929837
222	0x3da1ee02	0.079067245
223	0x3e498867	0.1968094
224	0x3e8fdac3	0.2809659
225	0xbec05c92	-0.37570626
226	0xbdc7b566	-0.09751396
227	0x3e8222b3	0.25417098
228	0xbf144838	-0.579227
229	0xbf310b5a	-0.69157946
230	0xbe976af5	-0.2957379
231	0x3f101990	0.56289005
232	0xbe941d83	-0.28928766
233	0xbe5f8dd5	-0.21831448
234	0x3f0f0e8b	0.55881566
235	0x3f0b6fe9	0.54467636
236	0x3ef8a956	0.48566693
237	0xbe1cfd57	-0.15331016
238	0xbd0e3c76	-0.03472563
239	0x3e57e73c	0.21084303
240	0xbf10ea65	-0.5660766
241	0xbb56a2ba	-0.0032750801
242	0x3cfb27a3	0.030658549
243	0x3b93b854	0.0045080576
244	0x3f1b94fd	0.60774213
245	0xbe21121b	-0.15729563
246	0x3eaa9fe1	0.33325103
247	0x3e9773b6	0.29580468
248	0xbf3ad89b	-0.72986764
249	0xbd93016b	-0.07178005
250	0xbe3d5962	-0.18491128
251	0x3eb7e9f3	0.35920677
252	0xbeb9231e	-0.36159605
253	0x3eed8654	0.46391547
254	0x3d30a003	0.04312135
255	0x3f04d239	0.51883274

item_embed.weight f4 [578, 32]
0	0x3f3b18c6	0.73084676
1	0x3a397d24	0.00070758373
2	0xbe8fddaf	-0.2809882
3	0x3e9bec07	0.30453512
4	0xbea5a213	-0.32350215
5	0x3dfff9ad	0.12498794
6	0xbde41f35	-0.11138765
7	0xbf33a7b6	-0.7017778
8	0xbd35b2f2	-0.04436011
9	0xbf0c4b89	-0.5480276
10	0x3cc33975	0.023831109
11	0x3ede1b8c	0.43380392
12	0xbf185614	-0.59506345
13	0x3df329c9	0.11873204
14	0xbefc0f1e	-0.49230283
15	0x3e58497f	0.21121787
16	0xbde0736e	-0.109595165
17	0x3e3001c3	0.17188172
18	0xbeb2477f	-0.34820172
19	0x3f46cee7	0.7765946
20	0xbe35a915	-0.17740281
21	0xbe305eb1	-0.17223622
22	0x3f110469	0.56647354
23	0x3ea59600	0.32341003
24	0x3e030de6	0.1279827
25	0x3e1dc0f1	0.15405633
26	0xbf35d699	-0.71030575
27	0xbf201c9a	-0.6254364
28	0x3f018e9c	0.5060823
29	0xbce5c599	-0.028048323
30	0xbee6b7cc	-0.450621
31	0xbe6fe13e	-0.23425767
32	0xbf45c91e	-0.77260005
33	0xbd5b0e90	-0.053480685
34	0xbc8480ba	-0.016174663
35	0x3e5530bb	0.2081937
36	0x3e2c05e3	0.1679912
37	0xbf552562	-0.83260167
38	0x3ee04719	0.43804243
39	0x3f4d4366	0.80180967
40	0xbf05600a	-0.5209967
41	0xbe0f124a	-0.1397182
42	0xbf06a5b3	-0.52596587
43	0x3ded2e4f	0.11581098
44	0x3ea368f2	0.31916004
45	0x3eb6c970	0.3570056
46	0xbd97caec	-0.07411751
47	0x3f3e3b2b	0.74309033
48	0x3f23b4de	0.63947856
49	0x3f0e255d	0.5552576
50	0xbef42ca9	-0.47690323
51	0xbf76f355	-0.96465045
52	0xbed8a0d2	-0.42310196
53	0x3d710850	0.058845818
54	0x3e4d1788	0.20028508
55	0x3e23604b	0.15954702
56	0xbf039a08	-0.5140691
57	0x3ed168cd	0.4090027
58	0x3f46cc49	0.77655464
59	0xbe763035	-0.24041827
60	0xbf4eb2f2	-0.807418
61	0xbe26c6fc	-0.16286844
62	0x3e0df158	0.13861597
63	0xbe95e2d4	-0.2927462
64	0xbf487567	-0.7830414
65	0x3e500bf4	0.2031706
66	0xbf22eab0	-0.63639355
67	0xbf35f7e4	-0.71081376
68	0xbcbc4637	-0.0229827
69	0x3f398218	0.7246413
70	0x3dddb5c6	0.10825686
71	0x3ebd4eda	0.3697422
72	0xbf36040f	-0.7109994
73	0xbdfc3cea	-0.12316306
74	0xbe6b7234	-0.22992784
75	0x3a9cc154	0.0011959472
76	0x3e610945	0.21976192
77	0x3f2076d1	0.626813
78	0xbe0e0e30	-0.138726
79	0x3e021048	0.12701523
80	0x3e236c7e	0.15959355
81	0xbf0d946b	-0.5530459
82	0x3f7b17e3	0.98083323
83	0x3f6ee6d8	0.9332099
84	0xbec24f30	-0.3795104
85	0xbeb75dbe	-0.35813707
86	0x3ebcd97b	0.36884674
87	0x3d9c10a5	0.07620362
88	0x3ed72e0e	0.42027324
89	0xbe86ff56	-0.2636668
90	0x3f65a987	0.89711803
91	0x3b99ce25	0.004693764
92	0xbf6f8f5b	-0.9357812
93	0x3e8bc011	0.27294973
94	0x3f0a58aa	0.5404154
95	0xbdd6ee9a	-0.104947284
96	0xbea3c9a9	-0.31989792
97	0x3e91cb63	0.28475484
98	0x3dede219	0.1161539
99	0xbdfe4c16	-0.12416856
100	0xbe95c7d4	-0.2925402
101	0xbe76b76a	-0.24093404
102	0xbd1b1757	-0.037864055
103	0x3e1adab7	0.15122496
104	0xbdfc06ad	-0.12305961
105	0x3d467c07	0.048458125
106	0xbd972556	-0.07380168
107	0xbe9fd194	-0.31214583
108	0xbd0e78f4	-0.03478332
109	0xbabc3c5d	-0.0014361251
110	0xbe1f7dac	-0.15575284
111	0x3d3bdd36	0.04586526
112	0xbdc0f79a	-0.09422226
113	0x3e912484	0.28348172
114	0xbee9521a	-0.4557045
115	0xbe697f5e	-0.22802493
116	0xbdea5507	-0.11441999
117	0x3c10f681	0.008847834
118	0xbd0c2bc1	-0.034221414
119	0x3e2348f4	0.15945798
120	0xba8b1969	-0.0010612431
121	0x3e447490	0.1918509
122	0x3ec70aef	0.3887553
123	0x3e8ae5c9	0.27128437
124	0x3e229cc5	0.15880115
125	0x3de1357f	0.10996532
126	0xbe7eb436	-0.24873433
127	0xbd23c213	-0.039980005
128	0xbcf8720d	-0.030327821
129	0xbf05d3b3	-0.5227615
130	0x3db5cfde	0.08877538
131	0xbec609ed	-0.38679448
132	0xbf01df99	-0.5073181
133	0xbf260730	-0.6485472
134	0x3e888a42	0.26667982
135	0x3de0e312	0.1098081
136	0x3ef75839	0.48309496
137	0xbd9c47ce	-0.07630883
138	0x3f0a102a	0.53930914
139	0xbf000a10	-0.50015354
140	0x3f10b6e0	0.56529045
141	0xbd5a74dc	-0.053334102
142	0xbe9a6722	-0.3015681
143	0x3f13fb31	0.5780516
144	0x3f2b1db3	0.6684219
145	0x3df7ee7d	0.12106035
146	0x3b463634	0.003024471
147	0xbde93d57	-0.11388653
148	0xbf221d78	-0.63326216
149	0xbe3c4e6d	-0.18389292
150	0xbecd8d25	-0.40146747
151	0x3e96e486	0.29471225
152	0x3f831584	1.0240941
153	0xbe1b0b24	-0.15140969
154	0x3eb65935	0.35614935
155	0xbf1032b3	-0.5632736
156	0xbea9d24c	-0.33168256
157	0xbf40e44c	-0.75348353
158	0x3e4c7928	0.19968092
159	0x3cc53665	0.024073789
160	0x3c949818	0.01813893
161	0x3e4f43db	0.20240729
162	0xbe5a2162	-0.21301797
163	0x3ef2a243	0.4738942
164	0x3ec0feb9	0.37694338
165	0x3f32f756	0.69908655
166	0x3e3807f0	0.17971778
167	0xbead0fee	-0.33801216
168	0x3f27d1ce	0.6555451
169	0x3be4d677	0.006983574
170	0xbf18e9e2	-0.59731877
171	0x3e8b9151	0.27259305
172	0x3e929c18	0.28634715
173	0x3da7a276	0.08185284
174	0xbde7b38d	-0.113135435
175	0xbea0a1aa	-0.3137334
176	0xbed1a834	-0.4094864
177	0x3e238732	0.15969542
178	0x3d811138	0.06302112
179	0xbd58ee17	-0.052961435
180	0xbe9af930	-0.3026824
181	0x3d53a6aa	0.051672615
182	0xbe8708ac	-0.26373804
183	0x3b625ff0	0.0034542046
184	0xbf19888b	-0.59973973
185	0x3edc7c55	0.43063608
186	0x3dce9d9d	0.10088656
187	0x3eacd53c	0.33756435
188	0x3e8d6d43	0.27622423
189	0xbee4c7e2	-0.44683748
190	0x3f18783e	0.59558475
191	0x3e23ecfb	0.1600837
192	0x3f2782b4	0.6543381
193	0x3ef06bb4	0.4695717
194	0xbf128614	-0.57235837
195	0xbf8ce7c9	-1.1008235
196	0x3f0d00c7	0.5507931
197	0x3f709557	0.93977875
198	0xbf35e741	-0.7105599
199	0x3f2905aa	0.6602427
200	0xbf93aba0	-1.1536751
201	0x3f88b1c8	1.0679255
202	0x3f3ed081	0.745369
203	0xbea72383	-0.3264428
204	0x3f4967d9	0.78674084
205	0xbdadbeea	-0.084836796
206	0x3f636c8b	0.888375
207	0xbf71a1d7	-0.94387573
208	0xbf42f14f	-0.7614946
209	0x3e494701	0.19655992
210	0xbf2c55a3	-0.6731817
211	0xbf8b8960	-1.0901299
212	0xbe8e8c84	-0.2784158
213	0x3f82d34d	1.0220734
214	0xbf23fef1	-0.64060885
215	0x3f7060de	0.9389781
216	0x3f845441	1.0338212
217	0x3f01f110	0.5075846
218	0x3f02f28d	0.51151353
219	0xbdf9580a	-0.12174995
220	0x3fa61b6a	1.2977116
221	0xbf7369d7	-0.95083374
222	0x3e8f808a	0.28027755
223	0xbf6636f4	-0.899276
224	0x3f5bd49b	0.85871285
225	0x3daf022b	0.085453354
226	0x3dfd9884	0.12382606
227	0xbf85efef	-1.0463847
228	0xbed769d7	-0.42072937
229	0xbf4d7e80	-0.8027115
230	0xbe973a45	-0.29536644
231	0x3f603309	0.87577873
232	0xbf91aedc	-1.1381488
233	0x3f3deb8b	0.74187535
234	0x3f5e6cb1	0.868846
235	0xbe8ddb6c	-0.27706468
236	0x3f908b32	1.1292479
237	0x3cb80643	0.022463923
238	0xbf7f15f7	-0.9964289
239	0xbf6e5a0b	-0.93106145
240	0x3eb14bd6	0.3462817
241	0x3eedf2ff	0.46474454
242	0xbe2c3638	-0.16817558
243	0x3f93ee34	1.1557069
244	0xbe283705	-0.16427238
245	0x3f49ac78	0.7877879
246	0x3f826aa5	1.0188795
247	0x3f412ba9	0.75457245
248	0xbf8ba131	-1.0908567
249	0xbeb284c7	-0.34866926
250	0x3f7bfb4e	0.98430336
251	0x3e621d97	0.220816
252	0xbf8c5cca	-1.0965817
253	0x3ebc8e82	0.36827475
254	0xbe31f594	-0.17378837
255	0xbeb9612b	-0.36206946

entity_embed.weight f4 [886, 32]
0	0xbde50129	-0.11181862
1	0xbd7cd1c5	-0.06172349
2	0x3d3d01be	0.04614424
3	0x3d4b7528	0.049672276
4	0xbd0230f0	-0.03178495
5	0xbcdcab69	-0.026937203
6	0x3d618482	0.05505801
7	0x3d97455a	0.07386275
8	0x3d071a57	0.032984104
9	0xbd8c1414	-0.06839767
10	0xbce9c847	-0.028537882
11	0xbdc6e072	-0.09710778
12	0xbdbf6989	-0.09346301
13	0xbd17aeba	-0.037031867
14	0xbd25496c	-0.040353224
15	0x3d011b4c	0.031520173
16	0xbd7996d2	-0.06093485
17	0x3cf6bee1	0.030120315
18	0x3cdc6f92	0.02690867
19	0x3df818b7	0.12114089
20	0x3db1af58	0.08676022
21	0x3c4a10b4	0.012333084
22	0x3cd8e59c	0.026476674
23	0x3d83cab6	0.064351484
24	0xbc186aa8	-0.009302773
25	0xbd09beab	-0.0336291
26	0x3d6dd758	0.058066696
27	0x3df485e1	0.11939598
28	0xbdddca6b	-0.10829624
29	0x3d7d796e	0.061883382
30	0xbdbd7f28	-0.09252769
31	0xbd9d9de6	-0.07696132
32	0x3df1109e	0.117707476
33	0xbda28bf4	-0.0793685
34	0x3d49062a	0.049078144
35	0x3ce263b8	0.02763544
36	0x3cca115e	0.024666484
37	0x3dd05efb	0.10174366
38	0xbd2b580f	-0.041832026
39	0xbdf60860	-0.12013316
40	0x3df4b666	0.11948852
41	0xbd52fca0	-0.051510453
42	0xbd3ad5ce	-0.045614056
43	0xbce18b8e	-0.027532365
44	0x3da2e40c	0.07953653
45	0xbca99c37	-0.020704372
46	0x3d834e20	0.064113855
47	0x3e22dc16	0.15904269
48	0xbd966e1d	-0.07345221
49	0x3db04aad	0.08607993
50	0x3d4667b5	0.048438746
51	0xbe1dc704	-0.1540795
52	0xbdcd4d3b	-0.10024496
53	0xbc7e37c2	-0.015516223
54	0x3d94c0c2	0.07263328
55	0x3d472488	0.048618823
56	0x3e15e6a6	0.14638767
57	0xbde25ad4	-0.1105248
58	0xbe124116	-0.14282641
59	0x3d596ef2	0.05308432
60	0x3e1cb84d	0.1530468
61	0x3d9a444a	0.07532556
62	0x3d45e6ba	0.04831574
63	0xbcbe0f9f	-0.023200808
64	0x3dd3c69b	0.10340615
65	0x3d2013a8	0.039081246
66	0x3db86d2c	0.09005198
67	0xbdd4e00b	-0.10394295
68	0x3d6ef920	0.058343053
69	0xbd90b55f	-0.07065844
70	0x3adfe1b8	0.0017080819
71	0xbdd22bcf	-0.10262262
72	0x3df94a40	0.12172365
73	0xbcb4b132	-0.02205715
74	0xbd166cf2	-0.036724992
75	0x3d0619f3	0.03273959
76	0x3d6a1a90	0.05715424
77	0xbe05f45d	-0.13081498
78	0x3d3b30c6	0.04570081
79	0xbd8ced58	-0.06881207
80	0xbd411cf8	-0.047146767
81	0x3da42e2f	0.08016621
82	0xbe26ea90	-0.16300416
83	0x3e4bf81d	0.19918866
84	0x3dac2139	0.08404774
85	0xbd863784	-0.065535575
86	0x3c8e0118	0.017334506
87	0x3d82a00d	0.063781835
88	0xbcc1da16	-0.023663562
89	0x3d509d97	0.05093154
90	0xbe55ea3e	-0.20890138
91	0x3d304b27	0.04304042
92	0x3de98765	0.114027776
93	0x3d34c12f	0.044129547
94	0x3d224954	0.039620712
95	0xbdb890b2	-0.090119734
96	0xbd2ac5de	-0.041692607
97	0xbd73cb0a	-0.059519805
98	0x3cdf8fe3	0.02729029
99	0xbd93677c	-0.071974725
100	0x3d920c3f	0.07131242
101	0x3db643cc	0.0889965
102	0xbd20184d	-0.039085675
103	0x3d2eaba5	0.04264416
104	0xbce6edc4	-0.028189547
105	0x3c9eb068	0.019371226
106	0x3d6ad5d8	0.057332844
107	0xbdbc594c	-0.091967195
108	0x3cfd704a	0.030937333
109	0xbc257964	-0.010099743
110	0xbcba9a46	-0.022778641
111	0xbd8f69b7	-0.070025854
112	0x3d17bd85	0.037045974
113	0x3cd31843	0.025768405
114	0xbd4bdfda	-0.04977403
115	0x3d6bbc9b	0.057552915
116	0xb9b72a6f	-0.00034936095
117	0xbd0c48a4	-0.034248963
118	0x3d64e5ed	0.055883337
119	0xbd82a4ba	-0.06379075
120	0x3d8283a2	0.06372763
121	0x3b6ae0a0	0.0035839453
122	0x3da53316	0.080663845
123	0x3d1d05e6	0.038335703
124	0x3c159b3a	0.009131247
125	0xbcc9542a	-0.024576265
126	0xbcb1a256	-0.021683853
127	0x3d39ba7b	0.045343857
128	0xbc84998f	-0.016186504
129	0xbcee8ca9	-0.029119806
130	0x3cee6f78	0.029105887
131	0x3d1b63d1	0.03793699
132	0xbda12a9e	-0.07869457
133	0xbcfe21ed	-0.031022036
134	0x3c91a135	0.017777065
135	0xbd4f1834	-0.05056019
136	0x3d42d91a	0.047570325
137	0xbd3441cf	-0.044008072
138	0xbdc8a5a1	-0.09797216
139	0x3d16e2d3	0.03683741
140	0xbcc4917e	-0.023995157
141	0xbd333268	-0.043749243
142	0xbcc5ff4e	-0.02416959
143	0xbc87f5e6	-0.016596746
144	0x3e02bb3f	0.12766741
145	0x3d1c3098	0.03813228
146	0xbcbbb6d6	-0.022914331
147	0x3dc37fa6	0.095458314
148	0x3d4b1ee8	0.04959002
149	0xbd6582bc	-0.05603288
150	0x3d3ff80a	0.046867408
151	0xbd275ea0	-0.040861726
152	0x3d856ace	0.06514512
153	0xbc0764fa	-0.008263821
154	0x3d8135ab	0.063090645
155	0x3cf6179b	0.030040553
156	0xbd9ba50d	-0.0759984
157	0x3d7d591f	0.06185257
158	0xbda7e91e	-0.081987604
159	0xba9a90ec	-0.0011792458
160	0xbd81eef6	-0.06344406
161	0x3cabfc63	0.02099437
162	0x3c026f4c	0.007961106
163	0xbd117573	-0.0355124
164	0x3d22a598	0.039708704
165	0x3d8aeda2	0.06783606
166	0x3d9712c2	0.07376625
167	0x3c6837e2	0.01417348
168	0x3d532f0e	0.051558547
169	0x3d91b7e2	0.07115151
170	0x3d1b9dee	0.03799241
171	0xbd8af07a	-0.067841485
172	0xbda2e470	-0.07953727
173	0x3c75a3d3	0.014992672
174	0xbbe6d434	-0.0070443396
175	0x3d94974b	0.07255419
176	0xbd1a4ec5	-0.037672777
177	0xbd5714d1	-0.052510086
178	0x3bed6acc	0.007245397
179	0x3d5f19b9	0.05446789
180	0x3d2ace12	0.04170043
181	0x3bba67e4	0.0056886543
182	0x3c5cba09	0.013472089
183	0x3d33e300	0.043917656
184	0xbd04f8d1	-0.032463852
185	0x3cfa7867	0.03057499
186	0x3c04ab77	0.008097521
187	0xbcf3e980	-0.029774427
188	0x3d116a53	0.03550179
189	0x3c9e242b	0.019304356
190	0xbdc1ed76	-0.0946912
191	0xbd8fd60e	-0.070232496
192	0xbdbbba53	-0.09166398
193	0xbd48a9c8	-0.04899004
194	0x3d952310	0.07282078
195	0xbe83a696	-0.25713032
196	0xbdc1734f	-0.094458215
197	0xbe5066db	-0.20351736
198	0x3d3a97c1	0.04555488
199	0xbe0d910d	-0.13824864
200	0x3edfeaee	0.43733925
201	0x3e50bf11	0.20385386
202	0x3d86eecc	0.06588516
203	0x3bd325b3	0.006443703
204	0x3e514464	0.20436245
205	0x3d84119e	0.06448673
206	0x3dabd6b4	0.08390561
207	0xbdeef0fe	-0.11667059
208	0x3df51b77	0.11968129
209	0xbd4561cb	-0.048188966
210	0x3d869c33	0.065727614
211	0xbe74f0db	-0.23920004
212	0xbd93ca67	-0.072163396
213	0xbe1ce9b6	-0.15323529
214	0xbdaf4364	-0.085577756
215	0x3dab8ebc	0.08376834
216	0xbe46f4a5	-0.19429262
217	0xbdd42aac	-0.103597015
218	0xbdc255c5	-0.094890155
219	0x3c106d68	0.008815147
220	0xbe680931	-0.22659756
221	0xbd8f8ee0	-0.07009673
222	0x3c998676	0.018740874
223	0xbd7eae59	-0.06217799
224	0xbdf9d6e4	-0.1219919
225	0xbca2c548	-0.019869462
226	0xbc1c15bd	-0.009526667
227	0xbe5b1103	-0.21393208
228	0xbd27adf2	-0.04093737
229	0x3dbf8173	0.09350862
230	0x3cd21910	0.025646716
231	0xbe11aace	-0.14225313
232	0x3e2ea8af	0.17056535
233	0x3d74a83e	0.05973076
234	0x3e089312	0.13337353
235	0x3c707ee0	0.014678687
236	0x3e2da9dd	0.16959329
237	0xbc4987cc	-0.012300443
238	0xbe48e031	-0.19616772
239	0xbe408cec	-0.18803757
240	0xbdc0e73b	-0.09419104
241	0x3d87404b	0.0660406
242	0x3d5598c7	0.052147653
243	0x3e41c164	0.18921429
244	0x3d17e01f	0.037078973
245	0xbd53526d	-0.05159228
246	0x3e5f81a6	0.218268
247	0x3dce60b6	0.1007704
248	0x3e5af192	0.21381214
249	0x3d3302e6	0.043703936
250	0xbe1d5a5e	-0.15366504
251	0x3c82e4c1	0.015978219
252	0x3e00a6a1	0.12563564
253	0x3cbedea1	0.023299517
254	0xbcab0f36	-0.020881277
255	0xbcf5ed36	-0.030020338

relation_embed.weight f4 [114, 32]
0	0xbce80ced	-0.028326476
1	0x3c2bc599	0.010484123
2	0xbcdc7e9a	-0.026915837
3	0xbe106c56	-0.14103827
4	0x3db759be	0.08952664
5	0x3dc5dc74	0.09661189
6	0x3d649a1b	0.05581103
7	0xbe35ff1e	-0.177731
8	0xbde8716b	-0.11349758
9	0xbd2b6226	-0.04184165
10	0xbca4e17a	-0.020127047
11	0xbd3b2675	-0.045690972
12	0x3d93f371	0.07224167
13	0x3e41f1ad	0.18939848
14	0x3de864a2	0.11347319
15	0xbdc0e502	-0.0941868
16	0xbdb47001	-0.088104255
17	0xbd621ded	-0.05520432
18	0x3d4f168c	0.05055861
19	0xbd9cb17f	-0.07651042
20	0xbd7c0186	-0.06152489
21	0x3ca8d594	0.020609654
22	0x3ce85fa4	0.028365918
23	0xbdd081a0	-0.10180974
24	0x3e08967a	0.13338652
25	0x3d56f95f	0.052483913
26	0x3e31f973	0.17380314
27	0xbe454c55	-0.192674
28	0xbccf37f0	-0.025295228
29	0xbce2797f	-0.027645824
30	0x3e27f781	0.16403009
31	0x3e3b1ad3	0.18271951
32	0xbd3faed3	-0.046797585
33	0x3e07ff1c	0.1328091
34	0x3c5b17a6	0.013372337
35	0xbc25ed5a	-0.01012739
36	0xbe215bc1	-0.15757658
37	0xbe1898e0	-0.14902067
38	0x3cd233eb	0.025659522
39	0xbe4a1ce9	-0.19737591
40	0x3e2c24fb	0.16810982
41	0x3c4887a8	0.012239374
42	0xbe1968a8	-0.1498133
43	0x3e021da5	0.12706621
44	0xbe236a25	-0.1595846
45	0xbe0b7222	-0.13617757
46	0xbdc25230	-0.09488332
47	0xbd3105c1	-0.043218378
48	0xbd220573	-0.039555978
49	0xbe382367	-0.17982255
50	0x3b6db529	0.003627131
51	0xbe228a81	-0.15873148
52	0xbdba3bb8	-0.09093422
53	0x3d56cb76	0.05244013
54	0xbace8256	-0.0015755396
55	0x3e0aca90	0.13553834
56	0x3dc53168	0.09628564
57	0xbb482721	-0.00305409
58	0x3da654f0	0.08121669
59	0x3ba74416	0.005104552
60	0xbd07c5aa	-0.03314749
61	0x3dceea86	0.101033255
62	0xbd9b2a29	-0.07576401
63	0xbe439fb5	-0.19103892
64	0x3ddb9023	0.10720851
65	0xbcc62690	-0.02418831
66	0x3c168e2c	0.00918917
67	0x3d7c8454	0.061649635
68	0x3cd05cb3	0.025434827
69	0xbe1a7636	-0.15084156
70	0x3d317e29	0.043333206
71	0xbe170fc0	-0.14752102
72	0xbd1251bc	-0.03572248
73	0xbe22b550	-0.15889478
74	0x3df4ff9e	0.119628176
75	0xbcc44a01	-0.023961069
76	0x3b30ae56	0.002695938
77	0xbe75ea21	-0.24015094
78	0x3da00f9f	0.078154795
79	0xbe22fd30	-0.15916896
80	0xbe0e834e	-0.13917276
81	0x3e0cef79	0.13763227
82	0x3e1965dc	0.14980263
83	0x3e5b77b0	0.21432376
84	0x3da7e46d	0.08197866
85	0xbdabdc04	-0.08391574
86	0x3d87bc77	0.06627744
87	0x3e05c55c	0.13063568
88	0x3e4497a8	0.19198477
89	0xbe09055e	-0.13380954
90	0x3da50812	0.0805818
91	0x3d04837d	0.03235196
92	0x3e01486d	0.12625284
93	0x3de71e75	0.11285106
94	0x3da2ca40	0.079487324
95	0xbe1fac47	-0.15593062
96	0x3d6304b8	0.055424422
97	0xbe23a031	-0.15979077
98	0xbdae1786	-0.085005805
99	0xbcf812af	-0.030282347
100	0xbdb3bf13	-0.08776679
101	0xbda2ba0f	-0.07945644
102	0x3b57a4b4	0.0032904567
103	0x3e1b6c0c	0.15177935
104	0xbdd3a729	-0.10334618
105	0x3d6473a5	0.05577435
106	0xbdab38e4	-0.083604604
107	0xbda20160	-0.079104185
108	0xba83df94	-0.0010061138
109	0xbe480728	-0.1953398
110	0xbcb2554f	-0.021769194
111	0xbe1e87be	-0.15481469
112	0x3e058c6f	0.13041852
113	0xbd9404b3	-0.07227459
114	0x3cd2b4dc	0.025721006
115	0x3d99fec5	0.075192966
116	0xbdf70e82	-0.12063314
117	0xbe4a2dc4	-0.1974402
118	0xbd6bcfc7	-0.0575712
119	0xbdc501e4	-0.09619501
120	0x3e2c1ebb	0.16808598
121	0xbe28ad04	-0.1647225
122	0xbdabe153	-0.083925866
123	0x3e3cf781	0.1845379
124	0xbd966f63	-0.07345464
125	0xbe3b4096	-0.18286356
126	0x3e257d7f	0.16161154
127	0x3dd9ef8f	0.10641395
128	0xbde65593	-0.11246791
129	0x3da214d9	0.079141326
130	0xbdfa9fa5	-0.12237481
131	0xbddf48a0	-0.10902524
132	0xbc533582	-0.012891175
133	0x3de84613	0.113414906
134	0xbc6b32f8	-0.014355414
135	0xbe070c23	-0.13188224
136	0x3dd5c577	0.10438054
137	0x3d5d227d	0.05398797
138	0xbc5759eb	-0.013143997
139	0xbd994e53	-0.07485642
140	0xbd25396a	-0.040337957
141	0xbdf3ba04	-0.11900714
142	0x3e10dd01	0.14146806
143	0xbb6683c3	-0.003517375
144	0x3c9d38f1	0.01919219
145	0x3e038ed3	0.12847452
146	0xbc44a706	-0.012002712
147	0x3d8f74f1	0.07004727
148	0x3dd17d8f	0.102290265
149	0x3dfae4da	0.12250681
150	0xbc621681	-0.013799311
151	0xbe24a7c9	-0.1607963
152	0xbdc9462b	-0.098278366
153	0xbdbde650	-0.09272444
154	0x3bbdf45f	0.0057969536
155	0x3c9eed2c	0.019400202
156	0xbd260b19	-0.040537927
157	0xbe4c20b5	-0.19934352
158	0xbe0167e6	-0.1263729
159	0xbe04bc06	-0.1296235
160	0xbe0f6a6b	-0.14005439
161	0xbd51acdf	-0.051190253
162	0xbe08584d	-0.13314934
163	0x3dc05643	0.09391453
164	0x3d47aa1d	0.048746217
165	0x3db525a0	0.08845067
166	0x3d9a38dd	0.07530377
167	0x3d22d70a	0.03975586
168	0xbd7ac302	-0.06122113
169	0xbd9952bd	-0.07486484
170	0xbd8849b4	-0.06654683
171	0xbdeb1a61	-0.11479641
172	0xbd0e4ba6	-0.034740113
173	0xbe113d3a	-0.14183512
174	0xbe537e56	-0.20653662
175	0x3de63db3	0.11242237
176	0xbd0215cd	-0.031759072
177	0x3c9376a6	0.018000912
178	0xbd93e10d	-0.072206594
179	0xbdf78bba	-0.120871976
180	0x3db2830a	0.087164
181	0xbd84aa9c	-0.06477854
182	0x3e2784b2	0.16359213
183	0x3d91b880	0.07115269
184	0xbb872c16	-0.0041251285
185	0xbdc95e50	-0.09832442
186	0xbbf0740c	-0.0073380526
187	0xbe084733	-0.1330841
188	0x3cb34b11	0.02188638
189	0x3e12e141	0.1434374
190	0xbd801895	-0.06254689
191	0xbdc72907	-0.09724622
192	0x3d99a349	0.07501847
193	0x3e439986	0.19101533
194	0x3df0583f	0.117355816
195	0x3e18cd36	0.14922032
196	0xbc97d2ae	-0.018533077
197	0x3e49eeef	0.19720052
198	0x3d0471a1	0.032334927
199	0xbceb2b26	-0.028707098
200	0x3b8642b6	0.004097308
201	0xbd41de9d	-0.04733144
202	0xbcd99b6b	-0.026563367
203	0xbd246f0c	-0.040144965
204	0xbdff80c9	-0.12475736
205	0xbdf56d96	-0.119837925
206	0x3daa6a99	0.08321113
207	0xbd87e289	-0.06635005
208	0x3d408a45	0.047006864
209	0xbe1b127c	-0.1514377
210	0xbc93cd85	-0.018042335
211	0x3e182767	0.14858781
212	0x3d27f430	0.04100436
213	0x3d073f06	0.03301909
214	0x3e1a44ee	0.15065357
215	0x3dea4ba6	0.1144021
216	0xbca36e4a	-0.01995005
217	0x3d49576a	0.04915563
218	0xbaba85a1	-0.0014230498
219	0xbd9f6724	-0.077833444
220	0xbdf56a1b	-0.11983129
221	0x3cb1c057	0.02169816
222	0xbe1d95a3	-0.15389113
223	0xbe2fefd9	-0.17181338
224	0x3cb762ec	0.022386037
225	0xbe37325b	-0.17890303
226	0xbde933bd	-0.113868214
227	0xbd10dc32	-0.035366245
228	0x3d2a5302	0.04158307
229	0x3e05edc6	0.13078985
230	0xbe3f5369	-0.18684162
231	0x3d1cdf9a	0.03829918
232	0xbd86541a	-0.0655901
233	0xbb096066	-0.0020962
234	0x3e3368ab	0.17520396
235	0x3da1686c	0.07881245
236	0x3d44f7d2	0.048087902
237	0xbe387af1	-0.18015648
238	0xbdfecbd9	-0.124412246
239	0xbe1994c8	-0.14998162
240	0x3e339350	0.17536664
241	0x3d971852	0.073776856
242	0x3e39a180	0.18128014
243	0xbdb1d31e	-0.086828455
244	0x3dc77c24	0.09740475
245	0xbe5c31ae	-0.21503326
246	0x3d9acc46	0.07558493
247	0xbe20ee8b	-0.15715997
248	0x3df2935a	0.11844511
249	0xbe25d9c3	-0.16196351
250	0xbdb6c47a	-0.08924194
251	0xbd630fe4	-0.055435076
252	0xbdabd5b8	-0.08390373
253	0xbdfe2298	-0.12408942
254	0xbe516ca4	-0.204516
255	0xbd9e743c	-0.07737014
