Knowledge_Graph_Recommendation/recommendation/stage2/trained_model/Douban/Embedding_based/dim32_lr0.001_l20.0001_TransE/dot/model0_epoch10.pth (torch, 728343 bytes, 5 tensors)

trans_M f4 [114, 32, 32]
00000000: a4a1 e7bb 8821 043c b091 6b3b 14d6 783c
00000010: 9cfe 3c3c c688 e33c fc72 6f3c a6f1 c03c
00000020: 31d7 8ebc a482 10bc baa0 e43c c1e9 b8bc
00000030: 00ab 66bb e8b6 1f3c e0f7 d4bc 4887 bd3b
00000040: 181f e3bc e65a e23c e0da 4dbc 9849 3f3c
00000050: ae82 0dbc 126a a13c f0f8 3abb 209c 40bb
00000060: 3258 8d3c 0058 eb37 2a19 c33c 9627 e83c
00000070: bbcb 013d b310 0b3d cb09 d9bc 10ea ce3c
00000080: e8d7 d33b 6b93 80bc e099 ac3c 389a 953b
00000090: 8640 8bbc 4ca2 d9bc d0ce 7bbc cad6 94bc
000000a0: e075 d1ba 1869 a9bb f40b 493c 69af 0abd
000000b0: 65bf e2bc ee90 f3bc 734a 033d ca0e ef3c
000000c0: dce2 a63c 3e65 adbc d01a 693c 4ca0 aebc
000000d0: a573 073d 61d1 053d 7fd5 0d3d ec1b f4bc
000000e0: 4c4e 523c d47b b0bc 5eae 48bc 3cb8 143c
000000f0: 47d7 edbc 424f f63c 80c8 d639 0a46 9d3c
00000100: bce8 023c f86c c8bb de41 fa3c a7b0 0dbd
00000110: 4c1e 553c b090 08bb ea1e fc3c 4e62 af3c
00000120: dc84 3e3c b416 c3bb d421 0a3c 60d2 8b3a
00000130: 9ed1 1fbc 40ff a43c 8616 d6bc 708e 5f3b
00000140: 6cf1 2abc f0ac 6abb bd22 d4bc 20fe d13b
00000150: 0e45 71bc e21f d63c a074 8b3b 622f b23c
00000160: 6ed3 a43c 00d4 8dbb 4289 ef3c 0e94 fa3c
00000170: e719 11bd 2aa1 d7bc 48ad 2a3c a0d6 ce3c
00000180: a0be 2c3b 00b4 4f3a aa33 e93c 50bb 5dbc
00000190: 8358 05bd c9e1 093d 4675 0dbd a8dd b73c
000001a0: 8a44 db3c 98fd 78bc 4e88 aebc f4d6 423c
000001b0: 640d 89bc f210 fd3c 0d36 053d 32cf a63c
000001c0: 1c32 45bc b6ff dcbc 1a4e c53c 40f0 9c3b
000001d0: 52bc 10bd 80a3 903a ee43 e13c 32de c33c
000001e0: aaac 843c 0a9d 33bc 83b1 e4bc 6684 abbc
000001f0: 4185 d7bc b3aa 94bc c2bd e2bc 8188 80bc
00000200: 7c46 c4bb 3898 913c 06cb 11bc fd02 aabc
00000210: 16d4 d33c 0848 d83b 1a5d f43c 7a69 aebc
00000220: dceb afbc b862 063c 3ac8 85bc 2e0a fe3c
00000230: fa45 3abc 46a0 44bc 0eca dfbc 104a a53b
00000240: 6beb dcbc 399f 97bc 2aa0 fa3c 5f54 013d
00000250: 3926 91bc 7406 6ebc 58c0 cb3c c848 64bc
00000260: 2ebe a13c e6b6 a23c 1a06 8c3c 2064 81bb
00000270: 2ab1 dc3c 2eaf d9bc 39ba edbc f89c f2bb
00000280: 7001 933c 3bb4 063d d44c 4abc e2fd e93c
00000290: b032 7e3c 666a ea3c 5651 9e3c a0da 7e3b
000002a0: 68f4 d9bc 40d6 333a ae47 a03c 2f05 123d
000002b0: 90ec 173c be7f 80bc 382c 10bc 0018 873a
000002c0: 009c 1039 c8bf e9bc dc0b 30bc d8a0 53bc
000002d0: c4c0 f1bb 0d66 103d 58ea 8b3c e812 c5bc
000002e0: 7cbc ba3c c287 e9bc 089d 553c 7a06 9c3c
000002f0: fceb 743c 60a9 09bd f02f 493b d0a3 9abb
00000300: 854b d1bc 1056 ac3b 44a5 753c 5cdf 523c
00000310: b060 173c 097c 003d 681a 84bb 9213 01bc
00000320: 8c43 10bd 0cfb f4bb a034 b9bc cb23 10bd
00000330: 6482 fabb 94da 953c 8c59 a83c 40e4 cabc
00000340: 21f8 033d 06ff 79bc f6a4 1fbc c06a 373a
00000350: 5322 f9bc 4840 973b fbf4 0b3d 107d ac3b
00000360: 88cf b13c da82 bb3c fd49 f8bc 689b 203c
00000370: 1629 9b3c 9ab0 d3bc b093 33bb f082 1bbb
00000380: 49ec 103d ac6e 033c fef6 6ebc 483f debc
00000390: c584 80bc a044 a73a a44f adbb 2d1b 043d
000003a0: f09c 583c 64ae 0bbc 56e5 6fbc 1a3e e63c
000003b0: 68e8 f6bb 053b 053d ec78 72bc a61a 0cbd
000003c0: 63a2 08bd 3815 793c 7635 b23c a211 e83c
000003d0: e28f a53c 96f2 bfbc fe06 b0bc d0c2 bb3b
000003e0: 584b bd3c 507d b5bc 6435 1ebc 3a46 de3c
000003f0: e253 dc3c 5e59 873c 92b9 4cbc 30df 5ebb
-0.0070688296 0.008064635 0.003594499 0.015187759 0.011535313 0.02777518 0.014614817 0.023552727
-0.017436596 -0.00882021 0.027908672 -0.0225724 -0.0035197139 0.009748198 -0.025997102 0.005783949
-0.027724788 0.027631234 -0.012564391 0.011675261 -0.0086371135 0.019703899 -0.0028529726 -0.0029389933
0.017253969 2.8055161e-05 0.02381571 0.028339189 0.031688433 0.033951472 -0.026493927 0.025258094
0.006464947 -0.015695294 0.021069467 0.0045655034 -0.01699854 -0.026566647 -0.015369132 -0.018168826
-0.0015980564 -0.005169999 0.012270916 -0.03385869 -0.027679155 -0.029732194 0.032053422 0.029181857
0.020371847 -0.02116644 0.014227584 -0.02131667 0.03306927 0.032670382 0.034627434 -0.02979847
0.01283605 -0.02154342 -0.012248604 0.009077128 -0.029033316 0.03006709 0.00040966645 0.019198436
0.0079900585 -0.0061165057 0.030548986 -0.034592297 0.013007712 -0.0020838194 0.03077646 0.02140918
0.011628356 -0.005953634 0.008430917 0.0010667555 -0.0097545665 0.020141244 -0.026133787 0.0034112
-0.010433536 -0.0035808645 -0.02589547 0.006408468 -0.014725937 0.02613825 0.004255846 0.02175111
0.020120349 -0.004328251 0.029240254 0.030588176 -0.035425093 -0.026321966 0.01041729 0.025248826
0.0026358739 0.00079232454 0.028467018 -0.013533428 -0.032555114 0.03366259 -0.03453567 0.022444561
0.02676608 -0.01519718 -0.02130523 0.011892069 -0.016730018 0.03089187 0.03252225 0.02036247
-0.012035873 -0.026977401 0.024085093 0.004789382 -0.035335846 0.0011035055 0.027498212 0.023909662
0.016195614 -0.010962734 -0.027916675 -0.020937156 -0.026308658 -0.018147802 -0.027678374 -0.01569009
-0.0059898477 0.017772779 -0.008898502 -0.020753378 0.025857966 0.0066003837 0.02982955 -0.02129053
-0.021474771 0.008202247 -0.016330827 0.031010713 -0.011369223 -0.012001103 -0.027318027 0.0050442293
-0.026967725 -0.01850854 0.03059395 0.031574603 -0.017718421 -0.014527906 0.02487199 -0.013933368
0.019744005 0.019862603 0.017092753 -0.0039487034 0.026939947 -0.02657279 -0.029019462 -0.007403966
0.017945021 0.032886725 -0.012347419 0.028563444 0.0155150145 0.028615188 0.019325893 0.0038887635
-0.0266058 0.0006860234 0.01956543 0.035649475 0.0092727095 -0.015685912 -0.008799605 0.0010306835
0.00013791025 -0.028533831 -0.010745015 -0.012916766 -0.007377716 0.035253573 0.017079517 -0.024056867
0.022794954 -0.028507117 0.013037927 0.019046057 0.014948841 -0.033608794 0.003069874 -0.004719235
-0.025548706 0.005259283 0.014993016 0.012870636 0.009239361 0.03136829 -0.004031468 -0.007878201
-0.035220668 -0.007476216 -0.022608101 -0.035190385 -0.0076449383 0.018292703 0.020550512 -0.024767041
0.032219056 -0.015258556 -0.00974392 0.0006996803 -0.030411875 0.004615817 0.03416918 0.005263932
0.021705404 0.022889543 -0.030308718 0.009802677 0.01894049 -0.025841046 -0.002740126 -0.0023729168
0.03538159 0.008021992 -0.014585255 -0.027129784 -0.01568831 0.0012761541 -0.005289035 0.03225248
0.013221011 -0.008525465 -0.01464208 0.028105784 -0.007535029 0.03252699 -0.014799338 -0.0342051
-0.03335799 0.015202813 0.021754008 0.02832872 0.02021021 -0.023431104 -0.02148771 0.0057300106
0.023107216 -0.02215448 -0.009656284 0.027133096 0.026895467 0.016522106 -0.012495415 -0.0034007542

user_embed.weight f4 [447, 32]
00000000: c49e c43d c5b1 97bc 4d76 053d 940d 183d
00000010: 9d23 a4bd 2e29 43bd ed7c 86bd 4f1e 1ebd
00000020: 7f69 31be 713f 9a3c 4e9b 4d3e 07b3 6c3d
00000030: 9d8c 173e 8e46 3dbc a289 cbbd dcfd e63d
00000040: bb42 02be b04f 96bc 29e9 c9bc c789 91bd
00000050: aca1 a43d 0686 bdbd f66a 90bd 6b3a aebd
00000060: 232d 27be eacc 37be 22bb 74bc 20ec 233e
00000070: 3616 edbd 05c3 27bd d474 06be 252a 0ebc
00000080: 7fb3 cf3d a3f8 6ebc e083 1b3e 6a12 38bd
00000090: 0779 91bd 0a0a 3b3d 778c 783d cfb6 27bd
000000a0: 32cc 3abe cb80 a2bb 426c 803e 4dc5 d53c
000000b0: 5eb1 9a3d ce0e d5bd 6a7f 1fbd ac15 013e
000000c0: a89d 43be d82c 23be 87d9 333d 1bd5 1ebd
000000d0: 5777 bf3d 5398 6cbb fb82 b6bb b624 d63d
000000e0: b451 0cbe bfab 03bd 84d9 163e cee2 333e
000000f0: 85c3 cd3c a2c1 263e 5589 be3d 272b 1e3e
00000100: f22a 7d3d 07f3 1cbe 4c9c 0cbe 488f d83c
00000110: beaa 23be d721 f83b ad49 63be 6a30 9bbc
00000120: 4939 92be 35e1 a13d 3daf 5c3e 5916 87bd
00000130: 5ab7 8e3c 2aad 293d cf7c 373d 15a2 a4bc
00000140: fdd8 02be 7606 4cbd d1a0 363b b50b acbc
00000150: ee13 1c3d 7939 adbc 5b7f 033d a951 5bbc
00000160: c160 7dbd b69d 52bd c654 92bd 8643 473e
00000170: 406c ecbd 8e74 9b3d 4db4 47bd 303e 7f3d
00000180: eacc 0a3e 0e7e 7ebd f032 19be 86f4 e53d
00000190: 50db 4fbe 980c 86bc 32a0 653d beb6 d5bb
000001a0: c2db 47be 1746 41be adc2 e13d 745e 1c3d
000001b0: 4a0a 253e 25d1 14bd 3c69 1ebd faec 1c3e
000001c0: 9ddd 41be b0e4 9dbd 1404 673a a404 50bd
000001d0: 54e5 79bc 1df3 10be d088 ea3c 8c9b 7bbe
000001e0: 35ec 70bd 6480 a7bd 1e73 2e3d 6c02 523e
000001f0: c9f6 aebc 365e 243e 7b3e 473e 8a2b d33d
00000200: f98c a13d 9666 f2bd 0677 143e 3975 863d
00000210: 1a6e 9cbd be4b 01be ee6c 773d a91e 053c
00000220: 9de6 9fbd 6673 86bd 96d7 823e 2b9f 483e
00000230: 763d 123d 6407 70bc f579 99bd 46c0 e8bd
00000240: 1b3d ddbd 34a8 f6bd b2e5 823d ec1d 76bc
00000250: cec5 ff3c 71f0 9c3d e6da 9dbd 2391 cb3c
00000260: e55e 44bd ea9b 7bbd dc3b 48bd 9c3e ab3d
00000270: 8891 6b3d d070 e13d 544f 513d 6968 60bd
00000280: 4439 54be 1c86 b43d 5946 973e 9c24 553e
00000290: 71d3 923e c21c dd3e 9f50 8f3e 26f1 a8bd
000002a0: 12e2 773d 3833 193e 368d f8bc 3bf9 213e
000002b0: 4160 e93e 9b72 3dbe 7554 923e 1d19 a33e
000002c0: 15a7 733e 719a afbd 4981 d639 9803 c03e
000002d0: 5fd7 703d 56fb b5bd 8d50 c13e 28a1 50be
000002e0: c14d cdbe e507 0abe 1b56 e6bd 0db3 c8bd
000002f0: eee3 babd a3a7 07be ac85 173e 3812 d33e
00000300: a376 c2bd ed4d c7bb 4c4b 0bbe 9466 ad3d
00000310: f3ed 143d 6009 2f3d 9adc 09bd 29ca 263e
00000320: 354b 92bc 1728 d03d 9af8 be3d 0ab0 18bd
00000330: 13af e83d 83e1 2d3d ef19 78bd 1d25 203e
00000340: 7986 7c3c 571f bfbd a716 a2bd a15a 9c3d
00000350: a627 0c3e b9f4 493d ba01 d83c 56d5 dd3d
00000360: bc70 43bd fb91 133e 3b56 803d b607 7a3d
00000370: 7a57 a2bd eb7b df3d 6b5a 553d e246 973d
00000380: 231e 1e3e b176 acbd c8e7 e2bd 2972 ce3c
00000390: 53e7 43be 198b 89be b1ec 74bd 63b0 713e
000003a0: bb3f 3d3c f575 2abd b437 1e3e 5f9d 383e
000003b0: bbff fa3d 1fdf efbc 1348 ce3d a6be 44bd
000003c0: 1cb7 30be 448f 2c3c 6147 b5bd 124c d9bd
000003d0: af19 5f3e ef46 ef3c d0a6 833d fd12 2c3e
000003e0: 3a54 8abe c674 c03d 9084 a5bd 7595 d73b
000003f0: 7d29 efbd 8344 d43d 8f06 94bd 3e0a 193e
0.09600595 -0.018517384 0.032583524 0.037122324 -0.08014605 -0.047646694 -0.065667965 -0.038603123
-0.173254 0.01882908 0.20078775 0.05778792 0.14799733 -0.011552466 -0.09938361 0.112788886
-0.12720768 -0.018348545 -0.024647312 -0.07106357 0.08038649 -0.092540786 -0.07051651 -0.08507236
-0.16325812 -0.17949262 -0.014937194 0.16008043 -0.11576502 -0.04095747 -0.13130504 -0.00867704
0.10141658 -0.014585647 0.15187025 -0.044939436 -0.07103162 0.04566387 0.060680833 -0.040945824
-0.18241957 -0.004959201 0.25082594 0.026095057 0.07553361 -0.104032144 -0.03893987 0.12605923
-0.1910311 -0.15935075 0.043908622 -0.038777452 0.09348934 -0.0036101534 -0.0055698133 0.10456221
-0.13703042 -0.03214621 0.14731413 0.17566988 0.025117645 0.16284803 0.09303538 0.15446149
0.061808534 -0.15327083 -0.13731498 0.02643551 -0.15983102 0.0075723934 -0.22196074 -0.018943984
-0.2855933 0.07904283 0.21551223 -0.06596059 0.017421413 0.041424908 0.04479676 -0.020096818
-0.12778087 -0.04981085 0.002786685 -0.021001676 0.038104944 -0.02114557 0.032103878 -0.0133861685
-0.06185985 -0.051419936 -0.071450755 0.19459352 -0.115440845 0.075905904 -0.048755933 0.062315166
0.13554731 -0.062131934 -0.14960837 0.1122828 -0.20298505 -0.016363427 0.056060977 -0.0065220287
-0.19517425 -0.18874393 0.110234596 0.038176015 0.16117206 -0.03633227 -0.038674578 0.15324774
-0.18932195 -0.07709634 0.00088125584 -0.050785676 -0.01525243 -0.1415524 0.02862969 -0.24571055
-0.058819015 -0.081787854 0.042590253 0.20508736 -0.02135791 0.16051564 0.19457428 0.10311039
0.078882165 -0.11835973 0.14498529 0.06565327 -0.07638188 -0.1262655 0.060406618 0.008124986
-0.07807658 -0.06564979 0.25555104 0.19591968 0.035703145 -0.0146502 -0.074939646 -0.11364798
-0.108026706 -0.12043801 0.06391467 -0.015021782 0.03122225 0.07663048 -0.07707767 0.02484948
-0.04794206 -0.061427988 -0.04888521 0.08361551 0.057511836 0.110078454 0.051101044 -0.054787073
-0.2072497 0.08814642 0.29545859 0.20814747 0.28676942 0.43186003 0.27991197 -0.082491204
0.06051833 0.14960945 -0.030340772 0.1581773 0.45581248 -0.1850075 0.2858006 0.31855097
0.23794205 -0.08574379 0.00040913586 0.37502742 0.058799144 -0.08885829 0.37756768 -0.20373976
-0.40098384 -0.13479574 -0.11246892 -0.09799776 -0.091255054 -0.13247542 0.14797086 0.41224837
-0.094952844 -0.0060822875 -0.13602942 0.08466831 0.03635974 0.04273355 -0.033657648 0.16288055
-0.017858127 0.101638965 0.09324761 -0.03727726 0.11361518 0.042451393 -0.060571607 0.15639158
0.01541292 -0.093321495 -0.07914477 0.076344736 0.13687 0.04930565 0.02636801 0.10831706
-0.047714934 0.14411156 0.06266447 0.06104251 -0.07926841 0.10912307 0.052088182 0.07386567
0.15441184 -0.08421076 -0.11079365 0.02520092 -0.19131212 -0.26863936 -0.05979604 0.23602442
0.011550839 -0.0416164 0.15450937 0.18028782 0.12255808 -0.029281197 0.10072341 -0.04803338
-0.1725735 0.010532204 -0.08851505 -0.106102124 0.21787141 0.029208628 0.06428301 0.16804118
-0.27017385 0.09397273 -0.08081925 0.006579096 -0.11677835 0.1036463 -0.072278135 0.14945313

item_embed.weight f4 [578, 32]
00000000: 034b 7a3e 661e b13d 83da abba cd58 8a3d
00000010: 663d 2fbe b176 c2bc c5f8 07bd 210e 81be
00000020: 774f dd3d 459a 9abd f78b f13c 5c68 e73d
00000030: 9ae2 65be 9dea f03d f8f1 0cbd 1420 d53b
00000040: d4c8 a8bd 0a67 d83d 3548 b8bd 8cdf 8d3e
00000050: 466c b0bb e49d 353c 37da 813e b41c 39bc
00000060: f50b 4cbc 1700 d7bc e1de 87be 3afb 4dbe
00000070: 3dcf d03d 96bf 04bd cea4 64be 665d 05be
00000080: c2e7 a2be 786d 66bd 713d f33d e6ba 8dbd
00000090: d54e 0c3e 65f7 a8be ea57 883d 6f8d a43e
000000a0: 868f 8abd cd90 773d 5a12 9ebd fca8 8d3d
000000b0: 6687 30bd 7452 293e 0f19 b9bd 63ef 733e
000000c0: 328b 1f3e 2348 813e 1b2b e0bd 2b6b babe
000000d0: 019a 1cbe 273f cdbd 1734 6ebd 5803 7cbd
000000e0: 1c37 9cbd b189 0a3d d8f5 8e3e 7f75 5fbe
000000f0: 6556 89be 9123 21be d3fe 65bd 0fa2 91bd
00000100: 06e3 72be a7dd 0b3e f6be 92be 2625 3bbe
00000110: 07ed e5bd 1048 4b3e a019 b73d b41c bd3d
00000120: 665e 35be d21c 903c 9cbc 2f3d 4201 b9bc
00000130: c468 483d 002f 943e e971 e3bd 1fe7 c53d
00000140: 812b 9cbd 67c8 87be 1dea a83e 9a56 813e
00000150: 5e3b 19be 127b 6fbe ba27 d63d 953b 823c
00000160: 2d3d 1abd 880e fcbd 322d 8f3e faf2 7ebc
00000170: 0a11 97be 8043 553c 98e7 cb3d 68b3 f63c
00000180: 4400 07be 3139 283e dccf 423d 894e adbd
00000190: d54f 2cbe 0ba6 18be c0a2 543b 2420 543d
000001a0: 5ad5 3cbd 4502 d13d 1968 41bd b8e1 f0bd
000001b0: 8877 22bd 560b 52bd 7788 ffbd eb36 d63c
000001c0: ef49 c8bd 102c ee3d d6b7 59be a061 9bbd
000001d0: 72a2 d4bd 29f5 51bd b665 60bd b974 8e3d
000001e0: 22d7 a33c 252c da3d 2e33 383e dca7 503e
000001f0: 7027 833d 25b3 c53d 26b2 1cbe 582d 5fbd
00000200: 5893 50bc 2075 debd e2be 373d cb1a bbbc
00000210: 106d 18be c860 c2bd 7842 993c 9b34 41bd
00000220: 534a 903d 76b8 023c 6f4c f73d f08b 26be
00000230: 5d7a 073d 308d 403d c2d2 88bd 189e cf3d
00000240: e40e 5b3e 0bb1 473b ad1d ec3c f2bd 3c3d
00000250: 5096 48be fa52 0bbc 604d 7bbd 79b0 283e
00000260: 8c7d 983e 2e20 3a3c 2132 403d 4b09 2ebe
00000270: 711b 0cbd 66a7 5bbe 7c81 29bd be75 633d
00000280: ee04 2d3d c3aa d53c e74e cdbd 59b5 3a3e
00000290: fb08 2e3e 04b3 8b3e 4be7 893d 1dea fdbd
000002a0: 3fee 813e df1e 2ebc 0d3e 4abe 7166 213c
000002b0: 133d 603c 6613 32bb ba8c 653a 1c15 85bd
000002c0: 5a26 e1bd f51e 073e c34b 5d3d 75f3 b13d
000002d0: 8e69 b0bd 60ea 743c df44 9f3c 22cb 29bd
000002e0: 9319 7fbe e99d 163e 0f50 9dbc fc3b bb3d
000002f0: 2cf8 9d3d 3710 b7bd 9895 833e 8b55 adbc
00000300: dd18 d03d 10ed 143e 47e4 d7bd 79df cabe
00000310: d9ee 3c3e 45d3 913e c12d 29be e68a 8b3e
00000320: c922 b6be ed76 e83e bdb8 963d 3ee0 59be
00000330: 04b1 0c3e a838 75bd 0729 b73e 9148 8dbe
00000340: c7e1 11be 78ca 083e 18d0 fabd df74 bebe
00000350: 82ce 6cbd 6028 a33d 0dff f6bd 189c a23e
00000360: 46d2 693e 4ced b03d 6053 8d3c 8bbf 4fbe
00000370: 6e46 c43e 5868 44be 13bb 073d f549 26be
00000380: b3cb 903e d565 69bd 6ca8 b03d 55d4 d4be
00000390: 3544 77be 1ab4 70be 179a 47bb 52a2 bd3e
000003a0: b46e e3be 8492 483e 755e 933e d4e8 2abe
000003b0: 4f78 c43e dfdf 713d 77d1 debe 1aa9 a5be
000003c0: 716d d6bd bb20 443e d936 883d d26a f43e
000003d0: 728c 0ebe 9f21 243e c7f5 b63e 453b 6a3e
000003e0: 8b77 d1be 1de8 2d3d 4f3e a13e c3a4 153d
000003f0: 4741 b6be 767b bb3d c5b0 093e e809 d2bc
0.24442677 0.08648376 -0.0013111386 0.06755219 -0.17113265 -0.023738237 -0.03319623 -0.25206092
0.10806172 -0.07548956 0.029485686 0.11299202 -0.22449723 0.11763499 -0.034410447 0.006504068
-0.0824143 0.10566528 -0.089981474 0.27709615 -0.005384001 0.011085007 0.25361797 -0.011298347
-0.012454023 -0.02624516 -0.2653723 -0.20115367 0.101957776 -0.032409273 -0.22328493 -0.1302391
-0.31817442 -0.05625674 0.118769534 -0.06920414 0.13701947 -0.33001247 0.06657393 0.32139155
-0.06765656 0.060440827 -0.07718344 0.06916997 -0.043097876 0.1653536 -0.09037983 0.23821788
0.15580443 0.25250348 -0.10945722 -0.36409888 -0.15293123 -0.10021811 -0.058155145 -0.061526626
-0.07627699 0.03382272 0.2792194 -0.21822165 -0.26823726 -0.15736224 -0.056151222 -0.07110988
-0.23719415 0.13658772 -0.28661317 -0.1827589 -0.1122685 0.19851708 0.089404345 0.0923399
-0.17711791 0.017591868 0.04290448 -0.022583608 0.048928037 0.28942108 -0.11105711 0.096632235
-0.07625485 -0.26520082 0.32991114 0.25261384 -0.14964053 -0.23386791 0.10456796 0.015897552
-0.037655998 -0.12307459 0.2796417 -0.01556086 -0.29505187 0.013016582 0.099562824 0.030114844
-0.13183695 0.16428067 0.04756151 -0.08462245 -0.16827329 -0.1490709 0.003244564 0.051788464
-0.046101905 0.10205511 -0.047218416 -0.117618024 -0.039664775 -0.051280342 -0.124772005 0.026149234
-0.09779727 0.11629498 -0.21261534 -0.0758698 -0.103825465 -0.051259194 -0.0547845 0.06955857
0.020000044 0.10652951 0.17988274 0.20376533 0.064040065 0.0965331 -0.15302333 -0.054486603
-0.012730442 -0.108621836 0.044859774 -0.022839924 -0.14885354 -0.09491116 0.018708453 -0.04716931
0.07045426 0.007978549 0.120751254 -0.1626432 0.03307568 0.047009647 -0.06680824 0.10137576
0.21392399 0.0030470516 0.028822744 0.046079583 -0.1958859 -0.00850367 -0.061353087 0.16473569
0.29783285 0.011360211 0.046922807 -0.16995732 -0.034205858 -0.21450576 -0.04138325 0.05553221
0.04224103 0.026082402 -0.10024815 0.18233241 0.16995613 0.27285016 0.06733569 -0.12398169
0.2537708 -0.010627477 -0.19750233 0.009851084 0.013686436 -0.0027172207 0.00087566266 -0.06498167
-0.10993643 0.13195403 0.05402733 0.08689014 -0.08613883 0.0149484575 0.01944202 -0.04145349
-0.249121 0.14708675 -0.019203214 0.091423005 0.07713351 -0.089386396 0.25700068 -0.021158954
0.10160992 0.14543557 -0.10541587 -0.3962362 0.18450488 0.28481498 -0.1652136 0.2725441
-0.35573414 0.45403233 0.07359455 -0.21276948 0.13739401 -0.059868485 0.3577349 -0.27594426
-0.14246283 0.13358486 -0.12246722 -0.3719854 -0.05781413 0.07966685 -0.12060366 0.31759715
0.22834119 0.08639011 0.01725167 -0.20287912 0.38334984 -0.19180429 0.033137392 -0.1623915
0.2828041 -0.05698188 0.08625874 -0.41568246 -0.24147113 -0.23506203 -0.0030456835 0.37037903
-0.44420397 0.19587141 0.28783002 -0.1669038 0.38373038 0.05905139 -0.43519184 -0.32355577
-0.10470093 0.1915311 0.06651086 0.47737747 -0.13920763 0.1602845 0.35734388 0.22874172
-0.40911517 0.04245769 0.3149285 0.036534082 -0.35596678 0.09154408 0.13446338 -0.02563949

entity_embed.weight f4 [886, 32]
00000000: 86a2 8abd 98be 81bd 725b 253d 3f67 293d
00000010: c430 b9bc 5bd8 e2bc 4d2e 673d 7e8c 223d
00000020: 6f5c 063d 55b0 1dbd 4bce eebc 5ed0 a8bd
00000030: c5e9 7cbd a5ca 0fbd 79f8 34bc 728b da3c
00000040: dd86 7ebd ff93 fb3c ba46 623c 181a 1a3d
00000050: 2ce4 a53d 6f4e 263c 7ff2 c23b bb4c 533d
00000060: 19f2 09bc d94e f8bc a2e8 d13c df0c 8d3d
00000070: eb10 4abd 6f68 7a3d 162b a9bd fe95 94bd
00000080: e13b 9f3d e6ea a2bd a7de 4d3d e3af a53c
00000090: e872 cf3c b492 f23c 1f04 76bc 512e 86bd
000000a0: d3d1 933d 7b05 4bbd e330 44bc 9ffd d2bc
000000b0: 8484 7a3d 9efa 18bc d45d 843d e14e 953d
000000c0: e49b 8abc 102b 903d 6e83 b13c dc1d 58bd
000000d0: a1ed a0bd 2020 88bc c5c5 833d 2125 3f3d
000000e0: ee29 913d 8a96 afbd d615 9fbd d053 593d
000000f0: 8abb 8a3d e56c 973d feda 443d 593a 5ebc
00000100: 320b 563d 890c 1b3d 767e 803d 59e5 4dbd
00000110: 360f 793d 586a 2ebc 3f35 ea3a b547 a1bd
00000120: a9c4 403d 1604 9fbc a5d1 f5bc d0b5 0c3d
00000130: 6042 593d 729b c5bd a566 3e3d 65df 8bbd
00000140: 8e72 31bd 649f 7a3d 764f 1abd c8d9 0d3d
00000150: bc38 8f3d 09ec 76bd 3bfd c53b cebb 803d
00000160: 3baf a4bb 43ad 3c3d 50c7 99bd 8423 2c3d
00000170: 526f 003d 4066 013d 1ce8 2f3c e7b5 b0bd
00000180: 6c32 08bd 5f3a 5cbd f5f6 df3c 795e 95bd
00000190: 0651 8c3d 24f7 ae3d 1fad 1dbd 04cd 303d
000001a0: 0862 e5bc ed36 903c 1995 6b3d e0c5 a9bd
000001b0: 7afc 0a3d 903c fcbb 0ced b4bc 60e0 8dbd
000001c0: 0e1b 163d fc8e c03c 1cba 07bd 3686 4b3d
000001d0: c7f1 82ba 980e 0fbd a386 613d 0798 81bd
000001e0: 593a 823d ac27 ca3a 098e 8e3d ae1d 103d
000001f0: 94d4 173c aba1 dbbc c312 91bc e155 453d
00000200: 10db 84bc 924c 39bc 8baf f83c f34d ed3c
00000210: 31aa 65bd e3cd 8abb 64e6 4e3c ec43 41bd
00000220: fa6b b53c d3fe 3cbd 6920 73bd 3fc2 af3c
00000230: 2888 dcba 0c90 20bd 75f7 77bc 6b94 64ba
00000240: c417 933d df64 223d 5ff4 b0bc d20d c03d
00000250: d29f a13c 31e5 64bd f26a fc3c d79e 19bd
00000260: 5f32 7f3b 1f7e f7bb a691 593d 778b e03b
00000270: 5837 84bd 44a3 893c f615 a0bd 9cef a03b
00000280: d237 83bd dc2a 983c 3f2f e63b 8bc1 bbbc
00000290: b1a4 0b3d 9cef 213d a496 953d b6a4 113c
000002a0: 9396 be3c f003 923d a015 d03b 76d5 80bd
000002b0: c568 94bd 6d69 8c3c 3308 a6bb 8f61 823d
000002c0: 0863 f3bc bda7 4dbd fbfc 1b3c 188d 603d
000002d0: b9bd 0e3d b72b 913b bed7 233c 25bf 333d
000002e0: eb17 8ebc 5b62 aa3c ff31 e93b 5aff b0bc
000002f0: 0ea1 073d b7d1 a03b a312 95bd b564 87bd
00000300: 8163 28bd 08d1 bfbc b604 083d c8cf 8abd
00000310: c4f6 86bd 2b85 54bd c462 183c ab91 c6bd
00000320: 257f af3d 8db3 a13d 2fc0 523c ed02 6a3b
00000330: 3c32 a03d 10c6 873d bab9 8f3c 066b b9bc
00000340: cb6a 493d 8a74 36bd 0e7d b33c 898c 8dbd
00000350: 1a2c 6cbd 83a7 c7ba d017 07bd 2d46 653c
00000360: 5211 c2bc 9dde 4fbd c561 79bd 7cb7 603c
00000370: 06e2 57bc fdf9 98bb 852a 323c 3251 89bb
00000380: c716 87bd 777b 9dbc cdd8 e2bb a676 9cbd
00000390: cc7c e6bc bfc8 ab3c f463 753c e51c acbd
000003a0: 9800 603d 76ac 423c 2b2a 803d a781 1e3c
000003b0: 15c9 cd3c ad0b 36bc a0e6 98bd 7239 acbd
000003c0: 7f92 a1bd 3aeb 263d 5cf9 4b3d 37e7 6c3d
000003d0: c2ce 133d 4812 fcbb b9b2 963d ebe0 383d
000003e0: 5ab9 6e3d 4303 f23c 78f8 64bd edc5 0d3c
000003f0: 6326 623c fffa 563c 4e86 8ebc f26b 85bc
-0.0676928 -0.06335181 0.040370412 0.04135823 -0.022606261 -0.027691057 0.05644064 0.039684765
0.032802995 -0.03849824 -0.029151103 -0.08242868 -0.061746377 -0.035105366 -0.011045569 0.02667782
-0.062140334 0.030710218 0.013810808 0.03762254 0.08100161 0.010150536 0.005949318 0.051586848
-0.008419537 -0.030311035 0.025623623 0.068872206 -0.04933254 0.061134752 -0.08260171 -0.07255171
0.07775093 -0.079549596 0.050261166 0.02022547 0.025323346 0.02961097 -0.015015631 -0.06551803
0.07217755 -0.049565773 -0.011974546 -0.025755702 0.061161533 -0.009337096 0.06463209 0.072904356
-0.016920038 0.070394635 0.021669116 -0.05276285 -0.07857824 -0.01661688 0.06434206 0.04666627
0.070880756 -0.08573635 -0.07767837 0.053058445 0.067740515 0.07393817 0.04806041 -0.013563716
0.05225677 0.03785375 0.062741205 -0.05026755 0.060805522 -0.0106454715 0.0017868652 -0.07875005
0.04706255 -0.019411128 -0.030007193 0.034353077 0.053041816 -0.096487895 0.04648461 -0.068297185
-0.04332214 0.061187163 -0.037673436 0.03463152 0.06993243 -0.060283694 0.0060421503 0.06285821
-0.005025772 0.046063673 -0.07508719 0.042026058 0.031356163 0.031591654 0.0107364915 -0.08628445
-0.03325121 -0.053766605 0.027339438 -0.0729341 0.068513915 0.08543232 -0.03849518 0.043164268
-0.028000847 0.017604316 0.057515237 -0.08289695 0.033932187 -0.0076976493 -0.022085689 -0.06927562
0.036646895 0.02350568 -0.033136472 0.04968854 -0.0009990268 -0.034926027 0.05506004 -0.06327825
0.06358785 0.00154232 0.06960685 0.035184555 0.009266991 -0.026810488 -0.017709142 0.048177604
-0.016217738 -0.01130976 0.030357143 0.028967833 -0.05607051 -0.0042359694 0.012628172 -0.047183916
0.022146214 -0.046141457 -0.05935708 0.021454928 -0.0016825246 -0.039199874 -0.015134682 -0.0008719626
0.07182267 0.03964698 -0.0216009 0.09377636 0.019729529 -0.055882636 0.030812714 -0.037504997
0.0038939936 -0.0075528766 0.053117417 0.006852563 -0.064558685 0.016801484 -0.07816689 0.004911376
-0.06407131 0.018575124 0.007024675 -0.022919437 0.03409261 0.03953515 0.07304123 0.008889368
0.023265159 0.07129657 0.006350234 -0.062907144 -0.07246546 0.017140115 -0.0050668954 0.06366264
-0.029710308 -0.050208796 0.009520764 0.054822057 0.034848902 0.00443026 0.010000167 0.04388346
-0.01734539 0.020798853 0.0071165557 -0.021606136 0.033112578 0.0049078125 -0.07278945 -0.06611005
-0.04111052 -0.023415104 0.033207618 -0.067779124 -0.065900356 -0.05188481 0.009300891 -0.09695753
0.08569173 0.07895575 0.012863203 0.003570731 0.078220814 0.06629574 0.017544616 -0.02263404
0.04917411 -0.044544734 0.021910217 -0.069115706 -0.057659246 -0.0015232417 -0.032981694 0.013993782
-0.0236899 -0.05074941 -0.060884256 0.013715621 -0.013176447 -0.004668473 0.010874395 -0.0041905874
-0.06596141 -0.019223912 -0.0069228173 -0.07639818 -0.02813568 0.020969747 0.014977444 -0.08403949
0.054688066 0.011881938 0.06258043 0.009674466 0.025120297 -0.011111182 -0.07465863 -0.08409394
-0.0788927 0.040751673 0.049798355 0.05783769 0.03608585 -0.007692609 0.073583074 0.045136373
0.058282234 0.029542571 -0.05590102 0.008653146 0.013803097 0.013121366 -0.017398026 -0.016286824

relation_embed.weight f4 [114, 32]
00000000: 0237 e6bc c2c5 2b3c 2d08 cebc 8270 11be
00000010: 0edb b63d cd6b c73d b881 673d c3cc 36be
00000020: 250c e9bd 5256 2dbd 0795 a3bc a4a9 3abd
00000030: d9c8 933d 14eb 403e 1c73 e73d 5ca8 c1bd
00000040: 16f4 b6bd 1fa9 63bd a082 4d3d 3c86 9dbd
00000050: 6a3f 7bbd 48c3 ae3c 65a3 e33c 4cdf cebd
00000060: ac6d 083e 071a 5a3d 7dcb 313e 3809 45be
00000070: b9e8 d0bc fc69 e0bc 6cc8 273e d309 3a3e
00000080: ebf3 2fbd 19d1 0d3e f152 b43c 05ff afbc
00000090: 63d3 19be cd53 22be b40d 1f3d 8de8 46be
000000a0: 2135 313e 6f01 d53b 4987 1bbe d28d 133e
000000b0: 4c30 1ebe 84da 06be 048e bdbd 5637 2ebd
000000c0: 3b2a 52bd 76dd 30be f6a2 113c 6ec0 33be
000000d0: f3b3 cebd b571 543d 2e0d 20bc 462d 113e
000000e0: 5c2f bf3d feb6 2abc f17e b33d 02b0 a9ba
000000f0: 37cc ccbc 55a9 ba3d 0fad 8ebd 702c 3fbe
00000100: b2ff dc3d 7db2 edbc 2e43 083c 2264 813d
00000110: 858e e83c 64c9 1fbe 6e80 1e3d 3426 1abe
00000120: 2421 07bd 4ba9 24be 107b ef3d f3e3 d2bc
00000130: 68b5 bf3b 7261 70be 1854 a23d 3f6b 22be
00000140: 1f1f 0ebe a4da 0c3e fb1a 1e3e dd63 583e
00000150: 056b a73d 6ead b9bd 56d7 8d3d 6d12 063e
00000160: 0fa6 433e ab38 06be 1689 a73d 817a d93c
00000170: fde8 003e 3f2d e03d c9f9 a43d 6c33 1dbe
00000180: ef6c 643d b30b 23be b6c8 b0bd e73c fbbc
00000190: 7a91 b1bd b441 a3bd 7b65 873b 19ad 1b3e
000001a0: 565d d5bd 4fbd 6d3d 5269 abbd 5588 9ebd
000001b0: 58c3 63b9 ce65 49be 0c45 9cbc da58 1dbe
000001c0: 4834 053e 9762 91bd ba1b d13c 931d 9b3d
000001d0: 1eda f8bd 9279 4abe 59c5 69bd 6d71 c8bd
000001e0: 235f 2b3e c7e6 28be f99c a8bd 5e98 3d3e
000001f0: 0027 94bd 56f2 3abe fcea 253e 2ec1 de3d
00000200: 958e e3bd 6e67 9e3d e3cd fbbd 7111 ddbd
00000210: b3dc 84bc df97 e63d 3e6c 71bc 1461 04be
00000220: e9eb da3d 1d7a 673d b096 0cbc c809 a3bd
00000230: 0bfc 02bd 02e4 efbd 8ec9 0e3e ca8e 7abb
00000240: 762f af3c 0b8e 033e 2ba4 1ebc 57ef 963d
00000250: 1bb4 c73d 3349 fa3d b127 65bc 4cf0 28be
00000260: 87d3 cbbd 96da b8bd 962d df3b d9eb ac3c
00000270: 7cef 37bd ac8e 4fbe 35de ffbd bbed 01be
00000280: 3ebc 11be 5eeb 55bd e171 07be 0eb8 c03d
00000290: 6b05 4c3d ef7f b63d 52e8 973d a187 243d
000002a0: 0b5e 75bd 17e1 93bd dcfa 89bd e7c5 edbd
000002b0: a0c1 09bd b33f 11be 49cb 51be 79d7 e73d
000002c0: bd2a 06bd 8e9d 9d3c 93c6 91bd 9a7c f6bd
000002d0: f3a8 b03d c998 84bd b700 2a3e 3025 953d
000002e0: 96ab 7ebb 4b57 c8bd c197 d5bb e354 08be
000002f0: c3d1 b83c 308f 133e 392a 7bbd d741 c9bd
00000300: 3b88 a23d 5d54 443e 3e12 e93d 3098 1a3e
00000310: f4e7 9fbc dd55 463e d79e e03c 773d fbbc
00000320: 1921 d13b f734 40bd 55c7 c5bc b574 1dbd
00000330: 0730 f7bd 7eb4 f1bd 2e74 ae3d 6d1c 91bd
00000340: 3b63 3d3d d376 1abe 90ac 82bc 5500 1a3e
00000350: 348e 363d d085 103d 99b6 203e c0bb ee3d
00000360: de07 ccbc 1ae8 493d c052 3c3a b5d6 a2bd
00000370: 35a1 f1bd 96ae a83c d2c2 1fbe 86bc 2abe
00000380: 78ce be3c 0fd0 35be afa4 ebbd bc19 22bd
00000390: 8fd6 413d e995 ff3d da6c 3cbe f7e8 2e3d
000003a0: b8fd 8cbd 236f 96bb a3aa 333e 0ce7 a73d
000003b0: 9030 553d af34 35be d4fc fabd abe1 18be
000003c0: 5ee6 303e 3de4 a03d efca 3f3e eeeb b9bd
000003d0: eb4c c43d 037c 5cbe 6849 983d 8958 22be
000003e0: 5472 ef3d 3d8a 2abe c665 b9bd 1a8e 80bd
000003f0: 6783 a3bd 8e96 04be 9b7a 4dbe 3ace 98bd
-0.028102402 0.010484161 -0.025150383 -0.14203075 0.089285 0.09737358 0.056520194 -0.17851548
-0.113792695 -0.04231865 -0.019968523 -0.04557194 0.07216043 0.18839675 0.11301252 -0.0945594
-0.089332744 -0.05558121 0.0501734 -0.07691619 -0.061339773 0.021333352 0.027787874 -0.10101184
0.13323087 0.053247478 0.17362781 -0.19241798 -0.025501596 -0.027394287 0.16385049 0.1816781
-0.042957228 0.13849296 0.022012206 -0.021483907 -0.15022044 -0.1585228 0.038831428 -0.19424649
0.17305423 0.006500415 -0.15188326 0.14409569 -0.15448111 -0.13169295 -0.09255603 -0.04253324
-0.051309805 -0.1727198 0.008888951 -0.17553875 -0.10092916 0.051866252 -0.009768767 0.14177427
0.09335205 -0.010419605 0.087644465 -0.0012946131 -0.024999721 0.09114329 -0.06966602 -0.18669295
0.107909575 -0.029015774 0.008316798 0.06317927 0.028388271 -0.15604168 0.0386967 -0.15053636
-0.03299059 -0.16080205 0.11693394 -0.02574346 0.0058504827 -0.23474672 0.07926196 -0.15861224
-0.1387906 0.1375528 0.1543998 0.21131845 0.08174709 -0.09066282 0.06925838 0.13092966
0.19106315 -0.13107555 0.08180444 0.026547672 0.12588878 0.1094613 0.08055455 -0.15351647
0.05576795 -0.15922432 -0.086320326 -0.030668689 -0.086703256 -0.07971516 0.0041319705 0.1520275
-0.10418193 0.058041867 -0.08369698 -0.07740847 -0.00021721178 -0.19667742 -0.019075893 -0.15365925
0.13008225 -0.07098883 0.025525916 0.07574 -0.121509776 -0.19772938 -0.05707297 -0.09787259
0.1673551 -0.16494285 -0.08233065 0.18515155 -0.07234001 -0.18256506 0.1620292 0.1087669
-0.1111118 0.077345714 -0.12295129 -0.10794342 -0.016218519 0.11259436 -0.01473528 -0.12927657
0.106895275 0.05651294 -0.008580849 -0.0796085 -0.03197865 -0.11713411 0.13944075 -0.0038232082
0.021384936 0.12847154 -0.009682695 0.07369869 0.09751149 0.12220993 -0.013986514 -0.16497916
-0.09952455 -0.09026067 0.006810854 0.021108555 -0.044906124 -0.20269269 -0.124935545 -0.12688343
-0.14231965 -0.052226417 -0.13227035 0.09410106 0.049809854 0.0891112 0.074173585 0.04016841
-0.05990414 -0.07220667 -0.06737301 -0.116100125 -0.03363192 -0.14184456 -0.20487703 0.11320395
-0.032755602 0.019240167 -0.07117953 -0.120354846 0.086259745 -0.06474454 0.16601835 0.072824836
-0.0038859597 -0.09782275 -0.0065183346 -0.13313632 0.02256096 0.1441009 -0.061319564 -0.09827011
0.0793614 0.19172807 0.113804325 0.15097117 -0.019519784 0.19368692 0.02741949 -0.030668957
0.0063821194 -0.04692551 -0.0241429 -0.03844138 -0.12069707 -0.11802004 0.08518253 -0.070855
0.04623721 -0.1508439 -0.015951425 0.15039189 0.04456921 0.035283864 0.15694655 0.11656904
-0.024906095 0.049293615 0.00071839616 -0.07951108 -0.11798326 0.020591062 -0.15601662 -0.16673478
0.023291811 -0.1775515 -0.1150602 -0.039575323 0.04732376 0.12479765 -0.18400899 0.04270264
-0.068843305 -0.0045908852 0.17545561 0.081983656 0.052048266 -0.17695878 -0.122552544 -0.14929835
0.17275378 0.07856033 0.18729757 -0.09078203 0.095849834 -0.21531682 0.07435876 -0.15854086
0.11691728 -0.16654296 -0.09052615 -0.06277104 -0.079840474 -0.12948057 -0.20066302 -0.074612096
