Knowledge_Graph_Recommendation/recommendation/stage2/trained_model/Douban/Embedding_based/dim32_lr0.001_l20.0001_TransR/add/model0_epoch40.pth (torch, 728343 bytes, 5 tensors)

trans_M f4 [114, 32, 32]
-0.0010633243 0.00205913 0.009600003 0.021193264 0.005529806 0.03378066 0.0086093135 0.029558234
-0.011431092 -0.002814704 0.021903167 -0.016566895 -0.009525218 0.0037426916 -0.03200259 0.011789452
-0.02171928 0.02162573 -0.0065588844 0.017680764 -0.0026316077 0.0136983935 0.003152533 0.003066512
0.011248466 -0.0059774513 0.017810205 0.03434467 0.025682928 0.027945973 -0.032499414 0.019252589
0.0004594411 -0.0217008 0.027074972 0.010571007 -0.023004048 -0.032572135 -0.021374637 -0.012163322
0.0044074506 0.0008355073 0.01827642 -0.039864164 -0.02167365 -0.03573767 0.026047917 0.035187334
0.026377352 -0.027171945 0.008222081 -0.027322175 0.039074745 0.02666488 0.040632907 -0.035803948
0.006830544 -0.027548928 -0.018254107 0.015082631 -0.023027811 0.024061585 -0.005595841 0.013192932
0.013995562 -0.00011099855 0.02454348 -0.04059777 0.019013219 -0.008089325 0.024770955 0.027414685
0.017633863 5.1872445e-05 0.0024254115 0.0070722625 -0.00374906 0.026146749 -0.020128282 -0.0025943052
-0.016439037 0.00242464 -0.031900957 0.012413971 -0.008720433 0.020132745 -0.0017496591 0.027756615
0.014114843 -0.010333754 0.02323475 0.024582671 -0.029419597 -0.020316461 0.016422791 0.01924332
0.008641379 0.0067978324 0.0344725 -0.007527923 -0.038560588 0.039668065 -0.040541142 0.028450066
0.020760575 -0.009191677 -0.015299723 0.005886562 -0.010724515 0.024886364 0.026516747 0.014356962
-0.018041378 -0.032982886 0.018079588 -0.0012161232 -0.04134132 -0.0049020005 0.033503693 0.017904157
0.010190111 -0.016968235 -0.03392216 -0.014931649 -0.020303153 -0.012142304 -0.033683855 -0.021695595
1.5659072e-05 0.023778284 -0.0028929955 -0.01474788 0.019852461 0.012605887 0.035835028 -0.027296036
-0.027480276 0.002196743 -0.010325324 0.037016187 -0.0053637167 -0.005995596 -0.033323508 -0.0009612768
-0.032973208 -0.024514046 0.036599424 0.025569098 -0.011712918 -0.02053341 0.030877495 -0.019938873
0.02574951 0.013857098 0.01108725 -0.009954207 0.03294543 -0.03257828 -0.03502494 -0.0013984613
0.023950526 0.0388922 -0.0063419123 0.034568924 0.009509511 0.03462067 0.025331398 -0.002116742
-0.032611284 0.0066915303 0.013559925 0.02964398 0.0032672032 -0.009680409 -0.014805108 -0.004974824
0.0061434163 -0.034539312 -0.016750516 -0.018922271 -0.013383219 0.029248077 0.023085022 -0.030062374
0.01678945 -0.034512598 0.007032422 0.025051564 0.020954346 -0.039614268 -0.0029356314 -0.010724738
-0.0195432 -0.0007462219 0.008987512 0.018876141 0.0032338544 0.025362786 -0.010036971 -0.0018726942
-0.04122614 -0.013481719 -0.016602596 -0.04119586 -0.0016394316 0.02429821 0.014545005 -0.018761536
0.026213551 -0.021264061 -0.003738413 -0.0053058267 -0.02440637 0.01062132 0.040174652 -0.0007415734
0.015699899 0.016884038 -0.036314193 0.015808178 0.024945995 -0.019835541 -0.008745629 -0.008378421
0.029376093 0.014027495 -0.0085797515 -0.03313527 -0.009682806 0.0072816615 0.00071647204 0.026246976
0.007215505 -0.002519959 -0.020647585 0.02210028 -0.0015295226 0.038532462 -0.008793835 -0.028199602
-0.027352488 0.00919731 0.015748503 0.022323215 0.014204703 -0.017425599 -0.015482201 -0.0002754954
0.02911272 -0.016148975 -0.0036507775 0.03313858 0.020889962 0.010516603 -0.006489909 -0.0094062565
00000000: 3e5f 8bba 78f2 063b 5549 1d3c 7f9d ad3c
00000010: 6033 b53b 975d 0a3d 140e 0d3c 1c24 f23c
00000020: 7a49 3bbc e676 38bb 456e b33c 4cb7 87bc
00000030: a90f 1cbc f247 753b 2615 03bd 8c28 413c
00000040: a2ec b1bc 7128 b13c e9eb d6bb 40d7 903c
00000050: 0d77 2cbb 3a6f 603c ba9a 4e3b 89f7 483b
00000060: 7c4b 383c 7fde c3bb b5e6 913c ffac 0c3d
00000070: 0165 d23c f4ee e43c 1b1e 05bd 9bb7 9d3c
00000080: 24e1 f039 e0c5 b1bc 55cc dd3c 0432 2d3c
00000090: fc72 bcbc 5c6a 05bd dd19 afbc ac48 47bc
000000a0: 606c 903b f205 5b3a 6eb8 953c 9b48 23bd
000000b0: f08c b1bc aa61 12bd 7162 d53c 9820 103d
000000c0: 5115 d83c b397 debc e8b5 063c c1d2 dfbc
000000d0: d70c 203d 4e70 da3c b16e 263d 29a7 12bd
000000e0: c2d2 df3b 4aae e1bc a389 95bc 241d 773c
000000f0: d2a4 bcbc cd1c c53c 515d b7bb 2b27 583c
00000100: a44d 653c e5c7 e8b8 680f c93c d949 26bd
00000110: 9cc1 9b3c 1789 04bc 75ec ca3c c394 e03c
00000120: e474 903c 9d91 5938 a7f3 1e3b 70be e73b
00000130: cab2 75bb b531 d63c 11e4 a4bc 3805 2abb
00000140: 29ab 86bc b6e6 1e3b 94aa 02bd f863 4b3c
00000150: 26e0 0ebc 6ded a43c d154 e5ba d761 e33c
00000160: f141 673c e84e 29bc cd56 be3c 9961 c93c
00000170: 5e01 f1bc b56e a6bc 1789 863c 2ba4 9d3c
00000180: 9294 0d3c 5ac0 de3b 0933 0d3d ccac f6bb
00000190: b5f1 1dbd fb7a 223d 780e 26bd 1d10 e93c
000001a0: 1512 aa3c b098 16bc b0ab 7abc 10e4 c03b
000001b0: e0b5 2fbc 7dde cb3c a639 d93c 7739 6b3c
000001c0: 83cb 93bc 1019 07bd a51b 943c 5366 9fba
000001d0: 8455 29bd f6a0 a0bb 2b3b 093d bdab 923c
000001e0: 6cf4 263c f800 8bbc f6f1 0abd e0a3 74bc
000001f0: cc52 a6bc 84f0 46bc 15f8 09bd f6ba b1bc
00000200: 9a5b 8337 adca c23c 6998 3dbb 18a1 71bc
00000210: a1a1 a23c ec88 4e3c c0c7 123d f09b dfbc
00000220: 511e e1bc 3bf7 0f3b 8c2b 29bc 499e 173d
00000230: 1ec2 afbb b476 c4bb 3b7e 08bd 32fe 7bba
00000240: ea0e 07bd aed1 c8bc 47e9 153d 4976 d13c
00000250: 8ae7 3fbc af35 a8bc cdf2 fc3c d956 a3bc
00000260: a3f0 d23c e208 633c 4ca7 353c f816 23bc
00000270: caf1 063d cd70 05bd 5076 0fbd 934c b7ba
00000280: e533 c43c 6d4d 1f3d d1cf cfbb 2598 0d3d
00000290: c8cd 1b3c 67ce 0d3d cb83 cf3c 0ab9 0abb
000002a0: 6993 05bd a044 db3b 732a 5e3c efd7 f23c
000002b0: 931e 563b 949a 1ebc 2091 72bc d903 a3bb
000002c0: b64e c93b 1879 0dbd 6138 89bc e102 9bbc
000002d0: 4a45 5bbc aa99 ef3c cd1c bd3c 5e45 f6bc
000002e0: 078a 893c 155d 0dbd 3b70 e63b f038 cd3c
000002f0: 73a8 ab3c 9242 22bd b963 40bb d0b6 2fbc
00000300: 1019 a0bc 1b9e 43ba 5c40 133c 23a2 9a3c
00000310: 13ef 533b 9ec5 cf3c 1c72 24bc 3175 f5ba
00000320: bedc 28bd 6ee2 5cbc 2b02 88bc fdbc 28bd
00000330: 32e2 d6ba 0a0d c73c 2c4e 6e3c cbb1 99bc
00000340: cdbd d63c f831 aebc 2a00 75bb 80dc adbb
00000350: deef c7bc 0c05 2e3c 2d8e 243d 2666 42ba
00000360: 139d 803c 6550 8a3c 31be 14bd 2780 813c
00000370: 8b5b cc3c 257e a2bc d449 0fbc a545 09bc
00000380: 22a6 f03c 94d3 653c 1692 0cbc d9b8 07bd
00000390: a2a4 1ebc 019b ee3b a0d1 3b3a e603 d73c
000003a0: 0b70 ec3b e525 25bb 2025 a9bc a50b b53c
000003b0: 437a c8ba 37d4 1d3d 0414 10bc da02 e7bc
000003c0: 5312 e0bc 50b0 163c 0103 813c 2ddf b63c
000003d0: d8ba 683c 21c0 8ebc 0fa9 7dbc 5e70 90b9
000003e0: cd7d ee3c db4a 84bc e241 6fbb 52bc 073d
000003f0: 6d21 ab3c d44d 2c3c 4da9 d4bb b31c 1abc

user_embed.weight f4 [447, 32]
0.38834292 -0.05964899 -0.1016872 0.37848446 -0.32772008 0.020608613 -0.18894574 -0.32449844
-0.18072377 -0.010556432 0.36917573 -0.06383199 -0.103102304 0.23772863 0.056635093 0.4165229
-0.04740213 -0.34345523 0.10711199 -0.14868857 0.18818185 -0.027480781 -0.38231772 -0.17928053
-0.37432855 -0.18939191 -0.0428956 0.48354837 -0.6148998 0.024659695 0.03242006 0.0009410141
0.44005415 -0.19987005 0.43057513 -0.26546994 0.1338667 0.02066629 0.41612503 -0.08795433
-0.20515151 0.09011057 0.13268797 -0.21961801 0.13159455 0.24585466 -0.049026746 0.24902792
-0.14708804 -0.05829074 0.49218395 0.20730828 -0.113954775 -0.20693764 -0.34167635 0.017508723
-0.40117654 -0.15617557 -0.009797358 0.30178413 -0.30240524 0.23177442 0.27790937 0.43074286
0.21936908 0.28982604 -0.18140651 0.14682002 -0.35398299 -0.11239555 -0.46394134 -0.13772078
-0.4256861 0.29046628 0.17273042 -0.05055784 0.2919507 0.12257227 -0.08107941 -0.04540928
0.2773469 -0.33242607 0.3575467 0.11862682 -0.056346755 0.2775028 -0.41547826 -0.18766883
-0.23964748 -0.065727524 -0.052164853 0.15270875 -0.33129016 0.23379865 0.42472237 0.12819019
0.46326002 0.36853412 -0.14091256 0.77722704 0.013079995 -0.09571884 -0.18954767 0.20296003
-0.38443696 -0.07853554 -0.40887448 0.19474465 0.6184115 0.19149958 0.20489188 -0.2628603
0.7877834 0.2975806 0.07917856 0.019983597 0.11341388 -0.0030559145 -0.52544326 -0.32393748
0.060506765 -0.6453633 0.7003353 0.52887434 0.009124103 0.6258059 0.3671003 -0.20016257
0.5327976 -0.12278764 0.040720776 0.08384497 -0.0455878 -0.04197774 0.1674459 0.03233843
-0.3687222 -0.21378827 -0.16256878 0.20482472 -0.059400275 0.13119723 0.29501542 -0.14366004
0.14897548 0.058838293 0.0514689 0.23376904 0.04832778 0.28380853 -0.26363856 0.15252692
-0.15081017 -0.13392347 0.10258307 0.40120512 -0.17235093 0.0773703 0.025299855 -0.0747283
-0.27078903 0.8875925 1.0192719 -0.6102825 0.78627926 0.08983179 0.16518699 0.63726974
0.22310479 0.6091649 -0.51152605 -0.48200357 0.4661156 -0.4898596 -0.6346129 -0.29181963
-0.3479933 -0.091180384 0.71504366 0.4473618 0.7898075 -0.5693219 0.47878608 -0.40311277
-0.7631565 0.114784546 -0.581604 0.06636621 0.043607358 0.6839423 -0.2757501 0.77944297
-0.12202879 0.25688368 -0.17738013 0.008123129 0.0839301 -0.20776692 0.0712425 0.09299502
-0.1806448 -0.023558522 0.17207845 0.027116017 0.10623016 0.21037745 0.08814168 0.23951635
-0.055922557 0.14309865 0.17545296 0.33904573 0.012535521 -0.03992178 -0.11162972 0.30010447
-0.13151486 0.25886154 -0.054888293 0.13655642 -0.2103742 -0.117148854 0.21844123 0.49423173
0.42500332 0.2085498 -0.4382354 0.22794515 -0.18020684 -0.2933206 -0.10350082 0.35663286
-0.23057938 0.13208146 -0.33400348 0.40915218 0.30637717 0.28681132 0.62051946 0.062060837
0.26457596 0.5053718 0.008402579 0.09663003 0.38362244 -0.30924127 -0.21880028 0.4857145
-0.3411357 -0.18370079 -0.2735966 0.135322 -0.25612572 0.2608232 -0.15558149 0.17521396
00000000: e2d4 c63e 8052 74bd 6141 d0bd b7c8 c13e
00000010: edca a7be 65d3 a83c fe7a 41be a924 a6be
00000020: a70f 39be e3f4 2cbc 9a04 bd3e 59ba 82bd
00000030: 4d27 d3bd 226f 733e 33fa 673d 7d42 d53e
00000040: bc28 42bd 5dd9 afbe 885d db3d d141 18be
00000050: beb2 403e 601f e1bc 26bf c3be 5195 37be
00000060: fea7 bfbe f4ef 41be 4cb3 2fbd a793 f73e
00000070: 136a 1dbf 2103 ca3c e6ca 043d 63ae 763a
00000080: c74e e13e bcaa 4cbe 5874 dc3e adeb 87be
00000090: 5a14 093e 5a4c a93c 570e d53e 6621 b4bd
000000a0: 3d13 52be e48b b83d 5bdf 073e 8be3 60be
000000b0: b9c0 063e 53c1 7b3e 45d0 48bd 2d01 7f3e
000000c0: 3f9e 16be 45c2 6ebd 89ff fb3e 9f48 543e
000000d0: 1f61 e9bd 76e7 53be 34f0 aebe 746e 8f3c
000000e0: 0367 cdbe 7dec 1fbe 1985 20bc 7383 9a3e
000000f0: dcd4 9abe 4656 6d3e 234a 8e3e 548a dc3e
00000100: 4aa2 603e 1464 943e a1c2 39be fd57 163e
00000110: 423d b5be a32f e6bd b889 edbe ad06 0dbe
00000120: 87f3 d9be ffb7 943e 3ee0 303e bd15 4fbd
00000130: 907a 953e 2c07 fb3d f60c a6bd 15ff 39bd
00000140: 6a00 8e3e c033 aabe 5c10 b73e 9ef2 f23d
00000150: dbcb 66bd d914 8e3e 91b9 d4be 422c 40be
00000160: 2666 75be 279c 86bd d0aa 55bd af5f 1c3e
00000170: dd9e a9be ea68 6f3e 3675 d93e 4a44 033e
00000180: 6b30 ed3e 81b0 bc3e 624b 10be 5af8 463f
00000190: 7a4d 563c 3d08 c4bd c918 42be c1d4 4f3e
000001a0: ecd4 c4be 3ed7 a0bd ff57 d1be 246b 473e
000001b0: 3750 1e3f 7718 443e 2dcf 513e a095 86be
000001c0: 2cac 493f 7c5c 983e 5e28 a23d a4b4 a33c
000001d0: 8945 e83d bd45 48bb 7383 06bf 22db a5be
000001e0: f1d5 773d 8736 25bf 2d49 333f 4f64 073f
000001f0: 437d 153c d134 203f 92f4 bb3e 6bf7 4cbe
00000200: 6c65 083f 1678 fbbd d4ca 263d e9b6 ab3d
00000210: 46ba 3abd daf0 2bbd f076 2b3e 4d75 043d
00000220: 28c9 bcbe 50eb 5abe 6e78 26be 92bd 513e
00000230: b44d 73bd 9158 063e 430c 973e 9e1b 13be
00000240: 078d 183e 6c00 713d 0ed1 523d 2761 6f3e
00000250: 5af3 453d 5a4f 913e a2fb 86be 0430 1c3e
00000260: fb6d 1abe 3c23 09be 1317 d23d c26a cd3e
00000270: c37c 30be 5274 9e3d a441 cf3c 270b 99bd
00000280: dca4 8abe 4339 633f 8077 823f 793b 1cbf
00000290: 9949 493f bbf9 b73d c726 293e 1c24 233f
000002a0: 9575 643e 3bf2 1b3f 5ff3 02bf 2cc9 f6be
000002b0: b4a6 ee3e e1ce fabe fe75 22bf 6269 95be
000002c0: 2e2c b2be c8bc babd 1a0d 373f 9b0c e53e
000002d0: d330 4a3f 14bf 11bf 7323 f53e cc64 cebe
000002e0: 395e 43bf 2914 eb3d 00e4 14bf 02eb 873d
000002f0: a19d 323d d816 2f3f 1e2f 8dbe 9389 473f
00000300: 3bea f9bd 4286 833e 23a3 35be df16 053c
00000310: 8be3 ab3d dac0 54be 96e7 913d 2c74 be3d
00000320: f3fa 38be cdfd c0bc 5535 303e 6922 de3c
00000330: 338f d93d 306d 573e a083 b43d c643 753e
00000340: 0d0f 65bd 7488 123e f1a9 333e 6797 ad3e
00000350: c961 4d3c 0585 23bd 1f9e e4bd 4ba7 993e
00000360: d5ab 06be 8089 843e 8cd2 60bd 72d5 0b3e
00000370: 566c 57be bdeb efbd 0faf 5f3e f10b fd3e
00000380: 099a d93e 148e 553e 6460 e0be 746a 693e
00000390: 2488 38be 1e2e 96be 3df8 d3bd 9598 b63e
000003a0: 001d 6cbe 5d40 073e 8102 abbe 657c d13e
000003b0: 78dd 9c3e efd8 923e 5dda 1e3f 8133 7e3d
000003c0: 8076 873e 0c60 013f f9aa 093c f7e5 c53d
000003d0: 296a c43e df54 9ebe 2e0d 60be 92af f83e
000003e0: 57a9 aebe 0f1c 3cbe db14 8cbe da91 0a3e
000003f0: e922 83be 9e8a 853e c150 1fbe 4a6b 333e

item_embed.weight f4 [578, 32]
-0.2646993 0.32265946 0.5430275 -0.33027613 -0.19711353 -0.48890227 -0.4243672 -0.36109623
0.17247884 0.37657365 -0.03227373 -0.14865789 0.46133286 0.04839585 -0.37219566 -0.050118454
-0.28991342 0.6437428 -0.16205701 0.24227835 -0.23053907 -0.50816244 0.5051196 0.12153566
-0.24062401 -0.18423268 -0.61292607 -0.34189174 -0.12899879 0.27406064 0.23057465 0.13477114
-0.08776967 0.0035995506 0.5924417 -0.4208392 0.11908723 -0.660493 -0.6759389 -0.50839484
0.012006898 -0.015731672 0.19667989 -0.24367234 0.3899501 0.20693775 -0.6427239 0.60689276
-0.02051088 0.36598274 -0.36871168 0.21839926 0.5363867 -0.31852478 -0.17555903 0.20878907
-0.13528377 -0.30862716 0.21702954 -0.22350936 -0.4780083 0.1766551 0.2998068 -0.0076949233
0.005478977 0.38367808 0.44031006 -0.1199603 0.10605102 -0.38794476 -0.2603147 -0.07946693
-0.2239789 0.012026936 -0.20932096 -0.20807047 0.40183887 -0.055715244 -0.50215477 -0.071771
-0.5941508 0.12695295 -0.75947356 0.48617053 0.04480019 -0.83791214 0.09445883 0.34040385
-0.31392166 -0.20671839 -0.8446037 0.062003117 -0.33131918 -0.0065818527 0.37548208 -0.41853294
0.07095617 0.06574576 0.04018441 -0.04845786 -0.27898255 -0.08512132 0.5423995 0.2054545
-0.21556868 -0.1762788 -0.12245767 0.5987986 0.15352562 0.08293601 0.43430474 0.07100617
0.33749926 0.54153454 0.5823941 0.079121865 -0.20724979 -0.06757115 0.04937262 0.46486992
-0.19574428 0.23839425 0.14610343 0.38601458 0.040294815 -0.19098742 0.2979341 -0.15685475
-0.11439061 0.3233323 0.30850723 -0.14710802 -0.42259547 0.6963385 0.21807356 0.06338403
0.14084235 -0.4128258 -0.19001709 -0.18285206 -0.5201477 -0.521384 -0.3109018 -0.49361095
0.17780034 -0.0059565483 -0.63961494 -0.21280995 -0.28546196 -0.15451764 0.28752148 -0.3706594
0.6182183 0.1537486 0.21627389 -0.49988502 0.42333198 -0.15435529 -0.20150733 0.0008916922
-0.05575073 0.050459687 -0.28016177 -0.18019028 0.47564906 0.43404615 0.080868356 -0.024289122
0.26851797 0.08296585 -0.10458304 -0.10357145 -0.1009373 -0.03567197 -0.31047925 0.055163797
-0.16117005 -0.4305879 -0.06787309 0.3457739 -0.24190147 0.005950614 0.3548611 -0.32131174
0.027935717 0.5524459 0.10409988 0.25052318 0.1451931 -0.03370099 -0.10147851 0.29191583
0.057072513 0.70801514 0.42517495 -0.60824674 0.044091817 -0.2849864 -0.50258416 -0.46215618
-0.392888 0.8901179 -0.55554324 -0.80332994 0.416645 0.6143077 0.10886728 -0.1458031
0.36055693 0.48934418 0.1206039 0.51758075 0.11636745 -0.78062314 -0.5410913 0.57700545
-0.535638 -0.107901946 -0.43364754 -0.1401113 -0.49219382 0.4345051 0.4065412 0.45358872
-0.09893114 0.33806083 0.8487359 -0.51977557 -0.05027222 -0.50868666 -0.33995295 -0.11519442
-0.6415816 0.3886804 0.026845744 -0.7539044 0.7003102 0.23440781 -0.12599884 0.097089194
-0.44989055 0.5485501 0.2932441 0.64411265 0.4069362 -0.4029911 0.3128227 0.08300769
-0.4347171 -0.26914933 -0.32315215 0.05360585 -0.6824068 0.19265752 0.4442308 0.32063466
00000000: ab86 87be 9f33 a53e da03 0b3f f419 a9be
00000010: 21d8 49be 6651 fabe a846 d9be 9be1 b8be
00000020: 4b9e 303e 43ce c03e 7531 04bd c639 18be
00000030: d233 ec3e ba3a 463d 6e90 bebe 0249 4dbd
00000040: 886f 94be 54cc 243f 46f2 25be d117 783e
00000050: 6f12 6cbe ef16 02bf 854f 013f b0e7 f83d
00000060: 2466 76be 7ea7 3cbe b9e8 1cbf 6f0c afbe
00000070: 4218 04be ad51 8c3e c31b 6c3e 7201 0a3e
00000080: 96c0 b3bd 70e6 6b3b 42aa 173f 3c78 d7be
00000090: 01e4 f33d 1216 29bf 550a 2dbf 2a26 02bf
000000a0: 95b8 443c b5df 80bc 7466 493e 3e85 79be
000000b0: 8aa7 c73e 7de7 533e 8e89 24bf 535d 1b3f
000000c0: 6f06 a8bc 1762 bb3e c7c7 bcbe 0ea4 5f3e
000000d0: a450 093f ae15 a3be bfc5 33be cdcc 553e
000000e0: d487 0abe 6104 9ebe fe3c 5e3e a3df 64be
000000f0: 81bd f4be 13e5 343e 4780 993e b225 fcbb
00000100: fe88 b33b 7471 c43e 5270 e13e bfad f5bd
00000110: 4731 d93d b2a0 c6be f847 85be 8fbf a2bd
00000120: ba5a 65be a00c 453c 3c58 56be 6d10 55be
00000130: d3bd cd3e ab35 64bd 378d 00bf adfc 92bd
00000140: 441a 18bf f4ff 013e dc6c 42bf 58eb f83e
00000150: 6780 373d 6981 56bf a273 c13d 6a49 ae3e
00000160: 57ba a0be fcad 53be f337 58bf fbf6 7d3d
00000170: aba2 a9be 95ac d7bb 303f c03e f349 d6be
00000180: 7851 913d b7a5 863d 6898 243d c07b 46bd
00000190: cdd6 8ebe 1654 aebd b2da 0a3f aa62 523e
000001a0: 09be 5cbe 6e82 34be 16cb fabd dd4a 193f
000001b0: d235 1d3e 5bda a93d 315d de3e af6b 913d
000001c0: b4cc ac3e 02a2 0a3f c817 153f a50a a23d
000001d0: 4a39 54be be62 8abd f23a 4a3d 6e03 ee3e
000001e0: 3071 48be 9f1d 743e 239c 153e b4a3 c53e
000001f0: 2d0c 253d 3592 43be d18a 983e 889e 20be
00000200: a045 eabd d08b a53e a9f4 9d3e 7ca3 16be
00000210: 6f5e d8be 3d43 323f ad4e 5f3e 7ccf 813d
00000220: fa38 103e e75d d3be d793 42be 923d 3bbe
00000230: 6628 05bf 6c79 05bf 852e 9fbe 93ba fcbe
00000240: 4b11 363e 262f c3bb cebd 23bf daea 59be
00000250: 1228 92be df39 1ebe 0436 933e 12c7 bdbe
00000260: 8e43 1e3f 4670 1d3e e776 5d3e eef0 ffbe
00000270: f8be d83e 500f 1ebe f057 4ebe 73c0 693a
00000280: e15a 64bd d1ae 4e3d 5d71 8fbe cd83 38be
00000290: 4688 f33e 4c3b de3e 4f9e a53d fbf9 c6bc
000002a0: 307b 893e 00ea a93d a22f d6bd 451d d4bd
000002b0: 37b8 cebd c61c 12bd 23f7 9ebe 6ff3 613d
000002c0: c309 25be 0476 dcbe 0c01 8bbd 4709 b13e
000002d0: 05b5 77be 5efd c23b 5bb0 b53e f982 a4be
000002e0: 72d9 e43c 186d 0d3f 5132 d53d 9344 803e
000002f0: 80ad 143e 0d0a 0abd f7d3 cfbd fe75 953e
00000300: dec4 693d 7b40 353f 88b0 d93e 0fb6 1bbf
00000310: 9f99 343d bde9 91be 5ba9 00bf bc9f ecbe
00000320: 9e28 c9be c4de 633f 1538 0ebf 08a7 4dbf
00000330: 7e52 d53e 4543 1d3f cff5 de3d 684d 15be
00000340: eb9a b83e 528b fa3e 2dff f63d 2c80 043f
00000350: 0f52 ee3d ebd6 47bf f684 0abf a1b6 133f
00000360: 921f 09bf b2fb dcbd 0d07 debe 5679 0fbe
00000370: d400 fcbe 7477 de3e 2b26 d03e c83c e83e
00000380: 699c cabd 4f16 ad3e c246 593f 0310 05bf
00000390: 3eea 4dbd 4a39 02bf 500e aebe 0deb ebbd
000003a0: b13e 24bf 1e01 c73e 9beb db3c e1ff 40bf
000003b0: 8747 333f 9a08 703e d705 01be b3d6 c63d
000003c0: 0e58 e6be c86d 0c3f 1724 963e 91e4 243f
000003d0: f159 d03e d954 cebe 4c2a a03e f0ff a93d
000003e0: 3d93 debe f1cd 89be 3374 a5be cf91 5b3d
000003f0: 36b2 2ebf 0348 453e 3872 e33e 3a2a a43e

entity_embed.weight f4 [886, 32]
-0.07097002 -0.07630984 0.050882526 0.033956155 -0.014341333 -0.03667342 0.0740161 0.070011534
0.029955562 -0.060857784 -0.031519864 -0.08416388 -0.048200194 -0.022786666 -0.016041318 0.04461057
-0.06611323 0.046705987 0.024467362 0.035728734 0.073660776 0.011537464 -0.004365299 0.06112435
-0.024319464 -0.012084035 0.009706325 0.05248678 -0.029484758 0.056831624 -0.07322874 -0.04121564
0.07827258 -0.07633702 0.052329365 0.015199258 0.030858684 -0.03079516 -0.01852127 -0.045551006
0.07401676 -0.048913643 -0.005786495 -0.014721832 0.087662034 -0.00079330395 0.06183811 0.06633997
-0.009181642 0.07384804 0.035467498 -0.05105376 -0.07883013 -0.024970206 0.070623964 0.0451414
0.055263042 -0.07425463 -0.06654782 0.032022897 0.063346185 0.05646741 0.07329754 0.008136067
0.051104575 0.038152993 0.059916973 -0.047203247 0.061596096 -0.036120817 0.0070191314 -0.0861247
0.025550745 -0.026549038 -0.03302302 0.031868037 0.064603426 -0.08848259 0.037060335 -0.070896685
-0.036340836 0.06648617 -0.02618058 0.030539619 0.07877077 -0.0711418 0.006767271 0.0634031
-0.0093017025 0.04436006 -0.08273424 0.03828235 0.03542727 0.01900291 0.030206595 -0.06759531
-0.026548754 -0.0566424 0.04421724 -0.07807109 0.07396261 0.06873727 0.0039033815 0.04949633
-0.030357368 -0.0032101409 0.05976486 -0.072493315 0.05533892 0.0014533467 -0.018025862 -0.05666694
0.023210676 0.04244991 -0.031239208 0.044804852 -0.001832122 -0.03563848 0.04736759 -0.06055754
0.055701304 0.015183242 0.074814126 0.03307904 0.0045676734 -0.036735 0.0013287911 0.0638504
-0.01601322 -0.007474933 0.039911218 0.0295348 -0.048485707 -0.01473262 -0.007761752 -0.036954384
0.011001353 -0.07470974 -0.073143385 0.01970643 -0.0034570002 -0.024322547 -0.009000776 -0.008907127
0.06859554 0.0446048 -0.022071999 0.08323339 -0.0008613241 -0.055693083 0.028368643 -0.026197042
-0.0053923777 -0.00564666 0.047900036 -0.004368574 -0.0736208 0.01696675 -0.05691814 0.03927646
-0.068953775 0.021204323 0.010200695 -0.008080442 0.034145597 0.021352306 0.07581965 0.011060295
0.02873449 0.065383516 0.0010571466 -0.07628053 -0.064818084 0.033212703 -0.0011095883 0.05993276
-0.03469888 -0.025971811 0.01799491 0.04287982 0.028952803 -0.001586307 0.0144207515 0.030043492
-0.01731633 0.022184713 0.0038244848 -0.04282956 0.047014195 -0.0076564015 -0.06412432 -0.052375082
-0.046304096 -0.01477418 0.02729154 -0.08145636 -0.060031194 -0.06926861 0.017485132 -0.080598965
0.04160431 0.07163308 0.0034207224 0.015315927 0.06841202 0.07437542 0.007995036 -0.025246
0.04294784 -0.035651702 0.024795312 -0.05585472 -0.045857795 -0.01604968 -0.03290831 -0.0042774077
-0.024905268 -0.038078338 -0.03709718 0.016517214 -0.0068765935 -0.01842848 0.0012707316 0.010775439
-0.059620675 -0.017313367 -0.014738862 -0.085654326 -0.027715316 -0.005233765 0.011208436 -0.059949383
0.04310727 -0.0034170684 0.06282604 -0.008090229 0.035168868 -0.019765763 -0.07104123 -0.06925553
-0.07385656 0.038139835 0.06894553 0.044194903 0.039589945 -0.006529613 0.07781252 0.05437705
0.048168644 0.0363974 -0.049793873 0.008461853 0.010530795 0.0005432024 0.003008391 0.009507104
00000000: bb58 91bd 5548 9cbd 326a 503d 9c15 0b3d
00000010: e9f7 6abc de36 16bd c195 973d 3562 8f3d
00000020: 5e65 f53c 0346 79bd f91a 01bd 1d5e acbd
00000030: 916d 45bd 1aab babc 1569 83bc 93b9 363d
00000040: 6066 87bd c74e 3f3d c76f c83c 4b58 123d
00000050: 76db 963d a207 3d3c c80a 8fbb 875d 7a3d
00000060: 9d39 c7bc 1efc 45bc 4707 1f3c 61fc 563d
00000070: 058a f1bc 47c8 683d f3f8 95bd bbd1 28bd
00000080: 604d a03d 9556 9cbd 5157 563d 4f06 793c
00000090: 5acb fc3c 2246 fcbc ebb9 97bc b193 3abd
000000a0: 1996 973d ac59 48bd a39c bdbb d733 71bc
000000b0: 2788 b33d baf5 4fba f549 7d3d 40dd 873d
000000c0: 996e 16bc a43d 973d 5e46 113d bf1d 51bd
000000d0: b171 a1bd 518e ccbc 4ca3 903d 30e6 383d
000000e0: 805b 623d d012 98bd 394a 88bd 712a 033d
000000f0: a5bb 813d 5f4a 673d 051d 963d 234d 053c
00000100: 0853 513d 5046 1c3d 806b 753d 3158 41bd
00000110: 304c 7c3d 6cf3 13bd be00 e63b 2662 b0bd
00000120: cc4f d13c 5e7d d9bc 2543 07bd 0f88 023d
00000130: cd4e 843d 5c36 b5bd 94cc 173d 4832 91bd
00000140: 21da 14bd e729 883d a878 d6bc 392e fa3c
00000150: 9252 a13d cbb2 91bd fcbf dd3b 7cd9 813d
00000160: 2b66 18bc e5b2 353d 9270 a9bd f4cd 1c3d
00000170: 2f1c 113d feab 9b3c d273 f73c 696f 8abd
00000180: c67c d9bc dc01 68bd 231d 353d bce3 9fbd
00000190: b579 973d 20c6 8c3d e0cf 7f3b aabc 4a3d
000001a0: 04b0 f8bc 3a61 52bb ffcb 743d 6077 94bd
000001b0: 10ab 623d 397e be3a f9aa 93bc 981b 68bd
000001c0: 5124 be3c f5df 2d3d 5ee9 ffbc 4b85 373d
000001d0: d023 f0ba a8f9 11bd 8504 423d 2f0b 78bd
000001e0: 0d27 643d 22c3 783c 2638 993d e37d 073d
000001f0: 6cac 953b 7077 16bd d52a ae3a 00c4 823d
00000200: 282e 83bc 48f0 f4bb f279 233d f7f2 f13c
00000210: f398 46bd 1661 71bc 4b56 febb 7b5d 17bd
00000220: 053f 343c 6c01 99bd 33cc 95bd 616f a13c
00000230: d78e 62bb 1440 c7bc fe77 13bc 33ef 11bc
00000240: d27b 8c3d 86b3 363d 56d0 b4bc 4476 aa3d
00000250: 7bca 61ba 6e1e 64bd 5b65 e83c 2e9b d6bc
00000260: 8bb2 b0bb 9e07 b9bb d432 443d 4126 8fbb
00000270: 81c6 96bd dbfd 8a3c ff22 69bd 5ae0 203d
00000280: a337 8dbd b0b4 ad3c d120 273c d563 04bc
00000290: 41dc 0b3d 08eb ae3c 5547 9b3d 3d36 353c
000002a0: 9864 eb3c cbe7 853d f48f 8a3a f738 9cbd
000002b0: 58bf 84bd 0b0a 083d 9b6f 91ba 0e7c 753d
000002c0: 6a20 0ebd d6c2 d4bc 106a 933c c0a2 2f3d
000002d0: 6e2e ed3c a1eb cfba 0445 6c3c c51d f63c
000002e0: fada 8dbc b7bc b53c 35a4 7a3b 0c6e 2fbd
000002f0: f591 403d 8de2 fabb 9d53 83bd 4187 56bd
00000300: 5da9 3dbd 670f 72bc 8292 df3c 98d2 a6bd
00000310: 45e3 75bd b3dc 8dbd fb3c 8f3c 1211 a5bd
00000320: 4869 2a3d 5db4 923d 332e 603b a7ef 7a3c
00000330: 9a1b 8c3d 2452 983d 9dfd 023c b3d0 cebc
00000340: 13ea 2f3d 8507 12bd 8a1f cb3c ebc7 64bd
00000350: 62d5 3bbd 9e7a 83bc ddca 06bd 7f29 8cbb
00000360: 2206 ccbc 08f8 1bbd 36f3 17bd 1c4f 873c
00000370: 0c55 e1bb 53f7 96bc ad8e a63a 788b 303c
00000380: cf34 74bd c3d4 8dbc 457b 71bc 896b afbd
00000390: 3b0b e3bc 0180 abbb 97a3 373c 7c8d 75bd
000003a0: 4091 303d e5f0 5fbb f0aa 803d e18c 04bc
000003b0: 3b0d 103d cfeb a1bc 107e 91bd d8d5 8dbd
000003c0: 1c42 97bd 8438 1c3d 5033 8d3d b705 353d
000003d0: 1129 223d 5df6 d5bb 2c5c 9f3d 78ba 5e3d
000003e0: 7c4c 453d 7115 153d a9f4 4bbd 95a3 0a3c
000003f0: 5b89 2c3c b265 0e3a 6d28 453b afc3 1b3c

relation_embed.weight f4 [114, 32]
-0.010685883 0.025804454 -0.024133945 -0.1530806 0.08885413 0.10602728 0.06760395 -0.17434312
-0.108349696 -0.038813405 -0.0098342085 -0.047862433 0.07581834 0.18357323 0.09428985 -0.09524677
-0.10600461 -0.05727423 0.03896954 -0.09326068 -0.06218157 0.014353114 0.021405717 -0.09933437
0.14093406 0.05821733 0.16688363 -0.20287946 -0.012789271 -0.03154009 0.15281089 0.16283642
-0.037660234 0.16748364 0.05154199 -0.040656053 -0.09980889 -0.20844184 0.07563243 -0.15735622
0.19325303 -0.0239894 -0.17044438 0.2045738 -0.12502804 -0.09094975 -0.06936761 -0.04077769
-0.09258989 -0.1222415 -0.0017507032 -0.2056674 -0.15419063 0.0737853 -0.014602336 0.17820318
0.1026796 -0.018911755 0.120056085 -0.045946054 0.009151138 0.04886221 -0.025587102 -0.14517555
0.13884495 -0.054286428 -0.006313432 0.08194534 0.04390564 -0.15154694 0.009332397 -0.17477886
0.003102461 -0.18445675 0.097366326 -0.023536036 -0.0033749437 -0.19281347 0.097429045 -0.1706978
-0.12884632 0.12523738 0.161997 0.1906627 0.09611433 -0.1273446 0.09043766 0.11177314
0.17391334 -0.106439315 0.094552465 0.008343616 0.10076014 0.08812105 0.10543417 -0.12545313
0.06666563 -0.17096134 -0.10633127 -0.021151638 -0.09436753 -0.06453415 0.010227241 0.13316838
-0.11178555 0.07134848 -0.10286356 -0.06252391 0.0075863963 -0.19635181 -0.009813048 -0.15050541
0.11642716 -0.07223173 0.019465914 0.080527864 -0.13087498 -0.20689802 -0.059501193 -0.109888606
0.15759589 -0.14902216 -0.073817365 0.18825014 -0.057845972 -0.17840864 0.17434597 0.13985707
-0.10135608 0.060490645 -0.14348306 -0.08079144 -0.039965115 0.12436741 -0.034058467 -0.10912795
0.13809489 0.090343766 0.011899509 -0.109843075 0.008738347 -0.097772874 0.11811914 -0.027618298
0.040026415 0.11405372 0.021882037 0.0965173 0.06044913 0.13472725 -0.025753161 -0.19791569
-0.09408353 -0.060608584 0.034172162 0.037038855 -0.083236955 -0.18861653 -0.10974803 -0.09119654
-0.1617424 -0.071389966 -0.123761974 0.09199362 0.06133259 0.0865911 0.070984475 0.05146461
-0.057249136 -0.058733024 -0.05926877 -0.13287595 -0.016654229 -0.13691945 -0.19460975 0.11257032
-0.056588 0.031683635 -0.0650075 -0.10378525 0.09160154 -0.06743914 0.17795037 0.07617212
-0.004584874 -0.08594159 -0.00017063736 -0.13809237 0.0146740405 0.16227514 -0.05083575 -0.104984
0.11363038 0.1823674 0.08802926 0.17182715 -0.02078883 0.17022248 -0.015673328 -0.046126224
0.026475245 -0.03140332 -0.0042600743 -0.022259632 -0.11336094 -0.11031383 0.07148964 -0.09090311
0.029027207 -0.1390254 -0.03462422 0.13641323 0.065708645 0.025312385 0.18677948 0.10290442
-0.035742767 0.043925785 0.025467793 -0.06746378 -0.09080299 0.030042563 -0.17658305 -0.14020862
0.018326335 -0.16906644 -0.14723268 -0.068393774 0.07217077 0.085900225 -0.16702811 0.052648656
-0.09298383 -0.037955068 0.15275441 0.099535085 0.09130099 -0.14043169 -0.10401458 -0.16399665
0.13598265 0.10318228 0.17812355 -0.11787463 0.11751496 -0.19028229 0.07589244 -0.1379434
0.1172565 -0.19269033 -0.12242594 -0.101256505 -0.04204131 -0.17259084 -0.17478734 -0.08070456
00000000: d813 2fbc dd63 d33c 8db4 c5bc 29c1 1cbe
00000010: 27f9 b53d d524 d93d f173 8a3d 0187 32be
00000020: 72e6 ddbd cefa 1ebd a91f 21bc 660b 44bd
00000030: a546 9b3d 9ffa 3b3e 091b c13d bd10 c3bd
00000040: f218 d9bd 6298 6abd 869e 1f3d 75ff bebd
00000050: 1ab2 7ebd 5329 6b3c 0b5b af3c d16f cbbd
00000060: 0551 103e 4c75 6e3d 8be3 2a3e a2bf 4fbe
00000070: 178a 51bc 2e30 01bd 757a 1c3e 97be 263e
00000080: 9e41 1abd d580 2b3e b21d 533d f686 26bd
00000090: 9a68 ccbd c771 55be 2de5 9a3d fd21 21be
000000a0: 1fe4 453e 6b85 c4bc f988 2ebe cb7b 513e
000000b0: 5a07 00be dd43 babd 9b10 8ebd 8206 27bd
000000c0: c59f bdbd c059 fabd da77 e5ba 7a9a 52be
000000d0: 26e4 1dbe bf1c 973d a33e 6fbc e57a 363e
000000e0: af49 d23d d3ec 9abc f7df f53d ee31 3cbd
000000f0: a8ee 153c be23 483d 0b9c d1bc e6a8 14be
00000100: 5f2d 0e3e 725b 5ebd e8e0 cebb f5d2 a73d
00000110: 66d6 333d 1f2f 1bbe e9e6 183c 3bf9 32be
00000120: a952 4b3b 3be2 3cbe ff67 c73d a5ce c0bc
00000130: 292e 5dbb e570 45be e188 c73d 67cb 2ebe
00000140: 4af0 03be 3a3e 003e 8be2 253e 153d 433e
00000150: 97d7 c43d 9f66 02be 6137 b93d 51e9 e43d
00000160: 5716 323e dbfc d9bd b9a4 c13d a9b3 083c
00000170: 555b ce3d cf78 b43d dfed d73d c976 00be
00000180: fd87 883d 7d10 2fbe 35c4 d9bd 3346 adbc
00000190: c343 c1bd 7b2a 84bd 2890 273c 4b5d 083e
000001a0: d3ef e4bd 271f 923d 21aa d2bd 890c 80bd
000001b0: 4e97 f83b 7310 49be e8c6 20bc 171e 1abe
000001c0: 5d71 ee3d 3bee 93bd fb76 9f3c cbeb a43d
000001d0: 1704 06be 13dd 53be 86b7 73bd 470d e1bd
000001e0: d160 213e 4499 18be 8f2d 97bd a5c4 403e
000001f0: e6ef 6cbd c1b0 36be c087 323e b136 0f3e
00000200: c793 cfbd 0ac5 773d 39ed 12be fc75 a5bd
00000210: 76b2 23bd 57b4 fe3d e480 0bbd 7a7e dfbd
00000220: bf68 0d3e 2706 b93d 28f6 423c 68f5 e0bd
00000230: 492b 0f3c 253d c8bd 73e8 f13d c53f e2bc
00000240: bdf2 233d ff94 e93d f541 b33c ddaa c53d
00000250: 8299 773d f1f5 093e 4bf8 d2bc 69aa 4abe
00000260: deae c0bd b540 78bd 1cf8 0b3d 0eb6 173d
00000270: 2378 aabd b124 41be 93c3 e0bd 40c5 babd
00000280: cd9f 25be e734 92bd eb76 fdbd 2767 bc3d
00000290: e237 7b3d ad56 b13d 4f60 913d 8ecc 523d
000002a0: 127e 6abd 0a92 70bd cfc3 72bd a210 08be
000002b0: 736e 88bc 9d34 0cbe c747 47be 458b e63d
000002c0: d2c8 67bd b3c6 013d a722 85bd 5c8d d4bd
000002d0: 9799 bb3d 881d 8abd 9f38 363e 2100 9c3d
000002e0: b63c 96bb 2502 b0bd 1eed 32b9 1668 0dbe
000002f0: 636b 703c 742b 263e 2639 50bd da01 d7bd
00000300: 0bb7 e83d 85be 3a3e af48 b43d 75f3 2f3e
00000310: 564d aabc cd4e 2e3e 5a65 80bc daee 3cbd
00000320: 9de2 d83c c5a0 00bd 1898 8bbb d559 b6bc
00000330: c829 e8bd 38ec e1bd 2969 923d 692b babd
00000340: 77ca ed3c ad5c 0ebe 20d2 0dbd e9af 0b3e
00000350: 4192 863d eb5b cf3c 1f43 3f3e 8dbf d23d
00000360: 0267 12bd 86eb 333d d5a1 d03c 732a 8abd
00000370: ebf6 b9bd d21b f63c 30d2 34be d992 0fbe
00000380: 1c21 963c c11f 2dbe 2ac4 16be 0912 8cbd
00000390: 45ce 933d 75ec af3d 6b09 2bbe 1ea6 573d
000003a0: 4e6e bebd c676 1bbd a76b 1c3e 0dd9 cb3d
000003b0: 03fc ba3d 53cd 0fbe 9905 d5bd bdee 27be
000003c0: 093f 0b3e 3b51 d33d 0566 363e 4168 f1bd
000003d0: afab f03d 5cd9 42be 7f6d 9b3d 0941 0dbe
000003e0: 2d24 f03d 9d50 45be 74ba fabd 925f cfbd
000003f0: 8233 2cbd a7bb 30be 74fb 32be 6f48 a5bd
