Knowledge_Graph_Recommendation/recommendation/stage2/trained_model/Douban/Embedding_based/dim32_lr0.001_l20.0001_TransR/add/model0_epoch30.pth (torch, 728343 bytes, 5 tensors)

trans_M f4 [114, 32, 32]
-0.0010633243 0.00205913 0.009600003 0.021193264 0.005529806 0.03378066 0.0086093135 0.029558234
-0.011431092 -0.002814704 0.021903167 -0.016566895 -0.009525218 0.0037426916 -0.03200259 0.011789452
-0.02171928 0.02162573 -0.0065588844 0.017680764 -0.0026316077 0.0136983935 0.003152533 0.003066512
0.011248466 -0.0059774513 0.017810205 0.03434467 0.025682928 0.027945973 -0.032499414 0.019252589
0.0004594411 -0.0217008 0.027074972 0.010571007 -0.023004048 -0.032572135 -0.021374637 -0.012163322
0.0044074506 0.0008355073 0.01827642 -0.039864164 -0.02167365 -0.03573767 0.026047917 0.035187334
0.026377352 -0.027171945 0.008222081 -0.027322175 0.039074745 0.02666488 0.040632907 -0.035803948
0.006830544 -0.027548928 -0.018254107 0.015082631 -0.023027811 0.024061585 -0.005595841 0.013192932
0.013995562 -0.00011099855 0.02454348 -0.04059777 0.019013219 -0.008089325 0.024770955 0.027414685
0.017633863 5.1872445e-05 0.0024254115 0.0070722625 -0.00374906 0.026146749 -0.020128282 -0.0025943052
-0.016439037 0.00242464 -0.031900957 0.012413971 -0.008720433 0.020132745 -0.0017496591 0.027756615
0.014114843 -0.010333754 0.02323475 0.024582671 -0.029419597 -0.020316461 0.016422791 0.01924332
0.008641379 0.0067978324 0.0344725 -0.007527923 -0.038560588 0.039668065 -0.040541142 0.028450066
0.020760575 -0.009191677 -0.015299723 0.005886562 -0.010724515 0.024886364 0.026516747 0.014356962
-0.018041378 -0.032982886 0.018079588 -0.0012161232 -0.04134132 -0.0049020005 0.033503693 0.017904157
0.010190111 -0.016968235 -0.03392216 -0.014931649 -0.020303153 -0.012142304 -0.033683855 -0.021695595
1.5659072e-05 0.023778284 -0.0028929955 -0.01474788 0.019852461 0.012605887 0.035835028 -0.027296036
-0.027480276 0.002196743 -0.010325324 0.037016187 -0.0053637167 -0.005995596 -0.033323508 -0.0009612768
-0.032973208 -0.024514046 0.036599424 0.025569098 -0.011712918 -0.02053341 0.030877495 -0.019938873
0.02574951 0.013857098 0.01108725 -0.009954207 0.03294543 -0.03257828 -0.03502494 -0.0013984613
0.023950526 0.0388922 -0.0063419123 0.034568924 0.009509511 0.03462067 0.025331398 -0.002116742
-0.032611284 0.0066915303 0.013559925 0.02964398 0.0032672032 -0.009680409 -0.014805108 -0.004974824
0.0061434163 -0.034539312 -0.016750516 -0.018922271 -0.013383219 0.029248077 0.023085022 -0.030062374
0.01678945 -0.034512598 0.007032422 0.025051564 0.020954346 -0.039614268 -0.0029356314 -0.010724738
-0.0195432 -0.0007462219 0.008987512 0.018876141 0.0032338544 0.025362786 -0.010036971 -0.0018726942
-0.04122614 -0.013481719 -0.016602596 -0.04119586 -0.0016394316 0.02429821 0.014545005 -0.018761536
0.026213551 -0.021264061 -0.003738413 -0.0053058267 -0.02440637 0.01062132 0.040174652 -0.0007415734
0.015699899 0.016884038 -0.036314193 0.015808178 0.024945995 -0.019835541 -0.008745629 -0.008378421
0.029376093 0.014027495 -0.0085797515 -0.03313527 -0.009682806 0.0072816615 0.00071647204 0.026246976
0.007215505 -0.002519959 -0.020647585 0.02210028 -0.0015295226 0.038532462 -0.008793835 -0.028199602
-0.027352488 0.00919731 0.015748503 0.022323215 0.014204703 -0.017425599 -0.015482201 -0.0002754954
0.02911272 -0.016148975 -0.0036507775 0.03313858 0.020889962 0.010516603 -0.006489909 -0.0094062565
00000000: 3e5f 8bba 78f2 063b 5549 1d3c 7f9d ad3c
00000010: 6033 b53b 975d 0a3d 140e 0d3c 1c24 f23c
00000020: 7a49 3bbc e676 38bb 456e b33c 4cb7 87bc
00000030: a90f 1cbc f247 753b 2615 03bd 8c28 413c
00000040: a2ec b1bc 7128 b13c e9eb d6bb 40d7 903c
00000050: 0d77 2cbb 3a6f 603c ba9a 4e3b 89f7 483b
00000060: 7c4b 383c 7fde c3bb b5e6 913c ffac 0c3d
00000070: 0165 d23c f4ee e43c 1b1e 05bd 9bb7 9d3c
00000080: 24e1 f039 e0c5 b1bc 55cc dd3c 0432 2d3c
00000090: fc72 bcbc 5c6a 05bd dd19 afbc ac48 47bc
000000a0: 606c 903b f205 5b3a 6eb8 953c 9b48 23bd
000000b0: f08c b1bc aa61 12bd 7162 d53c 9820 103d
000000c0: 5115 d83c b397 debc e8b5 063c c1d2 dfbc
000000d0: d70c 203d 4e70 da3c b16e 263d 29a7 12bd
000000e0: c2d2 df3b 4aae e1bc a389 95bc 241d 773c
000000f0: d2a4 bcbc cd1c c53c 515d b7bb 2b27 583c
00000100: a44d 653c e5c7 e8b8 680f c93c d949 26bd
00000110: 9cc1 9b3c 1789 04bc 75ec ca3c c394 e03c
00000120: e474 903c 9d91 5938 a7f3 1e3b 70be e73b
00000130: cab2 75bb b531 d63c 11e4 a4bc 3805 2abb
00000140: 29ab 86bc b6e6 1e3b 94aa 02bd f863 4b3c
00000150: 26e0 0ebc 6ded a43c d154 e5ba d761 e33c
00000160: f141 673c e84e 29bc cd56 be3c 9961 c93c
00000170: 5e01 f1bc b56e a6bc 1789 863c 2ba4 9d3c
00000180: 9294 0d3c 5ac0 de3b 0933 0d3d ccac f6bb
00000190: b5f1 1dbd fb7a 223d 780e 26bd 1d10 e93c
000001a0: 1512 aa3c b098 16bc b0ab 7abc 10e4 c03b
000001b0: e0b5 2fbc 7dde cb3c a639 d93c 7739 6b3c
000001c0: 83cb 93bc 1019 07bd a51b 943c 5366 9fba
000001d0: 8455 29bd f6a0 a0bb 2b3b 093d bdab 923c
000001e0: 6cf4 263c f800 8bbc f6f1 0abd e0a3 74bc
000001f0: cc52 a6bc 84f0 46bc 15f8 09bd f6ba b1bc
00000200: 9a5b 8337 adca c23c 6998 3dbb 18a1 71bc
00000210: a1a1 a23c ec88 4e3c c0c7 123d f09b dfbc
00000220: 511e e1bc 3bf7 0f3b 8c2b 29bc 499e 173d
00000230: 1ec2 afbb b476 c4bb 3b7e 08bd 32fe 7bba
00000240: ea0e 07bd aed1 c8bc 47e9 153d 4976 d13c
00000250: 8ae7 3fbc af35 a8bc cdf2 fc3c d956 a3bc
00000260: a3f0 d23c e208 633c 4ca7 353c f816 23bc
00000270: caf1 063d cd70 05bd 5076 0fbd 934c b7ba
00000280: e533 c43c 6d4d 1f3d d1cf cfbb 2598 0d3d
00000290: c8cd 1b3c 67ce 0d3d cb83 cf3c 0ab9 0abb
000002a0: 6993 05bd a044 db3b 732a 5e3c efd7 f23c
000002b0: 931e 563b 949a 1ebc 2091 72bc d903 a3bb
000002c0: b64e c93b 1879 0dbd 6138 89bc e102 9bbc
000002d0: 4a45 5bbc aa99 ef3c cd1c bd3c 5e45 f6bc
000002e0: 078a 893c 155d 0dbd 3b70 e63b f038 cd3c
000002f0: 73a8 ab3c 9242 22bd b963 40bb d0b6 2fbc
00000300: 1019 a0bc 1b9e 43ba 5c40 133c 23a2 9a3c
00000310: 13ef 533b 9ec5 cf3c 1c72 24bc 3175 f5ba
00000320: bedc 28bd 6ee2 5cbc 2b02 88bc fdbc 28bd
00000330: 32e2 d6ba 0a0d c73c 2c4e 6e3c cbb1 99bc
00000340: cdbd d63c f831 aebc 2a00 75bb 80dc adbb
00000350: deef c7bc 0c05 2e3c 2d8e 243d 2666 42ba
00000360: 139d 803c 6550 8a3c 31be 14bd 2780 813c
00000370: 8b5b cc3c 257e a2bc d449 0fbc a545 09bc
00000380: 22a6 f03c 94d3 653c 1692 0cbc d9b8 07bd
00000390: a2a4 1ebc 019b ee3b a0d1 3b3a e603 d73c
000003a0: 0b70 ec3b e525 25bb 2025 a9bc a50b b53c
000003b0: 437a c8ba 37d4 1d3d 0414 10bc da02 e7bc
000003c0: 5312 e0bc 50b0 163c 0103 813c 2ddf b63c
000003d0: d8ba 683c 21c0 8ebc 0fa9 7dbc 5e70 90b9
000003e0: cd7d ee3c db4a 84bc e241 6fbb 52bc 073d
000003f0: 6d21 ab3c d44d 2c3c 4da9 d4bb b31c 1abc

user_embed.weight f4 [447, 32]
0.35866106 -0.0036791991 -0.0724355 0.34423664 -0.27093002 0.005780048 -0.17997852 -0.25142032
-0.14552514 -0.018531024 0.26376 -0.0029201352 -0.05063371 0.20871371 0.08122773 0.3115218
0.026141183 -0.27079448 0.09282819 -0.11811545 0.18449971 -0.03914307 -0.36263078 -0.11075423
-0.32205683 -0.17635065 -0.053282995 0.4279694 -0.5130273 0.08230404 -0.022868704 -0.023037445
0.36461315 -0.12437773 0.30033588 -0.24108727 0.061209608 -0.02641891 0.29611856 -0.10835943
-0.22634572 0.110093586 0.093313456 -0.2079948 0.17203912 0.27558932 -0.0687369 0.21462205
-0.106445275 -0.03752154 0.37913954 0.18977737 -0.04825308 -0.17891036 -0.28938115 0.069942415
-0.35351238 -0.14394762 0.019770097 0.28632468 -0.2680927 0.20209467 0.25338477 0.34084636
0.2475947 0.222272 -0.1564579 0.12894987 -0.30694175 -0.06885676 -0.39759937 -0.13774242
-0.41339207 0.25751507 0.13866062 -0.04882549 0.24658425 0.12383291 -0.058772348 -0.03214126
0.3085214 -0.24694777 0.3003996 0.118179515 -0.009080219 0.23543106 -0.3864065 -0.12755057
-0.23540874 -0.09351789 -0.025593525 0.20508045 -0.31457222 0.22019383 0.31698236 0.09520339
0.42824435 0.3171114 -0.15497988 0.6793341 -0.024666725 -0.10322768 -0.20101637 0.17307955
-0.3300478 -0.036413193 -0.3665586 0.1971593 0.50586104 0.23195855 0.21382819 -0.15169814
0.698879 0.23223121 0.11681767 0.0038282485 0.09425277 0.06942262 -0.50029904 -0.28987694
0.009835444 -0.5932666 0.6046228 0.5004137 -0.06342234 0.5261398 0.31873164 -0.20725277
0.43908548 -0.07294993 0.016584104 0.09451412 -0.059527982 -0.07142625 0.10167787 -0.007399436
-0.33980444 -0.15297976 -0.11426503 0.17530733 -0.0025252756 0.09970993 0.19248159 -0.14139919
0.13580501 0.044903953 0.108395934 0.19482078 0.055587366 0.24023081 -0.29823145 0.11875309
-0.16881645 -0.14553596 0.06668764 0.31921235 -0.14916609 0.08637629 0.040050805 -0.096041255
-0.24941878 0.81546456 0.8991509 -0.602633 0.71191716 0.048811845 0.12172536 0.56715053
0.22275352 0.55245376 -0.38695487 -0.46283168 0.42028028 -0.40973166 -0.59800774 -0.24247153
-0.3327439 -0.014839792 0.57221496 0.43371338 0.6595006 -0.5470342 0.44951564 -0.33138248
-0.6579485 0.12794928 -0.5244232 0.005111217 0.049490616 0.60587925 -0.19476473 0.677118
-0.044690832 0.25407138 -0.14692451 0.028970042 0.1169516 -0.17550167 0.064021625 0.0783049
-0.17953406 0.025927976 0.15494493 -0.023954405 0.143384 0.19070451 0.023009332 0.1764475
-0.04157142 0.12279421 0.1169686 0.32940522 0.048676778 -0.016303109 -0.13389647 0.22618692
-0.112787955 0.17708847 0.026105443 0.14367844 -0.23792326 -0.01707485 0.18000628 0.42582548
0.40600547 0.18349215 -0.35437682 0.27435836 -0.14049762 -0.30566934 -0.10903007 0.26663515
-0.25223735 0.12811927 -0.3035028 0.30509314 0.2617207 0.24532741 0.52269065 -0.0003014928
0.25015318 0.4171789 0.045742687 0.14733097 0.3153024 -0.21744712 -0.24321146 0.331033
-0.37035304 -0.19613458 -0.21372099 0.18687057 -0.28213322 0.29064393 -0.118549936 0.16122867
00000000: 6ca2 b73e b81e 71bb 1059 94bd c93f b03e
00000010: 57b7 8abe 8f66 bd3b 4a4c 38be 2aba 80be
00000020: 8b04 15be 60ce 97bc 8d0b 873e bd5f 3fbb
00000030: 4b65 4fbd 0cb9 553e b95a a63d c97f 9f3e
00000040: 0926 d63c 93a5 8abe b51c be3d 83e6 f1bd
00000050: 7eed 3c3e 7c54 20bd beaa b9be 1dd3 e2bd
00000060: a2e4 a4be 4495 34be 453f 5abd ce1e db3e
00000070: c255 03bf 058f a83d 2657 bbbc 06b9 bcbc
00000080: 93ae ba3e c0b9 febd a0c5 993e 95df 76be
00000090: edb6 7a3d 786c d8bc da9c 973e 8deb ddbd
000000a0: 2cc7 67be bf78 e13d 201b bf3d 97fc 54be
000000b0: 062b 303e 0b1a 8d3e efc5 8cbd e2c5 5b3e
000000c0: fbff d9bd 30b0 19bd 941e c23e 0055 423e
000000d0: 06a5 45bd 4734 37be c429 94be f83d 8f3d
000000e0: 93ff b4be 0167 13be e6f4 a13c 2699 923e
000000f0: 7243 89be e8f1 4e3e a6bb 813e 6a83 ae3e
00000100: 7789 7d3e 459b 633e 8036 20be 6f0b 043e
00000110: 7827 9dbe c604 8dbd 2592 cbbe 590c 0dbe
00000120: 20a8 d3be 04d9 833e 0dfd 0d3e 3dfd 47bd
00000130: 9580 7c3e 1c9c fd3d 46bb 70bd 8ea6 03bd
00000140: 84f6 9d3e e0df 7cbe facd 993e 1a08 f23d
00000150: 33c5 14bc d714 713e 13d7 c5be 9e9c 02be
00000160: fd0e 71be 4f86 bfbd 83a9 d1bc 9c00 523e
00000170: 9c0f a1be 7e7a 613e 834b a23e fff9 c23d
00000180: d842 db3e 6d5c a23e 0cb3 1ebe d7e8 2d3f
00000190: df11 cabc 0969 d3bd 3cd7 4dbe c43b 313e
000001a0: 06fc a8be 0026 15bd 92ad bbbe 21e4 493e
000001b0: 1c80 013f 8b86 6d3e c7f5 5a3e c256 1bbe
000001c0: bce9 323f 05ce 6d3e 1a3e ef3d 5ae3 7a3b
000001d0: 9907 c13d 722d 8e3d 9913 00bf c06a 94be
000001e0: d824 213c 52e0 17bf 8fc8 1a3f 1d1b 003f
000001f0: 92e3 81bd 19b1 063f cb30 a33e 123a 54be
00000200: d0cf e03e c666 95bd 63db 873c 9e90 c13d
00000210: 9dd3 73bd ed47 92bd 7d3c d03d f876 f2bb
00000220: d9fa adbe baa6 1cbe c903 eabd c483 333e
00000230: 187f 25bb b834 cc3d e519 453e f3ca 10be
00000240: 7810 0b3e 35ed 373d b0fe dd3d 197f 473e
00000250: 94af 633d 11ff 753e cbb1 98be d234 f33d
00000260: 38de 2cbe 6107 15be 8893 883d cd6f a33e
00000270: ffbe 18be 0de6 b03d 500c 243d 47b1 c4bd
00000280: a367 7fbe 49c2 503f c12e 663f 2846 1abf
00000290: 3440 363f eeee 473d 254b f93d c730 113f
000002a0: 8019 643e 9c6d 0d3f f31e c6be 46f8 ecbe
000002b0: fa2e d73e 59c8 d1be 0917 19bf 754a 78be
000002c0: 695d aabe 9922 73bc ae7c 123f ae0f de3e
000002d0: 08d5 283f 6f0a 0cbf ea26 e63e f7aa a9be
000002e0: 506f 28bf 2305 033e 9940 06bf ff7b a73b
000002f0: acb6 4a3d e71a 1b3f 6870 47be 9b57 2d3f
00000300: bc0d 37bd a515 823e 6173 16be 9552 ed3c
00000310: 5284 ef3d b6b6 33be c51d 833d 525e a03d
00000320: c7d7 37be e866 d43c e2a9 1e3e 073c c4bc
00000330: 41d3 123e 0b48 433e 117e bc3c a7ae 343e
00000340: cb46 2abd 887b fb3d 3c8d ef3d cda7 a83e
00000350: 4d61 473d 198e 85bc 281c 09be 8b9d 673e
00000360: 5ffd e6bd ae56 353e 15db d53c 7120 133e
00000370: 28a2 73be 8ee0 8bbc 9153 383e cc05 da3e
00000380: f3df cf3e 5ee5 3b3e e170 b5be b378 8c3e
00000390: 9cde 0fbe b180 9cbe 284b dfbd 6784 883e
000003a0: 4125 81be b331 033e b864 9bbe 2b35 9c3e
000003b0: 4100 863e 1c37 7b3e 0ecf 053f ae11 9eb9
000003c0: 1414 803e 7998 d53e af5c 3b3d eedd 163e
000003d0: 516f a13e 75aa 5ebe 6d0c 79be 287d a93e
000003e0: ea9e bdbe 81d7 48be add9 5abe 005b 3f3e
000003f0: c473 90be 48cf 943e 4fca f2bd 2119 253e

item_embed.weight f4 [578, 32]
-0.21790993 0.24169205 0.47069892 -0.3240022 -0.14304827 -0.44572 -0.30082867 -0.3490989
0.16860147 0.32592088 -0.051192936 -0.16075231 0.42355204 0.10626737 -0.283208 0.035201155
-0.35115516 0.5429035 -0.1347139 0.23593964 -0.19085729 -0.45484987 0.462258 0.112625055
-0.19562371 -0.10042315 -0.58812404 -0.35088155 -0.13252968 0.17471792 0.17105053 0.16139925
-0.02049483 0.06806896 0.54306126 -0.37069446 0.16923474 -0.63997287 -0.59197223 -0.40024242
-0.080114506 0.02456042 0.08343428 -0.2026884 0.36391172 0.26001817 -0.5337023 0.5566614
-0.028459486 0.3868144 -0.3018301 0.25541484 0.43309972 -0.34460893 -0.2192142 0.2330595
-0.16657698 -0.2988617 0.19792907 -0.15978247 -0.47531748 0.15831864 0.28140554 0.0492521
-0.00049529434 0.38224074 0.41880062 -0.098225646 0.13770552 -0.3724595 -0.27032727 -0.078408144
-0.23951635 -0.032301366 -0.20645243 -0.20948182 0.36442357 -0.0019573984 -0.4039592 -0.033537544
-0.47250113 0.08401733 -0.6340873 0.47526136 0.008240569 -0.7491337 0.07540316 0.3569458
-0.29750195 -0.21399306 -0.73967755 0.0799738 -0.369601 0.024095038 0.3086494 -0.36032185
0.055829898 0.09069135 0.0661622 -0.027003534 -0.23699263 -0.096870884 0.39379117 0.15473455
-0.18019056 -0.096082784 -0.13365676 0.48207542 0.11985639 0.037312925 0.33001685 0.043153275
0.2306685 0.4120393 0.44428435 0.052932892 -0.15086336 -0.027073732 0.015313895 0.36296856
-0.13055056 0.19036503 0.12562193 0.34133303 0.037659574 -0.13281067 0.2524546 -0.13789336
-0.13636267 0.16965225 0.21426143 -0.16695888 -0.31792128 0.5721149 0.22642557 0.03339328
0.17943205 -0.3339678 -0.1155435 -0.15893969 -0.44876307 -0.42780197 -0.2333869 -0.31808785
0.052313603 -0.02912317 -0.52497125 -0.21747763 -0.27117977 -0.05915087 0.26775458 -0.32202515
0.56526446 0.18229875 0.08822812 -0.4595601 0.3771525 -0.23599784 -0.25179672 0.06378369
-0.074441105 0.0108975 -0.21880466 -0.19784266 0.36611623 0.4059615 0.10244321 -0.062534176
0.279325 0.002254601 -0.086770505 -0.07825446 -0.08831402 -0.05128199 -0.23890597 0.04870848
-0.13694169 -0.3537314 -0.08320418 0.25062782 -0.1801648 0.014543328 0.3425231 -0.25875685
0.0757455 0.4848412 0.08010372 0.15468968 0.15726309 -0.07721834 -0.11527476 0.24331456
0.060060948 0.6321199 0.41562366 -0.54382807 0.087020785 -0.34541142 -0.4692483 -0.40154675
-0.44118443 0.8033177 -0.47779405 -0.752107 0.45499185 0.56433237 0.12645335 -0.10713779
0.3307459 0.57752186 0.18496765 0.5545971 0.14052647 -0.75255436 -0.5449331 0.57013965
-0.52445865 -0.1363107 -0.3939811 -0.109245785 -0.5034567 0.40997744 0.45548534 0.42278627
-0.09492906 0.3249757 0.77620476 -0.4704144 -0.012014762 -0.51430243 -0.32933012 -0.10326818
-0.6369804 0.38882282 0.015907062 -0.73680997 0.674183 0.2693313 -0.14768332 0.11759638
-0.41113964 0.5828977 0.25632358 0.6832169 0.29645565 -0.48552534 0.24168177 0.09649534
-0.44391203 -0.22945417 -0.37088338 0.07818312 -0.6408314 0.23419707 0.46373755 0.34465253
00000000: c823 5fbe 1f7e 773e 73ff f03e 9ee3 a5be
00000010: 3f7b 12be 6935 e4be 3706 9abe 17bd b2be
00000020: dda5 2c3e 1adf a63e afaf 51bd 419c 24be
00000030: d0db d83e b5a2 d93d a400 91be 162f 103d
00000040: 9cca b3be b9fb 0a3f 71f2 09be 299a 713e
00000050: 1870 43be 15e2 e8be 15ad ec3e f7a7 e63d
00000060: 9551 48be a7aa cdbd 4c8f 16bf bfa6 b3be
00000070: dcb5 07be 41e9 323e df27 2f3e d845 253e
00000080: c6e4 a7bc bd67 8b3d 1006 0b3f aacb bdbe
00000090: df4b 2d3e 43d5 23bf 7e8b 17bf 93ec ccbe
000000a0: 1313 a4bd ef32 c93c 97df aa3d 8c8d 4fbe
000000b0: a352 ba3e 1a21 853e b7a0 08bf 5d81 0e3f
000000c0: de23 e9bc 890c c63e 7a89 9abe bcc5 823e
000000d0: 3fbf dd3e 9570 b0be b079 60be 26a7 6e3e
000000e0: 2893 2abe 6704 99be ebad 4a3e 049e 23be
000000f0: d05c f3be 481e 223e 6314 903e 92bc 493d
00000100: a4d6 01ba 0fb5 c33e 096d d63e 872a c9bd
00000110: ad02 0d3e 03b3 bebe 5668 8abe 7394 a0bd
00000120: c643 75be 704e 04bd 4468 53be 6782 56be
00000130: ba95 ba3e b247 00bb bed3 cebe aa5e 09bd
00000140: abeb f1be 4711 ac3d 8c53 22bf 7555 f33e
00000150: 7403 073c 3ac7 3fbf f96c 9a3d 9ac1 b63e
00000160: 2d52 98be ff20 5bbe 825b 3dbf 4ec9 a33d
00000170: 583c bdbe f562 c53c 4b07 9e3e 1b7c b8be
00000180: e4ad 643d 63bc b93d 0c80 873d 8436 ddbc
00000190: 32ae 72be 3e64 c6bd ff9e c93e bc72 1e3e
000001a0: e083 38be 0dc7 c4bd 51dd 08be 97d2 f63e
000001b0: 4477 f53d 70d5 183d f8f7 a83e 7dc1 303d
000001c0: 5d34 6c3e d1f6 d23e 3d79 e33e 29d0 583d
000001d0: ed7b 1abe bbc9 ddbc 22e7 7a3c 04d7 b93e
000001e0: 0caf 05be 0def 423e 09a3 003e 34c3 ae3e
000001f0: ed40 1a3d 85ff 07be bb41 813e eb33 0dbe
00000200: a8a2 0bbe 52b9 2d3e 5967 5b3e 45f7 2abe
00000210: 94c6 a2be 1f76 123f 1bdc 673e 64c7 083d
00000220: 09bd 373e d4fd aabe 12a2 ecbd 16c1 22be
00000230: 46c4 e5be dc08 dbbe fafc 6ebe 69dc a2be
00000240: ca46 563d b793 eebc 8464 06bf 75b2 5ebe
00000250: 13d8 8abe 2f48 72bd 2117 893e 7be0 a4be
00000260: 2cb5 103f 86ac 3a3e f2b0 b43d 764b ebbe
00000270: 221a c13e 6ba9 71be 80eb 80be 06a1 823d
00000280: 9474 98bd 6e8b 323c 540e 60be 4497 4abe
00000290: 9673 bb3e 30da cf3e bfcd d13d eb11 80bd
000002a0: b003 8f3e eec1 133b bcb4 b1bd e043 a0bd
000002b0: fbdd b4bd 100d 52bd c4a3 74be 8b82 473d
000002c0: 713a 0cbe 481c b5be f466 aabd 4a52 803e
000002d0: 1f7d 38be 2447 6e3c 305f af3e c77b 84be
000002e0: 7520 9b3d 1b3d f83e 6b0d a43d f966 1e3e
000002f0: 9309 213e a624 9ebd 2c15 ecbd 7427 793e
00000300: 7802 763d 9cd2 213f a0cc d43e 5138 0bbf
00000310: f437 b23d c4d9 b0be 5041 f0be 8997 cdbe
00000320: ede2 e1be 3ba6 4d3f 6ca1 f4be 168a 40bf
00000330: b1f4 e83e 1678 103f fd7c 013e 0f6b dbbd
00000340: 8757 a93e 79d8 133f 2968 3d3e 13fa 0d3f
00000350: 2ce6 0f3e 67a7 40bf bc80 0bbf acf4 113f
00000360: ec42 06bf 0895 0bbe e4b7 c9be 41bc dfbd
00000370: 8ae2 00bf 90e8 d13e 6035 e93e 7177 d83e
00000380: 2b6a c2bd 3763 a63e 5bb5 463f 28da f0be
00000390: 90d9 44bc 53a9 03bf f59d a8be 447e d3bd
000003a0: 2611 23bf c913 c73e 874f 823c 949f 3cbf
000003b0: 4297 2c3f cbe5 893e 4c3a 17be 5fd6 f03d
000003c0: e580 d2be c938 153f d83c 833e 4ee7 2e3f
000003d0: 09c9 973e c796 f8be 6d7b 773e 599f c53d
000003e0: 7048 e3be 09f6 6abe 6de4 bdbe 791e a03d
000003f0: 870d 24bf 5bd1 6f3e 026f ed3e 4c76 b03e

entity_embed.weight f4 [886, 32]
-0.06926644 -0.07720875 0.05072593 0.033960283 -0.014227991 -0.036610834 0.074308954 0.07006883
0.029946672 -0.061129272 -0.031563308 -0.084214345 -0.0482903 -0.02236719 -0.015883952 0.044692956
-0.066269465 0.04508085 0.02457581 0.035232212 0.073716946 0.01158908 -0.005121162 0.061110698
-0.021899266 -0.011836162 0.010056263 0.052467648 -0.029500468 0.056512024 -0.07372988 -0.04077196
0.07836468 -0.076185636 0.05196951 0.015242282 0.030961005 -0.026039116 -0.018443247 -0.045330506
0.07389498 -0.048867676 -0.0061998176 -0.0142358085 0.087218 -0.0006784777 0.06203884 0.0658371
-0.009204346 0.073869444 0.040451974 -0.05100094 -0.08004282 -0.025190696 0.06442756 0.045194432
0.055118583 -0.07420079 -0.06659104 0.037527014 0.06335264 0.056431018 0.073187284 0.008187317
0.050724834 0.038141463 0.059877362 -0.04715526 0.06232052 -0.036083754 0.006997115 -0.08611966
0.025492882 -0.02664579 -0.03294196 0.03185866 0.06434652 -0.086900994 0.03779451 -0.07083768
-0.03598857 0.066397436 -0.025661599 0.03046511 0.078609966 -0.07098116 0.006695719 0.0642708
-0.009214568 0.04434776 -0.078907914 0.03889974 0.035210393 0.019240126 0.030097736 -0.06720969
-0.026569754 -0.05661518 0.04434176 -0.07805137 0.07401672 0.068722494 -0.014403173 0.04901414
-0.029973166 -0.0023992057 0.059715685 -0.072802305 0.055204112 0.0013173533 -0.018925784 -0.056762423
0.022640692 0.041972347 -0.03142897 0.0447617 -0.0017683161 -0.035508323 0.047316246 -0.06074093
0.055779073 0.014940681 0.07169737 0.033024363 0.0045571206 -0.036653776 0.0009915351 0.063860096
-0.016079174 -0.0076191616 0.039459676 0.02944069 -0.04823197 -0.014907782 -0.0077476455 -0.037023082
0.011038448 -0.074625775 -0.07174426 0.019757994 -0.003350333 -0.024050627 -0.008904042 -0.00858777
0.0682253 0.044273566 -0.020964144 0.08322893 -0.0007910037 -0.055621363 0.028312169 -0.026111858
-0.0056540314 -0.0055191717 0.047738213 -0.0043044295 -0.07376945 0.015949357 -0.057367276 0.03996799
-0.06896226 0.021095764 0.010253979 -0.008137971 0.034028746 0.021334104 0.075828254 0.010924651
0.02875044 0.06531822 0.001240089 -0.07602439 -0.06480727 0.033155482 -0.0009985031 0.05990584
-0.034684494 -0.025659733 0.017958377 0.04254228 0.029143767 -0.0015821961 0.014412899 0.030108111
-0.016362898 0.022018667 0.0037940217 -0.04291517 0.047096863 -0.0077920803 -0.06413467 -0.053206373
-0.04629686 -0.014847281 0.027253455 -0.08137873 -0.059633713 -0.06941012 0.01776346 -0.080525525
0.04147079 0.07147961 0.0039292593 0.015393636 0.069002315 0.07401402 0.008010735 -0.02518237
0.042756964 -0.03551162 0.0250604 -0.05559757 -0.04571713 -0.015450395 -0.03291917 -0.0042994744
-0.024879714 -0.03812185 -0.03698722 0.016641868 -0.007043574 -0.018481944 0.0014789789 0.010739078
-0.059617233 -0.017329935 -0.014860805 -0.08547663 -0.02761565 -0.0052557006 0.011272744 -0.059921574
0.043109637 -0.0034118055 0.06281053 -0.008019883 0.035079256 -0.019681528 -0.07113066 -0.06918943
-0.073622756 0.03818185 0.06888478 0.044863034 0.039489456 -0.015280183 0.07769355 0.054400582
0.048067175 0.036514375 -0.04991259 0.008508047 0.010680934 0.00069124467 0.0030384834 0.009561031
00000000: 90db 8dbd 9f1f 9ebd fec5 4f3d f019 0b3d
00000010: 851c 69bc 3ef5 15bd 4b2f 983d 3f80 8f3d
00000020: b952 f53c b062 7abd 8748 01bd 9278 acbd
00000030: 0dcc 45bd 663b b7bc 101f 82bc f60f 373d
00000040: 49b8 87bd b3a6 383d 3653 c93c a74f 103d
00000050: e9f8 963d 20e0 3d3c 6ccf a7bb 364f 7a3d
00000060: 1766 b3bc 76ec 41bc 06c3 243c 51e8 563d
00000070: f7aa f1bc 2779 673d b1ff 96bd 8000 27bd
00000080: a97d a03d 3707 9cbd fbdd 543d c4ba 793c
00000090: efa1 fd3c fc4f d5bc 4b16 97bc 7bac 39bd
000000a0: 4056 973d 7929 48bd d727 cbbb 4f3d 69bc
000000b0: 5a9f b23d dedb 31ba 701c 7e3d 9ad5 863d
000000c0: d3cd 16bc dd48 973d f8b0 253d 5de6 50bd
000000d0: 7ded a3bd b85c cebc 99f2 833d cc1d 393d
000000e0: 06c4 613d 95f6 97bd e260 88bd edb5 193d
000000f0: 07bf 813d 3624 673d 37e3 953d 1924 063c
00000100: d8c4 4f3d 393a 1c3d f741 753d e025 41bd
00000110: cd43 7f3d 8fcc 13bd 0e48 e53b 815f b0bd
00000120: 73d6 d03c 4648 dabc 26ee 06bd 3a7e 023d
00000130: 1cc8 833d 26f9 b1bd 6bce 1a3d 5813 91bd
00000140: c068 13bd 61fb 873d 4638 d2bc f791 f93c
00000150: 43fe a03d 925e 91bd c367 db3b 69a0 833d
00000160: b3f8 16bc ffa5 353d 799a a1bd 5555 1f3d
00000170: c638 103d 789d 9d3c 878f f63c 3ca5 89bd
00000180: d0a8 d9bc 52e5 67bd b59f 353d 66d9 9fbd
00000190: 1496 973d 61be 8c3d 49fb 6bbc 0dc3 483d
000001a0: 498a f5bc fe3b 1dbb 6f98 743d 6019 95bd
000001b0: b51d 623d 0bab ac3a 3f0a 9bbc b77f 68bd
000001c0: f978 b93c 32eb 2b3d aabb 00bd 0b58 373d
000001d0: d8c6 e7ba 2d71 11bd aece 413d 7bcb 78bd
000001e0: 9978 643d c2c9 743c 12d6 923d 8e44 073d
000001f0: e653 953b 4522 16bd 66f6 813a 15c9 823d
00000200: 79b8 83bc 29aa f9bb 78a0 213d 9a2d f13c
00000210: e38e 45bd c53f 74bc f6df fdbb 84a5 17bd
00000220: 9bda 343c 66d5 98bd a8ee 92bd 84db a13c
00000230: 4391 5bbb d205 c5bc 42e2 11bc b8b3 0cbc
00000240: b5b9 8b3d 3358 353d ffbc abbc ee73 aa3d
00000250: 5c5b 4fba 3ad3 63bd ecee e73c 89e8 d5bc
00000260: 7445 b9bb 2bda b4bb 2589 433d 2c0c 8dbb
00000270: 7014 97bd 3aa8 823c f3f9 6abd 7ab5 233d
00000280: 163c 8dbd 06d1 ac3c 4e00 283c 2055 05bc
00000290: ba61 0b3d dcc4 ae3c d84b 9b3d 4ffd 323c
000002a0: 0b86 eb3c 8fc5 853d 7b8a a23a adb2 9bbd
000002b0: adb9 84bd 0bce 073d 34e0 82ba d35f 753d
000002c0: 5411 0ebd 5c34 d2bc 721d 933c d040 2e3d
000002d0: e9be ee3c b161 cfba 1424 6c3c 49a5 f63c
000002e0: 7c0b 86bc 7e60 b43c 1fa5 783b d1c7 2fbd
000002f0: a4e8 403d b554 ffbb 0a59 83bd edee 59bd
00000300: c7a1 3dbd 0342 73bc a342 df3c e4a9 a6bd
00000310: 7b42 74bd e526 8ebd ad84 913c 91ea a4bd
00000320: 46dd 293d e763 923d 04c1 803b 9735 7c3c
00000330: 1651 8d3d aa94 973d 753f 033c 424b cebc
00000340: ed21 2f3d a274 11bd 784b cd3c 47ba 63bd
00000350: e341 3bbd a723 7dbc 40d6 06bd 9be2 8cbb
00000360: 8bd0 cbbc a825 1cbd e97f 17bd 8754 883c
00000370: c8cd e6bb 7267 97bc 4cda c13a f5f2 2f3c
00000380: 3331 74bd 82f7 8dbc bc7a 73bc 5f0e afbd
00000390: 373a e2bc 0338 acbb 51b1 383c 5370 75bd
000003a0: bb93 303d 9998 5fbb cfa2 803d d465 03bc
000003b0: 44af 0f3d 283b a1bc f4ac 91bd 30b3 8dbd
000003c0: 87c7 96bd 9264 1c3d 7713 8d3d 4dc2 373d
000003d0: b2bf 213d bc59 7abc cc1d 9f3d 25d3 5e3d
000003e0: 16e2 443d 1990 153d 2571 4cbd 5665 0b3c
000003f0: 16ff 2e3c a534 353a 4b21 473b dfa5 1c3c

relation_embed.weight f4 [114, 32]
-0.010685883 0.025804454 -0.024133945 -0.1530806 0.08885413 0.10602728 0.06760395 -0.17434312
-0.108349696 -0.038813405 -0.0098342085 -0.047862433 0.07581834 0.18357323 0.09428985 -0.09524677
-0.10600461 -0.05727423 0.03896954 -0.09326068 -0.06218157 0.014353114 0.021405717 -0.09933437
0.14093406 0.05821733 0.16688363 -0.20287946 -0.012789271 -0.03154009 0.15281089 0.16283642
-0.037660234 0.16748364 0.05154199 -0.040656053 -0.09980889 -0.20844184 0.07563243 -0.15735622
0.19325303 -0.0239894 -0.17044438 0.2045738 -0.12502804 -0.09094975 -0.06936761 -0.04077769
-0.09258989 -0.1222415 -0.0017507032 -0.2056674 -0.15419063 0.0737853 -0.014602336 0.17820318
0.1026796 -0.018911755 0.120056085 -0.045946054 0.009151138 0.04886221 -0.025587102 -0.14517555
0.13884495 -0.054286428 -0.006313432 0.08194534 0.04390564 -0.15154694 0.009332397 -0.17477886
0.003102461 -0.18445675 0.097366326 -0.023536036 -0.0033749437 -0.19281347 0.097429045 -0.1706978
-0.12884632 0.12523738 0.161997 0.1906627 0.09611433 -0.1273446 0.09043766 0.11177314
0.17391334 -0.106439315 0.094552465 0.008343616 0.10076014 0.08812105 0.10543417 -0.12545313
0.06666563 -0.17096134 -0.10633127 -0.021151638 -0.09436753 -0.06453415 0.010227241 0.13316838
-0.11178555 0.07134848 -0.10286356 -0.06252391 0.0075863963 -0.19635181 -0.009813048 -0.15050541
0.11642716 -0.07223173 0.019465914 0.080527864 -0.13087498 -0.20689802 -0.059501193 -0.109888606
0.15759589 -0.14902216 -0.073817365 0.18825014 -0.057845972 -0.17840864 0.17434597 0.13985707
-0.10135608 0.060490645 -0.14348306 -0.08079144 -0.039965115 0.12436741 -0.034058467 -0.10912795
0.13809489 0.090343766 0.011899509 -0.109843075 0.008738347 -0.097772874 0.11811914 -0.027618298
0.040026415 0.11405372 0.021882037 0.0965173 0.06044913 0.13472725 -0.025753161 -0.19791569
-0.09408353 -0.060608584 0.034172162 0.037038855 -0.083236955 -0.18861653 -0.10974803 -0.09119654
-0.1617424 -0.071389966 -0.123761974 0.09199362 0.06133259 0.0865911 0.070984475 0.05146461
-0.057249136 -0.058733024 -0.05926877 -0.13287595 -0.016654229 -0.13691945 -0.19460975 0.11257032
-0.056588 0.031683635 -0.0650075 -0.10378525 0.09160154 -0.06743914 0.17795037 0.07617212
-0.004584874 -0.08594159 -0.00017063736 -0.13809237 0.0146740405 0.16227514 -0.05083575 -0.104984
0.11363038 0.1823674 0.08802926 0.17182715 -0.02078883 0.17022248 -0.015673328 -0.046126224
0.026475245 -0.03140332 -0.0042600743 -0.022259632 -0.11336094 -0.11031383 0.07148964 -0.09090311
0.029027207 -0.1390254 -0.03462422 0.13641323 0.065708645 0.025312385 0.18677948 0.10290442
-0.035742767 0.043925785 0.025467793 -0.06746378 -0.09080299 0.030042563 -0.17658305 -0.14020862
0.018326335 -0.16906644 -0.14723268 -0.068393774 0.07217077 0.085900225 -0.16702811 0.052648656
-0.09298383 -0.037955068 0.15275441 0.099535085 0.09130099 -0.14043169 -0.10401458 -0.16399665
0.13598265 0.10318228 0.17812355 -0.11787463 0.11751496 -0.19028229 0.07589244 -0.1379434
0.1172565 -0.19269033 -0.12242594 -0.101256505 -0.04204131 -0.17259084 -0.17478734 -0.08070456
00000000: d813 2fbc dd63 d33c 8db4 c5bc 29c1 1cbe
00000010: 27f9 b53d d524 d93d f173 8a3d 0187 32be
00000020: 72e6 ddbd cefa 1ebd a91f 21bc 660b 44bd
00000030: a546 9b3d 9ffa 3b3e 091b c13d bd10 c3bd
00000040: f218 d9bd 6298 6abd 869e 1f3d 75ff bebd
00000050: 1ab2 7ebd 5329 6b3c 0b5b af3c d16f cbbd
00000060: 0551 103e 4c75 6e3d 8be3 2a3e a2bf 4fbe
00000070: 178a 51bc 2e30 01bd 757a 1c3e 97be 263e
00000080: 9e41 1abd d580 2b3e b21d 533d f686 26bd
00000090: 9a68 ccbd c771 55be 2de5 9a3d fd21 21be
000000a0: 1fe4 453e 6b85 c4bc f988 2ebe cb7b 513e
000000b0: 5a07 00be dd43 babd 9b10 8ebd 8206 27bd
000000c0: c59f bdbd c059 fabd da77 e5ba 7a9a 52be
000000d0: 26e4 1dbe bf1c 973d a33e 6fbc e57a 363e
000000e0: af49 d23d d3ec 9abc f7df f53d ee31 3cbd
000000f0: a8ee 153c be23 483d 0b9c d1bc e6a8 14be
00000100: 5f2d 0e3e 725b 5ebd e8e0 cebb f5d2 a73d
00000110: 66d6 333d 1f2f 1bbe e9e6 183c 3bf9 32be
00000120: a952 4b3b 3be2 3cbe ff67 c73d a5ce c0bc
00000130: 292e 5dbb e570 45be e188 c73d 67cb 2ebe
00000140: 4af0 03be 3a3e 003e 8be2 253e 153d 433e
00000150: 97d7 c43d 9f66 02be 6137 b93d 51e9 e43d
00000160: 5716 323e dbfc d9bd b9a4 c13d a9b3 083c
00000170: 555b ce3d cf78 b43d dfed d73d c976 00be
00000180: fd87 883d 7d10 2fbe 35c4 d9bd 3346 adbc
00000190: c343 c1bd 7b2a 84bd 2890 273c 4b5d 083e
000001a0: d3ef e4bd 271f 923d 21aa d2bd 890c 80bd
000001b0: 4e97 f83b 7310 49be e8c6 20bc 171e 1abe
000001c0: 5d71 ee3d 3bee 93bd fb76 9f3c cbeb a43d
000001d0: 1704 06be 13dd 53be 86b7 73bd 470d e1bd
000001e0: d160 213e 4499 18be 8f2d 97bd a5c4 403e
000001f0: e6ef 6cbd c1b0 36be c087 323e b136 0f3e
00000200: c793 cfbd 0ac5 773d 39ed 12be fc75 a5bd
00000210: 76b2 23bd 57b4 fe3d e480 0bbd 7a7e dfbd
00000220: bf68 0d3e 2706 b93d 28f6 423c 68f5 e0bd
00000230: 492b 0f3c 253d c8bd 73e8 f13d c53f e2bc
00000240: bdf2 233d ff94 e93d f541 b33c ddaa c53d
00000250: 8299 773d f1f5 093e 4bf8 d2bc 69aa 4abe
00000260: deae c0bd b540 78bd 1cf8 0b3d 0eb6 173d
00000270: 2378 aabd b124 41be 93c3 e0bd 40c5 babd
00000280: cd9f 25be e734 92bd eb76 fdbd 2767 bc3d
00000290: e237 7b3d ad56 b13d 4f60 913d 8ecc 523d
000002a0: 127e 6abd 0a92 70bd cfc3 72bd a210 08be
000002b0: 736e 88bc 9d34 0cbe c747 47be 458b e63d
000002c0: d2c8 67bd b3c6 013d a722 85bd 5c8d d4bd
000002d0: 9799 bb3d 881d 8abd 9f38 363e 2100 9c3d
000002e0: b63c 96bb 2502 b0bd 1eed 32b9 1668 0dbe
000002f0: 636b 703c 742b 263e 2639 50bd da01 d7bd
00000300: 0bb7 e83d 85be 3a3e af48 b43d 75f3 2f3e
00000310: 564d aabc cd4e 2e3e 5a65 80bc daee 3cbd
00000320: 9de2 d83c c5a0 00bd 1898 8bbb d559 b6bc
00000330: c829 e8bd 38ec e1bd 2969 923d 692b babd
00000340: 77ca ed3c ad5c 0ebe 20d2 0dbd e9af 0b3e
00000350: 4192 863d eb5b cf3c 1f43 3f3e 8dbf d23d
00000360: 0267 12bd 86eb 333d d5a1 d03c 732a 8abd
00000370: ebf6 b9bd d21b f63c 30d2 34be d992 0fbe
00000380: 1c21 963c c11f 2dbe 2ac4 16be 0912 8cbd
00000390: 45ce 933d 75ec af3d 6b09 2bbe 1ea6 573d
000003a0: 4e6e bebd c676 1bbd a76b 1c3e 0dd9 cb3d
000003b0: 03fc ba3d 53cd 0fbe 9905 d5bd bdee 27be
000003c0: 093f 0b3e 3b51 d33d 0566 363e 4168 f1bd
000003d0: afab f03d 5cd9 42be 7f6d 9b3d 0941 0dbe
000003e0: 2d24 f03d 9d50 45be 74ba fabd 925f cfbd
000003f0: 8233 2cbd a7bb 30be 74fb 32be 6f48 a5bd
