Knowledge_Graph_Recommendation/recommendation/stage2/trained_model/Douban/Embedding_based/dim32_lr0.001_l20.0001_TransE/concat/model1_epoch20.pth (torch, 728343 bytes, 5 tensors)

trans_M f4 [114, 32, 32]
000000 a4 a1 e7 bb 88 21 04 3c b0 91 6b 3b 14 d6 78 3c
       -0.0070688296 0.008064635 0.003594499 0.015187759
000010 9c fe 3c 3c c6 88 e3 3c fc 72 6f 3c a6 f1 c0 3c
       0.011535313 0.02777518 0.014614817 0.023552727
000020 31 d7 8e bc a4 82 10 bc ba a0 e4 3c c1 e9 b8 bc
       -0.017436596 -0.00882021 0.027908672 -0.0225724
000030 00 ab 66 bb e8 b6 1f 3c e0 f7 d4 bc 48 87 bd 3b
       -0.0035197139 0.009748198 -0.025997102 0.005783949
000040 18 1f e3 bc e6 5a e2 3c e0 da 4d bc 98 49 3f 3c
       -0.027724788 0.027631234 -0.012564391 0.011675261
000050 ae 82 0d bc 12 6a a1 3c f0 f8 3a bb 20 9c 40 bb
       -0.0086371135 0.019703899 -0.0028529726 -0.0029389933
000060 32 58 8d 3c 00 58 eb 37 2a 19 c3 3c 96 27 e8 3c
       0.017253969 2.8055161e-05 0.02381571 0.028339189
000070 bb cb 01 3d b3 10 0b 3d cb 09 d9 bc 10 ea ce 3c
       0.031688433 0.033951472 -0.026493927 0.025258094
000080 e8 d7 d3 3b 6b 93 80 bc e0 99 ac 3c 38 9a 95 3b
       0.006464947 -0.015695294 0.021069467 0.0045655034
000090 86 40 8b bc 4c a2 d9 bc d0 ce 7b bc ca d6 94 bc
       -0.01699854 -0.026566647 -0.015369132 -0.018168826
0000a0 e0 75 d1 ba 18 69 a9 bb f4 0b 49 3c 69 af 0a bd
       -0.0015980564 -0.005169999 0.012270916 -0.03385869
0000b0 65 bf e2 bc ee 90 f3 bc 73 4a 03 3d ca 0e ef 3c
       -0.027679155 -0.029732194 0.032053422 0.029181857
0000c0 dc e2 a6 3c 3e 65 ad bc d0 1a 69 3c 4c a0 ae bc
       0.020371847 -0.02116644 0.014227584 -0.02131667
0000d0 a5 73 07 3d 61 d1 05 3d 7f d5 0d 3d ec 1b f4 bc
       0.03306927 0.032670382 0.034627434 -0.02979847
0000e0 4c 4e 52 3c d4 7b b0 bc 5e ae 48 bc 3c b8 14 3c
       0.01283605 -0.02154342 -0.012248604 0.009077128
0000f0 47 d7 ed bc 42 4f f6 3c 80 c8 d6 39 0a 46 9d 3c
       -0.029033316 0.03006709 0.00040966645 0.019198436
000100 bc e8 02 3c f8 6c c8 bb de 41 fa 3c a7 b0 0d bd
       0.0079900585 -0.0061165057 0.030548986 -0.034592297
000110 4c 1e 55 3c b0 90 08 bb ea 1e fc 3c 4e 62 af 3c
       0.013007712 -0.0020838194 0.03077646 0.02140918
000120 dc 84 3e 3c b4 16 c3 bb d4 21 0a 3c 60 d2 8b 3a
       0.011628356 -0.005953634 0.008430917 0.0010667555
000130 9e d1 1f bc 40 ff a4 3c 86 16 d6 bc 70 8e 5f 3b
       -0.0097545665 0.020141244 -0.026133787 0.0034112
000140 6c f1 2a bc f0 ac 6a bb bd 22 d4 bc 20 fe d1 3b
       -0.010433536 -0.0035808645 -0.02589547 0.006408468
000150 0e 45 71 bc e2 1f d6 3c a0 74 8b 3b 62 2f b2 3c
       -0.014725937 0.02613825 0.004255846 0.02175111
000160 6e d3 a4 3c 00 d4 8d bb 42 89 ef 3c 0e 94 fa 3c
       0.020120349 -0.004328251 0.029240254 0.030588176
000170 e7 19 11 bd 2a a1 d7 bc 48 ad 2a 3c a0 d6 ce 3c
       -0.035425093 -0.026321966 0.01041729 0.025248826
000180 a0 be 2c 3b 00 b4 4f 3a aa 33 e9 3c 50 bb 5d bc
       0.0026358739 0.00079232454 0.028467018 -0.013533428
000190 83 58 05 bd c9 e1 09 3d 46 75 0d bd a8 dd b7 3c
       -0.032555114 0.03366259 -0.03453567 0.022444561
0001a0 8a 44 db 3c 98 fd 78 bc 4e 88 ae bc f4 d6 42 3c
       0.02676608 -0.01519718 -0.02130523 0.011892069
0001b0 64 0d 89 bc f2 10 fd 3c 0d 36 05 3d 32 cf a6 3c
       -0.016730018 0.03089187 0.03252225 0.02036247
0001c0 1c 32 45 bc b6 ff dc bc 1a 4e c5 3c 40 f0 9c 3b
       -0.012035873 -0.026977401 0.024085093 0.004789382
0001d0 52 bc 10 bd 80 a3 90 3a ee 43 e1 3c 32 de c3 3c
       -0.035335846 0.0011035055 0.027498212 0.023909662
0001e0 aa ac 84 3c 0a 9d 33 bc 83 b1 e4 bc 66 84 ab bc
       0.016195614 -0.010962734 -0.027916675 -0.020937156
0001f0 41 85 d7 bc b3 aa 94 bc c2 bd e2 bc 81 88 80 bc
       -0.026308658 -0.018147802 -0.027678374 -0.01569009
000200 7c 46 c4 bb 38 98 91 3c 06 cb 11 bc fd 02 aa bc
       -0.0059898477 0.017772779 -0.008898502 -0.020753378
000210 16 d4 d3 3c 08 48 d8 3b 1a 5d f4 3c 7a 69 ae bc
       0.025857966 0.0066003837 0.02982955 -0.02129053
000220 dc eb af bc b8 62 06 3c 3a c8 85 bc 2e 0a fe 3c
       -0.021474771 0.008202247 -0.016330827 0.031010713
000230 fa 45 3a bc 46 a0 44 bc 0e ca df bc 10 4a a5 3b
       -0.011369223 -0.012001103 -0.027318027 0.0050442293
000240 6b eb dc bc 39 9f 97 bc 2a a0 fa 3c 5f 54 01 3d
       -0.026967725 -0.01850854 0.03059395 0.031574603
000250 39 26 91 bc 74 06 6e bc 58 c0 cb 3c c8 48 64 bc
       -0.017718421 -0.014527906 0.02487199 -0.013933368
000260 2e be a1 3c e6 b6 a2 3c 1a 06 8c 3c 20 64 81 bb
       0.019744005 0.019862603 0.017092753 -0.0039487034
000270 2a b1 dc 3c 2e af d9 bc 39 ba ed bc f8 9c f2 bb
       0.026939947 -0.02657279 -0.029019462 -0.007403966
000280 70 01 93 3c 3b b4 06 3d d4 4c 4a bc e2 fd e9 3c
       0.017945021 0.032886725 -0.012347419 0.028563444
000290 b0 32 7e 3c 66 6a ea 3c 56 51 9e 3c a0 da 7e 3b
       0.0155150145 0.028615188 0.019325893 0.0038887635
0002a0 68 f4 d9 bc 40 d6 33 3a ae 47 a0 3c 2f 05 12 3d
       -0.0266058 0.0006860234 0.01956543 0.035649475
0002b0 90 ec 17 3c be 7f 80 bc 38 2c 10 bc 00 18 87 3a
       0.0092727095 -0.015685912 -0.008799605 0.0010306835
0002c0 00 9c 10 39 c8 bf e9 bc dc 0b 30 bc d8 a0 53 bc
       0.00013791025 -0.028533831 -0.010745015 -0.012916766
0002d0 c4 c0 f1 bb 0d 66 10 3d 58 ea 8b 3c e8 12 c5 bc
       -0.007377716 0.035253573 0.017079517 -0.024056867
0002e0 7c bc ba 3c c2 87 e9 bc 08 9d 55 3c 7a 06 9c 3c
       0.022794954 -0.028507117 0.013037927 0.019046057
0002f0 fc eb 74 3c 60 a9 09 bd f0 2f 49 3b d0 a3 9a bb
       0.014948841 -0.033608794 0.003069874 -0.004719235
000300 85 4b d1 bc 10 56 ac 3b 44 a5 75 3c 5c df 52 3c
       -0.025548706 0.005259283 0.014993016 0.012870636
000310 b0 60 17 3c 09 7c 00 3d 68 1a 84 bb 92 13 01 bc
       0.009239361 0.03136829 -0.004031468 -0.007878201
000320 8c 43 10 bd 0c fb f4 bb a0 34 b9 bc cb 23 10 bd
       -0.035220668 -0.007476216 -0.022608101 -0.035190385
000330 64 82 fa bb 94 da 95 3c 8c 59 a8 3c 40 e4 ca bc
       -0.0076449383 0.018292703 0.020550512 -0.024767041
000340 21 f8 03 3d 06 ff 79 bc f6 a4 1f bc c0 6a 37 3a
       0.032219056 -0.015258556 -0.00974392 0.0006996803
000350 53 22 f9 bc 48 40 97 3b fb f4 0b 3d 10 7d ac 3b
       -0.030411875 0.004615817 0.03416918 0.005263932
000360 88 cf b1 3c da 82 bb 3c fd 49 f8 bc 68 9b 20 3c
       0.021705404 0.022889543 -0.030308718 0.009802677
000370 16 29 9b 3c 9a b0 d3 bc b0 93 33 bb f0 82 1b bb
       0.01894049 -0.025841046 -0.002740126 -0.0023729168
000380 49 ec 10 3d ac 6e 03 3c fe f6 6e bc 48 3f de bc
       0.03538159 0.008021992 -0.014585255 -0.027129784
000390 c5 84 80 bc a0 44 a7 3a a4 4f ad bb 2d 1b 04 3d
       -0.01568831 0.0012761541 -0.005289035 0.03225248
0003a0 f0 9c 58 3c 64 ae 0b bc 56 e5 6f bc 1a 3e e6 3c
       0.013221011 -0.008525465 -0.01464208 0.028105784
0003b0 68 e8 f6 bb 05 3b 05 3d ec 78 72 bc a6 1a 0c bd
       -0.007535029 0.03252699 -0.014799338 -0.0342051
0003c0 63 a2 08 bd 38 15 79 3c 76 35 b2 3c a2 11 e8 3c
       -0.03335799 0.015202813 0.021754008 0.02832872
0003d0 e2 8f a5 3c 96 f2 bf bc fe 06 b0 bc d0 c2 bb 3b
       0.02021021 -0.023431104 -0.02148771 0.0057300106
0003e0 58 4b bd 3c 50 7d b5 bc 64 35 1e bc 3a 46 de 3c
       0.023107216 -0.02215448 -0.009656284 0.027133096
0003f0 e2 53 dc 3c 5e 59 87 3c 92 b9 4c bc 30 df 5e bb
       0.026895467 0.016522106 -0.012495415 -0.0034007542

user_embed.weight f4 [447, 32]
000000 26 60 9a 3e 70 7b b1 bc 8e 44 1e 3c f5 99 a1 3e
       0.3015148 -0.021665305 0.009659899 0.31562772
000010 5d 9d 22 be 81 08 db bc 37 74 43 be 55 cf 26 be
       -0.15880342 -0.026737453 -0.19087301 -0.16290028
000020 cb 17 10 be 84 23 3c bc 01 c6 3f 3e 0f 77 76 3d
       -0.14071576 -0.011483077 0.18727876 0.060172137
000030 e2 b4 6e bc b8 33 4d 3e b4 47 c7 3d d0 65 68 3e
       -0.014569493 0.2003926 0.09730473 0.22695088
000040 49 70 4b 3d 31 70 3e be bb 60 ed 3d 1c 66 a8 bd
       0.04966763 -0.18597485 0.115907155 -0.08222601
000050 47 e8 10 3e e2 9a 89 bd a7 fb b5 be 97 e8 a2 bd
       0.14151107 -0.06718995 -0.35543558 -0.07954519
000060 40 e2 97 be 15 54 3b be e9 bd 4c bc 02 df bb 3e
       -0.29664803 -0.18293793 -0.01249645 0.3669358
000070 33 54 e4 be f2 16 d4 3d 20 a6 a5 3a 71 c7 78 bd
       -0.4459549 0.10355939 0.001263801 -0.060737077
000080 63 7e 97 3e 9f e1 e3 bd 8a 50 9a 3e 09 fe 4c be
       0.29588613 -0.11127018 0.3013957 -0.20018782
000090 d9 c2 ed 3c 01 49 d4 bc 9e ee d0 3d 5c d0 75 bd
       0.029023575 -0.025913717 0.102017626 -0.06001316
0000a0 e3 56 66 be 16 f2 ff 3d 3c 46 bb 3d 3e 46 20 be
       -0.22494082 0.12497346 0.091442555 -0.15651795
0000b0 27 a8 2c 3e 00 74 56 3e 53 b9 da bc 8b 6d ad 3d
       0.1686102 0.20942688 -0.026699698 0.08468159
0000c0 fa 0d f8 bc 14 5a 7c bd 4e 34 70 3e 8b 23 03 3e
       -0.030280102 -0.061609343 0.23457453 0.12806527
0000d0 94 53 f1 3c 62 39 be bd 1a bc 6d be 83 11 a2 3d
       0.029458798 -0.09288289 -0.23216286 0.07913496
0000e0 04 ec a4 be bd cf 21 be 44 15 cf 3d d3 24 97 3e
       -0.32211316 -0.15801902 0.10111478 0.29520282
0000f0 40 9e 5c be 61 c9 61 3e e6 75 5f 3e c3 01 6d 3e
       -0.21544743 0.22049476 0.21822318 0.23145203
000100 3d 06 5e 3e 00 95 b9 3d 1c a4 cc bd bb 61 bf 3d
       0.21682067 0.090616226 -0.09992239 0.093448125
000110 20 97 34 be 23 17 45 bd 33 c7 aa be b1 05 2d be
       -0.17635775 -0.048117768 -0.33355102 -0.16896702
000120 fe 22 b5 be 32 2a 17 3e 97 3c 0b 3e 95 9c 2d bd
       -0.3537826 0.1476219 0.13597332 -0.042385656
000130 d6 28 08 3e 7d 0f 02 3e ea d6 ca ba 27 f7 41 bd
       0.13296828 0.12701221 -0.0015475426 -0.047354843
000140 6e 07 87 3e 89 77 25 be f7 0e 69 3e 22 d7 5b 3d
       0.26372856 -0.1615888 0.22759615 0.053671964
000150 12 ac e3 bc 89 55 06 3e 65 5a 9a be 8a f5 da bd
       -0.02779201 0.13118567 -0.3014709 -0.10691364
000160 13 29 49 be 32 87 c4 bd 68 c7 bd 3c 4c b6 59 3e
       -0.19644575 -0.09596099 0.023166373 0.21260947
000170 63 5e 83 be 84 b6 55 3e 0e de 84 3e dd 7a 6f 3d
       -0.2565795 0.20870405 0.25950664 0.05846678
000180 a0 93 b5 3e a0 8d 36 3e 76 46 16 be 58 28 01 3f
       0.3546419 0.17827463 -0.14675316 0.50452185
000190 30 b8 41 3d e5 3c b3 bd 2c a5 40 be 50 75 cb 3d
       0.047294796 -0.08751849 -0.18813008 0.09934485
0001a0 8f a3 8e be bd b8 62 bc d4 08 80 be b7 7c 06 3e
       -0.2785916 -0.01383799 -0.25006735 0.13133512
0001b0 9a 5d d2 3e ff fa 8f 3e 7b 84 88 3e c8 87 25 bd
       0.41087037 0.28121182 0.26663575 -0.040412694
0001c0 6a 35 0e 3f 38 c8 43 3e ea 06 cd 3d b5 f8 b8 3b
       0.55550253 0.19119346 0.100110844 0.0056448826
0001d0 c0 0b d7 3c 4c c8 57 3d 6a 3d ed be 75 0c 2e be
       0.02625072 0.052681252 -0.46335918 -0.1699694
0001e0 10 f4 eb 3b 20 64 03 bf 20 52 e8 3e 1d 58 c5 3e
       0.0072007254 -0.51324654 0.45375156 0.38543788
0001f0 98 fc 11 be 34 79 c8 3e cb 0e 9a 3e 17 b8 94 bd
       -0.14256513 0.3915497 0.3008941 -0.07261675
000200 15 26 96 3e 36 f9 9c bd aa 4e 88 3d 24 4a af 3d
       0.2932593 -0.07664721 0.06655629 0.08559063
000210 eb 2d 30 bc 37 fe 09 be c6 e8 48 3d 7c e3 0b bd
       -0.010753135 -0.13475882 0.049050115 -0.034152493
000220 be cb 94 be 5c 9a 9a bd 38 9e 52 bd aa 12 00 3e
       -0.29061693 -0.07548973 -0.05142042 0.1250712
000230 3b 62 b5 3c 5a d3 bd 3d 69 9b 23 3e 07 ef 16 be
       0.022141567 0.09268828 0.15977253 -0.14739619
000240 09 c6 24 3e 93 b8 95 3d 1e f3 f1 3d be 7b 31 3e
       0.1609117 0.07310595 0.11813949 0.1733236
000250 86 0b cd 3c 11 e0 57 3e 8f 9a 90 be b0 59 ea 3d
       0.025029909 0.21081568 -0.2824292 0.11442888
000260 00 21 41 be c4 7c 5f be f1 b9 57 3d 64 1c 91 3e
       -0.18860245 -0.21824938 0.052667562 0.28341973
000270 21 03 13 be 29 38 10 3e c2 7e e0 3d 99 20 a2 bd
       -0.14356662 0.14083923 0.10961677 -0.07916374
000280 81 b9 4f be ef ba 30 3f c4 8c 3d 3f 00 17 0b bf
       -0.20285608 0.6903524 0.74042916 -0.5433197
000290 e7 82 22 3f 52 49 de bc 92 61 04 3e 8d 47 d3 3e
       0.6348099 -0.027134571 0.12927845 0.41265526
0002a0 d1 66 3b 3e 44 d4 eb 3e f8 96 9c be 28 f6 cf be
       0.1830094 0.46060383 -0.3058393 -0.4061749
0002b0 3d 9c aa 3e dd 7d 76 be 90 ce ef be f6 da 4b be
       0.33322325 -0.2407145 -0.46837282 -0.19907746
0002c0 f2 b0 99 be a4 b1 9b 3c 8b 06 dc 3e 48 52 c8 3e
       -0.3001781 0.019005604 0.42973742 0.39125276
0002d0 e3 91 e7 3e 92 f6 f1 be b0 9f b6 3e 32 e9 9d be
       0.4522849 -0.4725843 0.35668707 -0.30841976
0002e0 b3 e0 12 bf d8 b4 5e 3d 1a 5f d0 be e7 44 6d bd
       -0.57374114 0.054371685 -0.40697557 -0.05792704
0002f0 a3 69 d7 bc a8 72 05 3f a9 f5 fb bd 17 4b 05 3f
       -0.026295489 0.52128077 -0.12302715 0.52067703
000300 6e b9 e2 bc a4 ac 34 3e 58 62 b9 bd 57 ca 2b 3d
       -0.02767631 0.17643982 -0.09051961 0.041941013
000310 fd e8 11 3e 46 ff 0c be d6 69 be 3b 9b 6d 14 3d
       0.14249034 -0.13769254 0.0058109565 0.03623734
000320 56 34 29 be 88 52 c2 3d 1c e8 29 3e 27 13 98 bd
       -0.16523871 0.09488398 0.16592449 -0.07425528
000330 55 50 12 3e ff 89 18 3e e8 48 41 3c ba 2e 04 3e
       0.14288457 0.14896391 0.011797167 0.1290845
000340 2a 1a 8e bc 32 c9 9f 3d 2f 5e 8b 3d 79 a7 90 3e
       -0.01734646 0.07802047 0.068050735 0.28252771
000350 69 6d 40 3d 36 19 d0 3c 97 21 bc bd f7 a4 ff 3d
       0.04697934 0.025402647 -0.09186094 0.124826364
000360 fa d4 c3 bd 8f b7 f3 3d 79 3e e7 3d 1d 54 05 3e
       -0.095621064 0.119002454 0.112912126 0.13020368
000370 2b ae 3c be 59 4b 50 3d 78 f9 0f 3e 35 d0 99 3e
       -0.18425815 0.050853107 0.14060009 0.30041662
000380 ba 3a a3 3e 6e e8 03 3e be 44 5c be f7 34 6d 3e
       0.31880742 0.12881634 -0.21510598 0.23164736
000390 59 2f 83 bd 1d ed 9d be d3 86 24 be f9 0e 3d 3e
       -0.06405515 -0.30844966 -0.16067056 0.18462743
0003a0 f1 8f 3a be ab 8b e9 3d 4d 2b 3a be ff 60 3f 3e
       -0.18218972 0.11403593 -0.1818058 0.18689345
0003b0 b4 4d 64 3e aa 53 46 3e 28 cc d7 3e 47 72 d8 bc
       0.22295266 0.19367853 0.42147946 -0.02642168
0003c0 19 fd 58 3e 62 51 ab 3e 71 e9 3a 3d c4 65 09 3e
       0.21190299 0.33460528 0.045632783 0.13417727
0003d0 64 4c 81 3e fe bb 2f be 78 46 65 be e0 1f 65 3e
       0.25253594 -0.17161557 -0.22390163 0.2237544
0003e0 86 cf a4 be 83 ea 16 be a9 90 04 be d5 1a 1e 3e
       -0.32189578 -0.14737897 -0.12945808 0.15439923
0003f0 5d 40 7f be da e1 8b 3e 81 28 27 bd c8 bf 15 3e
       -0.24926896 0.2732075 -0.040810112 0.1462394

item_embed.weight f4 [578, 32]
000000 84 26 c9 bd 99 d8 3c 3e 71 1a b5 3e 2c 11 8c be
       -0.098217994 0.18442 0.35371736 -0.2735685
000010 f0 01 8f bd 9a 1c bd be be 7e 5a be 0b 95 a5 be
       -0.069827914 -0.36935884 -0.21337411 -0.32340273
000020 9e 93 31 3e 21 fd 86 3e ae 70 a6 bd d5 76 08 be
       0.17341468 0.26364997 -0.08126961 -0.13326581
000030 35 34 bd 3e 6a 9f 1f 3e 6f 89 20 be 63 40 61 3d
       0.36953893 0.15588155 -0.15677427 0.054993045
000040 46 32 9c be 77 1c d3 3e 92 e3 e3 bd 92 00 5f 3e
       -0.30507106 0.41232654 -0.1112739 0.21777561
000050 44 1e 39 be 75 30 b2 be d3 55 bc 3e 7f 7e 9c 3d
       -0.18077952 -0.34802595 0.3678423 0.07641315
000060 a9 14 4c be 5b eb 3b bd 33 77 f3 be 84 57 82 be
       -0.19929756 -0.04587875 -0.4755188 -0.25457394
000070 75 72 1b be 8e 91 cb 3d b0 0e dc 3d 0d 8b cc 3d
       -0.1518038 0.09939872 0.10744989 0.09987459
000080 b3 10 c4 3c c9 85 a6 bc d2 e2 e7 3e a0 86 b6 be
       0.023933744 -0.020327466 0.45290238 -0.35649586
000090 dd ef 60 3e ec eb 0a bf ec d9 e5 be 7f 0b 89 be
       0.219665 -0.5426624 -0.44892824 -0.26766583
0000a0 c7 47 dc bd 76 bc ba 3d 11 f6 68 3d 87 6c 17 be
       -0.10755878 0.09117977 0.056875292 -0.14787494
0000b0 53 62 85 3e 23 74 98 3e a1 1f c0 be 3f 37 d8 3e
       0.26051578 0.29776105 -0.3752413 0.4222965
0000c0 2c a1 8d bd 76 2f bb 3e a0 d4 76 be 03 41 56 3e
       -0.06915507 0.36559647 -0.24104548 0.20923238
0000d0 29 d2 81 3e be 7c b8 be 4c dc 77 be 6d 2b 19 3e
       0.25355652 -0.3603267 -0.2420513 0.14957972
0000e0 29 13 18 be 75 29 52 be b4 c8 22 3e cb bd 2b be
       -0.14851059 -0.20523627 0.15896875 -0.16771619
0000f0 13 fe d3 be c5 b8 08 3e 1c 80 5d 3e 4e 48 a8 3c
       -0.4140478 0.13351734 0.21630901 0.02054229
000100 82 9c a0 3d 04 a3 a9 3e fa eb 91 3e 64 c7 3c bd
       0.078423515 0.33132184 0.28500348 -0.04608859
000110 5a bb f4 3d 5f ae 98 be 8c 70 82 be fb 64 c5 bd
       0.11949797 -0.29820535 -0.2547649 -0.09638401
000120 30 59 4d be 42 8b 88 bd de b0 57 be 64 ff d5 bd
       -0.20053554 -0.06667186 -0.21063563 -0.104491025
000130 94 f4 9b 3e d7 22 91 3d 1e bd 73 be 31 bb b5 bc
       0.30460036 0.07086723 -0.23802611 -0.022183986
000140 cc 01 bb be ab 42 53 3c d3 bb e4 be df 1f cc 3e
       -0.36524808 0.012894313 -0.44674549 0.39868066
000150 75 2d b0 bd 6f 40 14 bf 28 90 07 bc d7 89 89 3e
       -0.0860242 -0.5791082 -0.008274116 0.26862976
000160 92 60 a3 be e9 5e 6a be 64 71 0a bf 13 87 09 3e
       -0.31909615 -0.22887768 -0.5407927 0.13430433
000170 b3 39 c5 be b8 42 cd 3d db f8 63 3e d7 c1 97 be
       -0.38520584 0.10022491 0.222629 -0.29640076
000180 9a 51 0c bd 54 2c 98 3d 06 55 9e 3d b5 2c bc bc
       -0.03425751 0.0743033 0.07731061 -0.022970537
000190 3f 0e 47 be 18 b2 91 bd 95 e0 86 3e 97 85 96 3d
       -0.19439028 -0.07114047 0.26343217 0.07349699
0001a0 6e f6 d5 bd 0f 5d f2 bc 0e bd 08 be 36 15 aa 3e
       -0.10447393 -0.02958539 -0.13353369 0.33219308
0001b0 39 e5 4b 3d ec f2 3d bd d5 a9 42 3e ca 65 36 bd
       0.04977915 -0.046374246 0.19010098 -0.044530667
0001c0 2f a6 04 3e ad 48 90 3e e6 bd 85 3e 06 de 21 3d
       0.12954019 0.28180447 0.26121444 0.03951838
0001d0 4f a9 b2 bd a7 d2 08 bd 3d b8 65 bb 21 af 5d 3e
       -0.08723699 -0.03340402 -0.0035052442 0.21648838
0001e0 59 6b 1b bd 50 5a 1a 3e 91 06 04 3e 41 f7 8b 3e
       -0.03794417 0.15073514 0.1289313 0.27337077
0001f0 2e 52 b9 3d 51 b4 90 bd 24 7b 09 3e bd 3d 0c be
       0.09048878 -0.070656426 0.1342588 -0.13695426
000200 f9 71 e0 bd f6 0c 98 3d 36 d0 c7 3c b2 0f 09 be
       -0.109592386 0.07424347 0.024391275 -0.13384894
000210 73 1b 97 be 3b 30 d0 3e 2b 05 8b 3e cb 23 9d 3a
       -0.2951313 0.40661797 0.2715238 0.0011988817
000220 1f 56 25 3e 87 78 54 be 5b ef c9 bd bd 7c dd bd
       0.16146134 -0.20749103 -0.098601066 -0.108148076
000230 00 c2 af be 1d 63 9f be bb 01 ed bd 5a f7 ec bd
       -0.34327698 -0.31130305 -0.11572596 -0.11570616
000240 7b 75 e5 bc 96 ff a9 bd 5f 20 d1 be 20 4f 3a be
       -0.02801012 -0.08300702 -0.4084501 -0.18194246
000250 22 e6 45 be 52 82 20 3d 80 c4 8b 3e c7 59 5c be
       -0.1932607 0.039186783 0.27298355 -0.21518622
000260 17 18 f0 3e 66 4e 0b 3e 86 d1 a6 bc 79 4b bf be
       0.4689338 0.13604125 -0.02036358 -0.3736227
000270 e2 a2 a7 3e 24 4a 93 be 70 a5 8a be fa 9e 70 3d
       0.32741457 -0.28767502 -0.27079344 0.058745362
000280 6c b5 49 bd 1c 8c 15 bc 64 f4 2f be 2e 88 1e be
       -0.049245283 -0.009127643 -0.17183071 -0.15481636
000290 95 9b 75 3e 74 8d b1 3e 71 99 0f 3e 23 52 70 bd
       0.23985131 0.34678233 0.14023377 -0.05867208
0002a0 ba 9a 84 3e 3c fa c3 bc f4 82 bd bd a9 46 6d bd
       0.25899297 -0.023923032 -0.09253493 -0.057928715
0002b0 32 a4 02 be 78 47 dd bd 7c 5c 1e be 48 de 32 3d
       -0.12757948 -0.10804647 -0.15464967 0.043669015
0002c0 4d b6 09 be 05 d3 7e be 70 98 3b bd f5 0f 1e 3e
       -0.13448448 -0.24885185 -0.045799673 0.15435775
0002d0 a2 8d c8 bd 8e c5 19 3d 12 f9 93 3e 27 b5 10 be
       -0.09792639 0.03754192 0.28900963 -0.14131604
0002e0 a7 3b 8a 3d a5 0d c3 3e c4 54 2f 3a 47 9e c8 3d
       0.06749659 0.38096347 0.0006688351 0.09795814
0002f0 43 e7 3d 3e 69 c7 de bd bb 90 ef bd fd 4f 32 3e
       0.1854525 -0.10877878 -0.11697527 0.17413326
000300 c6 4d ad 3d 94 67 01 3f e0 59 b3 3e 58 6a e2 be
       0.084621 0.5054867 0.35029507 -0.4422176
000310 79 17 eb 3d 86 71 9c be 95 c1 cc be 08 e6 a7 be
       0.114790864 -0.30555362 -0.3999144 -0.32792687
000320 30 58 c2 be 61 c0 22 3f 6b 25 b7 be a3 e5 18 bf
       -0.37957907 0.63574797 -0.35770735 -0.597254
000330 3e 71 d6 3e 74 54 e6 3e 25 1c 58 3e 8d bf cf bd
       0.41883272 0.44986308 0.21104486 -0.10143957
000340 6c e3 94 3e 20 b5 fc 3e 81 ff 7f 3e bf 15 f6 3e
       0.2907976 0.49356937 0.24999811 0.48063466
000350 2f 37 83 bc 47 06 1a bf 1c 9e 04 bf e8 ef fa 3e
       -0.016017525 -0.6016583 -0.51803756 0.4901116
000360 a5 5c f8 be 24 df 23 be 42 b0 b3 be d7 82 9e bd
       -0.48508182 -0.1600309 -0.35095412 -0.077397995
000370 81 db f0 be fb 68 cd 3e 60 28 d4 3e 93 33 97 3e
       -0.47042468 0.40119156 0.41437054 0.29531536
000380 86 b8 ad bd 05 89 72 3e 57 3c 27 3f ec 3a e8 be
       -0.08482461 0.23685081 0.65326446 -0.45357454
000390 69 23 5c 3d 8c c5 f5 be 14 af 94 be cd cf b3 bd
       0.053744707 -0.4800228 -0.29039824 -0.08779869
0003a0 ec 4d 10 bf 81 d4 b3 3e 07 56 48 3c 47 6d 1e bf
       -0.563689 0.35123065 0.012227542 -0.61885494
0003b0 0c 5f 19 3f 0a 0b 88 3e 77 50 d7 bd 4f 86 05 3d
       0.59910655 0.26570922 -0.10513394 0.03259879
0003c0 da f0 b3 be 3a de 06 3f bc bd 99 3e c4 65 1b 3f
       -0.35144693 0.5268284 0.30027568 0.6070216
0003d0 8c 26 c7 3d e6 2e f0 be 70 2e c7 3d f0 dd b0 3d
       0.09724149 -0.4691078 0.09725654 0.08636081
0003e0 2d 2c e9 be cf 3a 53 be 77 c3 88 be 7e e0 08 3d
       -0.45541516 -0.20627902 -0.26711628 0.033417217
0003f0 0a 1b 15 bf 70 44 9d 3e 34 2b d6 3e 5c 06 9e 3e
       -0.58244383 0.30716276 0.41829836 0.30864227

entity_embed.weight f4 [886, 32]
000000 02 6f a6 bd e8 1c 46 bd bb 47 92 3d 9e 95 67 3c
       -0.08126642 -0.04836741 0.07142588 0.014134793
000010 12 f7 c2 bc ac 68 4d bd a1 87 ff 3c 88 32 9e 3c
       -0.023799453 -0.05014865 0.031192603 0.019311205
000020 28 36 2f 3d 3d 68 9e bc 17 20 00 bd 69 f1 c4 bd
       0.042776257 -0.019336814 -0.031280603 -0.09616358
000030 71 f8 f4 bc 73 60 16 bd 6c fe 29 bd 5e 1f 13 3d
       -0.029903622 -0.036713075 -0.0415024 0.035918586
000040 9b 2b c1 bd 08 d7 51 3d 1a 81 b6 bb 5a e3 60 3d
       -0.09432145 0.05123046 -0.0055695893 0.05490432
000050 da 13 4b 3d 19 ba 75 bc be 1b 16 3d ce 43 8e 3d
       0.04957948 -0.014997982 0.03664755 0.069465265
000060 a9 1a 99 bc 08 04 db bc b2 f5 f8 bb 35 25 0c 3d
       -0.01868947 -0.02673532 -0.0075976485 0.03421517
000070 ab 45 7f bd 49 fd 91 3d a6 6b 94 bd 4c e9 84 bd
       -0.0623223 0.071283884 -0.07247095 -0.0648981
000080 d6 26 af 3d e4 7c a1 bd c7 dd c8 3d b1 38 06 bd
       0.08552329 -0.07885149 0.09807926 -0.03276891
000090 69 72 0b 3d ed 18 f8 bc 85 be b2 bd 87 9d c1 bd
       0.034044657 -0.030285323 -0.08727745 -0.09453874
0000a0 c6 7f 6e 3d 55 52 12 bd 66 c4 44 bc e9 52 84 bd
       0.058227323 -0.03572305 -0.012009716 -0.06461126
0000b0 61 46 f0 3d 7b e8 4f 3c 54 e9 97 3c 1f 9d ff 3d
       0.11732174 0.012689705 0.018543877 0.1248114
0000c0 74 e1 c2 bc 87 21 bc 3d 9e 3d 89 bc 36 53 ab bc
       -0.023789145 0.09186082 -0.016753014 -0.020913702
0000d0 90 b9 22 bd 4a cb 24 bd ba 4b fa 3c 0d 6d 72 3d
       -0.039727747 -0.040232934 0.030553687 0.05918603
0000e0 36 01 f7 3c 6f 74 e9 bd 43 3b 8b bd 30 80 3a 3d
       0.030151945 -0.11399161 -0.06798413 0.045532405
0000f0 2a ca 03 3c ff df d8 3d 5b b3 aa 3d 63 dc 20 bc
       0.008043805 0.10589599 0.083349906 -0.009818169
000100 c5 c2 65 3d 9e f1 91 3d b0 77 d0 3d 0a 71 88 bd
       0.05609395 0.07126163 0.101790786 -0.066621855
000110 34 a8 9f 3d c0 16 79 bd b3 6e 1e bd ad 53 b8 bd
       0.07795754 -0.06081271 -0.03867979 -0.09000335
000120 f1 d6 c9 3c 70 24 72 bc dd 99 39 bd 4a a2 b6 3c
       0.024638625 -0.014779195 -0.04531275 0.022294182
000130 e7 45 a1 3d ea 91 c0 bd 7b a3 ce 3b 6b ac 8d bd
       0.07874661 -0.09402831 0.0063061095 -0.06917652
000140 65 e5 a4 bd 28 3f 89 3d 4e f2 cb bd 71 fa c9 3d
       -0.08051566 0.06701499 -0.09958325 0.09862221
000150 0a 47 83 3d 93 0d f1 bd 75 87 12 3b 68 15 b0 3d
       0.06410034 -0.11770167 0.002235857 0.08597833
000160 86 fb 00 bd 50 7b 0e 3d 73 66 19 be 03 75 41 3d
       -0.03148987 0.03478557 -0.14980488 0.04723073
000170 70 ff 10 bb 4e 3e 22 3d 2c 1a 0b 3d c0 22 e3 bd
       -0.002212491 0.0396102 0.033960506 -0.110906124
000180 20 9e 08 bd 43 7d 63 bd 78 ed f1 3c 59 b7 94 bd
       -0.033353925 -0.05553938 0.02953218 -0.07261533
000190 66 25 5e 3d d5 de b4 3d af fd a9 bc 21 3a 3b 3d
       0.054234885 0.08831564 -0.020750849 0.045709733
0001a0 5b 4d 10 bd 6c 9f 23 3c 4f 2b 57 3d 43 d1 65 bd
       -0.035230022 0.00998674 0.052531537 -0.05610777
0001b0 c3 78 28 3d fd 1a 2a bc ae a7 86 3b 0b 7a 90 bd
       0.041130792 -0.010382411 0.0041093444 -0.07054528
0001c0 e8 cb 4a 3d 95 83 19 3d 02 69 99 3b 79 e9 7a 3d
       0.049510866 0.037479002 0.0046817074 0.061257813
0001d0 96 b7 0f bb cd 32 08 bd 12 d8 80 3d 13 25 58 bd
       -0.0021929494 -0.033251572 0.06291212 -0.05276973
0001e0 f2 34 5f 3d 17 a3 0d 3c 9b cb 92 3d 15 b0 44 3d
       0.054493852 0.008644841 0.07167741 0.048019487
0001f0 bb 1b 6e 3c ef 95 05 bd 7b 07 3f bc 25 0d 28 3d
       0.014532979 -0.03261369 -0.011659498 0.04102816
000200 31 d4 ee bc 24 71 01 bb 64 26 04 3d f6 60 a0 3c
       -0.029153915 -0.0019751275 0.032263175 0.019577485
000210 c9 15 91 bd d5 01 ec 3c d6 97 fe 3c 5b f7 2a bd
       -0.07084233 0.028809467 0.03107826 -0.041739803
000220 3b 33 1e 3d 0f 54 6c bd 7c 92 77 bd 50 98 93 3c
       0.038623076 -0.057697352 -0.060442433 0.018016964
000230 18 4e e2 bc 15 a0 be bd 7f 8b e2 bc a4 cd 3c bc
       -0.027625129 -0.09307877 -0.027654408 -0.011523638
000240 55 14 8a 3d 58 b9 06 3d ca 76 31 bd 38 28 a0 3d
       0.06742159 0.0328916 -0.043326177 0.07820171
000250 04 24 53 3c f6 44 6d bd 43 7f 60 3d 24 ed 46 bd
       0.012887005 -0.057927094 0.054808866 -0.048566
000260 b9 fc fc 3c a5 f9 17 b9 11 92 5e 3d 9d 9c 45 bc
       0.030882226 -0.00014493482 0.05433852 -0.012061265
000270 fc e6 ff bc 01 58 02 ba 60 fc b7 bd 48 70 42 ba
       -0.031238072 -0.000497222 -0.089836836 -0.0007417244
000280 4a 34 8b bd 37 44 b1 3c ae 05 76 3b 8f 33 fe bc
       -0.06797083 0.021638973 0.0037540006 -0.031030444
000290 51 13 32 3d 8d c0 5f 3d 6c 9d 9e 3d a3 17 63 3b
       0.043475453 0.05462699 0.077448696 0.003465154
0002a0 37 71 f2 3c 6a 8a 8f 3d f0 d3 c2 b8 e0 04 89 bd
       0.029595 0.07008822 -9.290117e-05 -0.06690383
0002b0 99 a0 9d bd 7e ae 6b 3c 70 12 e5 bc 03 9f 8d 3d
       -0.07696647 0.014384864 -0.027962893 0.06915095
0002c0 7c f5 0a bd ca 34 a2 bd cf e5 46 ba d3 fc 86 3d
       -0.03392552 -0.07920225 -0.0007587345 0.06591191
0002d0 9d 5d f0 3c 18 99 0a 3c f6 1d 8b 3c 20 d5 1c 3d
       0.029341513 0.008459352 0.01698206 0.03828919
0002e0 c2 4a 50 bc 66 bd 2a 3d 77 44 17 3c d9 d9 27 bc
       -0.012713136 0.04168453 0.009232632 -0.01024481
0002f0 98 4d 21 3d 16 ac 4f 3b aa bc a8 bd 89 46 75 bd
       0.03938064 0.0031688265 -0.0823911 -0.05988172
000300 23 15 e9 bc 0e 68 15 3d 37 91 9e 3d f1 f4 ef bd
       -0.028452462 0.036476187 0.07742541 -0.11716641
000310 53 44 5a bd d0 83 e2 bd c9 61 07 bd ce 01 05 be
       -0.053287815 -0.110602975 -0.03305224 -0.1298897
000320 ed c0 1f bc 2a f2 01 3e dd 09 2f bc 9e f1 13 bd
       -0.009750587 0.12690035 -0.010683504 -0.036119096
000330 a2 ff 20 3e 7f 3d 05 3e 3c 59 89 3c d6 a2 a6 bc
       0.15722516 0.1301174 0.016766183 -0.020341318
000340 a2 26 8d 3d 33 0c 05 3c fa 62 21 3d 34 c0 de bb
       0.06892134 0.008120584 0.039401032 -0.0067978147
000350 59 6f 79 bd 75 bb db bd fe 37 cb bd 39 f0 57 3d
       -0.060897205 -0.10729114 -0.09922789 0.05271933
000360 09 e8 96 bd e7 62 b5 bd aa 26 b5 bd 4e 73 3c 3c
       -0.07368476 -0.08856755 -0.08845265 0.0115021
000370 e2 ee b5 bd d6 17 14 3d 5e 98 61 3d 5a 3f e9 3c
       -0.08883454 0.036155544 0.05507695 0.028472591
000380 a9 2f 85 bd 9b 1a 71 ba dc 77 f0 3d 58 da d3 bd
       -0.06503231 -0.0009197385 0.11741611 -0.1034438
000390 41 d1 73 bc 3c 98 12 bd ed e7 d3 bc 5d 91 b8 bd
       -0.014881433 -0.035789713 -0.025867427 -0.09012101
0003a0 99 76 a1 3c 12 58 35 3d d6 1b 73 3d 63 8c 6b bd
       0.019709872 0.044273444 0.05935272 -0.05750693
0003b0 f5 e8 9a 3d 41 48 e6 3c 97 4e 8f bd d3 80 a1 bd
       0.07563964 0.028110625 -0.06997412 -0.078858994
0003c0 33 7e c9 bd a4 3f 00 3e 22 97 96 3d a3 cb bb 3d
       -0.09838524 0.12524277 0.07353045 0.091697
0003d0 e5 01 35 3d 18 85 2f bd 27 31 9c 3d d4 cd 51 3d
       0.04419126 -0.042851537 0.076265626 0.051221684
0003e0 76 f8 56 3c 15 15 66 ba 5c 32 96 bd e9 57 32 3c
       0.013120761 -0.0008776945 -0.07333824 0.010885217
0003f0 bb 1c 85 bd b3 05 fe 3c 1c be 43 3c df 40 bb ba
       -0.064996205 0.031008577 0.011947181 -0.0014286301

relation_embed.weight f4 [114, 32]
000000 2e 2a e9 bc d2 a0 2b 3c ff 14 df bc 14 12 10 be
       -0.028462496 0.010475354 -0.027231691 -0.14069396
000010 ed 7c b7 3d ab 13 c6 3d 76 f9 64 3d de e2 35 be
       0.089593746 0.0967172 0.055901967 -0.17762324
000020 06 3b e8 bd 4f eb 2b bd 34 b7 a6 bc 15 f8 3a bd
       -0.11339383 -0.041972455 -0.02035103 -0.045646746
000030 1d 54 93 3d 57 f7 41 3e 9c c1 e8 3d f2 e1 c0 bd
       0.07193778 0.18942009 0.11365053 -0.09418096
000040 6f 5a b4 bd 42 ae 62 bd ff 9c 4e 3d 43 d1 9c bd
       -0.08806311 -0.055341966 0.050442692 -0.07657101
000050 15 74 7b bd b8 6e a9 3c 26 e1 e8 3c 3c c4 d0 bd
       -0.06139 0.020682678 0.028427672 -0.10193679
000060 ed 89 08 3e 88 f6 56 3d 2f 6f 32 3e 67 19 45 be
       0.13333865 0.052481204 0.17425226 -0.19247971
000070 40 f2 cd bc 7f 13 e4 bc 72 f5 27 3e c9 23 3b 3e
       -0.025139928 -0.027841328 0.16402224 0.1827537
000080 7f 48 41 bd 7d 7f 07 3e eb 1d 4c 3c bf 13 1a bc
       -0.04718828 0.13232227 0.012458305 -0.009404122
000090 94 d6 21 be 99 dd 17 be 95 8f ca 3c 46 51 4a be
       -0.15804511 -0.14830627 0.024726668 -0.19757566
0000a0 c9 df 2b 3e a2 2f 4f 3c d1 32 19 be 76 e1 00 3e
       0.16784586 0.012645634 -0.14960791 0.12586007
0000b0 dd c7 23 be 04 d3 0b be 1b b2 c2 bd c6 b3 30 bd
       -0.1599421 -0.13654715 -0.09506627 -0.043140195
0000c0 34 30 1d bd 01 a8 38 be 3e de 4c 3b 67 50 21 be
       -0.03837605 -0.18032838 0.0031260396 -0.15753327
0000d0 34 cd b8 bd 8f 1b 57 3d 9c 5b 42 ba 0a 17 0a 3e
       -0.090235144 0.052516516 -0.00074141636 0.13485351
0000e0 5d 14 c6 3d f9 d0 13 bb d3 47 a5 3d ca d1 b1 3b
       0.09671853 -0.0022554977 0.0807034 0.00542662
0000f0 c1 d4 09 bd 92 6f cf 3d f0 2d 9c bd 10 f5 43 be
       -0.033650164 0.10128702 -0.076259494 -0.19136453
000100 03 5c db 3d fe 67 c3 bc 83 0a 17 3c 05 d3 7b 3d
       0.10710909 -0.023853298 0.009218815 0.06148054
000110 bb c5 ce 3c d6 2c 1a be 30 0c 33 3d 5b cf 16 be
       0.02524077 -0.15056166 0.043712795 -0.14727537
000120 fc 28 13 bd d0 ad 22 be 29 82 f5 3d 86 db c1 bc
       -0.035927758 -0.15886617 0.11987717 -0.023664247
000130 32 33 1f 3b f4 74 76 be ba e9 9f 3d 11 0e 23 be
       0.002429199 -0.24068052 0.07808252 -0.15923335
000140 f3 50 0e be 82 f5 0c 3e 77 04 19 3e 12 a8 5b 3e
       -0.13898067 0.13765529 0.1494311 0.21450832
000150 18 56 a7 3d b8 b6 aa bd 6d 5e 87 3d 73 a4 05 3e
       0.08170718 -0.08335632 0.06609807 0.13051014
000160 b2 c3 44 3e be 33 09 be 20 f4 a4 3d 36 69 05 3d
       0.19215277 -0.13398644 0.08054376 0.03257104
000170 a3 6c 01 3e 7e 32 e7 3d 7f 9f a2 3d 56 e3 1f be
       0.12639098 0.112889275 0.07940578 -0.15614066
000180 7a f6 62 3d 83 ae 23 be 7c d6 ad bd fe 35 f8 bc
       0.05541084 -0.1598454 -0.08488175 -0.030299183
000190 24 d0 b3 bd 4a d4 a2 bd 91 4b 54 3b 63 6a 1b 3e
       -0.08779934 -0.07950647 0.0032393674 0.15177302
0001a0 65 b8 d3 bd de c5 63 3d 88 05 ab bd 80 39 a2 bd
       -0.10337905 0.055608623 -0.083506644 -0.079211235
0001b0 f2 6a 88 ba c2 dc 47 be ed 69 b4 bc 1a 9f 1e be
       -0.0010407849 -0.19517806 -0.022023166 -0.1549038
0001c0 55 95 05 3e 47 19 94 bd 56 01 d3 3c 0c f6 99 3d
       0.13045247 -0.07231384 0.025757473 0.07517633
0001d0 1a 00 f7 bd 51 21 4a be 2c 05 6c bd fb ae c4 bd
       -0.12060566 -0.19739272 -0.05762212 -0.096036874
0001e0 c8 2f 2c 3e 30 9c 28 be f5 37 ac bd ad d3 3c 3e
       0.16815102 -0.16465831 -0.084091105 0.18440123
0001f0 e6 91 96 bd 57 59 3b be 80 77 25 3e 4f a0 d9 3d
       -0.07352047 -0.18295799 0.16158867 0.106262796
000200 98 e9 e6 bd ca 4f a2 3d 19 92 fa bd 47 c9 df bd
       -0.11275023 0.07925375 -0.12234897 -0.109270625
000210 27 fd 4e bc e9 2f e8 3d ee e8 69 bc 8f 3b 07 be
       -0.012633598 0.11337263 -0.014276726 -0.13206314
000220 c6 71 d5 3d 3a 55 5c 3d f1 8c 5b bc 92 8d 98 bd
       0.10422091 0.053792216 -0.013400302 -0.074488774
000230 4e b2 27 bd d8 18 f4 bd 86 f9 10 3e 16 b1 64 bb
       -0.04094153 -0.11918801 0.14157686 -0.003489559
000240 f6 f1 9b 3c c0 8c 03 3e 0a 1e 48 bc 0a c7 8e 3d
       0.019036274 0.1284666 -0.012214193 0.069715574
000250 53 f0 d1 3d 6b ee fa 3d bf ce 5f bc 96 50 24 be
       0.10250916 0.12252506 -0.013660132 -0.16046366
000260 c6 a8 c8 bd bd 1b be bd f0 d9 ba 3b be da 9a 3c
       -0.09797816 -0.092826344 0.0057022497 0.018903133
000270 52 00 24 bd 57 1f 4c be 2a 86 01 be b9 ec 04 be
       -0.040039368 -0.1993383 -0.12648836 -0.12980928
000280 37 4a 0f be 45 55 51 bd 83 6c 08 be 3c 32 c0 3d
       -0.13993154 -0.05110671 -0.13322644 0.093845814
000290 49 43 47 3d 48 42 b5 3d 2f 75 9a 3d a0 b8 22 3d
       0.048648153 0.08850533 0.07541882 0.039726853
0002a0 33 44 7b bd 3b b8 99 bd 5b 29 88 bd 7a db ea bd
       -0.061344337 -0.07505842 -0.06648513 -0.11467643
0002b0 d2 b2 0e bd 55 42 11 be 97 9e 53 be 2c 14 e6 3d
       -0.034838505 -0.1418546 -0.20665966 0.11234316
0002c0 dd c2 01 bd 94 71 92 3c 42 05 94 bd 3e ac f7 bd
       -0.031679977 0.017876424 -0.07227565 -0.120933995
0002d0 26 83 b2 3d 01 9c 84 bd ca 72 27 3e 0e 4f 91 3d
       0.08716421 -0.06475068 0.16352382 0.070951566
0002e0 2a b9 85 bb c2 4e c9 bd 70 e5 f2 bb 77 5d 08 be
       -0.004080911 -0.09829475 -0.007412605 -0.13316904
0002f0 18 0b b3 3c 6e b9 12 3e f3 4b 80 bd 68 f5 c6 bd
       0.021855876 0.14328548 -0.06264486 -0.09714776
000300 03 a0 98 3d 4f 8e 43 3e a5 b8 f0 3d 19 85 18 3e
       0.07452395 0.19097255 0.11753968 0.14894523
000310 1b c6 96 bc b0 1b 4a 3e d8 3d 06 3d 17 5a e9 bc
       -0.01840501 0.19737124 0.032773823 -0.028485341
000320 f1 be 82 3b 3d 33 42 bd ff 74 da bc 48 9c 24 bd
       0.003990047 -0.047412146 -0.026667116 -0.040188104
000330 67 15 00 be b8 4b f6 bd 5b 2a aa 3d c5 2f 87 bd
       -0.12508164 -0.12026161 0.0830886 -0.06600908
000340 ce 39 41 3d f6 28 1b be b6 7b 95 bc 01 e5 17 3e
       0.047174267 -0.15152344 -0.018247467 0.14833452
000350 99 1e 26 3d 37 d3 06 3d aa dc 19 3e 4f a3 e9 3d
       0.040556524 0.032916274 0.15025583 0.11408102
000360 64 b2 9e bc 79 50 4a 3d c1 af ce ba 0c e3 9f bd
       -0.019372173 0.04939315 -0.0015768931 -0.07806978
000370 4d e0 f4 bd 59 ed af 3c c9 8a 1d be 3a 5f 30 be
       -0.119568445 0.02147548 -0.15384974 -0.17223826
000380 57 86 b6 3c b9 4d 37 be 73 0d e9 bd 90 b0 0f bd
       0.022280855 -0.17900743 -0.11379518 -0.035080492
000390 cf a6 28 3d e4 57 06 3e b7 7f 3f be 30 91 1b 3d
       0.041174706 0.13119465 -0.18701063 0.03798026
0003a0 7d d1 85 bd d6 84 fb ba 45 5c 33 3e 2b 16 a1 3d
       -0.06534097 -0.0019189368 0.17515667 0.07865556
0003b0 c1 a6 43 3d 44 bb 38 be 20 27 ff bd 5a 94 19 be
       0.04776645 -0.18040186 -0.124586344 -0.14997998
0003c0 31 c8 33 3e f4 50 96 3d 70 16 39 3e 46 38 b1 bd
       0.17556836 0.07339659 0.18074965 -0.086533114
0003d0 5c 9b c7 3d 2b 23 5c be 12 1f 9b 3d aa dc 20 be
       0.09746429 -0.2149779 0.075742856 -0.15709177
0003e0 c8 d7 f2 3d 42 65 25 be ee 90 b6 bd 2e 5f 61 bd
       0.11857563 -0.16151908 -0.08914362 -0.05502241
0003f0 59 5e ac bd b4 7f fd bd 41 ba 51 be c0 e0 9e bd
       -0.08416433 -0.12377873 -0.20481206 -0.077577114
