Knowledge_Graph_Recommendation/recommendation/stage2/trained_model/Douban/Embedding_based/dim32_lr0.001_l20.0001_TransE/concat/model1_epoch30.pth (torch, 728343 bytes, 5 tensors)

trans_M f4 [114, 32, 32]
000000 a4 a1 e7 bb 88 21 04 3c b0 91 6b 3b 14 d6 78 3c
       -0.0070688296 0.008064635 0.003594499 0.015187759
000010 9c fe 3c 3c c6 88 e3 3c fc 72 6f 3c a6 f1 c0 3c
       0.011535313 0.02777518 0.014614817 0.023552727
000020 31 d7 8e bc a4 82 10 bc ba a0 e4 3c c1 e9 b8 bc
       -0.017436596 -0.00882021 0.027908672 -0.0225724
000030 00 ab 66 bb e8 b6 1f 3c e0 f7 d4 bc 48 87 bd 3b
       -0.0035197139 0.009748198 -0.025997102 0.005783949
000040 18 1f e3 bc e6 5a e2 3c e0 da 4d bc 98 49 3f 3c
       -0.027724788 0.027631234 -0.012564391 0.011675261
000050 ae 82 0d bc 12 6a a1 3c f0 f8 3a bb 20 9c 40 bb
       -0.0086371135 0.019703899 -0.0028529726 -0.0029389933
000060 32 58 8d 3c 00 58 eb 37 2a 19 c3 3c 96 27 e8 3c
       0.017253969 2.8055161e-05 0.02381571 0.028339189
000070 bb cb 01 3d b3 10 0b 3d cb 09 d9 bc 10 ea ce 3c
       0.031688433 0.033951472 -0.026493927 0.025258094
000080 e8 d7 d3 3b 6b 93 80 bc e0 99 ac 3c 38 9a 95 3b
       0.006464947 -0.015695294 0.021069467 0.0045655034
000090 86 40 8b bc 4c a2 d9 bc d0 ce 7b bc ca d6 94 bc
       -0.01699854 -0.026566647 -0.015369132 -0.018168826
0000a0 e0 75 d1 ba 18 69 a9 bb f4 0b 49 3c 69 af 0a bd
       -0.0015980564 -0.005169999 0.012270916 -0.03385869
0000b0 65 bf e2 bc ee 90 f3 bc 73 4a 03 3d ca 0e ef 3c
       -0.027679155 -0.029732194 0.032053422 0.029181857
0000c0 dc e2 a6 3c 3e 65 ad bc d0 1a 69 3c 4c a0 ae bc
       0.020371847 -0.02116644 0.014227584 -0.02131667
0000d0 a5 73 07 3d 61 d1 05 3d 7f d5 0d 3d ec 1b f4 bc
       0.03306927 0.032670382 0.034627434 -0.02979847
0000e0 4c 4e 52 3c d4 7b b0 bc 5e ae 48 bc 3c b8 14 3c
       0.01283605 -0.02154342 -0.012248604 0.009077128
0000f0 47 d7 ed bc 42 4f f6 3c 80 c8 d6 39 0a 46 9d 3c
       -0.029033316 0.03006709 0.00040966645 0.019198436
000100 bc e8 02 3c f8 6c c8 bb de 41 fa 3c a7 b0 0d bd
       0.0079900585 -0.0061165057 0.030548986 -0.034592297
000110 4c 1e 55 3c b0 90 08 bb ea 1e fc 3c 4e 62 af 3c
       0.013007712 -0.0020838194 0.03077646 0.02140918
000120 dc 84 3e 3c b4 16 c3 bb d4 21 0a 3c 60 d2 8b 3a
       0.011628356 -0.005953634 0.008430917 0.0010667555
000130 9e d1 1f bc 40 ff a4 3c 86 16 d6 bc 70 8e 5f 3b
       -0.0097545665 0.020141244 -0.026133787 0.0034112
000140 6c f1 2a bc f0 ac 6a bb bd 22 d4 bc 20 fe d1 3b
       -0.010433536 -0.0035808645 -0.02589547 0.006408468
000150 0e 45 71 bc e2 1f d6 3c a0 74 8b 3b 62 2f b2 3c
       -0.014725937 0.02613825 0.004255846 0.02175111
000160 6e d3 a4 3c 00 d4 8d bb 42 89 ef 3c 0e 94 fa 3c
       0.020120349 -0.004328251 0.029240254 0.030588176
000170 e7 19 11 bd 2a a1 d7 bc 48 ad 2a 3c a0 d6 ce 3c
       -0.035425093 -0.026321966 0.01041729 0.025248826
000180 a0 be 2c 3b 00 b4 4f 3a aa 33 e9 3c 50 bb 5d bc
       0.0026358739 0.00079232454 0.028467018 -0.013533428
000190 83 58 05 bd c9 e1 09 3d 46 75 0d bd a8 dd b7 3c
       -0.032555114 0.03366259 -0.03453567 0.022444561
0001a0 8a 44 db 3c 98 fd 78 bc 4e 88 ae bc f4 d6 42 3c
       0.02676608 -0.01519718 -0.02130523 0.011892069
0001b0 64 0d 89 bc f2 10 fd 3c 0d 36 05 3d 32 cf a6 3c
       -0.016730018 0.03089187 0.03252225 0.02036247
0001c0 1c 32 45 bc b6 ff dc bc 1a 4e c5 3c 40 f0 9c 3b
       -0.012035873 -0.026977401 0.024085093 0.004789382
0001d0 52 bc 10 bd 80 a3 90 3a ee 43 e1 3c 32 de c3 3c
       -0.035335846 0.0011035055 0.027498212 0.023909662
0001e0 aa ac 84 3c 0a 9d 33 bc 83 b1 e4 bc 66 84 ab bc
       0.016195614 -0.010962734 -0.027916675 -0.020937156
0001f0 41 85 d7 bc b3 aa 94 bc c2 bd e2 bc 81 88 80 bc
       -0.026308658 -0.018147802 -0.027678374 -0.01569009
000200 7c 46 c4 bb 38 98 91 3c 06 cb 11 bc fd 02 aa bc
       -0.0059898477 0.017772779 -0.008898502 -0.020753378
000210 16 d4 d3 3c 08 48 d8 3b 1a 5d f4 3c 7a 69 ae bc
       0.025857966 0.0066003837 0.02982955 -0.02129053
000220 dc eb af bc b8 62 06 3c 3a c8 85 bc 2e 0a fe 3c
       -0.021474771 0.008202247 -0.016330827 0.031010713
000230 fa 45 3a bc 46 a0 44 bc 0e ca df bc 10 4a a5 3b
       -0.011369223 -0.012001103 -0.027318027 0.0050442293
000240 6b eb dc bc 39 9f 97 bc 2a a0 fa 3c 5f 54 01 3d
       -0.026967725 -0.01850854 0.03059395 0.031574603
000250 39 26 91 bc 74 06 6e bc 58 c0 cb 3c c8 48 64 bc
       -0.017718421 -0.014527906 0.02487199 -0.013933368
000260 2e be a1 3c e6 b6 a2 3c 1a 06 8c 3c 20 64 81 bb
       0.019744005 0.019862603 0.017092753 -0.0039487034
000270 2a b1 dc 3c 2e af d9 bc 39 ba ed bc f8 9c f2 bb
       0.026939947 -0.02657279 -0.029019462 -0.007403966
000280 70 01 93 3c 3b b4 06 3d d4 4c 4a bc e2 fd e9 3c
       0.017945021 0.032886725 -0.012347419 0.028563444
000290 b0 32 7e 3c 66 6a ea 3c 56 51 9e 3c a0 da 7e 3b
       0.0155150145 0.028615188 0.019325893 0.0038887635
0002a0 68 f4 d9 bc 40 d6 33 3a ae 47 a0 3c 2f 05 12 3d
       -0.0266058 0.0006860234 0.01956543 0.035649475
0002b0 90 ec 17 3c be 7f 80 bc 38 2c 10 bc 00 18 87 3a
       0.0092727095 -0.015685912 -0.008799605 0.0010306835
0002c0 00 9c 10 39 c8 bf e9 bc dc 0b 30 bc d8 a0 53 bc
       0.00013791025 -0.028533831 -0.010745015 -0.012916766
0002d0 c4 c0 f1 bb 0d 66 10 3d 58 ea 8b 3c e8 12 c5 bc
       -0.007377716 0.035253573 0.017079517 -0.024056867
0002e0 7c bc ba 3c c2 87 e9 bc 08 9d 55 3c 7a 06 9c 3c
       0.022794954 -0.028507117 0.013037927 0.019046057
0002f0 fc eb 74 3c 60 a9 09 bd f0 2f 49 3b d0 a3 9a bb
       0.014948841 -0.033608794 0.003069874 -0.004719235
000300 85 4b d1 bc 10 56 ac 3b 44 a5 75 3c 5c df 52 3c
       -0.025548706 0.005259283 0.014993016 0.012870636
000310 b0 60 17 3c 09 7c 00 3d 68 1a 84 bb 92 13 01 bc
       0.009239361 0.03136829 -0.004031468 -0.007878201
000320 8c 43 10 bd 0c fb f4 bb a0 34 b9 bc cb 23 10 bd
       -0.035220668 -0.007476216 -0.022608101 -0.035190385
000330 64 82 fa bb 94 da 95 3c 8c 59 a8 3c 40 e4 ca bc
       -0.0076449383 0.018292703 0.020550512 -0.024767041
000340 21 f8 03 3d 06 ff 79 bc f6 a4 1f bc c0 6a 37 3a
       0.032219056 -0.015258556 -0.00974392 0.0006996803
000350 53 22 f9 bc 48 40 97 3b fb f4 0b 3d 10 7d ac 3b
       -0.030411875 0.004615817 0.03416918 0.005263932
000360 88 cf b1 3c da 82 bb 3c fd 49 f8 bc 68 9b 20 3c
       0.021705404 0.022889543 -0.030308718 0.009802677
000370 16 29 9b 3c 9a b0 d3 bc b0 93 33 bb f0 82 1b bb
       0.01894049 -0.025841046 -0.002740126 -0.0023729168
000380 49 ec 10 3d ac 6e 03 3c fe f6 6e bc 48 3f de bc
       0.03538159 0.008021992 -0.014585255 -0.027129784
000390 c5 84 80 bc a0 44 a7 3a a4 4f ad bb 2d 1b 04 3d
       -0.01568831 0.0012761541 -0.005289035 0.03225248
0003a0 f0 9c 58 3c 64 ae 0b bc 56 e5 6f bc 1a 3e e6 3c
       0.013221011 -0.008525465 -0.01464208 0.028105784
0003b0 68 e8 f6 bb 05 3b 05 3d ec 78 72 bc a6 1a 0c bd
       -0.007535029 0.03252699 -0.014799338 -0.0342051
0003c0 63 a2 08 bd 38 15 79 3c 76 35 b2 3c a2 11 e8 3c
       -0.03335799 0.015202813 0.021754008 0.02832872
0003d0 e2 8f a5 3c 96 f2 bf bc fe 06 b0 bc d0 c2 bb 3b
       0.02021021 -0.023431104 -0.02148771 0.0057300106
0003e0 58 4b bd 3c 50 7d b5 bc 64 35 1e bc 3a 46 de 3c
       0.023107216 -0.02215448 -0.009656284 0.027133096
0003f0 e2 53 dc 3c 5e 59 87 3c 92 b9 4c bc 30 df 5e bb
       0.026895467 0.016522106 -0.012495415 -0.0034007542

user_embed.weight f4 [447, 32]
000000 3f 06 ab 3e b0 28 a5 bd cb e8 97 bc 6e 7f ae 3e
       0.33403203 -0.08064401 -0.018543622 0.34081596
000010 6b 4b 81 be 2d 93 92 3b 2d e5 57 be 76 6e 76 be
       -0.25252852 0.004473111 -0.21083517 -0.24065575
000020 26 ff e5 bd d6 b0 40 bc 34 85 91 3e 34 15 1a 3c
       -0.11230306 -0.011760911 0.28421938 0.009404469
000030 22 c2 b9 bd 94 79 47 3e 79 39 89 3d d3 89 87 3e
       -0.09070231 0.19479972 0.06700415 0.2647234
000040 d2 f7 db 3c e0 43 86 be ed c8 e9 3d 4f 84 06 be
       0.026851568 -0.2622366 0.11415277 -0.13136409
000050 04 b5 22 3e 4f 27 94 bd b0 06 c2 be 45 62 b3 bd
       0.15889364 -0.0723406 -0.37895727 -0.08758978
000060 22 e5 a5 be 56 06 25 be a4 bd 1b bc 7f 9c d9 3e
       -0.32401377 -0.16115698 -0.009505663 0.4250221
000070 47 6c 05 bf b2 87 9f 3d 19 f3 82 bc d5 29 f3 bc
       -0.52118343 0.07789554 -0.015985059 -0.029683033
000080 65 1c be 3e f2 ba 4c be e6 fc b0 3e 52 89 88 be
       0.37131038 -0.19993189 0.34567946 -0.26667267
000090 39 b9 8d 3d 52 3c 9d bc 61 c6 87 3e 2d 38 c0 bd
       0.06920094 -0.019193802 0.2651854 -0.09385715
0000a0 8d 26 52 be 83 73 fc 3d fb 6d d8 3d 65 6e 40 be
       -0.20522518 0.123267196 0.10567852 -0.18792112
0000b0 b4 2b 1d 3e 03 fb 86 3e 13 52 1f bd 18 13 10 3e
       0.15348703 0.26363382 -0.03889663 0.14069784
0000c0 45 b6 e4 bd f7 b9 ff bc 02 39 c2 3e 3b e2 1e 3e
       -0.11167578 -0.031216605 0.37934119 0.15515988
0000d0 3e c4 af bd db 1d 12 be af 9c 8c be 67 d7 b2 3d
       -0.08582352 -0.14269201 -0.2746329 0.08732491
0000e0 a6 28 b5 be b6 0d 12 be 09 5e 1e 3d ef 1b 8f 3e
       -0.35382575 -0.14263043 0.038663898 0.27951
0000f0 e5 9b 76 be 20 c7 6c 3e 9b 79 7f 3e da 74 b1 3e
       -0.24082907 0.23122835 0.24948733 0.34659463
000100 2f 77 71 3e a6 89 1e 3e 13 91 07 be 26 21 fc 3d
       0.23580621 0.15482196 -0.13238935 0.1231101
000110 88 eb 8c be 09 80 6e bd 17 0d ea be 54 55 33 be
       -0.27523446 -0.058227573 -0.45713112 -0.17513019
000120 7d d4 b7 be e7 39 73 3e 68 3c 44 3e 2a 3f 0c bd
       -0.35904303 0.23752557 0.19163668 -0.034239925
000130 98 8f 77 3e c0 71 0f 3e a0 3c 73 bd aa 45 86 bd
       0.2417587 0.14008236 -0.05938399 -0.06556256
000140 ec c6 9a 3e 5c 73 83 be 89 99 95 3e d9 a2 d0 3d
       0.3022989 -0.2567395 0.292187 0.10187311
000150 d0 23 55 bd 3e b0 4f 3e a5 b6 c3 be 3d c3 10 be
       -0.052036107 0.20282075 -0.38225284 -0.14136977
000160 cb ab 76 be 5b b0 c1 bd e1 26 37 bc 63 2b 49 3e
       -0.24088971 -0.09457465 -0.011178703 0.19645457
000170 17 9d 99 be b8 e5 5d 3e 1f f9 bb 3e c1 80 b1 3d
       -0.30002663 0.21669662 0.36713502 0.08667136
000180 b4 8f bb 3e 61 cf 70 3e d9 f3 17 be d5 f8 27 3f
       0.36633074 0.23516609 -0.14839114 0.6561406
000190 bf a4 67 3d d3 18 d8 bd c2 26 54 be b5 48 1e 3e
       0.0565536 -0.1055161 -0.2071791 0.15457423
0001a0 45 31 9f be 88 cd 67 bd 08 27 97 be 7b 82 4e 3e
       -0.31092277 -0.056592494 -0.29521966 0.20166962
0001b0 5d dc fb 3e 1a ed 86 3e d2 f7 65 3e 9f 57 2b be
       0.4919156 0.2635277 0.22457817 -0.16732644
0001c0 ab 75 38 3f 2c 31 7a 3e f6 44 a7 3d 79 12 0d bd
       0.7205455 0.2443282 0.0816745 -0.034441445
0001d0 00 0a 24 3d 2f 14 ae 3d 92 57 0b bf 6b 90 8c be
       0.0400486 0.084999435 -0.54430497 -0.27453932
0001e0 f0 b6 13 3d 1a 7a 19 bf 38 a0 1c 3f 61 78 f2 3e
       0.036063135 -0.5995194 0.61181974 0.47357467
0001f0 17 53 85 bd 95 3c 07 3f 8c 2e b1 3e 8b 2b 1b be
       -0.06509989 0.52826816 0.34605825 -0.15153329
000200 0a 6d e2 3e c4 72 02 be 00 64 8a 3d a8 3b 95 3d
       0.44223815 -0.12739092 0.06757355 0.07286769
000210 b2 de ef bc 8e 67 92 bd 72 a1 dc 3d d0 b3 44 bc
       -0.029280994 -0.07148658 0.10772981 -0.012005761
000220 65 a4 af be de 92 21 be fe 8b ba bd 50 c9 47 3e
       -0.3430511 -0.15778682 -0.09108733 0.19510388
000230 13 39 f1 bc 41 99 9f 3d db f2 42 3e 1a 85 2a be
       -0.02944616 0.07792903 0.19037955 -0.16652337
000240 da ce 0a 3e f5 ad 3d 3d 88 b7 02 3e bf 60 3c 3e
       0.1355547 0.046308476 0.12765324 0.1839628
000250 dc 17 48 3c 4b 87 88 3e e5 ab 9c be 26 3f 0c 3e
       0.01221272 0.2666572 -0.30599895 0.13695964
000260 3e 9b 20 be d4 66 14 be d7 d7 a3 3d 45 2e a0 3e
       -0.1568422 -0.14492351 0.080001526 0.312853
000270 56 94 17 be 60 7f e2 3d 04 f0 db 3c 82 51 b9 bd
       -0.1480268 0.11059451 0.026847847 -0.090487495
000280 c0 08 6c be 07 e3 4e 3f 5b 55 64 3f 65 b7 1c bf
       -0.23050213 0.80815166 0.8919274 -0.6121734
000290 b4 a7 3e 3f 37 f6 d4 3c 2b f0 38 3e cf 89 06 3f
       0.74474645 0.02599631 0.18060367 0.5255403
0002a0 d2 20 59 3e d9 3f 0e 3f 5e 46 de be c1 2f e8 be
       0.21203926 0.55566174 -0.4341306 -0.45348933
0002b0 c7 e0 c0 3e 9a b1 ad be c1 25 11 bf 13 ce 73 be
       0.37671492 -0.33924562 -0.5669823 -0.2380908
0002c0 27 02 ac be c4 b3 8d bd 50 b3 0e 3f c0 ba e3 3e
       -0.33595392 -0.06919053 0.5574236 0.44478416
0002d0 34 0b 18 3f d1 86 05 bf d8 3d d5 3e 1b fb ca be
       0.59392095 -0.5215884 0.41648746 -0.39644703
0002e0 47 05 2f bf f3 be 77 3d 99 5f f7 be b3 b7 2c bd
       -0.6836743 0.060484838 -0.48315123 -0.042167377
0002f0 08 6f 7e 3c 20 ec 1c 3f 8b 60 50 be 21 a9 25 3f
       0.015529402 0.612978 -0.20349328 0.64711195
000300 e2 2c 2b bd 3b 92 83 3e d8 9c e5 bd 90 53 8f 3c
       -0.04179085 0.25697502 -0.11211556 0.0174959
000310 dd fe 04 3e 5c 6f 4f be 28 a7 d0 3c fc 20 e6 3c
       0.12987848 -0.20257324 0.025470331 0.0280919
000320 14 6f 40 be 4b 06 92 3c 63 ed 4d 3e d4 38 be bc
       -0.18792373 0.017825266 0.20110087 -0.023220457
000330 c5 b2 15 3e 43 9e 35 3e 77 c6 56 3d a1 6b 27 3e
       0.14618976 0.17736153 0.052435365 0.16349651
000340 21 28 67 bd 4c d3 17 3e de fb 1b 3e c7 4e ac 3e
       -0.056434754 0.14826697 0.15232798 0.33653852
000350 53 35 a5 3c b2 6c 5e bc 6a 13 f9 bd 4e 87 4a 3e
       0.020167029 -0.01357572 -0.12161906 0.19778177
000360 3c 81 df bd c5 e2 30 3e c5 52 00 3d a1 0d 27 3e
       -0.109133214 0.17274006 0.031328935 0.16313793
000370 d1 ea 5e be 94 f3 f1 bb e1 ef 26 3e ce ae d1 3e
       -0.21769263 -0.007383773 0.16302444 0.40953678
000380 50 c9 bf 3e 68 e1 cf 3d 29 61 a4 be 7f d7 8a 3e
       0.37458277 0.10150415 -0.32105377 0.27117535
000390 4e b8 b1 bd fe 2d 9f be 37 25 3f be 0c ad 68 3e
       -0.086777315 -0.31089777 -0.1866654 0.22722262
0003a0 94 9c 6f be ed 4e d6 3d 7d 4a 84 be 76 eb 98 3e
       -0.23399574 0.10464273 -0.2583808 0.29867142
0003b0 d9 3e 82 3e c3 62 8b 3e 73 2f 16 3f c7 2f fa bc
       0.25438574 0.27223787 0.5866615 -0.03054036
0003c0 88 b5 91 3e 7b e9 de 3e 87 f4 6d 3d 78 e8 13 3e
       0.2845881 0.43537506 0.058094528 0.14444149
0003d0 31 14 97 3e 64 a6 69 be 11 cd 6f be 95 70 a8 3e
       0.29507592 -0.22817379 -0.2341807 0.32898393
0003e0 30 ea aa be 24 54 47 be 04 5b 4c be ab 69 39 3e
       -0.33381796 -0.19465691 -0.19956595 0.18106715
0003f0 bd 23 90 be 71 b6 97 3e 67 5d bb bd 51 b9 28 3e
       -0.28152266 0.2963138 -0.091486745 0.16476943

item_embed.weight f4 [578, 32]
000000 71 15 17 be 59 7d 81 3e bf 59 d9 3e 10 08 a2 be
       -0.14754273 0.25290945 0.42451283 -0.31646776
000010 88 3d 06 be e9 82 de be c1 f8 93 be 51 8f b8 be
       -0.1310941 -0.43459252 -0.28900722 -0.36046842
000020 36 8c 52 3e c2 7d a8 3e 90 d5 a0 bd 83 a7 18 be
       0.20561299 0.32908446 -0.07853234 -0.1490765
000030 c6 8a de 3e 9d 0f 1c 3e 64 c6 82 be 06 9a a6 3c
       0.4346525 0.15240331 -0.25541985 0.020337116
000040 87 cd b6 be 8d 4d 00 3f a8 e6 33 be 28 ea 63 3e
       -0.3570368 0.50118333 -0.17568457 0.22257292
000050 cd d4 62 be 83 5d e6 be a7 19 df 3e 1e 23 bd 3d
       -0.2215149 -0.4499322 0.4357426 0.09235214
000060 46 c3 56 be b6 21 da bd 26 50 0e bf 63 8d a3 be
       -0.20972928 -0.10650961 -0.55591047 -0.31943807
000070 a6 fe fc bd b8 b8 26 3e 84 82 1b 3e 8c 55 bf 3d
       -0.12353258 0.16281402 0.15186507 0.09342489
000080 5a 67 66 3c c5 dc 72 bc 81 b5 06 3f 2a 68 cb be
       0.014062727 -0.014823143 0.52620703 -0.39727908
000090 0d 7f 59 3e 5b 4e 1d bf 73 d6 0e bf 86 8b ce be
       0.21239872 -0.61447686 -0.55795974 -0.40340823
0000a0 94 a7 1c bd 44 64 c3 3c 84 9b db 3d 4d 96 24 be
       -0.038245752 0.023851521 0.107230216 -0.1607296
0000b0 21 29 a5 3e c8 c5 88 3e 1d 31 03 bf 1b f1 07 3f
       0.3225794 0.26713395 -0.51246816 0.5310227
0000c0 eb e0 36 bd 22 36 b2 3e 0f 56 a4 be a6 c8 3c 3e
       -0.044648092 0.34806925 -0.32096907 0.18435916
0000d0 97 0a b5 3e 6e 4c a1 be 30 86 77 be f4 0d 58 3e
       0.35359642 -0.31503624 -0.24172282 0.21099073
0000e0 43 12 1d be f5 cc 90 be 75 c9 44 3e ab 36 35 be
       -0.15338998 -0.2828137 0.19217475 -0.17696635
0000f0 28 86 e1 be 95 29 27 3e ae 23 7f 3e 0e 5e 98 b9
       -0.44047666 0.16324456 0.24915954 -0.00029061775
000100 fc 97 5b 3d 37 50 b8 3e 90 06 ce 3e 25 ea e4 bd
       0.05361174 0.359987 0.40239382 -0.11177472
000110 c5 20 15 3e ec 5c b5 be f1 33 84 be 8b 5a 9b bd
       0.14563282 -0.35422456 -0.25820878 -0.07585629
000120 dc 76 53 be 77 c3 eb bc 5e 11 67 be 21 71 16 be
       -0.2065081 -0.028779728 -0.22565219 -0.14691593
000130 13 2e b2 3e 98 fe 0a 3d a3 1d b0 be ba 40 17 bd
       0.34800777 0.033934206 -0.3439761 -0.036926962
000140 65 1f 06 bf 05 25 5d 3d fe c5 1f bf c1 c7 da 3e
       -0.52391654 0.053990383 -0.6241149 0.42730525
000150 83 d8 83 bd 21 45 37 bf 95 b4 26 3d df cb a6 3e
       -0.06437781 -0.7158986 0.04069956 0.32577416
000160 24 ca 9f be 21 ec 60 be 51 55 32 bf 48 4d c4 3d
       -0.3120891 -0.21965076 -0.6966143 0.09585053
000170 38 8f bb be 07 17 5a 3d aa a5 92 3e 36 47 ca be
       -0.36632705 0.053244617 0.28642017 -0.39507455
000180 7a 8c 0a 3d a1 20 8e 3d cc a0 b8 3d 81 e3 a9 bc
       0.033825375 0.06939817 0.090150446 -0.020738365
000190 54 be 5c be 83 b2 d3 bd 32 c3 b0 3e 78 63 0f 3e
       -0.2155698 -0.10336783 0.34523922 0.14002788
0001a0 ab 6b 28 be 3a 8d cf bd 17 dc dc bd 8c a2 e8 3e
       -0.16447322 -0.10134359 -0.10784166 0.45436513
0001b0 d0 5f ed 3d 01 bb e7 3c 03 57 ac 3e c9 05 59 3c
       0.115905404 0.028287413 0.33660135 0.013246008
0001c0 44 c4 66 3e c4 47 dd 3e 21 5d e2 3e cd d7 93 3d
       0.22535807 0.43218815 0.44211677 0.07218895
0001d0 b2 cc 02 be a8 e9 00 bd 0f 3a 15 3d 8e f5 bb 3e
       -0.12773398 -0.031472832 0.036432322 0.3671078
0001e0 60 2d f7 bd da b3 37 3e 6e 1c 0d 3e 4d e4 a9 3e
       -0.120692015 0.17939702 0.13780376 0.33181992
0001f0 70 0b 65 3d 0f 38 01 be 02 5e 85 3e 8c d9 04 be
       0.05591911 -0.12619041 0.26048285 -0.12973613
000200 4b d6 da bd 8a d6 8b 3e 15 0a 0f 3e 02 3b 0c be
       -0.106854044 0.27312118 0.1396869 -0.13694385
000210 29 eb a8 be 87 32 0e 3f 29 f8 94 3e 4f 8b 35 3d
       -0.32991913 0.5554585 0.2909558 0.04432231
000220 16 77 0a 3e da 9d 93 be c4 bb 30 be 25 b3 35 be
       0.1352199 -0.2883137 -0.17259127 -0.1774412
000230 76 32 d0 be 1d 68 cf be 5a c8 72 be e7 81 84 be
       -0.406635 -0.4050912 -0.2370924 -0.25880358
000240 0c 30 82 3d 20 0c 58 bc 10 7b 0a bf 9c 63 34 be
       0.063568205 -0.013186485 -0.5409403 -0.17616123
000250 d7 26 74 be 5f 8c a0 bd 81 76 81 3e be 7b 9d be
       -0.23842941 -0.07839274 0.25285724 -0.3075847
000260 49 60 0b 3f c2 9a 09 3e cf 1c 68 3d 39 43 d9 be
       0.54443794 0.13437942 0.0566681 -0.424341
000270 78 48 b9 3e 8a c3 64 be 85 83 79 be bd 30 89 3d
       0.36188102 -0.22340217 -0.24366577 0.06698749
000280 6c 32 45 bd 48 15 80 3d 8f 8f 6b be 56 1c 4e be
       -0.04814379 0.06254059 -0.23003982 -0.20127997
000290 55 c1 b2 3e f7 3d d2 3e 1c 59 0c 3e 6b f0 ae bd
       0.34913126 0.410629 0.13705868 -0.0854195
0002a0 2a f1 81 3e 47 4c 98 39 7c ac e7 bd 80 2b aa bd
       0.25379306 0.0002904853 -0.11312196 -0.08309078
0002b0 75 70 c6 bd 7d 02 96 bd 1a cd 69 be 97 bd ad 3d
       -0.09689418 -0.07324693 -0.22832146 0.08483427
0002c0 4a d8 ed bd fa e3 b4 be a4 f0 b3 bd fc 2a 8b 3e
       -0.116135195 -0.35330182 -0.08786133 0.27181232
0002d0 a5 1e 14 be e5 3c 9e 3c 3a 98 aa 3e db 07 7b be
       -0.14464815 0.019316146 0.33319265 -0.24514715
0002e0 a8 7d 88 3d 42 34 f3 3e 60 38 84 3d 36 31 41 3e
       0.06664592 0.47500807 0.06456065 0.18866429
0002f0 f0 ff 29 3e bc 25 ab bd 26 28 0a be 85 38 7e 3e
       0.16601539 -0.08356807 -0.13491878 0.24826248
000300 58 74 ba 3d 8f 33 13 3f ed 32 c8 3e b3 c4 11 bf
       0.09104222 0.5750055 0.39101353 -0.56940764
000310 4b 89 d9 3d 82 1c 95 be d1 41 de be b6 30 d0 be
       0.1062189 -0.29123312 -0.4340959 -0.40662163
000320 cb 5c b6 be 64 43 43 3f c4 47 f1 be 59 a3 34 bf
       -0.3561767 0.76274705 -0.47125065 -0.7056175
000330 3c 85 e3 3e bb d6 0c 3f e2 5a 27 3e de a5 d1 bd
       0.44437587 0.5501515 0.16343263 -0.10236715
000340 15 53 a2 3e de 92 f8 3e f6 bd 18 3e 1a 66 fb 3e
       0.31704012 0.4854955 0.14916214 0.49101335
000350 66 07 04 bd bf b9 32 bf 47 36 0d bf 34 45 0d 3f
       -0.03223362 -0.69814676 -0.55160946 0.5518372
000360 5e db f6 be 83 77 fd bd 0b 45 cc be ec 7d 11 be
       -0.4821424 -0.12376311 -0.39896426 -0.14208192
000370 79 ec f3 be f1 0b cb 3e a4 74 df 3e 48 9d ba 3e
       -0.47641352 0.39657548 0.43643677 0.3644812
000380 35 91 97 bd 5a e3 7b 3e 9f ee 41 3f ef f3 fb be
       -0.07400743 0.24598446 0.7575473 -0.49209544
000390 5e 37 f2 3c 55 4e f8 be 6a 68 a7 be 99 a6 0b be
       0.029567417 -0.48497263 -0.3269685 -0.1363777
0003a0 c8 16 18 bf d2 db be 3e 3f e8 88 bc 86 ab 2f bf
       -0.5940976 0.37277085 -0.016712306 -0.686211
0003b0 41 b0 28 3f 10 f0 9a 3e b4 80 ee bd 5d 61 51 3d
       0.6589394 0.30261278 -0.11645642 0.051118243
0003c0 1e 09 e2 be d1 b0 0c 3f 16 55 65 3e b4 4d 28 3f
       -0.4414758 0.549573 0.22395739 0.65743566
0003d0 b0 90 35 3e 40 6b e5 be 9b fa 2a 3e 9d c0 61 3d
       0.17730975 -0.44808388 0.16697161 0.05511533
0003e0 b6 aa d9 be 20 b7 6f be 8f 9e ad be ff cc 9d 3c
       -0.42513055 -0.234097 -0.33910033 0.019262789
0003f0 fd 7d 21 bf 5d 0e 82 3e 7d 22 df 3e ec 29 8c 3e
       -0.6308287 0.25401583 0.43581 0.27375734

entity_embed.weight f4 [886, 32]
000000 79 59 b8 bd 1f 17 00 bd d7 a6 b4 3d 69 66 03 3c
       -0.090014406 -0.03127205 0.08820885 0.008020022
000010 c2 cd 1e bd 26 0f 85 bd 41 b1 d6 3b 65 35 34 3c
       -0.038770445 -0.0649703 0.006551892 0.010999058
000020 4c 0f 4c 3d 11 8a 55 bb 16 51 01 bd f6 2e ca bd
       0.049819276 -0.0032583515 -0.03157147 -0.09872238
000030 82 dd 6e bc a0 b7 1c bd 64 45 93 bd be c6 c3 3c
       -0.014579179 -0.038261056 -0.071909696 0.023898479
000040 e7 fc df bd 68 1f 86 3d cd 97 d5 bc 52 50 72 3d
       -0.10936909 0.06548959 -0.02607336 0.05915863
000050 03 7b 21 3d 2c 94 05 bd 1e c2 63 3d 62 9e 95 3d
       0.039423954 -0.03261201 0.055605046 0.073056
000060 04 36 be bc 0d 1b 52 bd 51 49 ab bc 5b ed 7b 3c
       -0.023219116 -0.05129533 -0.020908983 0.015376414
000070 7e 53 41 bd 30 7a b1 3d 4f 59 84 bd 49 35 8b bd
       -0.047198765 0.086658835 -0.06462347 -0.06797273
000080 fc f8 a9 3d cf ae 9c bd 7f f9 f2 3d 37 f6 40 bd
       0.08299443 -0.076505296 0.11863994 -0.04710981
000090 99 6c 04 3d fc e3 53 bd 94 4f 0a be f3 c6 f8 bd
       0.03233013 -0.051731095 -0.13506919 -0.121473216
0000a0 65 01 a8 3d f6 30 70 bd f3 f8 a2 ba a4 ac 90 bd
       0.08203391 -0.058640443 -0.0012433812 -0.070641786
0000b0 22 9e 0f 3e 1f 49 a2 3a 21 23 d1 bc 81 a9 25 3e
       0.14025167 0.0012381411 -0.025529446 0.16177942
0000c0 9a 52 87 bc 54 1d b4 3d cd 0a 3e bd 0c 6a db bc
       -0.01651888 0.087946564 -0.04639702 -0.026783966
0000d0 00 f5 0d bc e6 a6 ec bc 15 28 00 3d 79 76 8b 3d
       -0.00866437 -0.028888177 0.031288225 0.06809706
0000e0 af 3a e5 3c 9d 48 12 be 2b be 78 bd 87 43 2e 3d
       0.027982084 -0.14285512 -0.060728233 0.042544868
0000f0 f2 38 5c bb 00 73 f8 3d 59 a2 ba 3d b1 30 8e bc
       -0.0033603278 0.121313095 0.091129966 -0.017357202
000100 2a 8b 53 3d 7a 9d a3 3d bd 5a 04 3e e0 28 a4 bd
       0.05164639 0.07989021 0.12925239 -0.08015609
000110 46 60 ab 3d 4f 79 a0 bd e6 17 21 bd 1c ee ab bd
       0.08367972 -0.07835638 -0.039329432 -0.08395025
000120 38 22 be 3c b0 b1 70 ba 6d 36 48 bd b9 ee 44 3c
       0.023209676 -0.0009181751 -0.04888003 0.012019807
000130 d1 b7 b4 3d 83 c2 d4 bd bd da ff bc 8c 7e 94 bd
       0.08824123 -0.10388663 -0.031232232 -0.072506994
000140 67 a9 f1 bd ce fb 94 3d 2f 8d 23 be 91 66 e5 3d
       -0.11799889 0.072745904 -0.15971826 0.112012036
000150 5e 35 8c 3d cb 47 1d be a9 5d 75 3c c9 25 c9 3d
       0.068461165 -0.15359418 0.014975944 0.0982166
000160 f2 05 f2 bc 50 3f 14 3d 16 7e 4f be f0 1a 0e 3d
       -0.02954385 0.036193192 -0.20262942 0.03469366
000170 0f a2 2b 3b 69 27 dc 3c ee b6 46 3d da 2e 09 be
       0.0026189124 0.026874261 0.0485143 -0.13396779
000180 fb 72 8d bc eb 07 6d bd 2b 3e 06 3d 34 cd 93 bd
       -0.017266741 -0.05786888 0.03277413 -0.07216874
000190 f5 0b 49 3d fe a6 af 3d 9b e4 67 ba ef 26 5f 3d
       0.04908367 0.08576773 -0.00088460156 0.05448049
0001a0 94 23 4b bd 08 82 f9 b9 5b f0 6b 3d 6a a2 e5 bc
       -0.049594477 -0.00047589862 0.057602268 -0.028031547
0001b0 f4 5d 61 3d 28 42 83 3b 7f f9 2f 3d 54 5b 82 bd
       0.05502124 0.004005689 0.042962547 -0.06365076
0001c0 05 f6 8c 3d 7d b1 85 3d b5 2c 8b 3d 09 50 97 3d
       0.06882862 0.06527994 0.067956366 0.07388312
0001d0 06 1c c9 bb a1 eb 03 bd c3 9b 93 3d dc 68 db bc
       -0.006137374 -0.032207135 0.072074436 -0.0267834
0001e0 c3 34 17 3d bb 82 86 3c 6e 65 98 3d be ff 7f 3d
       0.036915552 0.016419759 0.07441221 0.062499754
0001f0 51 b3 05 3b 99 ef 25 bd ed ff cb 3b d4 50 24 3d
       0.002040107 -0.0405117 0.006225577 0.040116146
000200 25 33 e4 bc 8a d2 1e 3d 98 93 42 3d 18 3a a5 3c
       -0.027856419 0.038775004 0.047504038 0.020169303
000210 9d d1 9a bd 8a 90 6f 3d 98 97 08 3d 01 b3 0d bd
       -0.07559512 0.058487453 0.033347696 -0.03459454
000220 d7 c2 ff 3c 0e 0b 94 bd af 7a 9c bd a8 74 0b 3c
       0.031220837 -0.07228671 -0.076405875 0.0085117
000230 1b 55 21 bd 3e 8d 01 be f0 88 4c bd a2 4a 08 bd
       -0.039387804 -0.12651536 -0.04993528 -0.0332743
000240 14 93 b5 3d 78 ac 37 3d 3e de 80 bd 91 f7 a3 3d
       0.088659436 0.044842213 -0.06292389 0.08006204
000250 0e fc 00 3c 34 ca 94 bd df 41 48 3d ef ea 82 bd
       0.0078725945 -0.0726513 0.048890945 -0.06392466
000260 b0 5f 33 3d 1f db 65 ba 7b 38 8a 3d 3a 2d 9e bc
       0.043792427 -0.00087683083 0.06749054 -0.019308675
000270 3a e6 be bc 71 04 a1 3c 8e fa ac bd 7a 71 f6 ba
       -0.02330314 0.019655438 -0.08446227 -0.0018802129
000280 eb e6 8a bd d2 46 f9 3c e7 e6 08 bb 70 60 1f bd
       -0.06782325 0.030429278 -0.0020889582 -0.03891033
000290 36 0c 6d 3d c4 75 85 3d b0 06 9d 3d 4d 95 8e ba
       0.057872973 0.06516603 0.07667291 -0.0010878235
0002a0 7d ba ef 3c c8 0e 96 3d 12 0c cc bb 79 67 8f bd
       0.02926373 0.07327038 -0.006227025 -0.07002158
0002b0 ed 60 96 bd 0e 73 87 3c 8d ee 43 bd ef 44 9a 3d
       -0.07342706 0.016534355 -0.04783492 0.07532679
0002c0 fb c3 ff bc 40 77 d8 bd d9 f3 37 bc 52 8d b5 3d
       -0.03122138 -0.1056962 -0.011227571 0.08864845
0002d0 46 a7 bc 3c ef af ca 3b a2 ed b9 3c e4 04 b6 3c
       0.023028981 0.0061855237 0.02269632 0.022219129
0002e0 23 01 3f bc 2d b7 73 3d 73 9f 9d 3c 7c 11 89 3c
       -0.011657986 0.059500862 0.01924107 0.01673197
0002f0 37 8d 0b 3d 78 14 25 3c c4 eb af bd 35 e9 58 bd
       0.03407022 0.010075681 -0.085898906 -0.05295678
000300 dd b9 e2 bc 2c fa 6f 3d 79 ef b9 3d 33 f3 27 be
       -0.027676517 0.058588192 0.09078879 -0.16401367
000310 ed f2 64 bd 1b e8 d3 bd af 1c 29 bd 84 7d 15 be
       -0.055895735 -0.10347005 -0.04128712 -0.14598662
000320 01 b5 75 3b 6e 1a 20 3e 7b d6 fa bc 5a c1 59 bd
       0.003749192 0.15635082 -0.03061985 -0.05316291
000330 85 9b 28 3e fe ec 23 3e 4c b8 d6 3b dd d2 a0 bc
       0.16465576 0.16008374 0.0065527316 -0.019631797
000340 ef 15 98 3d 55 fb 8a 3b e7 32 60 3c b4 39 89 bb
       0.074260585 0.004241387 0.013684011 -0.004187787
000350 ad f5 86 bd bc 75 16 be fb d0 e1 bd dc d7 89 3d
       -0.06589828 -0.1469335 -0.11026188 0.06730625
000360 d3 af 93 bd 9f 79 94 bd b0 19 cd bd 88 07 08 bc
       -0.0721127 -0.0724976 -0.10014665 -0.008302577
000370 f0 41 bb bd a8 c3 0f 3d 03 a2 76 3d ca 2c 25 3d
       -0.09143436 0.0350987 0.0602131 0.040325917
000380 f7 85 81 bd 92 44 05 39 b6 7d 28 3e 67 54 e3 bd
       -0.0632438 0.00012709413 0.16454205 -0.11100083
000390 46 ea ab bc 53 6c 10 bd d3 2d 17 bd 06 ab c7 bd
       -0.020985734 -0.035259556 -0.036908936 -0.09749417
0003a0 c4 67 70 3c 28 6f 43 3d 52 35 64 3d b3 13 9c bd
       0.014673177 0.04771343 0.055714913 -0.07620945
0003b0 38 5f b5 3d c5 0f 1e 3d 3d 48 93 bd 3f 8f 9f bd
       0.08856052 0.038589258 -0.07191513 -0.07790994
0003c0 25 d7 ec bd 4a cb 07 3e 5c f1 44 3d 2d b9 ce 3d
       -0.11564473 0.13261142 0.04808174 0.10093913
0003d0 6f 0a 6f 3d 91 00 19 bd d1 2e c5 3d 16 6b 3b 3d
       0.05835956 -0.037354056 0.0962807 0.045756422
0003e0 4c de af 3c a0 f2 0d bc 22 66 ab bd 47 ff 0f 3c
       0.021468304 -0.008663803 -0.0836909 0.00878889
0003f0 b2 f0 a7 bd 8f 58 b8 3c 60 d4 70 3c f0 89 30 bc
       -0.08200206 0.022503166 0.014699072 -0.010775074

relation_embed.weight f4 [114, 32]
000000 e7 95 e8 bc f3 f1 29 3c 97 80 ea bc 98 26 0f be
       -0.028391792 0.010372627 -0.02862577 -0.13979566
000010 6c 70 b8 3d 85 d7 c4 3d 06 f1 62 3d 39 1a 35 be
       0.09005818 0.096114196 0.05540564 -0.17685784
000020 5e b4 e7 bd 80 97 2b bd ea b3 a9 bc f0 30 3a bd
       -0.11313699 -0.04189253 -0.020715673 -0.045456827
000030 d3 f9 92 3d cc 0d 43 3e 5d 95 e9 3d 5b 98 c0 bd
       0.071765564 0.19048232 0.11405442 -0.094040595
000040 cf 81 b2 bd bc 67 60 bd b0 a5 4f 3d 12 85 9c bd
       -0.08716165 -0.05478643 0.05069512 -0.07642569
000050 1c f8 7b bd 92 94 a6 3c 5a f9 ec 3c f7 4c d2 bd
       -0.061515912 0.020334516 0.028927494 -0.10268586
000060 74 b4 08 3e b9 17 55 3d 80 ba 32 3e dc 04 45 be
       0.13350087 0.052024577 0.17453957 -0.19240135
000070 9b 92 cb bc 03 29 e9 bc 38 db 27 3e b8 ea 3b 3e
       -0.02485018 -0.028461939 0.16392219 0.18351257
000080 29 82 4e bd f1 7a 02 3e 31 7f af 3b 28 ca af b9
       -0.0504171 0.12742211 0.0053557386 -0.0003352922
000090 ec 34 27 be 25 9a 0f be ab 79 6b 3c 82 86 4c be
       -0.16328782 -0.14023645 0.01437227 -0.19973186
0000a0 d3 4c 27 3e ce 00 8d 3c 9f 57 17 be 8a 7e e4 3d
       0.163379 0.017212298 -0.14779519 0.11156948
0000b0 cf 73 27 be 22 64 0f be 8c e4 c5 bd 64 09 34 bd
       -0.16352771 -0.14003041 -0.096627325 -0.043954268
0000c0 2a 76 e8 bc 22 0e 3d be 01 fe b4 ba 26 93 12 be
       -0.028376658 -0.18462422 -0.0013808609 -0.14313945
0000d0 c7 a2 a7 bd 58 a2 59 3d 00 57 db 3b 69 4e 04 3e
       -0.08185344 0.05313334 0.006693721 0.12920536
0000e0 56 c2 ca 3d 31 cb 7b 3b a0 d6 99 3d 27 24 2c 3c
       0.09900348 0.0038420672 0.075116396 0.010506666
0000f0 70 f4 23 bd 6c a7 dd 3d a1 ec a5 bd 46 40 47 be
       -0.040028036 0.10822949 -0.08101774 -0.19458112
000100 fc 63 da 3d e0 ef a3 bc 2f 11 20 3c 2c 6f 76 3d
       0.10663602 -0.020011842 0.009769722 0.060164616
000110 70 0d b9 3c bf ae 15 be 0c ca 41 3d ec 63 14 be
       0.022589415 -0.14617442 0.047311828 -0.14491242
000120 21 71 1b bd 7a 14 21 be ef 00 fa 3d 14 d6 b5 bc
       -0.037949685 -0.15730467 0.12207209 -0.022196807
000130 30 ff cc b9 ed dc 7a be 08 9c 9e 3d be c8 23 be
       -0.00039100042 -0.24498339 0.07744604 -0.15994546
000140 6e a4 0e be 92 c5 0c 3e 75 02 15 3e 79 e4 5d 3e
       -0.13929912 0.13747242 0.14551719 0.21669187
000150 6d a9 a6 3d 53 83 9f bd be 82 83 3d 26 ed 04 3e
       0.08137784 -0.0778872 0.064214215 0.1298109
000160 95 7c 45 3e 0f 44 0b be b0 b6 a3 3d aa 7a 18 3d
       0.19285806 -0.13600181 0.07993829 0.037226357
000170 a3 80 01 3e 5d fa eb 3d f4 0a a1 3d ba cb 21 be
       0.12646727 0.115223624 0.07863417 -0.15800372
000180 2e 4a 62 3d b8 38 24 be 96 8c ac bd 84 bd f7 bc
       0.055246525 -0.16037261 -0.08425252 -0.030241735
000190 dd 7e b5 bd 73 fe a1 bd 90 2c 3b 3b cd 1d 1b 3e
       -0.08862088 -0.079098605 0.0028560497 0.15148087
0001a0 b5 0b d2 bd ba 19 5e 3d 0d 89 aa bd 75 23 a4 bd
       -0.10256139 0.054223754 -0.083269216 -0.080145754
0001b0 ea f2 e5 ba 19 6f 47 be d0 2c c4 bc 6d 73 1f be
       -0.0017543708 -0.19475974 -0.02394715 -0.15571375
0001c0 57 c1 05 3e b3 08 96 bd 1a 0f d4 3c e6 87 98 3d
       0.13062035 -0.07325878 0.025886107 0.074477956
0001d0 2a 6d f5 bd 7e ca 49 be 74 5f 6d bd 34 1b c2 bd
       -0.11983712 -0.19706151 -0.05795236 -0.09477845
0001e0 62 b2 2c 3e a7 7a 28 be 33 4e ae bd ba 5c 3c 3e
       0.16864923 -0.16453038 -0.08511009 0.18394747
0001f0 17 6b 98 bd 27 af 3b be 6a 02 25 3e 25 7a d5 3d
       -0.07442301 -0.18328534 0.16114202 0.10423688
000200 70 2f e9 bd 07 14 a5 3d 5e 0d f9 bd b0 a7 e1 bd
       -0.11386001 0.080604605 -0.12160753 -0.11018312
000210 dc a3 21 bc 2a 27 e9 3d 4f fe 62 bc 4e 36 09 be
       -0.009865727 0.11384423 -0.013854577 -0.13399622
000220 a6 3b d1 3d 2a 51 54 3d 6a 18 89 bc 55 c5 90 bd
       0.10216455 0.051835217 -0.016735274 -0.07068888
000230 ff f7 41 bd ad 27 f7 bd 50 b5 12 3e 23 77 5d bb
       -0.047355648 -0.120681144 0.14326978 -0.0033792935
000240 17 5f 8e 3c bf 72 03 3e 1a 53 64 bc 1e 8a 88 3d
       0.017379327 0.12836741 -0.013935829 0.06666969
000250 23 48 d9 3d a0 c6 fb 3d 65 cc 5d bc 22 e2 20 be
       0.10609462 0.12293744 -0.013537501 -0.15711263
000260 f6 52 c6 bd b1 cb c1 bd ad a6 9f 3b 83 7f 8a 3c
       -0.09683792 -0.09462679 0.004872164 0.016906505
000270 23 5e 15 bd c5 4f 49 be c9 b9 02 be a3 00 07 be
       -0.03646673 -0.19659336 -0.12766184 -0.13183837
000280 3e 5b 0d be e1 f9 4d bd 54 5d 09 be 08 85 bf 3d
       -0.13804337 -0.05028713 -0.13414508 0.093515456
000290 8d 6f 44 3d d3 6a b4 3d 5d 3c 9c 3d 66 66 21 3d
       0.047957946 0.088094376 0.07628701 0.039404295
0002a0 ad b0 7f bd b1 a2 9d bd 50 a2 86 bd d8 dd e8 bd
       -0.06242435 -0.076970465 -0.065739274 -0.11370438
0002b0 0c 74 11 bd 44 59 11 be 43 d0 54 be f5 09 e4 3d
       -0.03551106 -0.14194208 -0.2078257 0.11134712
0002c0 34 c2 fe bc d6 bf 8a 3c a0 88 96 bd 80 24 f8 bd
       -0.031098463 0.016937178 -0.07350278 -0.12116337
0002d0 39 72 b3 3d f2 c4 84 bd 58 a8 25 3e 65 b8 8e 3d
       0.087620206 -0.06482877 0.161775 0.06968764
0002e0 9a 6f 92 bb a3 b1 ca bd 0e 30 02 bc 4d 89 08 be
       -0.0044688703 -0.09897163 -0.007946027 -0.13333626
0002f0 a8 12 af 3c 27 2d 12 3e f3 90 82 bd ed 5a c4 bd
       0.0213712 0.14275037 -0.06375303 -0.09587655
000300 c3 c2 91 3d 91 fa 42 3e a7 ba f5 3d 5a 06 17 3e
       0.07117226 0.19040896 0.11998492 0.14748517
000310 e6 0b 8e bc 24 df 4c 3e 20 2a 17 3d 31 59 d9 bc
       -0.017339658 0.20006996 0.036905408 -0.026531788
000320 40 02 0e 3b 30 e2 42 bd 58 8d e9 bc 8e f3 28 bd
       0.0021668822 -0.04757899 -0.02850978 -0.041247897
000330 cd 0e 03 be 95 0f f9 bd 56 69 a7 3d 66 36 80 bd
       -0.12798615 -0.12161175 0.08174388 -0.06260376
000340 0a f1 43 3d b0 c0 1b be 7d e6 a4 bc 9e 19 16 3e
       0.047837295 -0.15210223 -0.020129437 0.1465821
000350 79 bd 19 3d 94 9d ff 3c 09 d6 14 3e cf 8d e5 3d
       0.03753421 0.031203069 0.14534773 0.112086885
000360 e0 ec 77 bc ea f0 4a 3d 12 d6 56 bb 72 8c 9d bd
       -0.015132159 0.04954616 -0.0032781404 -0.076928034
000370 ec 48 f6 bd 3d 62 b6 3c b5 dd 1b be 8f 33 34 be
       -0.120256275 0.02226364 -0.15221293 -0.17597793
000380 74 e7 ae 3c bc 50 38 be 61 62 e7 bd 46 ae 01 bd
       0.0213506 -0.17999548 -0.11298061 -0.03166034
000390 16 f9 14 3d 74 38 0b 3e 21 99 41 be 60 b5 0a 3d
       0.03637036 0.13595754 -0.1890607 0.03386438
0003a0 c7 87 80 bd 7e e5 04 b8 11 ef 32 3e d4 d1 9b 3d
       -0.062758975 -3.1684984e-05 0.17474009 0.07608381
0003b0 9d 93 36 3d be 47 3b be 5a 04 01 be b2 6c 1a be
       0.04457437 -0.18289086 -0.12599316 -0.15080526
0003c0 9b cf 35 3e f0 1e 8e 3d ca 90 33 3e 28 b1 aa bd
       0.17754976 0.069394946 0.17535701 -0.08334571
0003d0 74 90 ca 3d a0 a1 5b be f6 9d 9d 3d b0 87 1f be
       0.098908335 -0.21448374 0.07696144 -0.15579104
0003e0 72 48 f5 3d 48 9c 21 be 4d af b4 bd e0 1d 48 bd
       0.119767085 -0.15782273 -0.088224985 -0.048856616
0003f0 28 ee b2 bd aa ab f4 bd 78 c9 54 be af 8b a3 bd
       -0.08736831 -0.11946805 -0.20779979 -0.07985627
