Knowledge_Graph_Recommendation/recommendation/stage2/trained_model/Douban/Embedding_based/dim32_lr0.001_l20.0001_TransE/concat/model1_epoch10.pth (torch, 728343 bytes, 5 tensors)

trans_M f4 [114, 32, 32]
0	0xbbe7a1a4	-0.0070688296
1	0x3c042188	0.008064635
2	0x3b6b91b0	0.003594499
3	0x3c78d614	0.015187759
4	0x3c3cfe9c	0.011535313
5	0x3ce388c6	0.02777518
6	0x3c6f72fc	0.014614817
7	0x3cc0f1a6	0.023552727
8	0xbc8ed731	-0.017436596
9	0xbc1082a4	-0.00882021
10	0x3ce4a0ba	0.027908672
11	0xbcb8e9c1	-0.0225724
12	0xbb66ab00	-0.0035197139
13	0x3c1fb6e8	0.009748198
14	0xbcd4f7e0	-0.025997102
15	0x3bbd8748	0.005783949
16	0xbce31f18	-0.027724788
17	0x3ce25ae6	0.027631234
18	0xbc4ddae0	-0.012564391
19	0x3c3f4998	0.011675261
20	0xbc0d82ae	-0.0086371135
21	0x3ca16a12	0.019703899
22	0xbb3af8f0	-0.0028529726
23	0xbb409c20	-0.0029389933
24	0x3c8d5832	0.017253969
25	0x37eb5800	2.8055161e-05
26	0x3cc3192a	0.02381571
27	0x3ce82796	0.028339189
28	0x3d01cbbb	0.031688433
29	0x3d0b10b3	0.033951472
30	0xbcd909cb	-0.026493927
31	0x3cceea10	0.025258094
32	0x3bd3d7e8	0.006464947
33	0xbc80936b	-0.015695294
34	0x3cac99e0	0.021069467
35	0x3b959a38	0.0045655034
36	0xbc8b4086	-0.01699854
37	0xbcd9a24c	-0.026566647
38	0xbc7bced0	-0.015369132
39	0xbc94d6ca	-0.018168826
40	0xbad175e0	-0.0015980564
41	0xbba96918	-0.005169999
42	0x3c490bf4	0.012270916
43	0xbd0aaf69	-0.03385869
44	0xbce2bf65	-0.027679155
45	0xbcf390ee	-0.029732194
46	0x3d034a73	0.032053422
47	0x3cef0eca	0.029181857
48	0x3ca6e2dc	0.020371847
49	0xbcad653e	-0.02116644
50	0x3c691ad0	0.014227584
51	0xbcaea04c	-0.02131667
52	0x3d0773a5	0.03306927
53	0x3d05d161	0.032670382
54	0x3d0dd57f	0.034627434
55	0xbcf41bec	-0.02979847
56	0x3c524e4c	0.01283605
57	0xbcb07bd4	-0.02154342
58	0xbc48ae5e	-0.012248604
59	0x3c14b83c	0.009077128
60	0xbcedd747	-0.029033316
61	0x3cf64f42	0.03006709
62	0x39d6c880	0.00040966645
63	0x3c9d460a	0.019198436
64	0x3c02e8bc	0.0079900585
65	0xbbc86cf8	-0.0061165057
66	0x3cfa41de	0.030548986
67	0xbd0db0a7	-0.034592297
68	0x3c551e4c	0.013007712
69	0xbb0890b0	-0.0020838194
70	0x3cfc1eea	0.03077646
71	0x3caf624e	0.02140918
72	0x3c3e84dc	0.011628356
73	0xbbc316b4	-0.005953634
74	0x3c0a21d4	0.008430917
75	0x3a8bd260	0.0010667555
76	0xbc1fd19e	-0.0097545665
77	0x3ca4ff40	0.020141244
78	0xbcd61686	-0.026133787
79	0x3b5f8e70	0.0034112
80	0xbc2af16c	-0.010433536
81	0xbb6aacf0	-0.0035808645
82	0xbcd422bd	-0.02589547
83	0x3bd1fe20	0.006408468
84	0xbc71450e	-0.014725937
85	0x3cd61fe2	0.02613825
86	0x3b8b74a0	0.004255846
87	0x3cb22f62	0.02175111
88	0x3ca4d36e	0.020120349
89	0xbb8dd400	-0.004328251
90	0x3cef8942	0.029240254
91	0x3cfa940e	0.030588176
92	0xbd1119e7	-0.035425093
93	0xbcd7a12a	-0.026321966
94	0x3c2aad48	0.01041729
95	0x3cced6a0	0.025248826
96	0x3b2cbea0	0.0026358739
97	0x3a4fb400	0.00079232454
98	0x3ce933aa	0.028467018
99	0xbc5dbb50	-0.013533428
100	0xbd055883	-0.032555114
101	0x3d09e1c9	0.03366259
102	0xbd0d7546	-0.03453567
103	0x3cb7dda8	0.022444561
104	0x3cdb448a	0.02676608
105	0xbc78fd98	-0.01519718
106	0xbcae884e	-0.02130523
107	0x3c42d6f4	0.011892069
108	0xbc890d64	-0.016730018
109	0x3cfd10f2	0.03089187
110	0x3d05360d	0.03252225
111	0x3ca6cf32	0.02036247
112	0xbc45321c	-0.012035873
113	0xbcdcffb6	-0.026977401
114	0x3cc54e1a	0.024085093
115	0x3b9cf040	0.004789382
116	0xbd10bc52	-0.035335846
117	0x3a90a380	0.0011035055
118	0x3ce143ee	0.027498212
119	0x3cc3de32	0.023909662
120	0x3c84acaa	0.016195614
121	0xbc339d0a	-0.010962734
122	0xbce4b183	-0.027916675
123	0xbcab8466	-0.020937156
124	0xbcd78541	-0.026308658
125	0xbc94aab3	-0.018147802
126	0xbce2bdc2	-0.027678374
127	0xbc808881	-0.01569009
128	0xbbc4467c	-0.0059898477
129	0x3c919838	0.017772779
130	0xbc11cb06	-0.008898502
131	0xbcaa02fd	-0.020753378
132	0x3cd3d416	0.025857966
133	0x3bd84808	0.0066003837
134	0x3cf45d1a	0.02982955
135	0xbcae697a	-0.02129053
136	0xbcafebdc	-0.021474771
137	0x3c0662b8	0.008202247
138	0xbc85c83a	-0.016330827
139	0x3cfe0a2e	0.031010713
140	0xbc3a45fa	-0.011369223
141	0xbc44a046	-0.012001103
142	0xbcdfca0e	-0.027318027
143	0x3ba54a10	0.0050442293
144	0xbcdceb6b	-0.026967725
145	0xbc979f39	-0.01850854
146	0x3cfaa02a	0.03059395
147	0x3d01545f	0.031574603
148	0xbc912639	-0.017718421
149	0xbc6e0674	-0.014527906
150	0x3ccbc058	0.02487199
151	0xbc6448c8	-0.013933368
152	0x3ca1be2e	0.019744005
153	0x3ca2b6e6	0.019862603
154	0x3c8c061a	0.017092753
155	0xbb816420	-0.0039487034
156	0x3cdcb12a	0.026939947
157	0xbcd9af2e	-0.02657279
158	0xbcedba39	-0.029019462
159	0xbbf29cf8	-0.007403966
160	0x3c930170	0.017945021
161	0x3d06b43b	0.032886725
162	0xbc4a4cd4	-0.012347419
163	0x3ce9fde2	0.028563444
164	0x3c7e32b0	0.0155150145
165	0x3cea6a66	0.028615188
166	0x3c9e5156	0.019325893
167	0x3b7edaa0	0.0038887635
168	0xbcd9f468	-0.0266058
169	0x3a33d640	0.0006860234
170	0x3ca047ae	0.01956543
171	0x3d12052f	0.035649475
172	0x3c17ec90	0.0092727095
173	0xbc807fbe	-0.015685912
174	0xbc102c38	-0.008799605
175	0x3a871800	0.0010306835
176	0x39109c00	0.00013791025
177	0xbce9bfc8	-0.028533831
178	0xbc300bdc	-0.010745015
179	0xbc53a0d8	-0.012916766
180	0xbbf1c0c4	-0.007377716
181	0x3d10660d	0.035253573
182	0x3c8bea58	0.017079517
183	0xbcc512e8	-0.024056867
184	0x3cbabc7c	0.022794954
185	0xbce987c2	-0.028507117
186	0x3c559d08	0.013037927
187	0x3c9c067a	0.019046057
188	0x3c74ebfc	0.014948841
189	0xbd09a960	-0.033608794
190	0x3b492ff0	0.003069874
191	0xbb9aa3d0	-0.004719235
192	0xbcd14b85	-0.025548706
193	0x3bac5610	0.005259283
194	0x3c75a544	0.014993016
195	0x3c52df5c	0.012870636
196	0x3c1760b0	0.009239361
197	0x3d007c09	0.03136829
198	0xbb841a68	-0.004031468
199	0xbc011392	-0.007878201
200	0xbd10438c	-0.035220668
201	0xbbf4fb0c	-0.007476216
202	0xbcb934a0	-0.022608101
203	0xbd1023cb	-0.035190385
204	0xbbfa8264	-0.0076449383
205	0x3c95da94	0.018292703
206	0x3ca8598c	0.020550512
207	0xbccae440	-0.024767041
208	0x3d03f821	0.032219056
209	0xbc79ff06	-0.015258556
210	0xbc1fa4f6	-0.00974392
211	0x3a376ac0	0.0006996803
212	0xbcf92253	-0.030411875
213	0x3b974048	0.004615817
214	0x3d0bf4fb	0.03416918
215	0x3bac7d10	0.005263932
216	0x3cb1cf88	0.021705404
217	0x3cbb82da	0.022889543
218	0xbcf849fd	-0.030308718
219	0x3c209b68	0.009802677
220	0x3c9b2916	0.01894049
221	0xbcd3b09a	-0.025841046
222	0xbb3393b0	-0.002740126
223	0xbb1b82f0	-0.0023729168
224	0x3d10ec49	0.03538159
225	0x3c036eac	0.008021992
226	0xbc6ef6fe	-0.014585255
227	0xbcde3f48	-0.027129784
228	0xbc8084c5	-0.01568831
229	0x3aa744a0	0.0012761541
230	0xbbad4fa4	-0.005289035
231	0x3d041b2d	0.03225248
232	0x3c589cf0	0.013221011
233	0xbc0bae64	-0.008525465
234	0xbc6fe556	-0.01464208
235	0x3ce63e1a	0.028105784
236	0xbbf6e868	-0.007535029
237	0x3d053b05	0.03252699
238	0xbc7278ec	-0.014799338
239	0xbd0c1aa6	-0.0342051
240	0xbd08a263	-0.03335799
241	0x3c791538	0.015202813
242	0x3cb23576	0.021754008
243	0x3ce811a2	0.02832872
244	0x3ca58fe2	0.02021021
245	0xbcbff296	-0.023431104
246	0xbcb006fe	-0.02148771
247	0x3bbbc2d0	0.0057300106
248	0x3cbd4b58	0.023107216
249	0xbcb57d50	-0.02215448
250	0xbc1e3564	-0.009656284
251	0x3cde463a	0.027133096
252	0x3cdc53e2	0.026895467
253	0x3c87595e	0.016522106
254	0xbc4cb992	-0.012495415
255	0xbb5edf30	-0.0034007542

user_embed.weight f4 [447, 32]
0	0x3e4047ef	0.1877744
1	0xbc4c1d97	-0.012458227
2	0x3ac346f2	0.0014898463
3	0x3e1d8206	0.15381631
4	0xbd82d2e1	-0.06387878
5	0x3cc38230	0.02386579
6	0xbda10128	-0.07861549
7	0xbddea65f	-0.108715765
8	0xbce5cdf1	-0.028052302
9	0x3c395fda	0.011314357
10	0x3dd49ae0	0.103811026
11	0xbca250cf	-0.019813923
12	0x3c86ed88	0.016470686
13	0x3dd0ad77	0.10189336
14	0x3d9f9c9a	0.07793541
15	0x3e2a61bf	0.1663885
16	0x3b3b97a7	0.0028624327
17	0xbdbfc06e	-0.09362875
18	0x3cb879e2	0.022519056
19	0xbd893a2a	-0.06700547
20	0x3da90de3	0.08254602
21	0xbda26c68	-0.07930833
22	0xbe61ccba	-0.22050753
23	0xbd105cee	-0.035244875
24	0xbe090a57	-0.1338285
25	0xbe03a40b	-0.12855546
26	0xbd6ab648	-0.057302743
27	0x3e545338	0.2073487
28	0xbe853a8c	-0.2602123
29	0x3c8a39cb	0.016873261
30	0xbd64dd2b	-0.055874985
31	0xbd1960f4	-0.037445977
32	0x3e188a3c	0.14896482
33	0xbd743f75	-0.05963083
34	0x3e24017a	0.16016188
35	0xbdf75564	-0.12076834
36	0xbd4e68b3	-0.050392818
37	0xbc2674eb	-0.010159711
38	0x3d571b89	0.052516494
39	0xbcf13ca0	-0.029447854
40	0xbe24bd16	-0.16087756
41	0x3d7a7e8c	0.06115584
42	0x3ddeb3f1	0.10874165
43	0xbceb0725	-0.02868993
44	0x3df5b4c1	0.11997367
45	0x3e04016a	0.12891164
46	0xbba9d723	-0.005183117
47	0x3d12be06	0.03582575
48	0x3cb98c23	0.02264983
49	0xbd9f3654	-0.07774034
50	0x3de3a7ff	0.11116027
51	0xbcaf1e65	-0.021376798
52	0x3dc080a0	0.09399533
53	0xbca2f708	-0.019893184
54	0xbddbc6c8	-0.10731274
55	0x3de2986f	0.11064231
56	0xbe48d074	-0.19610769
57	0xbdcfd4ab	-0.10147985
58	0x3e1378c5	0.14401539
59	0x3e5fc970	0.21854186
60	0xbdacf611	-0.08445371
61	0x3e3809e0	0.17972517
62	0x3e0dc324	0.13843971
63	0x3db7f3b4	0.089820296
64	0x3e274b10	0.16337228
65	0x3ce82e3b	0.028342357
66	0xbd784342	-0.060611017
67	0x3c8550d7	0.016273899
68	0xbde156c2	-0.11002876
69	0xbbcc135a	-0.006227893
70	0xbe2a162e	-0.16610023
71	0xbe0b41a5	-0.1359926
72	0xbe7f49e0	-0.24930525
73	0x3d8a3379	0.06748099
74	0x3d970751	0.07374442
75	0xbdad428e	-0.0845996
76	0x3bf707cb	0.007538771
77	0x3d41eb74	0.047343686
78	0xbcb0e242	-0.021592263
79	0xbc87381d	-0.01650625
80	0x3e3b4a43	0.18290047
81	0xbdf11ace	-0.11772691
82	0x3dbe95f8	0.09305948
83	0xbc6d4bb7	-0.014483384
84	0xbce74f84	-0.028236158
85	0x3d99b873	0.07505884
86	0xbe07d1c5	-0.13263614
87	0xbd45c001	-0.048278812
88	0xbd92b974	-0.071642786
89	0xbd3d9127	-0.046281006
90	0xbb9f85bd	-0.004868238
91	0x3e1a6aa1	0.15079738
92	0xbdf69c67	-0.1204155
93	0x3daed171	0.085360415
94	0x3ded16b3	0.11576595
95	0x3ce6e758	0.028186485
96	0x3e3f9947	0.18710814
97	0x3dd2a3ce	0.102851495
98	0xbdfe3d8e	-0.124140844
99	0x3e83ccad	0.25742093
100	0xbce1d0fd	-0.027565474
101	0x3a803794	0.0009782189
102	0xbda34893	-0.07972827
103	0xbc38e7d4	-0.011285741
104	0xbe0b2cf5	-0.13591368
105	0x3ca1226c	0.019669734
106	0xbdc55de3	-0.09637048
107	0x3c2e4438	0.010636382
108	0x3e5eaa51	0.21744658
109	0x3e5ae8bc	0.21377844
110	0x3e18f30b	0.14936464
111	0x3d753756	0.059867226
112	0x3e9e39de	0.30903524
113	0x3d9cdac5	0.076589145
114	0x3d6240ea	0.055237688
115	0xbd510a17	-0.051035013
116	0xbc87499d	-0.016514594
117	0xbb6fdb10	-0.0036599077
118	0xbe8a7c65	-0.2704803
119	0xbdce1697	-0.100629024
120	0x3cb17c4a	0.021665711
121	0xbe89b8ce	-0.26898807
122	0x3e884320	0.26613712
123	0x3e4c021b	0.19922678
124	0xbdd34d2f	-0.10317456
125	0x3e1bf480	0.15229988
126	0x3e59f613	0.21285276
127	0xbd3b8f37	-0.045790877
128	0x3dee505e	0.116364226
129	0xbd82e70a	-0.063917235
130	0x3d283d17	0.041073885
131	0x3d4bd773	0.049766015
132	0xbd008ce8	-0.03138438
133	0xbdcdb6c3	-0.10044625
134	0x3daa1605	0.08304981
135	0xbcee8a2b	-0.029118618
136	0xbe22ccc0	-0.15898418
137	0xbc9932d8	-0.018701002
138	0x3d8d09d8	0.06886643
139	0x3d94ab83	0.07259276
140	0xbbad9db4	-0.0052983407
141	0x3d34a70b	0.044104617
142	0x3d6640ac	0.05621402
143	0xbdf714ca	-0.12064512
144	0x3db2f057	0.087372474
145	0x3c1c26b7	0.009530715
146	0x3da9a1bc	0.082828015
147	0x3dca80d0	0.0988785
148	0xbc4a4a92	-0.0123468805
149	0x3df21594	0.11820522
150	0xbe47bb9a	-0.19505158
151	0x3da77613	0.08176818
152	0xbdfdad39	-0.12386555
153	0xbde22237	-0.11041682
154	0xbca31c28	-0.019910887
155	0x3dd50445	0.10401205
156	0xbd3b8dcc	-0.045789525
157	0x3d82af56	0.06381099
158	0x3d5faf9f	0.054610845
159	0xbd8806f1	-0.06641949
160	0xbdcb01a8	-0.09912425
161	0x3edf17aa	0.43572742
162	0x3edc6af9	0.43050364
163	0xbea81145	-0.32825676
164	0x3ebe7faf	0.3720679
165	0x3cacc66e	0.021090712
166	0x3dd5c32a	0.10437615
167	0x3e89082a	0.2676404
168	0x3e27278b	0.16323678
169	0x3e6343c0	0.22193813
170	0xbde9ec0a	-0.11421974
171	0xbe52415a	-0.20532742
172	0x3e447bd0	0.19187856
173	0xbe247e5a	-0.16063824
174	0xbe71946b	-0.23591773
175	0xbe0beeb4	-0.13665277
176	0xbe0d9947	-0.13828002
177	0xbb82eec4	-0.0039957482
178	0x3e532c1e	0.20622298
179	0x3e4e6b78	0.20158184
180	0x3e6c4b40	0.2307558
181	0xbe7c6292	-0.24646977
182	0x3e84acc1	0.2591305
183	0xbe48f5b7	-0.19624983
184	0xbe9f1423	-0.3107005
185	0x3d2eaabf	0.042643305
186	0xbe668756	-0.22512564
187	0xbd258c28	-0.040416867
188	0x3807a4c0	3.2339944e-05
189	0x3e9feb7c	0.31234348
190	0xbdb01cdc	-0.085992545
191	0x3e8ecac3	0.2788907
192	0xbca62bee	-0.02028462
193	0x3dca2662	0.09870602
194	0xbe16fb53	-0.1474431
195	0x3d4aa453	0.049473118
196	0x3df2fc10	0.11864483
197	0xbc817ad9	-0.015805649
198	0x3cc77615	0.024348298
199	0x3d748a1f	0.059702035
200	0xbd811022	-0.06301905
201	0x3ddcc973	0.10780611
202	0x3e0842a4	0.13306671
203	0xbd569c20	-0.052394986
204	0x3d726111	0.0591746
205	0x3d713530	0.058888614
206	0xbc921366	-0.017831516
207	0x3d78a804	0.060707107
208	0x3cdc73e6	0.026910733
209	0xbd0c6f73	-0.034285974
210	0xbcd9b374	-0.026574828
211	0x3e1fb340	0.15595722
212	0x3ce31abe	0.027722713
213	0x3db20299	0.08691902
214	0xbcac3391	-0.021020683
215	0x3d48e8c2	0.0490501
216	0xbb53ac1c	-0.003229863
217	0x3db2026f	0.086918704
218	0x3e0f480f	0.13992332
219	0x3d972ddc	0.07381794
220	0xbde05cda	-0.1095521
221	0x3d35b27b	0.044359665
222	0x3db5539c	0.08853838
223	0x3e43ee6e	0.19133922
224	0x3e541fa0	0.20715189
225	0x3da1ee7f	0.07906818
226	0xbda4ab8f	-0.08040535
227	0x3def149c	0.11673853
228	0xbd774e49	-0.060377393
229	0xbe5c7a42	-0.21531013
230	0xbd9a67d8	-0.07539338
231	0x3e0ec06e	0.13940594
232	0xbdb33524	-0.0875037
233	0x3df04a57	0.11732929
234	0xbd5d382a	-0.05400864
235	0x3d96b901	0.073595054
236	0x3de6050b	0.112314306
237	0x3d9f1426	0.07767515
238	0x3e3ee75e	0.18642947
239	0xbd887a00	-0.06663895
240	0x3ce5d1c9	0.028054135
241	0x3e356374	0.1771372
242	0xbd38060b	-0.044927638
243	0x3ce9b0c6	0.028526675
244	0x3e0a1575	0.13484748
245	0xbd6c8a02	-0.057748802
246	0xbde1e14d	-0.11029301
247	0x3e08da86	0.1336461
248	0xbe36ccbe	-0.1785154
249	0xbc845248	-0.016152516
250	0xbdd51a82	-0.104054466
251	0x3c8d3b11	0.01724008
252	0xbe15ec9a	-0.14641038
253	0x3e03d51b	0.12874262
254	0xbd8d84e0	-0.069101095
255	0x3dde7a29	0.10863144

item_embed.weight f4 [578, 32]
0	0x3d199bc3	0.03750206
1	0x3dd92816	0.10603349
2	0x3e373abc	0.17893499
3	0xbd939bac	-0.072074264
4	0xbd878e03	-0.066188835
5	0xbe6687b0	-0.22512698
6	0xbdcf69b4	-0.10127583
7	0xbe3f0460	-0.18654013
8	0x3def9c92	0.11699785
9	0x3e087bde	0.13328502
10	0xbd64ef9d	-0.055892576
11	0x3c0b4e0c	0.008502495
12	0x3e4a6c0d	0.1976778
13	0x3e17fd89	0.1484281
14	0xbbfc4229	-0.0076983166
15	0xbb51f154	-0.0032034712
16	0xbe237521	-0.1596265
17	0x3e70f9a6	0.23532733
18	0xbd31f9d4	-0.043451145
19	0x3e0d6b23	0.138104
20	0xbd098444	-0.033573404
21	0xbe0cac10	-0.13737512
22	0x3e64f036	0.22357258
23	0xbd5630b0	-0.052292526
24	0xbe197014	-0.1498416
25	0xbd83a1cc	-0.06427345
26	0xbe7a2015	-0.24426301
27	0xbdc991be	-0.09842251
28	0xbe0ce01b	-0.13757364
29	0x3d1049ac	0.03522651
30	0x3cc4f40b	0.02404215
31	0x3be22b66	0.006902146
32	0xbd4e463d	-0.050359953
33	0xbd183a14	-0.037164763
34	0x3e85f752	0.26165253
35	0xbe446e95	-0.19182809
36	0x3e0b1d5c	0.13585418
37	0xbea7ccd5	-0.32773462
38	0xbe6fb059	-0.23407115
39	0xbd81d36a	-0.06339152
40	0xbd47fd3f	-0.0488255
41	0x3cd37aa7	0.025815321
42	0x3d7e598b	0.062097114
43	0xbbc33210	-0.0059568956
44	0x3d893458	0.06699437
45	0x3e46d28b	0.19416253
46	0xbe2b12e6	-0.16706428
47	0x3e77f9e8	0.24216425
48	0xbcb82185	-0.02247692
49	0x3e71817d	0.23584552
50	0xbde99587	-0.11405473
51	0x3d8067b6	0.06269781
52	0x3dd523ce	0.1040722
53	0xbe5e50ab	-0.2171046
54	0xbded202f	-0.11578404
55	0x3d19e810	0.037574828
56	0xbd5c09cf	-0.05372029
57	0xbdce2211	-0.100650914
58	0x3dfeb607	0.12437063
59	0xbe26401c	-0.16235393
60	0xbe8ea392	-0.2785917
61	0x3cd2bf17	0.025725884
62	0x3d680d05	0.05665304
63	0xbd2bde80	-0.04196024
64	0x3d82eb9d	0.06392596
65	0x3e460fa8	0.1934191
66	0x3d18a907	0.037270572
67	0x3dca1e6f	0.09869086
68	0xbb700e31	-0.0036629552
69	0xbdcb593b	-0.09929129
70	0xbe004c1d	-0.12529035
71	0xbd8b12cb	-0.06790694
72	0xbe0b1dbd	-0.13585563
73	0xbded5b73	-0.11589708
74	0xbe08b14e	-0.13348886
75	0xbb7a3503	-0.003817857
76	0x3e1671be	0.14691827
77	0x3d659a9b	0.056055646
78	0xbda893ef	-0.08231341
79	0xbd01e2c3	-0.031710397
80	0xbe0315d7	-0.128013
81	0xbd86c2d9	-0.06580133
82	0xbe529242	-0.20563605
83	0x3e5e53b7	0.21711622
84	0xbd7471d4	-0.059678867
85	0xbea245a5	-0.3169376
86	0xbb8e634c	-0.004345333
87	0x3dd6d986	0.10490708
88	0xbe491166	-0.19635543
89	0xbe2727c4	-0.16323763
90	0xbe83c007	-0.25732443
91	0x3dff0da8	0.124537766
92	0xbe934555	-0.28763834
93	0x3d96746a	0.07346423
94	0x3da97e1c	0.082760066
95	0xbe3bc385	-0.18336304
96	0xbd017303	-0.031603824
97	0x3da2f8d9	0.0795762
98	0x3d5d4871	0.054024164
99	0xbc2ddd0e	-0.010611786
100	0xbddd34a3	-0.10801055
101	0xbdc02426	-0.09381895
102	0x3e11a556	0.14223227
103	0x3d354ac0	0.04426074
104	0xbd69771f	-0.05699837
105	0x3d83d90a	0.06437881
106	0xbda97a1a	-0.08275242
107	0x3e2bcb8b	0.16776864
108	0xb935f350	-0.00017352146
109	0xbd12b0c3	-0.035813104
110	0x3d3b6941	0.045754675
111	0xbd56e1e7	-0.05246153
112	0x3cb36544	0.021898873
113	0x3e1a00da	0.15039387
114	0x3dc6fa93	0.09715762
115	0xbc124106	-0.008926636
116	0xbd2a8caf	-0.041638073
117	0xbd202083	-0.039093506
118	0xbd54e810	-0.051979125
119	0x3e0c7382	0.13715938
120	0x3cec7fb2	0.028869484
121	0x3de925ac	0.113841385
122	0x3df49ae4	0.119436055
123	0x3e552c0e	0.20817587
124	0x3d55f99d	0.052240003
125	0x3b18d6b1	0.0023321325
126	0x3d9ca41d	0.076484896
127	0xbda1e838	-0.0790562
128	0xbce36a88	-0.027760759
129	0xbc0565d4	-0.0081419535
130	0xbcdf3c2e	-0.027250376
131	0xbcbc53e4	-0.02298922
132	0xbe421984	-0.18955046
133	0x3e5bfb41	0.21482565
134	0x3e03d6e2	0.1287494
135	0xbd8ce52c	-0.068796486
136	0x3dabbc67	0.08385544
137	0xbdd59099	-0.104279704
138	0xbdbc27f9	-0.09187312
139	0xbd9f315b	-0.07773086
140	0xbe2f6a9e	-0.17130515
141	0xbe1379ec	-0.14401978
142	0xbc8d36ea	-0.0172381
143	0xbcb891bc	-0.022530429
144	0xbbfdf445	-0.0077500665
145	0xbd8d3978	-0.06895727
146	0xbe5c885c	-0.21536392
147	0xbd644d5b	-0.055737834
148	0xbdd22678	-0.102612436
149	0x3dc63803	0.09678652
150	0x3e114fe5	0.14190634
151	0xbdf1b215	-0.118015446
152	0x3e844dca	0.25840598
153	0x3d57f577	0.052724328
154	0xbcb62c92	-0.02223805
155	0xbe730c8c	-0.23735255
156	0x3e3ad22e	0.1824424
157	0xbe3d82c0	-0.18506908
158	0xbe4565a5	-0.19277056
159	0x3d7ea512	0.062169142
160	0xbc876dbf	-0.016531823
161	0xbd4a8091	-0.049439017
162	0xbde7d642	-0.11320163
163	0xbded5e0e	-0.11590205
164	0x3e030f9b	0.12798922
165	0x3e50e468	0.2039963
166	0x3dcbf7b2	0.099593535
167	0xbd44b1e4	-0.048021212
168	0x3e6a4ea4	0.22881562
169	0xbc718ff1	-0.014743791
170	0xbda2b2aa	-0.07944234
171	0xbbe72be9	-0.007054795
172	0xbdc80289	-0.097661085
173	0xbddc9448	-0.1077047
174	0xbd4bbff4	-0.049743608
175	0x3bfca106	0.007709625
176	0xbd5aca70	-0.053415716
177	0xbda565b1	-0.08076037
178	0xbb77aa2d	-0.0037790642
179	0x3da7ebb0	0.08199251
180	0xbd7ae1ee	-0.06125062
181	0x3cbbf8d5	0.0229458
182	0x3e6bac2c	0.23014897
183	0xbdcd79d6	-0.10033004
184	0x3d26e48a	0.040745296
185	0x3e6aa240	0.22913456
186	0xbc88cc9c	-0.016699128
187	0x3d36f895	0.04467066
188	0x3e0daf38	0.13836372
189	0xbdbe0a58	-0.09279317
190	0xbd24c487	-0.040226486
191	0x3d7d8240	0.061891794
192	0x3c38d5af	0.011281415
193	0x3e8e8782	0.2783776
194	0x3e457b40	0.19285297
195	0xbe6a19bc	-0.2286138
196	0x3c16dd8f	0.009208097
197	0xbe072e1d	-0.13201185
198	0xbe5558d7	-0.20834671
199	0xbe1c6d40	-0.1527605
200	0xbe6cdbe6	-0.2313076
201	0x3ed6e798	0.41973567
202	0xbe3ecbdb	-0.18632452
203	0xbeb4bd39	-0.35300615
204	0x3e4ee523	0.20204596
205	0x3e65fb56	0.22459158
206	0x3e68ff1f	0.22753571
207	0xbdc57236	-0.09640925
208	0x3e302337	0.17200933
209	0x3ea30f67	0.3184769
210	0x3e32354f	0.17403148
211	0x3e835768	0.25652623
212	0xbbb04603	-0.00537944
213	0xbeb26481	-0.34842303
214	0xbe9b8cca	-0.3038085
215	0x3e9d5ba2	0.30733973
216	0xbea0bf93	-0.3139616
217	0xbd8d0b31	-0.068869
218	0xbe702f13	-0.23455457
219	0xbdb4ee01	-0.08834458
220	0xbe95ebb9	-0.29281405
221	0x3e53121c	0.20612377
222	0x3e69f69c	0.2284798
223	0x3da23fcf	0.07922327
224	0xbde82909	-0.11335952
225	0x3e020649	0.1269771
226	0x3ee2bc22	0.4428416
227	0xbe98f9fa	-0.29878217
228	0x3bc28809	0.005936627
229	0xbe99f4d7	-0.3006961
230	0xbdd2a6d2	-0.10285725
231	0xbcf97db0	-0.03045544
232	0xbebbce70	-0.36680937
233	0x3e2cb0e4	0.16864353
234	0x3d0ccf72	0.034377523
235	0xbec42213	-0.38307247
236	0x3ec8ffb7	0.39257595
237	0x3da94740	0.08265543
238	0xbd8ec89f	-0.06971859
239	0x3ca07797	0.019588275
240	0xbe6d99f1	-0.23203255
241	0x3eb8259f	0.35966203
242	0x3e65c790	0.22439408
243	0x3ed687c8	0.41900468
244	0x3c95f744	0.018306382
245	0xbe9cec82	-0.3064919
246	0x3dab2fc7	0.08358722
247	0x3d049b57	0.032374706
248	0xbea06981	-0.31330493
249	0xbd778494	-0.06042917
250	0xbe1a99d3	-0.15097742
251	0x3c634a71	0.013872729
252	0xbeca97d6	-0.39568967
253	0x3e4db70a	0.20089355
254	0x3e7b234f	0.24525188
255	0x3e583f38	0.21117866

entity_embed.weight f4 [886, 32]
0	0xbd89ce32	-0.06728782
1	0xbd75f738	-0.06005022
2	0x3d4f7e7f	0.050657745
3	0x3d1021de	0.03518855
4	0xbcb2fcf8	-0.02184914
5	0xbd0d7b3b	-0.03454135
6	0x3d4725e4	0.04862012
7	0x3d0df4bc	0.034657225
8	0x3d0ad87a	0.033897854
9	0xbd0e7c02	-0.03478623
10	0xbcf8f9d6	-0.030392569
11	0xbda9e674	-0.082959086
12	0xbd4decc8	-0.05027464
13	0xbd089a7a	-0.033350445
14	0xbc7e7a7d	-0.015532133
15	0x3cf5f6a1	0.030024828
16	0xbd8e9133	-0.06961288
17	0x3d185341	0.037188772
18	0x3c209ba5	0.009802734
19	0x3d222c22	0.03959287
20	0x3d968c1e	0.07350944
21	0x3b955b44	0.004557999
22	0x3c42f0cb	0.01189823
23	0x3d53b49d	0.051685918
24	0xbc68291c	-0.0141699575
25	0xbd03af8d	-0.03214984
26	0x3c870b07	0.01648475
27	0x3d7743b1	0.06036729
28	0xbd83a13a	-0.06427236
29	0x3d832a4b	0.06404551
30	0xbd9fcfd2	-0.078033105
31	0xbd8ddc45	-0.06926779
32	0x3da1718e	0.07882987
33	0xbda643b9	-0.08118386
34	0x3d879018	0.066192806
35	0x3b1b5024	0.002369889
36	0x3ce53f08	0.027984157
37	0x3c01c065	0.007919406
38	0xbd104645	-0.035223264
39	0xbd8fc2f4	-0.07019606
40	0x3d8551c2	0.06509735
41	0xbd42d739	-0.047568534
42	0xbc3a1db9	-0.0113596255
43	0xbd04453f	-0.0322926
44	0x3d9864c0	0.074410915
45	0xba66d908	-0.0008806144
46	0x3d66a6d8	0.05631146
47	0x3db49e19	0.08819217
48	0xbc91c8e0	-0.01779598
49	0x3da0b79f	0.07847523
50	0x3c1c48db	0.0095388545
51	0xbd1fcc07	-0.039012935
52	0xbd8a8f04	-0.06765559
53	0xbcc8094a	-0.024418492
54	0x3d7832f8	0.060595483
55	0x3d4c4f59	0.04988036
56	0x3d6d7d1a	0.057980634
57	0xbdbe190a	-0.092821196
58	0xbd94e902	-0.07271005
59	0x3d32e57a	0.043675877
60	0x3d27ee24	0.040998593
61	0x3d9f4945	0.07777647
62	0x3d6cceed	0.057814527
63	0xbc436c23	-0.011927637
64	0x3d64f3f2	0.055896707
65	0x3d4dd6cd	0.050253678
66	0x3d8d5445	0.06900839
67	0xbd42d635	-0.047567565
68	0x3d843427	0.0645526
69	0xbcc91d37	-0.024550064
70	0xbc70621e	-0.01467183
71	0xbdac9a5c	-0.08427879
72	0x3d02b8ba	0.03191445
73	0xbcd5840a	-0.026063938
74	0xbd1b51bd	-0.03791975
75	0x3d135cd1	0.03597719
76	0x3d76651d	0.060155023
77	0xbdbcdb3f	-0.092215054
78	0x3d1d12d5	0.038348038
79	0xbd8e9d7b	-0.06963631
80	0xbd470b48	-0.048594743
81	0x3d74ecbd	0.059796084
82	0xbd4e5e92	-0.050383158
83	0x3d4d4f92	0.050124712
84	0x3d8acedd	0.06777737
85	0xbd9ad1e7	-0.07559567
86	0xb9e5e3fd	-0.00043848148
87	0x3d867757	0.06565731
88	0xbc6c86df	-0.014436453
89	0x3d27d10c	0.040970847
90	0xbdb7d5e9	-0.08976347
91	0x3d447955	0.047967274
92	0x3c494915	0.0122854905
93	0x3d0c6aa6	0.034281395
94	0x3c8d9359	0.017282175
95	0xbdbf2200	-0.09332657
96	0xbcfc40d5	-0.030792633
97	0xbd5a5d84	-0.05331184
98	0x3ce5251a	0.027971793
99	0xbd93525c	-0.07193443
100	0x3d8632ec	0.06552681
101	0x3dad6eed	0.08468423
102	0xbd10acca	-0.035321034
103	0x3d39c900	0.045357704
104	0xbcf64d62	-0.030066196
105	0x3c86202e	0.016372766
106	0x3d6835dc	0.05669199
107	0xbd9b7fd9	-0.075927444
108	0x3d19b1ea	0.037523188
109	0xbbdef30e	-0.0068038767
110	0xbc83856f	-0.016054837
111	0xbd913e98	-0.07092017
112	0x3d22c70f	0.03974062
113	0x3cd372e8	0.025811628
114	0xbcb3b777	-0.021938069
115	0x3d4f4cfb	0.050610524
116	0xba461a94	-0.0007557061
117	0xbd0c67a9	-0.034278546
118	0x3d68d1dc	0.056840762
119	0xbd7840ef	-0.0606088
120	0x3d7c49fe	0.061594002
121	0x3b773e7f	0.003772646
122	0x3d91e1d5	0.07123152
123	0x3d2243d4	0.039615467
124	0x3c36347c	0.011120912
125	0xbce8bb09	-0.028409498
126	0xbc6cea40	-0.014460146
127	0x3d406497	0.04697093
128	0xbca04537	-0.019564254
129	0xbc3837e5	-0.011243795
130	0x3cec6e44	0.028861172
131	0x3cda7fb9	0.026672231
132	0xbd7afb6d	-0.061274935
133	0x3ba2cc7e	0.004968225
134	0x3c911e85	0.017714748
135	0xbd3c6807	-0.045997646
136	0x3cf2a73e	0.029620763
137	0xbd503c1b	-0.05083857
138	0xbd782fa0	-0.060592294
139	0x3cadcca3	0.021215742
140	0xbbfcd2b1	-0.007715546
141	0xbd63f6c9	-0.055655275
142	0xbc8cda40	-0.017193913
143	0xbb5be3e7	-0.0033552588
144	0x3d8d5d2d	0.069025375
145	0x3d1501da	0.03637872
146	0xbcda1970	-0.026623458
147	0x3db50cb8	0.088403165
148	0x3c8dd024	0.017311163
149	0xbd5cf934	-0.053948596
150	0x3d1b3bb9	0.037898753
151	0xbd28221a	-0.041048147
152	0x3c355cf7	0.011069528
153	0xbbaf0ea1	-0.00534232
154	0x3d622d1b	0.055218797
155	0x3a1881fb	0.00058177084
156	0xbd58bb59	-0.052913044
157	0x3c0b82e5	0.008515094
158	0xbdaaa11b	-0.0833151
159	0x3b9cd0f9	0.0047856537
160	0xbd885028	-0.066559136
161	0x3c929b9b	0.017896464
162	0x3bcba169	0.00621431
163	0xbce91b83	-0.028455501
164	0x3d108838	0.03528616
165	0x3d2ed807	0.04268649
166	0x3d9c8745	0.07642988
167	0x3be9d86c	0.007136395
168	0x3ce8baff	0.02840948
169	0x3d8f1131	0.06985701
170	0x3b4f9677	0.0031675377
171	0xbd80902d	-0.06277499
172	0xbd98661d	-0.074413516
173	0x3c812f95	0.01576976
174	0xbc3173ea	-0.010830859
175	0x3d88ac66	0.066735074
176	0xbd02499c	-0.03180848
177	0xbd673ad0	-0.056452572
178	0x3bbda918	0.00578798
179	0x3d64797c	0.05577992
180	0x3d00d4bc	0.03145288
181	0x3be55dc9	0.0069997055
182	0x3c6a3535	0.014294912
183	0x3d29bcf7	0.041439977
184	0xbc594e87	-0.013263351
185	0x3ce1e785	0.027576217
186	0x3bef93cd	0.0073113204
187	0xbcbac1bb	-0.022797456
188	0x3d1d8859	0.03846011
189	0xb8880789	-6.486389e-05
190	0xbd9aecea	-0.07564719
191	0xbd83b0ac	-0.06430182
192	0xbd1187b5	-0.03552981
193	0xbbb7e9c7	-0.005612585
194	0x3d486d03	0.048932087
195	0xbd9406d5	-0.072278656
196	0xbd81c061	-0.063355215
197	0xbd92ca0e	-0.07167445
198	0xbbde1c3c	-0.006778268
199	0xbdd98006	-0.10620122
200	0x3d0ba58b	0.03409342
201	0x3dbd5641	0.09244967
202	0x3bc06cc6	0.005872342
203	0xbc284e0c	-0.010272514
204	0x3ddfb283	0.1092272
205	0x3db51ae9	0.08843023
206	0x3caee174	0.021347739
207	0xbc9f5cc7	-0.01945342
208	0x3d6c5762	0.057700522
209	0xbcc3305e	-0.023826774
210	0x3d01e543	0.03171278
211	0xbd28bc7c	-0.041195378
212	0xbd73a6fd	-0.059485424
213	0xbd14f612	-0.036367483
214	0xbd645ca4	-0.05575241
215	0x3cd68f52	0.026191387
216	0xbd315d28	-0.04330173
217	0xbd8a6959	-0.06758375
218	0xbd929f81	-0.07159329
219	0x3c59a8e3	0.013284895
220	0xbd30029a	-0.04297123
221	0x3c2acdb3	0.010425019
222	0x3cddc535	0.027071575
223	0x3bd0c8ac	0.006371578
224	0xbd8772dd	-0.06613705
225	0xbc3634c3	-0.011120978
226	0x3d413fe6	0.04718008
227	0xbda84c6d	-0.08217702
228	0xbca021d1	-0.019547375
229	0xbbcd6290	-0.006267853
230	0x3b6deaa8	0.0036303196
231	0xbdaad5c0	-0.08341551
232	0x3d192374	0.037387326
233	0x3cbe9bd7	0.02326767
234	0x3d788c72	0.060680814
235	0xbc6db77f	-0.014509081
236	0x3d344e30	0.044019878
237	0x39af0452	0.0003338182
238	0xbd856fa7	-0.065154366
239	0xbd9fc215	-0.0780069
240	0xbdaded03	-0.08492472
241	0x3da5785f	0.080795996
242	0x3d830775	0.06397907
243	0x3d8c4d4a	0.06850679
244	0x3d16839c	0.036746606
245	0xbcc3bb71	-0.02389309
246	0x3d8f5493	0.06998553
247	0x3d3c4b93	0.04597051
248	0x3d090786	0.03345444
249	0x3c9fab28	0.019490793
250	0xbd7e6419	-0.06210718
251	0x3c01220f	0.007881655
252	0xbcd00c6d	-0.02539655
253	0x3ca8629d	0.020554835
254	0xbbccf64f	-0.006254948
255	0xbc0f1f0c	-0.0087354295

relation_embed.weight f4 [114, 32]
0	0xbce693ac	-0.028146587
1	0x3c2b9739	0.010473066
2	0xbcced838	-0.025249586
3	0xbe116585	-0.14198883
4	0x3db6d37f	0.089270584
5	0x3dc7769e	0.09739421
6	0x3d679bbe	0.05654501
7	0xbe36cd3e	-0.17851731
8	0xbde8f504	-0.11374858
9	0xbd2d6211	-0.04232985
10	0xbca3f946	-0.020016324
11	0xbd3a89fc	-0.04554175
12	0x3d93a56a	0.072092846
13	0x3e40e0d4	0.18835765
14	0x3de786d4	0.11305013
15	0xbdc1a260	-0.09454799
16	0xbdb6f403	-0.0893326
17	0xbd639152	-0.05555851
18	0x3d4d6ade	0.050150745
19	0xbd9d8eee	-0.07693277
20	0xbd7ae2d0	-0.06125146
21	0x3caef233	0.021355724
22	0x3ce3eb7f	0.027822254
23	0xbdcedfc9	-0.101012774
24	0x3e086f7d	0.1332378
25	0x3d5a138f	0.05324131
26	0x3e31dd53	0.17369585
27	0xbe450fa0	-0.19244242
28	0xbcd06e8d	-0.02544334
29	0xbce0f9fe	-0.027462956
30	0x3e27c8bd	0.1638517
31	0x3e3a0cc5	0.18168934
32	0xbd304822	-0.04303754
33	0x3e0db688	0.13839161
34	0x3cb27a8a	0.021786947
35	0xbcae59f1	-0.021283122
36	0xbe19f4eb	-0.15034835
37	0xbe222b44	-0.15836817
38	0x3d1e1e6d	0.038603235
39	0xbe46f4a1	-0.19429256
40	0x3e312b48	0.17301667
41	0x3bd8550c	0.0066019353
42	0xbe1b7de3	-0.1518474
43	0x3e134d50	0.14384961
44	0xbe1e499c	-0.15457767
45	0xbe06ef6d	-0.13177271
46	0xbdbdaef4	-0.09261885
47	0xbd2dda66	-0.04244461
48	0xbd5130df	-0.051071998
49	0xbe30fc70	-0.17283797
50	0x3c1025d9	0.008798086
51	0xbe338391	-0.17530657
52	0xbdce5de3	-0.10076501
53	0x3d54818c	0.051881358
54	0xbc1dc53a	-0.009629542
55	0x3e110595	0.14162286
56	0x3dbf64ec	0.09345421
57	0xbc281e73	-0.010261166
58	0x3db33a01	0.08751298
59	0xba9d832b	-0.001201724
60	0xbccdcaff	-0.02512121
61	0x3dbae9b6	0.09126608
62	0xbd8ee52f	-0.06977307
63	0xbe3f40a1	-0.18676998
64	0x3ddcfced	0.10790429
65	0xbced1b35	-0.028943637
66	0x3c085ec8	0.008323379
67	0x3d815786	0.06315522
68	0x3ce82ed5	0.028342644
69	0xbe1fbd13	-0.1559947
70	0x3d1ed9fb	0.0387821
71	0xbe1a15eb	-0.15047424
72	0xbd0752fd	-0.03303813
73	0xbe24a478	-0.16078365
74	0x3def988c	0.11699018
75	0xbcd25d10	-0.025679141
76	0x3bbd143c	0.0057702344
77	0xbe707c8b	-0.2348501
78	0x3da241b4	0.07922688
79	0xbe226e2a	-0.15862337
80	0xbe0e1d02	-0.13878253
81	0x3e0cde80	0.13756752
82	0x3e1e071c	0.154324
83	0x3e586fae	0.21136352
84	0x3da75b0b	0.08171662
85	0xbdb96809	-0.09053046
86	0x3d8db68f	0.06919586
87	0x3e060fba	0.13091937
88	0x3e43ae82	0.19109538
89	0xbe0644f0	-0.13112235
90	0x3da78052	0.08178772
91	0x3cda59c0	0.026654124
92	0x3e00ecf6	0.12590393
93	0x3de042f0	0.10950267
94	0x3da4eca8	0.08052951
95	0xbe1d3e64	-0.15355831
96	0x3d64661b	0.055761438
97	0xbe230a6f	-0.15921949
98	0xbdb0b798	-0.08628768
99	0xbcfb2c05	-0.030660639
100	0xbdb19547	-0.086710505
101	0xbda33ced	-0.07970605
102	0x3b873745	0.0041264617
103	0x3e1bae19	0.15203132
104	0xbdd560a2	-0.10418822
105	0x3d6dbf32	0.058043666
106	0xbdab63ef	-0.0836867
107	0xbd9e96af	-0.07743584
108	0xb9755fe4	-0.00023400743
109	0xbe495e82	-0.19664958
110	0xbc9cc01f	-0.01913458
111	0xbe1d5d03	-0.15367512
112	0x3e0530bc	0.13006872
113	0xbd91641e	-0.07099174
114	0x3cd13f1b	0.025542786
115	0x3d9b19fd	0.07573316
116	0xbdf8d55e	-0.121500716
117	0xbe4a7909	-0.19772734
118	0xbd69bff1	-0.057067815
119	0xbdc8793c	-0.097887486
120	0x3e2b5fc0	0.16735744
121	0xbe28e567	-0.1649376
122	0xbda8b27a	-0.08237167
123	0x3e3d9673	0.18514423
124	0xbd9435f8	-0.07236856
125	0xbe3af866	-0.18258819
126	0x3e25e4a8	0.16200507
127	0x3ddeab9f	0.10872578
128	0xbde3a95d	-0.11116288
129	0x3d9e74e5	0.077371396
130	0xbdfbd2ff	-0.12296104
131	0xbddd1526	-0.10795049
132	0xbc843c99	-0.016142176
133	0x3de68f17	0.11257761
134	0xbc7171cb	-0.014736603
135	0xbe046b0b	-0.12931459
136	0x3ddad896	0.10685842
137	0x3d6753ed	0.056476522
138	0xbc0de971	-0.008661614
139	0xbda2de02	-0.07952501
140	0xbd038a23	-0.03211416
141	0xbdeffd64	-0.11718252
142	0x3e0ed046	0.13946638
143	0xbb79873e	-0.0038074995
144	0x3caee5b6	0.02134977
145	0x3e039078	0.12848079
146	0xbc1f6fa0	-0.009731203
147	0x3d96c6ee	0.073621616
148	0x3dc7e603	0.09760668
149	0x3dfa5397	0.12222975
150	0xbc6508b8	-0.0139791295
151	0xbe28dd0c	-0.16490573
152	0xbdcbab5d	-0.09944794
153	0xbdb8ee54	-0.090298325
154	0x3bde9496	0.006792615
155	0x3cac6342	0.021043424
156	0xbd377e93	-0.044798445
157	0xbe4f8d03	-0.20268635
158	0xbdfff391	-0.124976285
159	0xbe01f844	-0.12692362
160	0xbe11b276	-0.14228234
161	0xbd55e3e3	-0.052219283
162	0xbe0771be	-0.13226983
163	0x3dc0b20c	0.0940896
164	0x3d4bfc8e	0.0498014
165	0x3db67848	0.089096606
166	0x3d97ec22	0.07418086
167	0x3d248488	0.040165454
168	0xbd75b23d	-0.059984434
169	0xbd940188	-0.072268546
170	0xbd89f04f	-0.06735288
171	0xbdedb897	-0.11607473
172	0xbd09d36a	-0.033648886
173	0xbe113f1e	-0.14184234
174	0xbe51d284	-0.20490462
175	0x3de7d048	0.11319023
176	0xbd060b96	-0.032725893
177	0x3c9d675a	0.01921432
178	0xbd91d008	-0.07119757
179	0xbdf68071	-0.12036217
180	0x3db0ab3a	0.08626409
181	0xbd849822	-0.064743295
182	0x3e29f910	0.16598916
183	0x3d9516ff	0.07279777
184	0xbb7f81af	-0.003898721
185	0xbdc85ee2	-0.097837225
186	0xbbd5cceb	-0.0065246723
187	0xbe08540e	-0.13313314
188	0x3cb8c8d1	0.022556694
189	0x3e138b03	0.14408498
190	0xbd7b436b	-0.06134359
191	0xbdc93782	-0.098250404
192	0x3da25aee	0.079275
193	0x3e44548f	0.19172882
194	0x3de93536	0.11387102
195	0x3e1a9407	0.1509553
196	0xbc9fc6d4	-0.019503988
197	0x3e466070	0.19372725
198	0x3ce16898	0.027515694
199	0xbcfa86a3	-0.030581778
200	0x3bcff017	0.0063457596
201	0xbd403aef	-0.046931203
202	0xbcc620e5	-0.024185607
203	0xbd1d7e4b	-0.03845052
204	0xbdf75d6a	-0.12078364
205	0xbdf1e44e	-0.11811124
206	0x3dae49fc	0.08510205
207	0xbd90f024	-0.07077053
208	0x3d3d878d	0.04627185
209	0xbe1a786b	-0.15084998
210	0xbc82dc30	-0.015974134
211	0x3e19ef72	0.15032747
212	0x3d36429f	0.04449713
213	0x3d106f3c	0.03526233
214	0x3e209934	0.15683442
215	0x3dee8e09	0.11648185
216	0xbccb1761	-0.024791421
217	0x3d4a1fc0	0.049346685
218	0x3a321651	0.00067934865
219	0xbda2d6b6	-0.07951109
220	0xbdf1a547	-0.11799102
221	0x3ca89764	0.020580001
222	0xbe1fbe4a	-0.15599933
223	0xbe2ad6a1	-0.16683437
224	0x3cbeaaf2	0.023274872
225	0xbe35d280	-0.1775608
226	0xbdeb9a37	-0.115040235
227	0xbd21c9ea	-0.0394992
228	0x3d417a62	0.047235854
229	0x3dffc745	0.124891795
230	0xbe3c7a1c	-0.18405956
231	0x3d2ebbb4	0.042659476
232	0xbd8cdf7b	-0.06878563
233	0xbb94f4d6	-0.0045457883
234	0x3e33aace	0.17545626
235	0x3da7d99d	0.08195803
236	0x3d54dfef	0.051971372
237	0xbe354301	-0.17701341
238	0xbdfb19e2	-0.12260796
239	0xbe18de64	-0.14928585
240	0x3e30f3d6	0.17280516
241	0x3da0b90f	0.07847797
242	0x3e3fb156	0.18719992
243	0xbdb9c68b	-0.09071072
244	0x3dc4528f	0.09586059
245	0xbe5c7ab0	-0.21531177
246	0x3d984d5e	0.074366316
247	0xbe225528	-0.15852797
248	0x3def7e89	0.116940565
249	0xbe2a73d3	-0.16645746
250	0xbdb957c0	-0.0904994
251	0xbd804be9	-0.06264479
252	0xbda3a523	-0.07990482
253	0xbe0480e0	-0.12939787
254	0xbe4d8daa	-0.20073572
255	0xbd98e361	-0.07465244
