Knowledge_Graph_Recommendation/recommendation/stage2/trained_model/Douban/Embedding_based/dim32_lr0.001_l20.0001_TransR/concat/model0_epoch40.pth (torch, 728343 bytes, 5 tensors)

trans_M f4 [114, 32, 32]
-0.0010633247 0.00205913 0.009600003 0.021193264 0.0055298056 0.03378066 0.0086093135 0.029558232
-0.011431092 -0.002814704 0.021903165 -0.016566895 -0.009525217 0.0037426916 -0.03200259 0.011789452
-0.02171928 0.02162573 -0.0065588844 0.017680764 -0.0026316077 0.0136983935 0.0031525327 0.003066512
0.011248466 -0.0059774513 0.017810205 0.03434467 0.025682928 0.027945973 -0.032499414 0.019252589
0.00045944197 -0.0217008 0.027074972 0.010571007 -0.023004048 -0.032572135 -0.021374637 -0.012163322
0.0044074506 0.0008355077 0.01827642 -0.039864164 -0.02167365 -0.03573767 0.026047917 0.035187334
0.026377352 -0.027171945 0.008222081 -0.027322175 0.039074745 0.02666488 0.040632907 -0.035803948
0.006830544 -0.027548928 -0.018254109 0.015082631 -0.023027811 0.024061585 -0.005595841 0.013192932
0.013995562 -0.00011099867 0.02454348 -0.04059777 0.019013219 -0.008089325 0.024770955 0.027414685
0.017633863 5.187198e-05 0.002425412 0.0070722634 -0.0037490602 0.026146749 -0.020128282 -0.0025943057
-0.016439037 0.00242464 -0.031900957 0.01241397 -0.008720433 0.020132745 -0.0017496593 0.027756615
0.014114843 -0.010333753 0.02323475 0.024582671 -0.029419597 -0.020316461 0.016422791 0.01924332
0.008641379 0.0067978324 0.0344725 -0.007527923 -0.038560588 0.039668065 -0.040541142 0.028450066
0.020760575 -0.009191677 -0.015299723 0.005886562 -0.010724515 0.024886364 0.026516747 0.014356962
-0.018041378 -0.032982886 0.018079588 -0.0012161232 -0.04134132 -0.004902 0.033503693 0.017904157
0.010190111 -0.016968235 -0.03392216 -0.014931649 -0.020303153 -0.012142304 -0.033683855 -0.021695595
1.5659072e-05 0.023778284 -0.0028929955 -0.014747879 0.019852461 0.012605887 0.035835028 -0.027296035
-0.027480276 0.002196743 -0.010325324 0.037016187 -0.0053637163 -0.0059955954 -0.033323508 -0.0009612768
-0.032973208 -0.024514046 0.036599424 0.025569098 -0.011712918 -0.02053341 0.030877495 -0.019938873
0.02574951 0.013857098 0.01108725 -0.009954207 0.03294543 -0.03257828 -0.03502494 -0.0013984612
0.023950526 0.0388922 -0.0063419123 0.034568924 0.009509511 0.03462067 0.025331398 -0.002116742
-0.032611284 0.0066915303 0.013559925 0.02964398 0.003267204 -0.009680409 -0.014805108 -0.004974824
0.006143417 -0.034539312 -0.016750516 -0.018922271 -0.013383219 0.029248077 0.023085022 -0.030062374
0.01678945 -0.034512598 0.007032422 0.025051562 0.020954346 -0.039614268 -0.0029356314 -0.010724738
-0.0195432 -0.0007462235 0.008987512 0.018876141 0.003233855 0.025362786 -0.010036971 -0.0018726942
-0.04122614 -0.013481719 -0.016602596 -0.04119586 -0.0016394316 0.024298208 0.014545005 -0.018761534
0.026213551 -0.021264061 -0.003738413 -0.0053058267 -0.02440637 0.01062132 0.040174652 -0.0007415734
0.015699899 0.016884038 -0.036314193 0.015808178 0.024945995 -0.019835541 -0.008745629 -0.008378421
0.029376093 0.014027495 -0.0085797515 -0.03313527 -0.009682806 0.0072816615 0.00071647204 0.026246976
0.007215505 -0.002519959 -0.020647585 0.02210028 -0.0015295226 0.038532462 -0.008793835 -0.028199602
-0.027352488 0.00919731 0.0157485 0.022323215 0.014204703 -0.017425599 -0.015482201 -0.00027549537
0.02911272 -0.016148975 -0.003650777 0.03313858 0.020889962 0.010516603 -0.006489909 -0.009406257
00000000: 425f 8bba 78f2 063b 5549 1d3c 7f9d ad3c
00000010: 5f33 b53b 975d 0a3d 140e 0d3c 1b24 f23c
00000020: 7a49 3bbc e676 38bb 446e b33c 4cb7 87bc
00000030: a80f 1cbc f247 753b 2615 03bd 8c28 413c
00000040: a2ec b1bc 7128 b13c e9eb d6bb 40d7 903c
00000050: 0d77 2cbb 3a6f 603c b99a 4e3b 89f7 483b
00000060: 7c4b 383c 7fde c3bb b5e6 913c ffac 0c3d
00000070: 0165 d23c f4ee e43c 1b1e 05bd 9bb7 9d3c
00000080: 42e1 f039 e0c5 b1bc 55cc dd3c 0432 2d3c
00000090: fc72 bcbc 5c6a 05bd dd19 afbc ac48 47bc
000000a0: 606c 903b f905 5b3a 6eb8 953c 9b48 23bd
000000b0: f08c b1bc aa61 12bd 7162 d53c 9820 103d
000000c0: 5115 d83c b397 debc e8b5 063c c1d2 dfbc
000000d0: d70c 203d 4e70 da3c b16e 263d 29a7 12bd
000000e0: c2d2 df3b 4aae e1bc a489 95bc 241d 773c
000000f0: d2a4 bcbc cd1c c53c 515d b7bb 2b27 583c
00000100: a44d 653c f5c7 e8b8 680f c93c d949 26bd
00000110: 9cc1 9b3c 1789 04bc 75ec ca3c c394 e03c
00000120: e474 903c 1d91 5938 a9f3 1e3b 72be e73b
00000130: cbb2 75bb b531 d63c 11e4 a4bc 3a05 2abb
00000140: 29ab 86bc b6e6 1e3b 94aa 02bd f763 4b3c
00000150: 26e0 0ebc 6ded a43c d354 e5ba d761 e33c
00000160: f141 673c e74e 29bc cd56 be3c 9961 c93c
00000170: 5e01 f1bc b56e a6bc 1789 863c 2ba4 9d3c
00000180: 9294 0d3c 5ac0 de3b 0933 0d3d ccac f6bb
00000190: b5f1 1dbd fb7a 223d 780e 26bd 1d10 e93c
000001a0: 1512 aa3c b098 16bc b0ab 7abc 10e4 c03b
000001b0: e0b5 2fbc 7dde cb3c a639 d93c 7739 6b3c
000001c0: 83cb 93bc 1019 07bd a51b 943c 5366 9fba
000001d0: 8455 29bd f5a0 a0bb 2b3b 093d bdab 923c
000001e0: 6cf4 263c f800 8bbc f6f1 0abd e0a3 74bc
000001f0: cc52 a6bc 84f0 46bc 15f8 09bd f6ba b1bc
00000200: 9a5b 8337 adca c23c 6998 3dbb 16a1 71bc
00000210: a1a1 a23c ec88 4e3c c0c7 123d ef9b dfbc
00000220: 511e e1bc 3bf7 0f3b 8c2b 29bc 499e 173d
00000230: 1dc2 afbb b376 c4bb 3b7e 08bd 32fe 7bba
00000240: ea0e 07bd aed1 c8bc 47e9 153d 4976 d13c
00000250: 8ae7 3fbc af35 a8bc cdf2 fc3c d956 a3bc
00000260: a3f0 d23c e208 633c 4ca7 353c f816 23bc
00000270: caf1 063d cd70 05bd 5076 0fbd 924c b7ba
00000280: e533 c43c 6d4d 1f3d d1cf cfbb 2598 0d3d
00000290: c8cd 1b3c 67ce 0d3d cb83 cf3c 0ab9 0abb
000002a0: 6993 05bd a044 db3b 732a 5e3c efd7 f23c
000002b0: 961e 563b 949a 1ebc 2091 72bc d903 a3bb
000002c0: b84e c93b 1879 0dbd 6138 89bc e102 9bbc
000002d0: 4a45 5bbc aa99 ef3c cd1c bd3c 5e45 f6bc
000002e0: 078a 893c 155d 0dbd 3b70 e63b ef38 cd3c
000002f0: 73a8 ab3c 9242 22bd b963 40bb d0b6 2fbc
00000300: 1019 a0bc 369e 43ba 5c40 133c 23a2 9a3c
00000310: 15ef 533b 9ec5 cf3c 1c72 24bc 3175 f5ba
00000320: bedc 28bd 6ee2 5cbc 2b02 88bc fdbc 28bd
00000330: 32e2 d6ba 090d c73c 2c4e 6e3c cab1 99bc
00000340: cdbd d63c f831 aebc 2a00 75bb 80dc adbb
00000350: deef c7bc 0c05 2e3c 2d8e 243d 2666 42ba
00000360: 139d 803c 6550 8a3c 31be 14bd 2780 813c
00000370: 8b5b cc3c 257e a2bc d449 0fbc a545 09bc
00000380: 22a6 f03c 94d3 653c 1692 0cbc d9b8 07bd
00000390: a2a4 1ebc 019b ee3b a0d1 3b3a e603 d73c
000003a0: 0b70 ec3b e525 25bb 2025 a9bc a50b b53c
000003b0: 437a c8ba 37d4 1d3d 0414 10bc da02 e7bc
000003c0: 5312 e0bc 50b0 163c 0003 813c 2ddf b63c
000003d0: d8ba 683c 21c0 8ebc 0fa9 7dbc 5d70 90b9
000003e0: cd7d ee3c db4a 84bc e041 6fbb 52bc 073d
000003f0: 6d21 ab3c d44d 2c3c 4da9 d4bb b41c 1abc

user_embed.weight f4 [447, 32]
0.3879072 -0.059706338 -0.10135699 0.37819 -0.32737285 0.020733692 -0.1888092 -0.32427
-0.18069752 -0.010834959 0.36883107 -0.06390955 -0.10303403 0.23747589 0.05642902 0.41628316
-0.047191337 -0.342894 0.106847055 -0.14850229 0.18784547 -0.027330864 -0.3820371 -0.17908314
-0.37387022 -0.1891474 -0.042799737 0.48329872 -0.6143847 0.024797346 0.032430064 0.0012855139
0.439534 -0.1997597 0.429948 -0.26492175 0.13401961 0.02052485 0.41568413 -0.08815422
-0.20486863 0.08995606 0.13287255 -0.21972284 0.131119 0.24554226 -0.04885754 0.24908149
-0.14674291 -0.0579898 0.49174848 0.20734993 -0.11399521 -0.20681816 -0.34138888 0.017008314
-0.40069866 -0.15605462 -0.01018272 0.30154747 -0.3022934 0.23136795 0.27707916 0.4305163
0.21909241 0.28987005 -0.18112089 0.14661798 -0.3535071 -0.11232024 -0.46316016 -0.13720317
-0.42505357 0.28988913 0.17219478 -0.0504706 0.2918172 0.12225369 -0.08116329 -0.045211494
0.27690858 -0.3319291 0.35695314 0.11856958 -0.056201965 0.2770657 -0.41535306 -0.18747611
-0.2397088 -0.06564649 -0.05189672 0.15237346 -0.33112112 0.23348223 0.42450222 0.12786274
0.4627347 0.36820054 -0.14060597 0.7766459 0.012984711 -0.09585064 -0.1892741 0.20296116
-0.38410783 -0.07824233 -0.40847883 0.19446708 0.617984 0.1912401 0.20448951 -0.26281562
0.7869726 0.29725936 0.07935222 0.020038018 0.11361929 -0.0029562342 -0.52458733 -0.32351366
0.060257826 -0.64454913 0.699407 0.52776635 0.00959762 0.62534595 0.36635846 -0.19980846
0.53229165 -0.122732945 0.040601145 0.08393736 -0.045903258 -0.041733254 0.16709754 0.032346524
-0.3683277 -0.2136825 -0.16243763 0.20438378 -0.05939623 0.13124011 0.29491943 -0.14277293
0.14886339 0.059368216 0.051508803 0.23357657 0.048345637 0.28343216 -0.26315388 0.15216315
-0.15043913 -0.13380499 0.10264348 0.40113792 -0.17207268 0.07736547 0.025136294 -0.074396074
-0.2700771 0.8864597 1.0183455 -0.60941327 0.7852491 0.08966564 0.1649107 0.6361022
0.22255503 0.6084214 -0.5103464 -0.48116052 0.4649571 -0.48930183 -0.6333594 -0.29170987
-0.34771553 -0.09074813 0.7144688 0.44612843 0.7888259 -0.5683022 0.4773469 -0.40163368
-0.76150984 0.11459215 -0.58111435 0.06654996 0.043079853 0.68250567 -0.27557337 0.7778458
-0.121959105 0.25660625 -0.17707914 0.007876485 0.08340497 -0.20771594 0.07092417 0.092951655
-0.1807371 -0.02371124 0.17171192 0.02722601 0.10602301 0.21003594 0.08807826 0.23955643
-0.055848863 0.14317627 0.17552438 0.33879855 0.012332477 -0.039857294 -0.11150511 0.29992396
-0.13144429 0.2583156 -0.05513653 0.13622105 -0.21000393 -0.11699023 0.21828796 0.49352098
0.4245223 0.2080696 -0.43777728 0.22774115 -0.18011586 -0.29296258 -0.10340396 0.3560937
-0.2304784 0.13187532 -0.33385193 0.40851623 0.30584106 0.2865682 0.6198765 0.062186845
0.26439187 0.50484014 0.008789365 0.09685009 0.38298386 -0.30916408 -0.21871664 0.48483393
-0.3406774 -0.18358552 -0.27332044 0.1350895 -0.25582707 0.26051807 -0.15527323 0.174987
00000000: c69b c63e a28e 74bd 4194 cfbd 1fa2 c13e
00000010: 6a9d a7be b4d9 a93c 3357 41be b806 a6be
00000020: c508 39be 1d85 31bc 6dd7 bc3e 03e3 82bd
00000030: 8103 d3bd e12c 733e 1e22 673d 1123 d53e
00000040: b44b 41bd cd8f afbe a1d2 da3d fc10 18be
00000050: 905a 403e fae4 dfbc 5e9a c3be 9261 37be
00000060: eb6b bfbe dbaf 41be c74e 2fbd ee72 f73e
00000070: 5148 1dbf ce23 cb3c 63d5 043d b07e a83a
00000080: 9a0a e13e cf8d 4cbe 2522 dc3e d3a3 87be
00000090: 703c 093e bb23 a83c 8dd4 d43e 338a b4bd
000000a0: 15c9 51be e23a b83d be0f 083e 06ff 60be
000000b0: 0f44 063e 6e6f 7b3e d81e 48bd 380f 7f3e
000000c0: c643 16be b686 6dbd 75c6 fb3e 8a53 543e
000000d0: 5276 e9bd 24c8 53be 86ca aebe 0555 8b3c
000000e0: 6028 cdbe c8cc 1fbe 6cd5 26bc 6e64 9a3e
000000f0: 33c6 9abe b8eb 6c3e 52dd 8d3e a26c dc3e
00000100: c359 603e d969 943e c177 39be 0623 163e
00000110: e2fe b4be 2708 e6bd 5423 edbe fd7e 0cbe
00000120: 9fa0 d9be 596c 943e d453 303e 43ba 4ebd
00000130: 1069 953e 2560 fa3d f038 a6bd b02f 39bd
00000140: f6c6 8d3e 9cf2 a9be 90c2 b63e 9cd4 f23d
00000150: 0834 66bd 8edb 8d3e 28a9 d4be bdf9 3fbe
00000160: 3976 75be ab71 86bd a891 54bd ca07 1c3e
00000170: b588 a9be f715 6f3e 5b58 d93e 73ee 023e
00000180: 90eb ec3e c884 bc3e 03fb 0fbe 44d2 463f
00000190: d3bd 543c 574d c4bd 12d1 41be 0dd5 4f3e
000001a0: c8a9 c4be 843d a0bd 2324 d1be 6122 473e
000001b0: 3334 1e3f 72d4 433e b365 513e c58f 86be
000001c0: 0977 493f 6132 983e 6b83 a23d c526 a43c
000001d0: 3bb1 e83d 61bd 41bb 5b4b 06bf 95a3 a5be
000001e0: e9d0 763d 2c01 25bf 560c 333f b21b 073f
000001f0: 563f 1d3c ac16 203f 5693 bb3e 979a 4cbe
00000200: 4444 083f 695b fbbd 634d 263d 5ae7 ab3d
00000210: 0e05 3cbd 7df0 2abd 9e1b 2b3e ca7d 043d
00000220: 7395 bcbe 96cf 5abe 0d56 26be fb49 513e
00000230: 7649 73bd cf63 063e aeff 963e 1133 12be
00000240: a56f 183e 162c 733d e5fa 523d b22e 6f3e
00000250: 1306 463d 051e 913e 1bbc 86be a8d0 1b3e
00000260: b70c 1abe 2d04 09be bf36 d23d f361 cd3e
00000270: d233 30be ca71 9e3d a1ea cd3c f85c 98bd
00000280: 8c47 8abe 06ef 623f 2559 823f 8202 1cbf
00000290: 1606 493f 9ea2 b73d 5ade 283e 98d7 223f
000002a0: 77e5 633e 81c1 1b3f 10a6 02bf ac5a f6be
000002b0: db0e ee3e c585 fabe d723 22bf ff5a 95be
000002c0: c507 b2be 28da b9bd 6de7 363f f26a e43e
000002d0: 7ff0 493f 417c 11bf d066 f43e eea2 cdbe
000002e0: 4ff2 42bf 4aaf ea3d e9c3 14bf 584b 883d
000002f0: 8074 303d b1b8 2e3f f417 8dbe e720 473f
00000300: b2c5 f9bd e561 833e 3c54 35be 5f0c 013c
00000310: 3ad0 aa3d 7db3 54be b140 913d 705d be3d
00000320: 2513 39be 133e c2bc 40d5 2f3e 1509 df3c
00000330: 9822 d93d a913 573e 6062 b43d 484e 753e
00000340: c7c1 64bd cd9c 123e aabc 333e 0177 ad3e
00000350: 280e 4a3c 6741 23bd cb5c e4bd a28f 993e
00000360: 5599 06be f141 843e d8d6 61bd 887d 0b3e
00000370: 450b 57be 9398 efbd e186 5f3e c8ae fc3e
00000380: fd5a d93e 3210 553e 5824 e0be fa34 693e
00000390: 4b70 38be 31ff 95be 75c5 d3bd ea51 b63e
000003a0: 8802 6cbe 530a 073e a4ee aabe 0a29 d13e
000003b0: 3397 9c3e 11b9 923e 3ab0 1e3f a2b7 7e3d
000003c0: 5f5e 873e 343d 013f 4501 103c 5759 c63d
000003d0: 7616 c43e c14a 9ebe 41f7 5fbe 273c f83e
000003e0: 456d aebe d8fd 3bbe a8f0 8bbe e754 0a3e
000003f0: c4fb 82be a062 853e f2ff 1ebe cb2f 333e

item_embed.weight f4 [578, 32]
-0.26525873 0.32241794 0.54350334 -0.33041498 -0.19717315 -0.48927635 -0.42399725 -0.36066648
0.17295001 0.3763585 -0.032379523 -0.1493678 0.4612626 0.048253752 -0.37264124 -0.049756803
-0.2904021 0.64394873 -0.16182703 0.24235265 -0.22984105 -0.5083556 0.5051151 0.12223195
-0.2407344 -0.18435887 -0.61315304 -0.34193674 -0.12924327 0.27441525 0.23017627 0.13478689
-0.08692856 0.0028854883 0.5928664 -0.4207627 0.11935488 -0.6606608 -0.6760754 -0.50875056
0.012438583 -0.016200155 0.19662379 -0.24418901 0.39085788 0.20694171 -0.6429226 0.6075212
-0.020701906 0.3664114 -0.36852068 0.21806034 0.53603756 -0.3188846 -0.17531186 0.20937285
-0.13485032 -0.3092596 0.2167675 -0.22328581 -0.47789752 0.17713329 0.30029535 -0.007530036
0.0060905493 0.3838113 0.44091842 -0.12044544 0.10678337 -0.3883047 -0.26037553 -0.08015316
-0.22374892 0.011981444 -0.2094547 -0.20798507 0.4024026 -0.056324583 -0.5019526 -0.07241767
-0.594664 0.12734406 -0.7594647 0.4862368 0.04553075 -0.83844835 0.09435098 0.3413142
-0.3140715 -0.20653205 -0.8450116 0.062322333 -0.33112237 -0.0064040394 0.37578714 -0.41903883
0.070992 0.065522656 0.04028167 -0.048714284 -0.27855617 -0.08449704 0.54245234 0.20564543
-0.21592899 -0.1763677 -0.12213179 0.598333 0.15382747 0.0828397 0.4343959 0.07074927
0.33788073 0.5421388 0.5824152 0.07939186 -0.20724487 -0.06788174 0.04965048 0.4644235
-0.19561993 0.238419 0.14643803 0.38633057 0.040213577 -0.19101651 0.29783896 -0.15623762
-0.11526182 0.32341263 0.30894193 -0.14706664 -0.4226962 0.6963254 0.21823624 0.06303517
0.14118323 -0.41333202 -0.19027464 -0.18262653 -0.5205149 -0.52169263 -0.3108584 -0.49392474
0.1779182 -0.0059989044 -0.6395659 -0.21271841 -0.28527358 -0.15470195 0.2879112 -0.37114716
0.6184169 0.1539884 0.21641557 -0.50030684 0.423253 -0.15476356 -0.20215367 0.00093748234
-0.056314263 0.050722145 -0.28012192 -0.18013965 0.47585005 0.43419 0.08151967 -0.02400029
0.26850864 0.08350779 -0.10433226 -0.10419877 -0.101347215 -0.035665296 -0.31043583 0.05561609
-0.1613227 -0.43092808 -0.06798278 0.3458822 -0.24172224 0.0058772108 0.35494536 -0.32120097
0.027875287 0.55276006 0.10419902 0.2502366 0.14519121 -0.033812735 -0.10187462 0.2913738
0.056850314 0.7081352 0.425753 -0.6091674 0.043748878 -0.28605235 -0.50245315 -0.4631084
-0.3927569 0.89067924 -0.55570644 -0.8037055 0.41752625 0.6151399 0.108401254 -0.14621058
0.36091024 0.4895044 0.12111839 0.51747704 0.11624658 -0.78099346 -0.5415259 0.57697797
-0.5359477 -0.10850186 -0.4341333 -0.13986549 -0.49245554 0.43456542 0.40655807 0.45364302
-0.09898612 0.337914 0.84906316 -0.52033365 -0.0503166 -0.50902915 -0.3401456 -0.11556028
-0.6415465 0.388834 0.027421458 -0.7542202 0.7008084 0.23445463 -0.12688394 0.096208446
-0.4507045 0.54930574 0.2941251 0.6444914 0.40757215 -0.40337586 0.31299514 0.08353149
-0.43465224 -0.26932752 -0.3237243 0.053848345 -0.68284845 0.19292441 0.44454244 0.32088843
00000000: fecf 87be f713 a53e 0923 0b3f 272c a9be
00000010: c2e7 49be 6e82 fabe 2b16 d9be 47a9 b8be
00000020: cf19 313e 10b2 c03e 64a0 04bd dff3 18be
00000030: 9d2a ec3e baa5 453d d5ca bebe cacd 4bbd
00000040: 96af 94be d3d9 243f fcb5 25be 4b2b 783e
00000050: 745b 6bbe 9823 02bf 394f 013f bf54 fa3d
00000060: 1483 76be 92c8 3cbe 99f7 1cbf 5512 afbe
00000070: 5958 04be 2880 8c3e 54b3 6b3e 9305 0a3e
00000080: 9a07 b2bd 761a 3d3b 18c6 173f 356e d7be
00000090: 5570 f43d 1121 29bf 4713 2dbf 7a3d 02bf
000000a0: 33cb 4b3c 30b6 84bc bf57 493e af0c 7abe
000000b0: 861e c83e 87e8 533e 9396 24bf 8286 1b3f
000000c0: 0b97 a9bc 469a bb3e beae bcbe 364b 5f3e
000000d0: c239 093f d844 a3be f484 33be d665 563e
000000e0: 3416 0abe 4657 9ebe 4df8 5d3e 09a5 64be
000000f0: fcae f4be 6e62 353e 50c0 993e 85be f6bb
00000100: 3b93 c73b ea82 c43e 0fc0 e13e 19ac f6bd
00000110: 3db1 da3d e0cf c6be f14f 85be 5727 a4bd
00000120: 701e 65be d24d 443c 4b7b 56be 0afa 54be
00000130: b707 ce3e 9bb4 66bd f77f 00bf b74f 94bd
00000140: e63b 18bf 7b66 023e 476c 42bf 08f4 f83e
00000150: 747e 3a3d 8da4 56bf 163b c13d bcc0 ae3e
00000160: fbcd a0be 237d 53be ae52 58bf b445 7f3d
00000170: df88 a9be fad8 d1bb 2c67 c03e 428c d6be
00000180: 4164 913d be30 863d 64fe 243d a188 47bd
00000190: ea9e 8ebe c90c adbd 28de 0a3f b794 523e
000001a0: 7d1c 5dbe bc99 34be 3b20 fabd 5a2c 193f
000001b0: f384 1d3e dca7 a93d 2469 de3e fee4 903d
000001c0: b4fe ac3e 9cc9 0a3f 2a19 153f 3398 a23d
000001d0: 0038 54be 9505 8bbd 4d5e 4b3d ebc8 ed3e
000001e0: 9750 48be 1c24 743e daf3 153e 1fcd c53e
000001f0: feb6 243d d599 43be 597e 983e c1fc 1fbe
00000200: 640e ecbd 5796 a53e a32d 9e3e a398 16be
00000210: a36b d8be 6242 323f 5279 5f3e 9518 813d
00000220: 5692 103e 41a0 d3be 5bd7 42be 7302 3bbe
00000230: 7740 05bf a68d 05bf d528 9fbe b4e3 fcbe
00000240: 3030 363e 7592 c4bb 97ba 23bf dbd2 59be
00000250: 610f 92be 306a 1ebe 1969 933e 0007 bebe
00000260: 9250 1e3f 23af 1d3e 0b9c 5d3e 1c14 00bf
00000270: 9eb4 d83e 577a 1ebe 5f01 4fbe 60c1 753a
00000280: c9a9 66bd 06c2 4f3d 246c 8fbe 8776 38be
00000290: 9ea2 f33e 274e de3e c9f3 a63d 429c c4bc
000002a0: f779 893e 2206 ab3d 27ac d5bd 2a66 d5bd
000002b0: 218f cfbd c615 12bd 72f1 9ebe b2cd 633d
000002c0: c731 25be 9ba2 dcbe 8e3a 8bbd 7917 b13e
000002d0: 0986 77be 9e95 c03b 66bb b53e 7474 a4be
000002e0: b75a e43c af81 0d3f 4c66 d53d 031f 803e
000002f0: 01ad 143e 397f 0abd a4a3 d0bd f22e 953e
00000300: e0db 683d 5948 353f 4cfc d93e 65f2 1bbf
00000310: 0632 333d 7475 92be c5a0 00bf 8b1c edbe
00000320: 6f17 c9be 8e03 643f c742 0ebf a5bf 4dbf
00000330: 00c6 d53e cf79 1d3f 7a01 de3d 3ab8 15be
00000340: 3ac9 b83e 52a0 fa3e eb0c f83d 6079 043f
00000350: b012 ee3d 30ef 47bf 71a1 0abf d4b4 133f
00000360: de33 09bf 3936 debd b846 debe e638 0fbe
00000370: 2223 fcbe 5c7f de3e 6128 d03e e643 e83e
00000380: 3cb9 cabd 1003 ad3e 345c 593f 9634 05bf
00000390: c718 4ebd bc4f 02bf 9027 aebe deaa ecbd
000003a0: 643c 24bf 4015 c73e f7a2 e03c 9314 41bf
000003b0: 2e68 333f e014 703e dded 01be ef08 c53d
000003c0: bdc2 e6be 4d9f 0c3f 9197 963e 63fd 243f
000003d0: 4cad d03e 4887 cebe e640 a03e 8f12 ab3d
000003e0: bd8a debe 4ce5 89be 31bf a5be 1590 5c3d
000003f0: 28cf 2ebf fa8d 453e 119b e33e 7d4b a43e

entity_embed.weight f4 [886, 32]
-0.070986755 -0.076303676 0.050884716 0.033955686 -0.014341999 -0.036674578 0.07401485 0.07000636
0.029956583 -0.06085422 -0.031520084 -0.08416525 -0.048198216 -0.022784516 -0.016042544 0.044610735
-0.06611513 0.04672287 0.02446648 0.035753105 0.07366024 0.011536546 -0.00434813 0.06112508
-0.024336778 -0.012084499 0.009687069 0.052485462 -0.029486177 0.056832436 -0.073226616 -0.041208
0.078272715 -0.07633685 0.052339625 0.015198545 0.030859882 -0.03110874 -0.01852236 -0.045552764
0.074016444 -0.04891356 -0.0057857498 -0.014730203 0.08767757 -0.0007918984 0.061835237 0.06635517
-0.009181998 0.073849194 0.03541176 -0.051053096 -0.07881805 -0.024978092 0.070546575 0.04514292
0.055262078 -0.07425712 -0.06654674 0.03199661 0.06334307 0.0564681 0.0733008 0.008136245
0.051111378 0.0381595 0.059919674 -0.047203697 0.06160691 -0.036122378 0.00701755 -0.08612541
0.025549026 -0.026549336 -0.033030856 0.031866796 0.06460821 -0.088480614 0.037053797 -0.07089691
-0.036343962 0.06648642 -0.026185723 0.030544614 0.078771 -0.071145095 0.00676746 0.06345954
-0.0093042385 0.04435883 -0.082795426 0.03829433 0.035422247 0.019003702 0.030207833 -0.06760191
-0.026548615 -0.05664213 0.044217464 -0.078070976 0.07396198 0.06873716 0.0039868285 0.049498364
-0.03036091 -0.0032114475 0.059762657 -0.07249098 0.05533951 0.0014529708 -0.018021021 -0.056666814
0.023213034 0.042452987 -0.03123842 0.04480497 -0.0018323674 -0.03563885 0.04736754 -0.060556475
0.0557011 0.015184489 0.07484129 0.033079773 0.0045677843 -0.036735054 0.0013309582 0.0638502
-0.016014807 -0.0074748555 0.039913222 0.029533492 -0.048487786 -0.014731487 -0.0077608386 -0.036954783
0.011001821 -0.07471034 -0.07314473 0.019705703 -0.0034585814 -0.024324983 -0.009001128 -0.008908329
0.06859511 0.044601277 -0.022079071 0.08323277 -0.0008638854 -0.055693023 0.028370278 -0.026198352
-0.005387482 -0.0056446753 0.047899902 -0.0043702777 -0.07361856 0.01695716 -0.056925707 0.03927715
-0.06895392 0.021204278 0.010200375 -0.008081218 0.03414621 0.02135273 0.07581975 0.011060157
0.028735204 0.06538352 0.001057004 -0.07628356 -0.06481823 0.033211637 -0.0011101073 0.05993305
-0.03469902 -0.025974335 0.0179944 0.042880647 0.028951729 -0.0015863177 0.014421026 0.030043002
-0.017313791 0.02218663 0.0038246508 -0.042829473 0.047015414 -0.0076570595 -0.064124465 -0.052371114
-0.0463038 -0.014772032 0.027297255 -0.081458494 -0.060026154 -0.06927193 0.017470565 -0.08060097
0.041600507 0.07163808 0.0034082432 0.015312144 0.0684388 0.0743895 0.007995373 -0.025246978
0.04295535 -0.035648037 0.024799205 -0.055842623 -0.045853212 -0.016108869 -0.03291179 -0.004271325
-0.024910055 -0.038079243 -0.037101336 0.016516505 -0.0068963496 -0.018425118 0.0012775399 0.010776976
-0.059620775 -0.0173116 -0.014734286 -0.085658684 -0.027714986 -0.0052386257 0.011201821 -0.059949744
0.043104894 -0.003413907 0.062826164 -0.008102854 0.035177168 -0.019763608 -0.071043395 -0.06925423
-0.07386372 0.038142703 0.06894717 0.04422549 0.039590996 -0.0067132604 0.07781322 0.054377828
0.0481542 0.036394425 -0.049797382 0.008462535 0.010523508 0.0005464714 0.0030108972 0.00951065
00000000: 8161 91bd 1a45 9cbd 7e6c 503d 1e15 0b3d
00000010: b4fa 6abc 1538 16bd 1995 973d 7f5f 8f3d
00000020: 8267 f53c 4642 79bd 341b 01bd d55e acbd
00000030: 7e6b 45bd 98a6 babc a76b 83bc bfb9 363d
00000040: 5f67 87bd 7b60 3f3d ed6d c83c d971 123d
00000050: 2edb 963d c803 3d3c c27a 8ebb 4b5e 7a3d
00000060: ec5d c7bc 10fe 45bc 83b6 1e3c fffa 563d
00000070: ff8c f1bc 21c9 683d d6f7 95bd b8c9 28bd
00000080: 724d a03d 7f56 9cbd 1362 563d 5103 793c
00000090: ddcd fc3c c2d7 febc 34bc 97bc 8995 3abd
000000a0: ef95 973d 9659 48bd 6396 bdbb f356 71bc
000000b0: 4c90 b33d 6797 4fba f246 7d3d 38e5 873d
000000c0: 1770 16bc 3f3e 973d ec0b 113d 0d1d 51bd
000000d0: 5c6b a1bd db9e ccbc b97a 903d c8e7 383d
000000e0: 7d5a 623d 1e14 98bd a849 88bd e10e 033d
000000f0: 03ba 813d 184b 673d bb1e 963d e34d 053c
00000100: 2a5a 513d 234d 1c3d 556e 753d aa58 41bd
00000110: 8757 7c3d 0ff5 13bd 7af3 e53b 8562 b0bd
00000120: 314c d13c fe7d d9bc 5d4b 07bd c286 023d
00000130: 4f51 843d 5335 b5bd b9c5 173d 6632 91bd
00000140: 68dd 14bd 082a 883d 7183 d6bc b338 fa3c
00000150: b152 a13d 85b4 91bd 92c1 dd3b 13f7 813d
00000160: ce70 18bc 9bb1 353d a690 a9bd 84da 1c3d
00000170: eb16 113d a7ad 9b3c 6b76 f73c df72 8abd
00000180: 7b7c d9bc 9401 68bd 5f1d 353d ade3 9fbd
00000190: 6179 973d 11c6 8c3d f1a3 823b ccbe 4a3d
000001a0: 71b7 f8bc 2677 52bb b0c9 743d 2776 94bd
000001b0: afab 623d 9c71 be3a d2a0 93bc 761b 68bd
000001c0: 4329 be3c 2fe3 2d3d b7e7 ffbc 6b85 373d
000001d0: 0c2c f0ba 0bfa 11bd 7704 423d 110a 78bd
000001e0: d626 643d 5dc8 783c 6446 993d a87e 073d
000001f0: 5aad 953b 7f77 16bd 8c73 ae3a e5c3 823d
00000200: 7c31 83bc a2ef f4bb 0c7c 233d 39f0 f13c
00000210: 219b 46bd 565c 71bc a24e febb e65d 17bd
00000220: fb40 343c bc01 99bd e7cc 95bd db6d a13c
00000230: 5ea9 62bb 3045 c7bc 7879 13bc 3df4 11bc
00000240: 987b 8c3d d4af 363d 2bdf b4bc f175 aa3d
00000250: 5e76 62ba 5e1e 64bd c968 e83c ed9d d6bc
00000260: 7989 b0bb f8f6 b8bb b032 443d 8c34 8fbb
00000270: 54c5 96bd bee9 8a3c ee2a 69bd 14e1 203d
00000280: b637 8dbd 98b4 ad3c 791f 273c 1667 04bc
00000290: e5dc 0b3d eceb ae3c 6347 9b3d a935 353c
000002a0: 1766 eb3c cce7 853d 2b8b 8a3a 8e3a 9cbd
000002b0: 6cbf 84bd ed08 083d 0581 91ba 5c7c 753d
000002c0: 8f20 0ebd 21c8 d4bc fe68 933c 9ea3 2f3d
000002d0: 2d2c ed3c fdeb cfba 2b46 6c3c be1c f63c
000002e0: a7d5 8dbc bcc0 b53c fea6 7a3b f56d 2fbd
000002f0: 3c93 403d 12e8 fabb b053 83bd 1883 56bd
00000300: 0ea9 3dbd 6506 72bc 7e9e df3c b6d3 a6bd
00000310: fcdd 75bd 71de 8dbd 6e1e 8f3c 1f12 a5bd
00000320: 4b65 2a3d fcb6 923d d55c 5f3b c9df 7a3c
00000330: a429 8c3d 8659 983d 06ff 023c c0d2 cebc
00000340: f3f1 2f3d ad03 12bd b427 cb3c 3cbb 64bd
00000350: 94d0 3bbd bff6 83bc 83ce 06bd 79f6 8bbb
00000360: 2c10 ccbc fbf8 1bbd 92f7 17bd 9f4d 873c
00000370: c6fa e1bb 46f0 96bc 2073 a73a ea91 303c
00000380: ea34 74bd 0ed1 8dbc 1368 71bc d26d afbd
00000390: 8a0a e3bc c7a8 abbb d887 373c dd8d 75bd
000003a0: c28e 303d dbbb 5fbb 01ab 803d d5c1 04bc
000003b0: ef15 103d 4ae7 a1bc 337f 91bd 29d5 8dbd
000003c0: dd45 97bd 863b 1c3d 2d34 8d3d ca25 353d
000003d0: 2b2a 223d e9fa dbbb 8a5c 9f3d 49bb 5e3d
000003e0: 573d 453d 5212 153d 57f8 4bbd 72a6 0a3c
000003f0: cb6a 2c3c 1341 0f3a 7952 453b 8fd2 1b3c

relation_embed.weight f4 [114, 32]
-0.010685883 0.025804454 -0.024133945 -0.1530806 0.08885413 0.10602728 0.06760395 -0.17434312
-0.108349696 -0.038813405 -0.0098342085 -0.047862433 0.07581834 0.18357323 0.09428985 -0.09524677
-0.10600461 -0.05727423 0.03896954 -0.09326068 -0.06218157 0.014353114 0.021405717 -0.09933437
0.14093406 0.05821733 0.16688363 -0.20287946 -0.012789271 -0.03154009 0.15281089 0.16283642
-0.037660234 0.16748364 0.05154199 -0.040656053 -0.09980889 -0.20844184 0.07563243 -0.15735622
0.19325303 -0.0239894 -0.17044438 0.2045738 -0.12502804 -0.09094975 -0.06936761 -0.04077769
-0.09258989 -0.1222415 -0.0017507032 -0.2056674 -0.15419063 0.0737853 -0.014602336 0.17820318
0.1026796 -0.018911755 0.120056085 -0.045946054 0.009151138 0.04886221 -0.025587102 -0.14517555
0.13884495 -0.054286428 -0.006313432 0.08194534 0.04390564 -0.15154694 0.009332397 -0.17477886
0.003102461 -0.18445675 0.097366326 -0.023536036 -0.0033749437 -0.19281347 0.097429045 -0.1706978
-0.12884632 0.12523738 0.161997 0.1906627 0.09611433 -0.1273446 0.09043766 0.11177314
0.17391334 -0.106439315 0.094552465 0.008343616 0.10076014 0.08812105 0.10543417 -0.12545313
0.06666563 -0.17096134 -0.10633127 -0.021151638 -0.09436753 -0.06453415 0.010227241 0.13316838
-0.11178555 0.07134848 -0.10286356 -0.06252391 0.0075863963 -0.19635181 -0.009813048 -0.15050541
0.11642716 -0.07223173 0.019465914 0.080527864 -0.13087498 -0.20689802 -0.059501193 -0.109888606
0.15759589 -0.14902216 -0.073817365 0.18825014 -0.057845972 -0.17840864 0.17434597 0.13985707
-0.10135608 0.060490645 -0.14348306 -0.08079144 -0.039965115 0.12436741 -0.034058467 -0.10912795
0.13809489 0.090343766 0.011899509 -0.109843075 0.008738347 -0.097772874 0.11811914 -0.027618298
0.040026415 0.11405372 0.021882037 0.0965173 0.06044913 0.13472725 -0.025753161 -0.19791569
-0.09408353 -0.060608584 0.034172162 0.037038855 -0.083236955 -0.18861653 -0.10974803 -0.09119654
-0.1617424 -0.071389966 -0.123761974 0.09199362 0.06133259 0.0865911 0.070984475 0.05146461
-0.057249136 -0.058733024 -0.05926877 -0.13287595 -0.016654229 -0.13691945 -0.19460975 0.11257032
-0.056588 0.031683635 -0.0650075 -0.10378525 0.09160154 -0.06743914 0.17795037 0.07617212
-0.004584874 -0.08594159 -0.00017063736 -0.13809237 0.0146740405 0.16227514 -0.05083575 -0.104984
0.11363038 0.1823674 0.08802926 0.17182715 -0.02078883 0.17022248 -0.015673328 -0.046126224
0.026475245 -0.03140332 -0.0042600743 -0.022259632 -0.11336094 -0.11031383 0.07148964 -0.09090311
0.029027207 -0.1390254 -0.03462422 0.13641323 0.065708645 0.025312385 0.18677948 0.10290442
-0.035742767 0.043925785 0.025467793 -0.06746378 -0.09080299 0.030042563 -0.17658305 -0.14020862
0.018326335 -0.16906644 -0.14723268 -0.068393774 0.07217077 0.085900225 -0.16702811 0.052648656
-0.09298383 -0.037955068 0.15275441 0.099535085 0.09130099 -0.14043169 -0.10401458 -0.16399665
0.13598265 0.10318228 0.17812355 -0.11787463 0.11751496 -0.19028229 0.07589244 -0.1379434
0.1172565 -0.19269033 -0.12242594 -0.101256505 -0.04204131 -0.17259084 -0.17478734 -0.08070456
00000000: d813 2fbc dd63 d33c 8db4 c5bc 29c1 1cbe
00000010: 27f9 b53d d524 d93d f173 8a3d 0187 32be
00000020: 72e6 ddbd cefa 1ebd a91f 21bc 660b 44bd
00000030: a546 9b3d 9ffa 3b3e 091b c13d bd10 c3bd
00000040: f218 d9bd 6298 6abd 869e 1f3d 75ff bebd
00000050: 1ab2 7ebd 5329 6b3c 0b5b af3c d16f cbbd
00000060: 0551 103e 4c75 6e3d 8be3 2a3e a2bf 4fbe
00000070: 178a 51bc 2e30 01bd 757a 1c3e 97be 263e
00000080: 9e41 1abd d580 2b3e b21d 533d f686 26bd
00000090: 9a68 ccbd c771 55be 2de5 9a3d fd21 21be
000000a0: 1fe4 453e 6b85 c4bc f988 2ebe cb7b 513e
000000b0: 5a07 00be dd43 babd 9b10 8ebd 8206 27bd
000000c0: c59f bdbd c059 fabd da77 e5ba 7a9a 52be
000000d0: 26e4 1dbe bf1c 973d a33e 6fbc e57a 363e
000000e0: af49 d23d d3ec 9abc f7df f53d ee31 3cbd
000000f0: a8ee 153c be23 483d 0b9c d1bc e6a8 14be
00000100: 5f2d 0e3e 725b 5ebd e8e0 cebb f5d2 a73d
00000110: 66d6 333d 1f2f 1bbe e9e6 183c 3bf9 32be
00000120: a952 4b3b 3be2 3cbe ff67 c73d a5ce c0bc
00000130: 292e 5dbb e570 45be e188 c73d 67cb 2ebe
00000140: 4af0 03be 3a3e 003e 8be2 253e 153d 433e
00000150: 97d7 c43d 9f66 02be 6137 b93d 51e9 e43d
00000160: 5716 323e dbfc d9bd b9a4 c13d a9b3 083c
00000170: 555b ce3d cf78 b43d dfed d73d c976 00be
00000180: fd87 883d 7d10 2fbe 35c4 d9bd 3346 adbc
00000190: c343 c1bd 7b2a 84bd 2890 273c 4b5d 083e
000001a0: d3ef e4bd 271f 923d 21aa d2bd 890c 80bd
000001b0: 4e97 f83b 7310 49be e8c6 20bc 171e 1abe
000001c0: 5d71 ee3d 3bee 93bd fb76 9f3c cbeb a43d
000001d0: 1704 06be 13dd 53be 86b7 73bd 470d e1bd
000001e0: d160 213e 4499 18be 8f2d 97bd a5c4 403e
000001f0: e6ef 6cbd c1b0 36be c087 323e b136 0f3e
00000200: c793 cfbd 0ac5 773d 39ed 12be fc75 a5bd
00000210: 76b2 23bd 57b4 fe3d e480 0bbd 7a7e dfbd
00000220: bf68 0d3e 2706 b93d 28f6 423c 68f5 e0bd
00000230: 492b 0f3c 253d c8bd 73e8 f13d c53f e2bc
00000240: bdf2 233d ff94 e93d f541 b33c ddaa c53d
00000250: 8299 773d f1f5 093e 4bf8 d2bc 69aa 4abe
00000260: deae c0bd b540 78bd 1cf8 0b3d 0eb6 173d
00000270: 2378 aabd b124 41be 93c3 e0bd 40c5 babd
00000280: cd9f 25be e734 92bd eb76 fdbd 2767 bc3d
00000290: e237 7b3d ad56 b13d 4f60 913d 8ecc 523d
000002a0: 127e 6abd 0a92 70bd cfc3 72bd a210 08be
000002b0: 736e 88bc 9d34 0cbe c747 47be 458b e63d
000002c0: d2c8 67bd b3c6 013d a722 85bd 5c8d d4bd
000002d0: 9799 bb3d 881d 8abd 9f38 363e 2100 9c3d
000002e0: b63c 96bb 2502 b0bd 1eed 32b9 1668 0dbe
000002f0: 636b 703c 742b 263e 2639 50bd da01 d7bd
00000300: 0bb7 e83d 85be 3a3e af48 b43d 75f3 2f3e
00000310: 564d aabc cd4e 2e3e 5a65 80bc daee 3cbd
00000320: 9de2 d83c c5a0 00bd 1898 8bbb d559 b6bc
00000330: c829 e8bd 38ec e1bd 2969 923d 692b babd
00000340: 77ca ed3c ad5c 0ebe 20d2 0dbd e9af 0b3e
00000350: 4192 863d eb5b cf3c 1f43 3f3e 8dbf d23d
00000360: 0267 12bd 86eb 333d d5a1 d03c 732a 8abd
00000370: ebf6 b9bd d21b f63c 30d2 34be d992 0fbe
00000380: 1c21 963c c11f 2dbe 2ac4 16be 0912 8cbd
00000390: 45ce 933d 75ec af3d 6b09 2bbe 1ea6 573d
000003a0: 4e6e bebd c676 1bbd a76b 1c3e 0dd9 cb3d
000003b0: 03fc ba3d 53cd 0fbe 9905 d5bd bdee 27be
000003c0: 093f 0b3e 3b51 d33d 0566 363e 4168 f1bd
000003d0: afab f03d 5cd9 42be 7f6d 9b3d 0941 0dbe
000003e0: 2d24 f03d 9d50 45be 74ba fabd 925f cfbd
000003f0: 8233 2cbd a7bb 30be 74fb 32be 6f48 a5bd
