Knowledge_Graph_Recommendation/recommendation/stage2/trained_model/Douban/Embedding_based/dim32_lr0.001_l20.0001_TransR/concat/model0_epoch10.pth (torch, 728343 bytes, 5 tensors)

trans_M f4 [114, 32, 32]
0	0xba8b5f42	-0.0010633247
1	0x3b06f278	0.00205913
2	0x3c1d4955	0.009600003
3	0x3cad9d7f	0.021193264
4	0x3bb5335f	0.0055298056
5	0x3d0a5d97	0.03378066
6	0x3c0d0e14	0.0086093135
7	0x3cf2241b	0.029558232
8	0xbc3b497a	-0.011431092
9	0xbb3876e6	-0.002814704
10	0x3cb36e44	0.021903165
11	0xbc87b74c	-0.016566895
12	0xbc1c0fa8	-0.009525217
13	0x3b7547f2	0.0037426916
14	0xbd031526	-0.03200259
15	0x3c41288c	0.011789452
16	0xbcb1eca2	-0.02171928
17	0x3cb12871	0.02162573
18	0xbbd6ebe9	-0.0065588844
19	0x3c90d740	0.017680764
20	0xbb2c770d	-0.0026316077
21	0x3c606f3a	0.0136983935
22	0x3b4e9ab9	0.0031525327
23	0x3b48f789	0.003066512
24	0x3c384b7c	0.011248466
25	0xbbc3de7f	-0.0059774513
26	0x3c91e6b5	0.017810205
27	0x3d0cacff	0.03434467
28	0x3cd26501	0.025682928
29	0x3ce4eef4	0.027945973
30	0xbd051e1b	-0.032499414
31	0x3c9db79b	0.019252589
32	0x39f0e142	0.00045944197
33	0xbcb1c5e0	-0.0217008
34	0x3cddcc55	0.027074972
35	0x3c2d3204	0.010571007
36	0xbcbc72fc	-0.023004048
37	0xbd056a5c	-0.032572135
38	0xbcaf19dd	-0.021374637
39	0xbc4748ac	-0.012163322
40	0x3b906c60	0.0044074506
41	0x3a5b05f9	0.0008355077
42	0x3c95b86e	0.01827642
43	0xbd23489b	-0.039864164
44	0xbcb18cf0	-0.02167365
45	0xbd1261aa	-0.03573767
46	0x3cd56271	0.026047917
47	0x3d102098	0.035187334
48	0x3cd81551	0.026377352
49	0xbcde97b3	-0.027171945
50	0x3c06b5e8	0.008222081
51	0xbcdfd2c1	-0.027322175
52	0x3d200cd7	0.039074745
53	0x3cda704e	0.02666488
54	0x3d266eb1	0.040632907
55	0xbd12a729	-0.035803948
56	0x3bdfd2c2	0.006830544
57	0xbce1ae4a	-0.027548928
58	0xbc9589a4	-0.018254109
59	0x3c771d24	0.015082631
60	0xbcbca4d2	-0.023027811
61	0x3cc51ccd	0.024061585
62	0xbbb75d51	-0.005595841
63	0x3c58272b	0.013192932
64	0x3c654da4	0.013995562
65	0xb8e8c7f5	-0.00011099867
66	0x3cc90f68	0.02454348
67	0xbd2649d9	-0.04059777
68	0x3c9bc19c	0.019013219
69	0xbc048917	-0.008089325
70	0x3ccaec75	0.024770955
71	0x3ce094c3	0.027414685
72	0x3c9074e4	0.017633863
73	0x3859911d	5.187198e-05
74	0x3b1ef3a9	0.002425412
75	0x3be7be72	0.0070722634
76	0xbb75b2cb	-0.0037490602
77	0x3cd631b5	0.026146749
78	0xbca4e411	-0.020128282
79	0xbb2a053a	-0.0025943057
80	0xbc86ab29	-0.016439037
81	0x3b1ee6b6	0.00242464
82	0xbd02aa94	-0.031900957
83	0x3c4b63f7	0.01241397
84	0xbc0ee026	-0.008720433
85	0x3ca4ed6d	0.020132745
86	0xbae554d3	-0.0017496593
87	0x3ce361d7	0.027756615
88	0x3c6741f1	0.014114843
89	0xbc294ee7	-0.010333753
90	0x3cbe56cd	0.02323475
91	0x3cc96199	0.024582671
92	0xbcf1015e	-0.029419597
93	0xbca66eb5	-0.020316461
94	0x3c868917	0.016422791
95	0x3c9da42b	0.01924332
96	0x3c0d9492	0.008641379
97	0x3bdec05a	0.0067978324
98	0x3d0d3309	0.0344725
99	0xbbf6accc	-0.007527923
100	0xbd1df1b5	-0.038560588
101	0x3d227afb	0.039668065
102	0xbd260e78	-0.040541142
103	0x3ce9101d	0.028450066
104	0x3caa1215	0.020760575
105	0xbc1698b0	-0.009191677
106	0xbc7aabb0	-0.015299723
107	0x3bc0e410	0.005886562
108	0xbc2fb5e0	-0.010724515
109	0x3ccbde7d	0.024886364
110	0x3cd939a6	0.026516747
111	0x3c6b3977	0.014356962
112	0xbc93cb83	-0.018041378
113	0xbd071910	-0.032982886
114	0x3c941ba5	0.018079588
115	0xba9f6653	-0.0012161232
116	0xbd295584	-0.04134132
117	0xbba0a0f5	-0.004902
118	0x3d093b2b	0.033503693
119	0x3c92abbd	0.017904157
120	0x3c26f46c	0.010190111
121	0xbc8b00f8	-0.016968235
122	0xbd0af1f6	-0.03392216
123	0xbc74a3e0	-0.014931649
124	0xbca652cc	-0.020303153
125	0xbc46f084	-0.012142304
126	0xbd09f815	-0.033683855
127	0xbcb1baf6	-0.021695595
128	0x37835b9a	1.5659072e-05
129	0x3cc2caad	0.023778284
130	0xbb3d9869	-0.0028929955
131	0xbc71a116	-0.014747879
132	0x3ca2a1a1	0.019852461
133	0x3c4e88ec	0.012605887
134	0x3d12c7c0	0.035835028
135	0xbcdf9bef	-0.027296035
136	0xbce11e51	-0.027480276
137	0x3b0ff73b	0.002196743
138	0xbc292b8c	-0.010325324
139	0x3d179e49	0.037016187
140	0xbbafc21d	-0.0053637163
141	0xbbc476b3	-0.0059955954
142	0xbd087e3b	-0.033323508
143	0xba7bfe32	-0.0009612768
144	0xbd070eea	-0.032973208
145	0xbcc8d1ae	-0.024514046
146	0x3d15e947	0.036599424
147	0x3cd17649	0.025569098
148	0xbc3fe78a	-0.011712918
149	0xbca835af	-0.02053341
150	0x3cfcf2cd	0.030877495
151	0xbca356d9	-0.019938873
152	0x3cd2f0a3	0.02574951
153	0x3c6308e2	0.013857098
154	0x3c35a74c	0.01108725
155	0xbc2316f8	-0.009954207
156	0x3d06f1ca	0.03294543
157	0xbd0570cd	-0.03257828
158	0xbd0f7650	-0.03502494
159	0xbab74c92	-0.0013984612
160	0x3cc433e5	0.023950526
161	0x3d1f4d6d	0.0388922
162	0xbbcfcfd1	-0.0063419123
163	0x3d0d9825	0.034568924
164	0x3c1bcdc8	0.009509511
165	0x3d0dce67	0.03462067
166	0x3ccf83cb	0.025331398
167	0xbb0ab90a	-0.002116742
168	0xbd059369	-0.032611284
169	0x3bdb44a0	0.0066915303
170	0x3c5e2a73	0.013559925
171	0x3cf2d7ef	0.02964398
172	0x3b561e96	0.003267204
173	0xbc1e9a94	-0.009680409
174	0xbc729120	-0.014805108
175	0xbba303d9	-0.004974824
176	0x3bc94eb8	0.006143417
177	0xbd0d7918	-0.034539312
178	0xbc893861	-0.016750516
179	0xbc9b02e1	-0.018922271
180	0xbc5b454a	-0.013383219
181	0x3cef99aa	0.029248077
182	0x3cbd1ccd	0.023085022
183	0xbcf6455e	-0.030062374
184	0x3c898a07	0.01678945
185	0xbd0d5d15	-0.034512598
186	0x3be6703b	0.007032422
187	0x3ccd38ef	0.025051562
188	0x3caba873	0.020954346
189	0xbd224292	-0.039614268
190	0xbb4063b9	-0.0029356314
191	0xbc2fb6d0	-0.010724738
192	0xbca01910	-0.0195432
193	0xba439e36	-0.0007462235
194	0x3c13405c	0.008987512
195	0x3c9aa223	0.018876141
196	0x3b53ef15	0.003233855
197	0x3ccfc59e	0.025362786
198	0xbc24721c	-0.010036971
199	0xbaf57531	-0.0018726942
200	0xbd28dcbe	-0.04122614
201	0xbc5ce26e	-0.013481719
202	0xbc88022b	-0.016602596
203	0xbd28bcfd	-0.04119586
204	0xbad6e232	-0.0016394316
205	0x3cc70d09	0.024298208
206	0x3c6e4e2c	0.014545005
207	0xbc99b1ca	-0.018761534
208	0x3cd6bdcd	0.026213551
209	0xbcae31f8	-0.021264061
210	0xbb75002a	-0.003738413
211	0xbbaddc80	-0.0053058267
212	0xbcc7efde	-0.02440637
213	0x3c2e050c	0.01062132
214	0x3d248e2d	0.040174652
215	0xba426626	-0.0007415734
216	0x3c809d13	0.015699899
217	0x3c8a5065	0.016884038
218	0xbd14be31	-0.036314193
219	0x3c818027	0.015808178
220	0x3ccc5b8b	0.024945995
221	0xbca27e25	-0.019835541
222	0xbc0f49d4	-0.008745629
223	0xbc0945a5	-0.008378421
224	0x3cf0a622	0.029376093
225	0x3c65d394	0.014027495
226	0xbc0c9216	-0.0085797515
227	0xbd07b8d9	-0.03313527
228	0xbc1ea4a2	-0.009682806
229	0x3bee9b01	0.0072816615
230	0x3a3bd1a0	0.00071647204
231	0x3cd703e6	0.026246976
232	0x3bec700b	0.007215505
233	0xbb2525e5	-0.002519959
234	0xbca92520	-0.020647585
235	0x3cb50ba5	0.02210028
236	0xbac87a43	-0.0015295226
237	0x3d1dd437	0.038532462
238	0xbc101404	-0.008793835
239	0xbce702da	-0.028199602
240	0xbce01253	-0.027352488
241	0x3c16b050	0.00919731
242	0x3c810300	0.0157485
243	0x3cb6df2d	0.022323215
244	0x3c68bad8	0.014204703
245	0xbc8ec021	-0.017425599
246	0xbc7da90f	-0.015482201
247	0xb990705d	-0.00027549537
248	0x3cee7dcd	0.02911272
249	0xbc844adb	-0.016148975
250	0xbb6f41e0	-0.003650777
251	0x3d07bc52	0.03313858
252	0x3cab216d	0.020889962
253	0x3c2c4dd4	0.010516603
254	0xbbd4a94d	-0.006489909
255	0xbc1a1cb4	-0.009406257

user_embed.weight f4 [447, 32]
0	0x3e4a675f	0.19765995
1	0x3c23b2c5	0.009991352
2	0xbc977a57	-0.018490953
3	0x3e20184e	0.15634272
4	0xbd945a35	-0.07243768
5	0x3ce51791	0.027965339
6	0xbd6deef7	-0.058089223
7	0xbddc3d26	-0.10753851
8	0xbd37defa	-0.04489038
9	0x3c718c98	0.014742993
10	0x3dc4a7eb	0.0960234
11	0xbcda7f1b	-0.026671937
12	0x3d005829	0.031334076
13	0x3dd351ea	0.10318358
14	0x3d9c0881	0.076188095
15	0x3e39f331	0.18159176
16	0x3a7cc78e	0.0009642773
17	0xbdbbe3be	-0.09174298
18	0x3c52c37a	0.012863988
19	0xbd6f9310	-0.05848986
20	0x3dc6acec	0.09700951
21	0xbd93fd7d	-0.072260834
22	0xbe58c47f	-0.21168707
23	0xbd292546	-0.041295312
24	0xbe0a2fe0	-0.13494825
25	0xbe061929	-0.13095535
26	0xbd8ab024	-0.067718774
27	0x3e5b85ff	0.21437834
28	0xbe8349da	-0.25642282
29	0x3c4bd38b	0.0124405725
30	0xbd731c29	-0.059353027
31	0xbd142392	-0.036166735
32	0x3e1a6507	0.15077601
33	0xbd1355da	-0.035970546
34	0x3e113a30	0.14182353
35	0xbddeaf84	-0.10873321
36	0xbd641705	-0.055686016
37	0xbbc74fc4	-0.006082507
38	0x3d85c664	0.06531981
39	0xbcff8fd5	-0.031196514
40	0xbe2eb469	-0.17061009
41	0x3d62ef03	0.05540372
42	0x3dd2166a	0.102581814
43	0xbd09b6e8	-0.0336217
44	0x3e00331d	0.12519498
45	0x3e05acd5	0.13054211
46	0xbca04b84	-0.019567259
47	0x3d815623	0.063152574
48	0x3ccdd6f0	0.025126904
49	0xbd9f2e16	-0.07772462
50	0x3de268bc	0.11055133
51	0x3ae7b935	0.0017679097
52	0x3dd2ec2b	0.10298952
53	0xbcff17a3	-0.0311392
54	0xbdd890de	-0.10574506
55	0x3dcd303a	0.10018964
56	0xbe4aba62	-0.19797662
57	0xbdcecd4b	-0.1009775
58	0x3e098371	0.13429047
59	0x3e642d4d	0.22282906
60	0xbdbb0600	-0.09132004
61	0x3e2833ad	0.16425963
62	0x3e0c6d55	0.13713582
63	0x3db7d3f8	0.08975977
64	0x3e2c9578	0.16853893
65	0x3d61b40c	0.055103347
66	0xbd850839	-0.06495709
67	0x3cbf6f8c	0.02336862
68	0xbdf0f1c2	-0.11764862
69	0xbb9fb668	-0.0048740394
70	0xbe0dc8a2	-0.13846067
71	0xbdf9db80	-0.122000694
72	0xbe8926d5	-0.2678744
73	0x3d947a4b	0.07249888
74	0x3d65bf80	0.05609083
75	0xbdb9bb11	-0.09068883
76	0x3c617063	0.013759705
77	0x3d307b03	0.043086063
78	0xbcc2c3ba	-0.02377497
79	0xbbe1cdbc	-0.0068909805
80	0x3e372248	0.17884171
81	0xbdef5059	-0.11685247
82	0x3dc638cc	0.09678802
83	0xbb84ad69	-0.0040489924
84	0xbc2f079d	-0.0106829675
85	0x3dab52fc	0.083654374
86	0xbdff66e9	-0.124708004
87	0xbd4322b3	-0.047640514
88	0xbd89cbec	-0.06728348
89	0xbd2812ba	-0.041033484
90	0xbc1b5a04	-0.009481911
91	0x3e1d97f8	0.15390003
92	0xbe000ea9	-0.12505592
93	0x3da63928	0.081163704
94	0x3dc61cbf	0.09673452
95	0x3ce46ac3	0.02788294
96	0x3e55aabb	0.2086591
97	0x3e0e2250	0.13880277
98	0xbe00fce2	-0.12596467
99	0x3e88e406	0.26736468
100	0xbd463632	-0.04839153
101	0xb7d597e0	-2.5462301e-05
102	0xbda13113	-0.07870688
103	0xbc12741e	-0.008938817
104	0xbe1c7224	-0.15277916
105	0x3cdbebc5	0.026845822
106	0xbdf6f9eb	-0.12059387
107	0x3ba1429a	0.0049212696
108	0x3e62f990	0.22165513
109	0x3e5035a9	0.2033297
110	0x3e1246a6	0.14284763
111	0x3d76fdfa	0.060300805
112	0x3e986374	0.29763377
113	0x3d9a0954	0.075213104
114	0x3d6d9382	0.058002003
115	0xbcf0f413	-0.029413259
116	0xb9864330	-0.0002560853
117	0xbc223e7f	-0.009902596
118	0xbe7e6342	-0.24842551
119	0xbde47145	-0.11154417
120	0x3c8de3f2	0.017320607
121	0xbe8851a4	-0.26624787
122	0x3e84d27a	0.2594183
123	0x3e5a2d14	0.21306258
124	0xbdcee2c0	-0.10101843
125	0x3e17de68	0.14830935
126	0x3e4d9c94	0.20079261
127	0xbd8177cc	-0.063216776
128	0x3ded40a2	0.11584593
129	0xbd4a088b	-0.049324553
130	0x3cef92ea	0.029244859
131	0x3d546292	0.051851816
132	0xbd3c0e28	-0.045911938
133	0xbdc9566d	-0.098309375
134	0x3db05df1	0.08611668
135	0xbcf4609a	-0.02983122
136	0xbe24cf5a	-0.16094723
137	0xbc377331	-0.011196897
138	0x3d66653b	0.056248885
139	0x3d7a41ca	0.061097898
140	0x3b31c1e4	0.0027123624
141	0x3d38623c	0.04501556
142	0x3d56e233	0.052461814
143	0xbdf3b1bc	-0.118991345
144	0x3da78e8a	0.08181484
145	0x3c554887	0.01301778
146	0x3d983e58	0.07433766
147	0x3dc79ce8	0.09746724
148	0xbb91a909	-0.0044451994
149	0x3ddf7c03	0.10912325
150	0xbe42d4b2	-0.1902645
151	0x3d9f0526	0.07764654
152	0xbdfd8653	-0.12379136
153	0xbdd33493	-0.10312762
154	0xbcd391a3	-0.025826281
155	0x3dd30690	0.10303986
156	0xbd1c28fb	-0.03812502
157	0x3d507a30	0.050897777
158	0x3d5ecd39	0.054394934
159	0xbd8ba1cd	-0.068179704
160	0xbdce717a	-0.10080238
161	0x3edfbebc	0.43700206
162	0x3edb6c7a	0.428562
163	0xbea45fb3	-0.32104263
164	0x3eb68236	0.35646218
165	0x3cd9cd6c	0.02658721
166	0x3da0dace	0.07854234
167	0x3e9009df	0.2813253
168	0x3e26be8c	0.16283625
169	0x3e619394	0.22028953
170	0xbdb4c68e	-0.08826934
171	0xbe4c471a	-0.19948998
172	0x3e5aa0a1	0.21350338
173	0xbe41e3af	-0.1893451
174	0xbe7bb5ec	-0.24581116
175	0xbe0c008d	-0.13672085
176	0xbdfc7fa9	-0.12329037
177	0x3caa298d	0.020771766
178	0x3e574aed	0.21024676
179	0x3e49e900	0.19717789
180	0x3e842429	0.25808838
181	0xbe813748	-0.2523749
182	0x3e857a2c	0.26069772
183	0xbe25f128	-0.16205275
184	0xbe97c3ed	-0.29641667
185	0x3d63e51b	0.055638414
186	0xbe7130e2	-0.23553804
187	0xbc884c42	-0.016637925
188	0x3c1439be	0.00904697
189	0x3e9fde86	0.3122446
190	0xbda1aa7a	-0.07893844
191	0x3e972171	0.295177
192	0xbcc61c31	-0.024183365
193	0x3dce271c	0.10066053
194	0xbe218f81	-0.15777399
195	0x3d5fb728	0.05461803
196	0x3de645e1	0.11243797
197	0xbc1ec1ae	-0.0096897315
198	0x3d175b03	0.03695203
199	0x3d9492a4	0.07254532
200	0xbd7cc42a	-0.061710514
201	0x3dda3af9	0.106557794
202	0x3df2af4a	0.1184984
203	0xbd56023b	-0.05224822
204	0x3d6ae3ef	0.05734628
205	0x3d7adc36	0.061245166
206	0xbcc3275d	-0.02382248
207	0x3d870cdf	0.06594252
208	0x3ce22b2a	0.027608473
209	0xbd2d264d	-0.042272855
210	0xbd208e14	-0.039197996
211	0x3e1d9e88	0.15392506
212	0x3d1bbd97	0.038022604
213	0x3db21be7	0.08696728
214	0xbcbc7ab0	-0.02300772
215	0x3d6c054f	0.05762225
216	0xbb97cd4c	-0.0046326276
217	0x3db79425	0.08963803
218	0x3e09ca27	0.13456021
219	0x3d89326f	0.066990726
220	0xbded7240	-0.11594057
221	0x3d21fca7	0.03954759
222	0x3db907b1	0.0903467
223	0x3e49470e	0.19656011
224	0x3e618062	0.2202163
225	0x3de58b19	0.112081714
226	0xbdb15079	-0.08657927
227	0x3df85d73	0.12127199
228	0xbd91c8fb	-0.07118412
229	0xbe5b72a7	-0.21430455
230	0xbd368107	-0.044556644
231	0x3e1719d6	0.1475595
232	0xbdc98428	-0.0983966
233	0x3dfd0129	0.12353737
234	0xbd5e8cb3	-0.0543334
235	0x3d8c62d5	0.06854788
236	0x3def3a8e	0.1168109
237	0x3d8e27fd	0.06941221
238	0x3e274cf4	0.16337949
239	0xbd49077f	-0.049079414
240	0x3c55ef60	0.01305756
241	0x3e348c09	0.17631544
242	0xbd4a9685	-0.049459953
243	0x3cfafa27	0.03063686
244	0x3e16f3fe	0.14741513
245	0xbd6f2668	-0.058386236
246	0xbde03e15	-0.10949341
247	0x3e043c4c	0.12913626
248	0xbe3cf92a	-0.18454424
249	0xbc4accf3	-0.012377965
250	0xbde4e2bb	-0.11176058
251	0x3cbc896b	0.023014745
252	0xbe14d3c8	-0.14533913
253	0x3dfeece5	0.12447528
254	0xbd9a62c9	-0.07538373
255	0x3dde52c7	0.10855632

item_embed.weight f4 [578, 32]
0	0x3ca36258	0.019944355
1	0x3ddee9a2	0.10884406
2	0x3e3aba08	0.18235028
3	0xbd86a22f	-0.06573903
4	0xbd8f61c3	-0.070010684
5	0xbe66ff14	-0.22558242
6	0xbdc3d07a	-0.09561248
7	0xbe37958b	-0.1792814
8	0x3dd0a93e	0.101885304
9	0x3e094457	0.13404976
10	0xbd5aaec2	-0.05338932
11	0x3b5a5b5e	0.003331862
12	0x3e4ad5da	0.1980814
13	0x3e082583	0.1329556
14	0xbc5cffab	-0.01348869
15	0x3a9bb153	0.0011878408
16	0xbe1ca905	-0.15298851
17	0x3e7aeed7	0.24505173
18	0xbd15a03c	-0.036529765
19	0x3e152533	0.14564972
20	0xbca28ba6	-0.01984198
21	0xbe0cc418	-0.13746679
22	0x3e66b69f	0.22530602
23	0xbd43f550	-0.04784137
24	0xbe1794af	-0.14802812
25	0xbd797cb9	-0.06090996
26	0xbe7c6aaf	-0.24650072
27	0xbdd31df6	-0.10308449
28	0xbe1129b7	-0.14176069
29	0x3d0ecca1	0.034863118
30	0x3cebcd77	0.028784497
31	0x3cb7e026	0.02244575
32	0xbd832dd1	-0.06405223
33	0xbb4e58c2	-0.003148601
34	0x3e8414e1	0.2579718
35	0xbe372471	-0.17884995
36	0x3df07bc9	0.1174236
37	0xbea90558	-0.3301189
38	0xbe6ce9c9	-0.23136057
39	0xbd4ef8c8	-0.050530225
40	0xbd7ebe48	-0.062193185
41	0x3cc407b9	0.023929464
42	0x3d601b97	0.05471381
43	0xbc744312	-0.014908569
44	0x3da1c27b	0.07898422
45	0x3e3f66a7	0.18691503
46	0xbe300fec	-0.17193574
47	0x3e7e4e7d	0.24834628
48	0xbc983d2e	-0.01858386
49	0x3e77a12e	0.24182579
50	0xbddd812a	-0.10815652
51	0x3dae4ab1	0.0851034
52	0x3e0521e7	0.13001214
53	0xbe5eedd7	-0.21770416
54	0xbdcdc65d	-0.100476004
55	0x3d317ade	0.043330066
56	0xbd738367	-0.059451487
57	0xbdcb37ae	-0.099227294
58	0x3dfce640	0.12348604
59	0xbe1ec0b8	-0.15503204
60	0xbe92cf27	-0.2867367
61	0x3c8e4e2f	0.017371265
62	0x3d779725	0.060446877
63	0xbcfefc5a	-0.03112619
64	0x3d69f029	0.0571138
65	0x3e538d25	0.20659311
66	0x3cbab036	0.022789102
67	0x3de8cd4d	0.11367283
68	0xbc90402f	-0.01760873
69	0xbdc8ac69	-0.0979851
70	0xbdea0d1d	-0.114282824
71	0xbd826be9	-0.063682385
72	0xbe1ab8ed	-0.15109606
73	0xbded5597	-0.115885906
74	0xbe0b9e46	-0.13634595
75	0xbc8e2bd3	-0.017354881
76	0x3e210cdc	0.15727562
77	0x3d32d5e4	0.043661013
78	0xbdcf84c9	-0.10132749
79	0xbcb53546	-0.02212013
80	0xbdc7fff1	-0.09765614
81	0xbd62d607	-0.055379894
82	0xbe4f97fa	-0.20272818
83	0x3e6d63a6	0.23182544
84	0xbcd37289	-0.02581145
85	0xbea30722	-0.3184138
86	0x3b90f98b	0.004424279
87	0x3de4f404	0.11179355
88	0xbe4537d5	-0.1925958
89	0xbe249032	-0.16070631
90	0xbe83cf22	-0.25743967
91	0x3e01f66e	0.12691662
92	0xbe92a30f	-0.2864003
93	0x3d7c4159	0.061585758
94	0x3dad72f3	0.084691904
95	0xbe34e51e	-0.17665526
96	0xbce41e8e	-0.0278466
97	0x3dabe891	0.08393968
98	0x3d4ed712	0.050498076
99	0xbc65219b	-0.013985063
100	0xbde21621	-0.11039377
101	0xbdbd1067	-0.09231644
102	0x3e1b17b7	0.15145765
103	0x3d32d8ea	0.043663897
104	0xbd7766e4	-0.06040086
105	0x3d85f015	0.06539933
106	0xbdab1a01	-0.08354569
107	0x3e308e34	0.17241746
108	0x3a03ea76	0.0005032191
109	0xbd10c3d0	-0.03534299
110	0x3d215c58	0.039394706
111	0xbd4a210f	-0.049347933
112	0x3c9f2458	0.01942651
113	0x3e14b0bb	0.14520542
114	0x3dc0a146	0.094057605
115	0xbc359eed	-0.011085254
116	0xbd349e35	-0.04409619
117	0xbd1ce24d	-0.038301755
118	0xbd60eea8	-0.0549151
119	0x3e099147	0.13434325
120	0x3cf31cce	0.029676821
121	0x3df1e294	0.118107945
122	0x3ded6332	0.11591186
123	0x3e554289	0.20826162
124	0x3d51ee1d	0.051252473
125	0x3a349630	0.0006888835
126	0x3d92e00d	0.071716405
127	0xbda2c8fc	-0.07948491
128	0xbd11767b	-0.035513382
129	0xbd1aec89	-0.037823234
130	0xbbcf3578	-0.0063235126
131	0xbd1fa6dc	-0.03897749
132	0xbe35202f	-0.17688058
133	0x3e5b6890	0.21426606
134	0x3dd1001b	0.10205098
135	0xbda02918	-0.07820338
136	0x3dccb010	0.09994519
137	0xbde490aa	-0.11160405
138	0xbd9aa69a	-0.07551308
139	0xbd92ff74	-0.0717763
140	0xbe3936a0	-0.18087244
141	0xbe109ccc	-0.14122313
142	0xbba12e9c	-0.0049188863
143	0xbd1d8de2	-0.038465388
144	0xbc0f63e7	-0.008751846
145	0xbd90c138	-0.070681036
146	0xbe553160	-0.20819616
147	0xbd89476d	-0.067030765
148	0xbdf7586f	-0.12077414
149	0x3dc81956	0.097704574
150	0x3e0a7cc5	0.13524158
151	0xbded732a	-0.115942314
152	0x3e864077	0.26221058
153	0x3d619f96	0.055083834
154	0xbc800d09	-0.015631216
155	0xbe7e8087	-0.24853717
156	0x3e3c1283	0.18366437
157	0xbe36e3ac	-0.17860287
158	0xbe3ff6a4	-0.1874643
159	0x3d725c27	0.059169915
160	0xbcd2b242	-0.025719766
161	0xbd93e599	-0.07221527
162	0xbdd8e206	-0.105899855
163	0xbdf6dad0	-0.12053454
164	0x3e0d23c4	0.13783175
165	0x3e4eedf5	0.20207961
166	0x3da57fd7	0.08081024
167	0xbd43d566	-0.047810934
168	0x3e767ef9	0.24071874
169	0xbc8a50ef	-0.016884295
170	0xbd8b902a	-0.068146065
171	0x39f2631c	0.0004623168
172	0xbdce9202	-0.100864425
173	0xbdc97102	-0.09836008
174	0xbd257275	-0.040392358
175	0xbc046c5f	-0.008082478
176	0xbd5d4fc0	-0.054031134
177	0xbda1c179	-0.0789823
178	0x3a565b06	0.00081770157
179	0x3d95b443	0.07309773
180	0xbd9bc60c	-0.07606134
181	0x3cbafdda	0.022826124
182	0x3e681c94	0.22667152
183	0xbdcfcb00	-0.10146141
184	0x3d392aa5	0.045206685
185	0x3e680e94	0.22661811
186	0xbc40cc8e	-0.01176752
187	0x3d0d0503	0.034428608
188	0x3e0b0611	0.13576533
189	0xbdb6f084	-0.089325935
190	0xbcfe37c6	-0.031032454
191	0x3d780035	0.060547072
192	0x39e21c9c	0.00043127395
193	0x3ea1262c	0.31474435
194	0x3e38f7e3	0.18063311
195	0xbe4ed14e	-0.20197031
196	0xbc72a4a1	-0.014809758
197	0xbe0b2cd4	-0.1359132
198	0xbe413652	-0.18868378
199	0xbe0a2df4	-0.13494092
200	0xbe88b16c	-0.26697862
201	0x3eda526d	0.4264101
202	0xbe4a9697	-0.19784008
203	0xbeb7a5b2	-0.35868603
204	0x3e4bdfea	0.19909635
205	0x3e56783b	0.20944302
206	0x3e56738d	0.20942517
207	0xbdbb2741	-0.091383465
208	0x3e339d88	0.17540562
209	0x3eadde15	0.33958498
210	0x3e33a5b0	0.17543674
211	0x3e8bd22c	0.27308786
212	0x3d664bd7	0.05622467
213	0xbeb51184	-0.35364926
214	0xbe93985b	-0.28827175
215	0x3e9b7522	0.30362803
216	0xbea4ecb3	-0.32211837
217	0xbd900e78	-0.0703401
218	0xbe693e87	-0.22777759
219	0xbd93a215	-0.07208649
220	0xbe95dba1	-0.29269126
221	0x3e458371	0.19288422
222	0x3e62be47	0.22142898
223	0x3db82c4e	0.089928254
224	0xbdfe53c7	-0.12418323
225	0x3e341356	0.17585501
226	0x3ede207f	0.43384168
227	0xbe8f3b4d	-0.2797493
228	0xbc948349	-0.018129008
229	0xbe9aa4da	-0.30203897
230	0xbdadd641	-0.08488131
231	0xbb6c6f5b	-0.0036077115
232	0xbec66e64	-0.38756096
233	0x3e2f8245	0.17139538
234	0x3d223126	0.039597653
235	0xbeca87d7	-0.39556763
236	0x3ecb09c0	0.39655876
237	0x3d4039a5	0.046929974
238	0xbdc08e5b	-0.09402152
239	0x3d3313ca	0.043720044
240	0xbe544777	-0.20730387
241	0x3ebbb887	0.3666422
242	0x3e6fda48	0.23423111
243	0x3ed9c9b9	0.42536715
244	0x3d9087c1	0.07057143
245	0xbea040c7	-0.3129942
246	0x3df6d5f1	0.12052525
247	0x3d31e393	0.043429922
248	0xbea16cd4	-0.31528342
249	0xbd55a523	-0.05215944
250	0xbe210480	-0.15724373
251	0x3d3f5598	0.046712488
252	0xbecaf50c	-0.3964008
253	0x3e3ddd6a	0.18541494
254	0x3e818885	0.2529947
255	0x3e6d6219	0.23181953

entity_embed.weight f4 [886, 32]
0	0xbd860eef	-0.06545817
1	0xbd9f9d16	-0.07793634
2	0x3d4ea72e	0.050452404
3	0x3d0b5b64	0.034022704
4	0xbc678f6b	-0.014133315
5	0xbd156a94	-0.036478594
6	0x3d98a056	0.07452457
7	0x3d904abc	0.070455045
8	0x3cf4ac66	0.029867362
9	0xbd7c307f	-0.061569687
10	0xbd014e14	-0.0315686
11	0xbdac1d78	-0.08404058
12	0xbd46d057	-0.048538532
13	0xbcb63eaf	-0.022246687
14	0xbc804013	-0.015655553
15	0x3d3709a1	0.044686917
16	0xbd874fb1	-0.06606997
17	0x3d2f7966	0.042840384
18	0x3ccaeb6b	0.02477046
19	0x3d0851fe	0.03328132
20	0x3d972af7	0.07381242
21	0x3c40382b	0.0117321415
22	0xbbe9236f	-0.0071148197
23	0x3d79d116	0.060990416
24	0xbcabfaaf	-0.020993559
25	0xbc406b1c	-0.011744287
26	0x3c465174	0.012104381
27	0x3d5798be	0.0526359
28	0xbcf2685c	-0.029590778
29	0x3d6699f0	0.05629915
30	0xbd980aa0	-0.074239016
31	0xbd2a4a5d	-0.041574825
32	0x3da078fe	0.078355774
33	0xbd9c2a85	-0.076252975
34	0x3d50eb14	0.051005438
35	0x3c7afc29	0.015318909
36	0x3cfd6152	0.030930195
37	0x3bf70279	0.0075381366
38	0xbc95cfb7	-0.018287523
39	0xbd3843bf	-0.044986483
40	0x3d974768	0.073866665
41	0xbd480d22	-0.04884065
42	0xbbce513b	-0.0062963045
43	0xbc5a7ae7	-0.013334966
44	0x3dae233f	0.085028164
45	0xba38a21d	-0.00070432
46	0x3d7f5e7d	0.06234597
47	0x3d83f82c	0.064438194
48	0xbc170668	-0.009217836
49	0x3d972a85	0.07381157
50	0x3d406396	0.046969973
51	0xbd51316b	-0.05107252
52	0xbda755f7	-0.08170693
53	0xbccc97a2	-0.024974648
54	0x3d8e2815	0.06941239
55	0x3d38555f	0.04500329
56	0x3d627921	0.0552913
57	0xbd971c5d	-0.07378457
58	0xbd888000	-0.06665039
59	0x3d1aab41	0.037760977
60	0x3d82475d	0.06361268
61	0x3d66afe9	0.056320105
62	0x3d94fb01	0.07274438
63	0x3c05e7f6	0.00817298
64	0x3d557989	0.052117858
65	0x3d19c620	0.037542462
66	0x3d733db6	0.059385024
67	0xbd40261b	-0.04691134
68	0x3d78f6f5	0.06078239
69	0xbd12bda2	-0.03582538
70	0x3be988b8	0.007126894
71	0xbdb05d20	-0.08611512
72	0x3cd1ee49	0.025626319
73	0xbcdaf282	-0.026726965
74	0xbd05adf5	-0.0326366
75	0x3d0359e3	0.032068145
76	0x3d82ac87	0.06380563
77	0xbdaf8e79	-0.085720964
78	0x3d1f26b5	0.038855273
79	0xbd910968	-0.07081872
80	0xbd115d91	-0.035489623
81	0x3d87b5b7	0.06626456
82	0xbcca6eb0	-0.024710983
83	0x3cf46f11	0.029838117
84	0x3da0e422	0.07856013
85	0xbd90874c	-0.07057056
86	0x3bd41123	0.0064717694
87	0x3d71fb98	0.05907783
88	0xbc151000	-0.009098053
89	0x3d35b378	0.044360608
90	0xbd8eb9da	-0.06969042
91	0x3d24ddae	0.040250473
92	0x3d10c4f6	0.035344087
93	0x3ca00456	0.019533318
94	0x3cf544cc	0.029940031
95	0xbd8832ff	-0.06650352
96	0xbcda1dfa	-0.026625622
97	0xbd67e8f7	-0.056618657
98	0x3d3590df	0.044327613
99	0xbd9fd614	-0.07804504
100	0x3d97b931	0.07408369
101	0x3d8cc3ba	0.068732694
102	0xbcec0870	-0.028812617
103	0x3d465425	0.04842009
104	0xbcf04de3	-0.029334014
105	0xbad7b586	-0.0016457296
106	0x3d74cb99	0.05976448
107	0xbd95dee8	-0.073179066
108	0x3d611305	0.05494978
109	0x3a98b86f	0.0011651645
110	0xbca42755	-0.020038286
111	0xbd694bb6	-0.05695697
112	0x3cb55f81	0.022140266
113	0x3d29e6cf	0.04147988
114	0xbd01a9ba	-0.031656004
115	0x3d372737	0.044715133
116	0xbae13db7	-0.001718453
117	0xbd1183d1	-0.0355261
118	0x3d41991e	0.047265165
119	0xbd79b3e4	-0.060962573
120	0x3d64dfde	0.05587756
121	0x3c7250d2	0.014789777
122	0x3d92005b	0.07128974
123	0x3d06f427	0.032947686
124	0x3b97c653	0.0046317964
125	0xbd15c664	-0.036566153
126	0x39aaad74	0.0003255416
127	0x3d82cd4a	0.06386812
128	0xbc82edf4	-0.015982606
129	0xbbfda09e	-0.0077400943
130	0x3d1f3bf7	0.038875546
131	0x3cf27770	0.029597968
132	0xbd44cd98	-0.048047632
133	0xbc789051	-0.015171126
134	0xbbffe39b	-0.007809115
135	0xbd181a54	-0.037134483
136	0x3c34a44c	0.0110255
137	0xbd989baa	-0.074515656
138	0xbd9194af	-0.07108437
139	0x3ca2d1c4	0.019875415
140	0xbb4ec20a	-0.0031548762
141	0xbcc1a7c0	-0.02363956
142	0xbc0f5abe	-0.008749662
143	0xbc08843b	-0.008332307
144	0x3d8b6740	0.06806803
145	0x3d330dab	0.043714207
146	0xbca0672d	-0.019580448
147	0x3daa9521	0.08329225
148	0xb9ddf010	-0.00042331265
149	0xbd6383dd	-0.055545676
150	0x3ce728ed	0.028217757
151	0xbcd46ae8	-0.025929883
152	0xbbcf27d2	-0.0063218856
153	0xbbbb19a6	-0.0057098446
154	0x3d43353b	0.047658186
155	0xbb87f9ac	-0.0041496363
156	0xbd979b5e	-0.07402681
157	0x3c81a4c8	0.015825644
158	0xbd6a9aff	-0.057276722
159	0x3d23507a	0.03987167
160	0xbd8d37e3	-0.06895425
161	0x3cab976b	0.020946225
162	0x3c28ae4d	0.010295463
163	0xbc036a5d	-0.008020964
164	0x3d0ae218	0.033907026
165	0x3cae5bd9	0.02128403
166	0x3d9b4c1f	0.07582878
167	0x3c335d00	0.010947466
168	0x3ceb6042	0.028732423
169	0x3d85bdc7	0.06530338
170	0x3ab444d1	0.0013753419
171	0xbd9aefa6	-0.075652406
172	0xbd84c19d	-0.06482241
173	0x3d074719	0.03302679
174	0xba5fe069	-0.00085402146
175	0x3d750335	0.05981751
176	0xbd0e0541	-0.03467298
177	0xbccdd80b	-0.025127431
178	0x3c93dd9e	0.018050011
179	0x3d2cb5b7	0.042165484
180	0x3cf025ab	0.029314836
181	0xbace8c00	-0.0015758276
182	0x3c6bbc7a	0.014388198
183	0x3cf74c89	0.030187862
184	0xbc8680a2	-0.016418759
185	0x3cb210ea	0.02173658
186	0x3b73a452	0.00371768
187	0xbd300bf4	-0.04298015
188	0x3d410fd8	0.04713425
189	0xbc00bd19	-0.007857584
190	0xbd834ef0	-0.064115405
191	0xbd5fe764	-0.05466403
192	0xbd3dadf6	-0.04630848
193	0xbc75a478	-0.014992826
194	0x3cdc2107	0.026871217
195	0xbda64292	-0.08118166
196	0xbd75a496	-0.059971415
197	0xbd8dc4c0	-0.06922293
198	0x3c9afbdd	0.018918926
199	0xbda494a3	-0.08036163
200	0x3d2a84cd	0.041630555
201	0x3d91af09	0.071134634
202	0x3b9e403d	0.004829435
203	0x3c8074fc	0.015680782
204	0x3d89b37e	0.067236885
205	0x3d94ea6d	0.07271276
206	0x3c03e627	0.008050478
207	0xbcce2775	-0.025165299
208	0x3d2d9e95	0.042387564
209	0xbd121502	-0.035664566
210	0x3cce36c1	0.025172593
211	0xbd67451b	-0.05646239
212	0xbd3c02c5	-0.04590108
213	0xbc338872	-0.010957824
214	0xbd0602ec	-0.03271763
215	0xbb9998ba	-0.004687396
216	0xbcca151f	-0.024668274
217	0xbd1c224f	-0.038118657
218	0xbd16aa3e	-0.03678345
219	0x3c89cd2d	0.016821468
220	0xbbc3797f	-0.005965411
221	0xbc98db68	-0.018659309
222	0x3a8a19cd	0.0010536254
223	0x3c2d1804	0.010564808
224	0xbd743afc	-0.059626564
225	0xbc8ea4ce	-0.01741257
226	0xbc78c7b6	-0.015184334
227	0xbdae85b0	-0.085215926
228	0xbce206ef	-0.027591197
229	0xbba3a5f3	-0.004994148
230	0x3c41986a	0.0118161235
231	0xbd7511c7	-0.059831407
232	0x3d31204c	0.04324369
233	0xbb6b98da	-0.003594926
234	0x3d80a98d	0.06282339
235	0xbbebb0c7	-0.0071927044
236	0x3d0d80ec	0.034546778
237	0xbca2f44f	-0.019891886
238	0xbd918c37	-0.07106822
239	0xbd8de5e9	-0.069286175
240	0xbd95a3b1	-0.07306612
241	0x3d1bd783	0.038047325
242	0x3d8d20f9	0.06891055
243	0x3d2f3fb6	0.04278537
244	0x3d215f53	0.03939755
245	0xbc0d5d73	-0.008628237
246	0x3d9ede79	0.07757277
247	0x3d5eb38a	0.05437044
248	0x3d4660a3	0.048432004
249	0x3d1660b4	0.036713317
250	0xbd4b6a99	-0.049662206
251	0x3c0b4e68	0.00850258
252	0x3c365def	0.011130794
253	0x3a3a04e6	0.0007096067
254	0x3b3f51e5	0.00291931
255	0x3c1b628e	0.0094839465

relation_embed.weight f4 [114, 32]
0	0xbc2f13d8	-0.010685883
1	0x3cd363dd	0.025804454
2	0xbcc5b48d	-0.024133945
3	0xbe1cc129	-0.1530806
4	0x3db5f927	0.08885413
5	0x3dd924d5	0.10602728
6	0x3d8a73f1	0.06760395
7	0xbe328701	-0.17434312
8	0xbddde672	-0.108349696
9	0xbd1eface	-0.038813405
10	0xbc211fa9	-0.0098342085
11	0xbd440b66	-0.047862433
12	0x3d9b46a5	0.07581834
13	0x3e3bfa9f	0.18357323
14	0x3dc11b09	0.09428985
15	0xbdc310bd	-0.09524677
16	0xbdd918f2	-0.10600461
17	0xbd6a9862	-0.05727423
18	0x3d1f9e86	0.03896954
19	0xbdbeff75	-0.09326068
20	0xbd7eb21a	-0.06218157
21	0x3c6b2953	0.014353114
22	0x3caf5b0b	0.021405717
23	0xbdcb6fd1	-0.09933437
24	0x3e105105	0.14093406
25	0x3d6e754c	0.05821733
26	0x3e2ae38b	0.16688363
27	0xbe4fbfa2	-0.20287946
28	0xbc518a17	-0.012789271
29	0xbd01302e	-0.03154009
30	0x3e1c7a75	0.15281089
31	0x3e26be97	0.16283642
32	0xbd1a419e	-0.037660234
33	0x3e2b80d5	0.16748364
34	0x3d531db2	0.05154199
35	0xbd2686f6	-0.040656053
36	0xbdcc689a	-0.09980889
37	0xbe5571c7	-0.20844184
38	0x3d9ae52d	0.07563243
39	0xbe2121fd	-0.15735622
40	0x3e45e41f	0.19325303
41	0xbcc4856b	-0.0239894
42	0xbe2e88f9	-0.17044438
43	0x3e517bcb	0.2045738
44	0xbe00075a	-0.12502804
45	0xbdba43dd	-0.09094975
46	0xbd8e109b	-0.06936761
47	0xbd270682	-0.04077769
48	0xbdbd9fc5	-0.09258989
49	0xbdfa59c0	-0.1222415
50	0xbae577da	-0.0017507032
51	0xbe529a7a	-0.2056674
52	0xbe1de426	-0.15419063
53	0x3d971cbf	0.0737853
54	0xbc6f3ea3	-0.014602336
55	0x3e367ae5	0.17820318
56	0x3dd249af	0.1026796
57	0xbc9aecd3	-0.018911755
58	0x3df5dff7	0.120056085
59	0xbd3c31ee	-0.045946054
60	0x3c15eea8	0.009151138
61	0x3d4823be	0.04886221
62	0xbcd19c0b	-0.025587102
63	0xbe14a8e6	-0.14517555
64	0x3e0e2d5f	0.13884495
65	0xbd5e5b72	-0.054286428
66	0xbbcee0e8	-0.006313432
67	0x3da7d2f5	0.08194534
68	0x3d33d666	0.04390564
69	0xbe1b2f1f	-0.15154694
70	0x3c18e6e9	0.009332397
71	0xbe32f93b	-0.17477886
72	0x3b4b52a9	0.003102461
73	0xbe3ce23b	-0.18445675
74	0x3dc767ff	0.097366326
75	0xbcc0cea5	-0.023536036
76	0xbb5d2e29	-0.0033749437
77	0xbe4570e5	-0.19281347
78	0x3dc788e1	0.097429045
79	0xbe2ecb67	-0.1706978
80	0xbe03f04a	-0.12884632
81	0x3e003e3a	0.12523738
82	0x3e25e28b	0.161997
83	0x3e433d15	0.1906627
84	0x3dc4d797	0.09611433
85	0xbe02669f	-0.1273446
86	0x3db93761	0.09043766
87	0x3de4e951	0.11177314
88	0x3e321657	0.17391334
89	0xbdd9fcdb	-0.106439315
90	0x3dc1a4b9	0.094552465
91	0x3c08b3a9	0.008343616
92	0x3dce5b55	0.10076014
93	0x3db478cf	0.08812105
94	0x3dd7eddf	0.10543417
95	0xbe0076c9	-0.12545313
96	0x3d8887fd	0.06666563
97	0xbe2f107d	-0.17096134
98	0xbdd9c435	-0.10633127
99	0xbcad4633	-0.021151638
100	0xbdc143c3	-0.09436753
101	0xbd842a7b	-0.06453415
102	0x3c279028	0.010227241
103	0x3e085d4b	0.13316838
104	0xbde4efd3	-0.11178555
105	0x3d921f27	0.07134848
106	0xbdd2aa21	-0.10286356
107	0xbd800c89	-0.06252391
108	0x3bf8974e	0.0075863963
109	0xbe491073	-0.19635181
110	0xbc20c6e8	-0.009813048
111	0xbe1a1e17	-0.15050541
112	0x3dee715d	0.11642716
113	0xbd93ee3b	-0.07223173
114	0x3c9f76fb	0.019465914
115	0x3da4ebcb	0.080527864
116	0xbe060417	-0.13087498
117	0xbe53dd13	-0.20689802
118	0xbd73b786	-0.059501193
119	0xbde10d47	-0.109888606
120	0x3e2160d1	0.15759589
121	0xbe189944	-0.14902216
122	0xbd972d8f	-0.073817365
123	0x3e40c4a5	0.18825014
124	0xbd6cefe6	-0.057845972
125	0xbe36b0c1	-0.17840864
126	0x3e3287c0	0.17434597
127	0x3e0f36b1	0.13985707
128	0xbdcf93c7	-0.10135608
129	0x3d77c50a	0.060490645
130	0xbe12ed39	-0.14348306
131	0xbda575fc	-0.08079144
132	0xbd23b276	-0.039965115
133	0x3dfeb457	0.12436741
134	0xbd0b80e4	-0.034058467
135	0xbddf7e7a	-0.10912795
136	0x3e0d68bf	0.13809489
137	0x3db90627	0.090343766
138	0x3c42f628	0.011899509
139	0xbde0f568	-0.109843075
140	0x3c0f2b49	0.008738347
141	0xbdc83d25	-0.097772874
142	0x3df1e873	0.11811914
143	0xbce23fc5	-0.027618298
144	0x3d23f2bd	0.040026415
145	0x3de994ff	0.11405372
146	0x3cb341f5	0.021882037
147	0x3dc5aadd	0.0965173
148	0x3d779982	0.06044913
149	0x3e09f5f1	0.13472725
150	0xbcd2f84b	-0.025753161
151	0xbe4aaa69	-0.19791569
152	0xbdc0aede	-0.09408353
153	0xbd7840b5	-0.060608584
154	0x3d0bf81c	0.034172162
155	0x3d17b60e	0.037038855
156	0xbdaa7823	-0.083236955
157	0xbe4124b1	-0.18861653
158	0xbde0c393	-0.10974803
159	0xbdbac540	-0.09119654
160	0xbe259fcd	-0.1617424
161	0xbd9234e7	-0.071389966
162	0xbdfd76eb	-0.123761974
163	0x3dbc6727	0.09199362
164	0x3d7b37e2	0.06133259
165	0x3db156ad	0.0865911
166	0x3d91604f	0.070984475
167	0x3d52cc8e	0.05146461
168	0xbd6a7e12	-0.057249136
169	0xbd70920a	-0.058733024
170	0xbd72c3cf	-0.05926877
171	0xbe0810a2	-0.13287595
172	0xbc886e73	-0.016654229
173	0xbe0c349d	-0.13691945
174	0xbe4747c7	-0.19460975
175	0x3de68b45	0.11257032
176	0xbd67c8d2	-0.056588
177	0x3d01c6b3	0.031683635
178	0xbd8522a7	-0.0650075
179	0xbdd48d5c	-0.10378525
180	0x3dbb9997	0.09160154
181	0xbd8a1d88	-0.06743914
182	0x3e36389f	0.17795037
183	0x3d9c0021	0.07617212
184	0xbb963cb6	-0.004584874
185	0xbdb00225	-0.08594159
186	0xb932ed1e	-0.00017063736
187	0xbe0d6816	-0.13809237
188	0x3c706b63	0.0146740405
189	0x3e262b74	0.16227514
190	0xbd503926	-0.05083575
191	0xbdd701da	-0.104984
192	0x3de8b70b	0.11363038
193	0x3e3abe85	0.1823674
194	0x3db448af	0.08802926
195	0x3e2ff375	0.17182715
196	0xbcaa4d56	-0.02078883
197	0x3e2e4ecd	0.17022248
198	0xbc80655a	-0.015673328
199	0xbd3ceeda	-0.046126224
200	0x3cd8e29d	0.026475245
201	0xbd00a0c5	-0.03140332
202	0xbb8b9818	-0.0042600743
203	0xbcb659d5	-0.022259632
204	0xbde829c8	-0.11336094
205	0xbde1ec38	-0.11031383
206	0x3d926929	0.07148964
207	0xbdba2b69	-0.09090311
208	0x3cedca77	0.029027207
209	0xbe0e5cad	-0.1390254
210	0xbd0dd220	-0.03462422
211	0x3e0bafe9	0.13641323
212	0x3d869241	0.065708645
213	0x3ccf5beb	0.025312385
214	0x3e3f431f	0.18677948
215	0x3dd2bf8d	0.10290442
216	0xbd126702	-0.035742767
217	0x3d33eb86	0.043925785
218	0x3cd0a1d5	0.025467793
219	0xbd8a2a73	-0.06746378
220	0xbdb9f6eb	-0.09080299
221	0x3cf61bd2	0.030042563
222	0xbe34d230	-0.17658305
223	0xbe0f92d9	-0.14020862
224	0x3c96211c	0.018326335
225	0xbe2d1fc1	-0.16906644
226	0xbe16c42a	-0.14723268
227	0xbd8c1209	-0.068393774
228	0x3d93ce45	0.07217077
229	0x3dafec75	0.085900225
230	0xbe2b096b	-0.16702811
231	0x3d57a61e	0.052648656
232	0xbdbe6e4e	-0.09298383
233	0xbd1b76c6	-0.037955068
234	0x3e1c6ba7	0.15275441
235	0x3dcbd90d	0.099535085
236	0x3dbafc03	0.09130099
237	0xbe0fcd53	-0.14043169
238	0xbdd50599	-0.10401458
239	0xbe27eebd	-0.16399665
240	0x3e0b3f09	0.13598265
241	0x3dd3513b	0.10318228
242	0x3e366605	0.17812355
243	0xbdf16841	-0.11787463
244	0x3df0abaf	0.11751496
245	0xbe42d95c	-0.19028229
246	0x3d9b6d7f	0.07589244
247	0xbe0d4109	-0.1379434
248	0x3df0242d	0.1172565
249	0xbe45509d	-0.19269033
250	0xbdfaba74	-0.12242594
251	0xbdcf5f92	-0.101256505
252	0xbd2c3382	-0.04204131
253	0xbe30bba7	-0.17259084
254	0xbe32fb74	-0.17478734
255	0xbda5486f	-0.08070456
