Knowledge_Graph_Recommendation/recommendation/stage2/trained_model/Douban/Embedding_based/dim32_lr0.001_l20.0001_TransR/concat/model0_epoch20.pth (torch, 728343 bytes, 5 tensors)

trans_M f4 [114, 32, 32]
0	0xba8b5f42	-0.0010633247
1	0x3b06f278	0.00205913
2	0x3c1d4955	0.009600003
3	0x3cad9d7f	0.021193264
4	0x3bb5335f	0.0055298056
5	0x3d0a5d97	0.03378066
6	0x3c0d0e14	0.0086093135
7	0x3cf2241b	0.029558232
8	0xbc3b497a	-0.011431092
9	0xbb3876e6	-0.002814704
10	0x3cb36e44	0.021903165
11	0xbc87b74c	-0.016566895
12	0xbc1c0fa8	-0.009525217
13	0x3b7547f2	0.0037426916
14	0xbd031526	-0.03200259
15	0x3c41288c	0.011789452
16	0xbcb1eca2	-0.02171928
17	0x3cb12871	0.02162573
18	0xbbd6ebe9	-0.0065588844
19	0x3c90d740	0.017680764
20	0xbb2c770d	-0.0026316077
21	0x3c606f3a	0.0136983935
22	0x3b4e9ab9	0.0031525327
23	0x3b48f789	0.003066512
24	0x3c384b7c	0.011248466
25	0xbbc3de7f	-0.0059774513
26	0x3c91e6b5	0.017810205
27	0x3d0cacff	0.03434467
28	0x3cd26501	0.025682928
29	0x3ce4eef4	0.027945973
30	0xbd051e1b	-0.032499414
31	0x3c9db79b	0.019252589
32	0x39f0e142	0.00045944197
33	0xbcb1c5e0	-0.0217008
34	0x3cddcc55	0.027074972
35	0x3c2d3204	0.010571007
36	0xbcbc72fc	-0.023004048
37	0xbd056a5c	-0.032572135
38	0xbcaf19dd	-0.021374637
39	0xbc4748ac	-0.012163322
40	0x3b906c60	0.0044074506
41	0x3a5b05f9	0.0008355077
42	0x3c95b86e	0.01827642
43	0xbd23489b	-0.039864164
44	0xbcb18cf0	-0.02167365
45	0xbd1261aa	-0.03573767
46	0x3cd56271	0.026047917
47	0x3d102098	0.035187334
48	0x3cd81551	0.026377352
49	0xbcde97b3	-0.027171945
50	0x3c06b5e8	0.008222081
51	0xbcdfd2c1	-0.027322175
52	0x3d200cd7	0.039074745
53	0x3cda704e	0.02666488
54	0x3d266eb1	0.040632907
55	0xbd12a729	-0.035803948
56	0x3bdfd2c2	0.006830544
57	0xbce1ae4a	-0.027548928
58	0xbc9589a4	-0.018254109
59	0x3c771d24	0.015082631
60	0xbcbca4d2	-0.023027811
61	0x3cc51ccd	0.024061585
62	0xbbb75d51	-0.005595841
63	0x3c58272b	0.013192932
64	0x3c654da4	0.013995562
65	0xb8e8c7f5	-0.00011099867
66	0x3cc90f68	0.02454348
67	0xbd2649d9	-0.04059777
68	0x3c9bc19c	0.019013219
69	0xbc048917	-0.008089325
70	0x3ccaec75	0.024770955
71	0x3ce094c3	0.027414685
72	0x3c9074e4	0.017633863
73	0x3859911d	5.187198e-05
74	0x3b1ef3a9	0.002425412
75	0x3be7be72	0.0070722634
76	0xbb75b2cb	-0.0037490602
77	0x3cd631b5	0.026146749
78	0xbca4e411	-0.020128282
79	0xbb2a053a	-0.0025943057
80	0xbc86ab29	-0.016439037
81	0x3b1ee6b6	0.00242464
82	0xbd02aa94	-0.031900957
83	0x3c4b63f7	0.01241397
84	0xbc0ee026	-0.008720433
85	0x3ca4ed6d	0.020132745
86	0xbae554d3	-0.0017496593
87	0x3ce361d7	0.027756615
88	0x3c6741f1	0.014114843
89	0xbc294ee7	-0.010333753
90	0x3cbe56cd	0.02323475
91	0x3cc96199	0.024582671
92	0xbcf1015e	-0.029419597
93	0xbca66eb5	-0.020316461
94	0x3c868917	0.016422791
95	0x3c9da42b	0.01924332
96	0x3c0d9492	0.008641379
97	0x3bdec05a	0.0067978324
98	0x3d0d3309	0.0344725
99	0xbbf6accc	-0.007527923
100	0xbd1df1b5	-0.038560588
101	0x3d227afb	0.039668065
102	0xbd260e78	-0.040541142
103	0x3ce9101d	0.028450066
104	0x3caa1215	0.020760575
105	0xbc1698b0	-0.009191677
106	0xbc7aabb0	-0.015299723
107	0x3bc0e410	0.005886562
108	0xbc2fb5e0	-0.010724515
109	0x3ccbde7d	0.024886364
110	0x3cd939a6	0.026516747
111	0x3c6b3977	0.014356962
112	0xbc93cb83	-0.018041378
113	0xbd071910	-0.032982886
114	0x3c941ba5	0.018079588
115	0xba9f6653	-0.0012161232
116	0xbd295584	-0.04134132
117	0xbba0a0f5	-0.004902
118	0x3d093b2b	0.033503693
119	0x3c92abbd	0.017904157
120	0x3c26f46c	0.010190111
121	0xbc8b00f8	-0.016968235
122	0xbd0af1f6	-0.03392216
123	0xbc74a3e0	-0.014931649
124	0xbca652cc	-0.020303153
125	0xbc46f084	-0.012142304
126	0xbd09f815	-0.033683855
127	0xbcb1baf6	-0.021695595
128	0x37835b9a	1.5659072e-05
129	0x3cc2caad	0.023778284
130	0xbb3d9869	-0.0028929955
131	0xbc71a116	-0.014747879
132	0x3ca2a1a1	0.019852461
133	0x3c4e88ec	0.012605887
134	0x3d12c7c0	0.035835028
135	0xbcdf9bef	-0.027296035
136	0xbce11e51	-0.027480276
137	0x3b0ff73b	0.002196743
138	0xbc292b8c	-0.010325324
139	0x3d179e49	0.037016187
140	0xbbafc21d	-0.0053637163
141	0xbbc476b3	-0.0059955954
142	0xbd087e3b	-0.033323508
143	0xba7bfe32	-0.0009612768
144	0xbd070eea	-0.032973208
145	0xbcc8d1ae	-0.024514046
146	0x3d15e947	0.036599424
147	0x3cd17649	0.025569098
148	0xbc3fe78a	-0.011712918
149	0xbca835af	-0.02053341
150	0x3cfcf2cd	0.030877495
151	0xbca356d9	-0.019938873
152	0x3cd2f0a3	0.02574951
153	0x3c6308e2	0.013857098
154	0x3c35a74c	0.01108725
155	0xbc2316f8	-0.009954207
156	0x3d06f1ca	0.03294543
157	0xbd0570cd	-0.03257828
158	0xbd0f7650	-0.03502494
159	0xbab74c92	-0.0013984612
160	0x3cc433e5	0.023950526
161	0x3d1f4d6d	0.0388922
162	0xbbcfcfd1	-0.0063419123
163	0x3d0d9825	0.034568924
164	0x3c1bcdc8	0.009509511
165	0x3d0dce67	0.03462067
166	0x3ccf83cb	0.025331398
167	0xbb0ab90a	-0.002116742
168	0xbd059369	-0.032611284
169	0x3bdb44a0	0.0066915303
170	0x3c5e2a73	0.013559925
171	0x3cf2d7ef	0.02964398
172	0x3b561e96	0.003267204
173	0xbc1e9a94	-0.009680409
174	0xbc729120	-0.014805108
175	0xbba303d9	-0.004974824
176	0x3bc94eb8	0.006143417
177	0xbd0d7918	-0.034539312
178	0xbc893861	-0.016750516
179	0xbc9b02e1	-0.018922271
180	0xbc5b454a	-0.013383219
181	0x3cef99aa	0.029248077
182	0x3cbd1ccd	0.023085022
183	0xbcf6455e	-0.030062374
184	0x3c898a07	0.01678945
185	0xbd0d5d15	-0.034512598
186	0x3be6703b	0.007032422
187	0x3ccd38ef	0.025051562
188	0x3caba873	0.020954346
189	0xbd224292	-0.039614268
190	0xbb4063b9	-0.0029356314
191	0xbc2fb6d0	-0.010724738
192	0xbca01910	-0.0195432
193	0xba439e36	-0.0007462235
194	0x3c13405c	0.008987512
195	0x3c9aa223	0.018876141
196	0x3b53ef15	0.003233855
197	0x3ccfc59e	0.025362786
198	0xbc24721c	-0.010036971
199	0xbaf57531	-0.0018726942
200	0xbd28dcbe	-0.04122614
201	0xbc5ce26e	-0.013481719
202	0xbc88022b	-0.016602596
203	0xbd28bcfd	-0.04119586
204	0xbad6e232	-0.0016394316
205	0x3cc70d09	0.024298208
206	0x3c6e4e2c	0.014545005
207	0xbc99b1ca	-0.018761534
208	0x3cd6bdcd	0.026213551
209	0xbcae31f8	-0.021264061
210	0xbb75002a	-0.003738413
211	0xbbaddc80	-0.0053058267
212	0xbcc7efde	-0.02440637
213	0x3c2e050c	0.01062132
214	0x3d248e2d	0.040174652
215	0xba426626	-0.0007415734
216	0x3c809d13	0.015699899
217	0x3c8a5065	0.016884038
218	0xbd14be31	-0.036314193
219	0x3c818027	0.015808178
220	0x3ccc5b8b	0.024945995
221	0xbca27e25	-0.019835541
222	0xbc0f49d4	-0.008745629
223	0xbc0945a5	-0.008378421
224	0x3cf0a622	0.029376093
225	0x3c65d394	0.014027495
226	0xbc0c9216	-0.0085797515
227	0xbd07b8d9	-0.03313527
228	0xbc1ea4a2	-0.009682806
229	0x3bee9b01	0.0072816615
230	0x3a3bd1a0	0.00071647204
231	0x3cd703e6	0.026246976
232	0x3bec700b	0.007215505
233	0xbb2525e5	-0.002519959
234	0xbca92520	-0.020647585
235	0x3cb50ba5	0.02210028
236	0xbac87a43	-0.0015295226
237	0x3d1dd437	0.038532462
238	0xbc101404	-0.008793835
239	0xbce702da	-0.028199602
240	0xbce01253	-0.027352488
241	0x3c16b050	0.00919731
242	0x3c810300	0.0157485
243	0x3cb6df2d	0.022323215
244	0x3c68bad8	0.014204703
245	0xbc8ec021	-0.017425599
246	0xbc7da90f	-0.015482201
247	0xb990705d	-0.00027549537
248	0x3cee7dcd	0.02911272
249	0xbc844adb	-0.016148975
250	0xbb6f41e0	-0.003650777
251	0x3d07bc52	0.03313858
252	0x3cab216d	0.020889962
253	0x3c2c4dd4	0.010516603
254	0xbbd4a94d	-0.006489909
255	0xbc1a1cb4	-0.009406257

user_embed.weight f4 [447, 32]
0	0x3ea6391c	0.32465446
1	0x3d171295	0.036882956
2	0xbd0424a6	-0.032261513
3	0x3ea277b7	0.3173196
4	0xbe373c6d	-0.17894144
5	0xbcbdf9cb	-0.0231904
6	0xbe1ffc95	-0.15623696
7	0xbe2a1add	-0.1661181
8	0xbe2bf61e	-0.16793105
9	0xbc0e569a	-0.00868764
10	0x3e25d6fe	0.16195294
11	0x3d30a349	0.04312447
12	0x3c8b55f1	0.017008753
13	0x3e54908a	0.20758262
14	0x3dc226f0	0.09480083
15	0x3e893bea	0.26803523
16	0x3d3cf194	0.046128824
17	0xbe42ed78	-0.190359
18	0x3dc5a965	0.0965145
19	0xbd8db701	-0.06919671
20	0x3e30569f	0.17220543
21	0xbd3d4454	-0.04620774
22	0xbeaebf04	-0.34130108
23	0xbdb8d403	-0.09024813
24	0xbe9885bd	-0.29789534
25	0xbe403283	-0.18769269
26	0xbd2cfd17	-0.042233553
27	0x3ebf07bc	0.37310588
28	0xbee268e5	-0.44220653
29	0x3dd4f0cb	0.1039749
30	0xbbc7462b	-0.0060813627
31	0xbd7127a7	-0.058875706
32	0x3e96d91b	0.29462513
33	0xbd67da3a	-0.0566046
34	0x3e8567d6	0.26055783
35	0xbe2f3fab	-0.17114131
36	0x3c593316	0.013256809
37	0xbcdf43eb	-0.027254065
38	0x3dfa1c30	0.122124076
39	0xbd84a4c3	-0.06476738
40	0xbe774de4	-0.24150807
41	0x3deb3c70	0.11486137
42	0x3da610e2	0.08108689
43	0xbe2b5109	-0.16730131
44	0x3e3ce79a	0.18447724
45	0x3e5a89f2	0.21341684
46	0xbd46a8f5	-0.048500974
47	0x3e0c2df4	0.13689405
48	0xbcc29571	-0.0237529
49	0xbd82b75e	-0.06382631
50	0x3e6e969b	0.23299639
51	0x3e23caeb	0.15995376
52	0x3d763461	0.060108546
53	0xbdf27c9c	-0.118401736
54	0xbe6fb1eb	-0.23407714
55	0x3d7cd500	0.06172657
56	0xbea62cb2	-0.32455975
57	0xbe1e2784	-0.15444762
58	0x3db511f7	0.08841317
59	0x3e9bcc68	0.30429387
60	0xbe6ddd06	-0.23228845
61	0x3e49827d	0.19678684
62	0x3e5d8e09	0.21636213
63	0x3e6b1e5d	0.22960801
64	0x3e68f211	0.22748591
65	0x3e187a17	0.14890324
66	0xbdf03fa4	-0.117308885
67	0x3dd34642	0.10316135
68	0xbe495a68	-0.19663393
69	0xbd5cf4c6	-0.05394437
70	0xbe9388dc	-0.28815353
71	0xbe118e22	-0.14214376
72	0xbec98560	-0.3935957
73	0x3e272648	0.16323197
74	0x3db9b67d	0.0906801
75	0xbd6b2a89	-0.05741361
76	0x3e0fe444	0.1405192
77	0x3dee6385	0.116400756
78	0xbb97de34	-0.004634643
79	0xbc8941f6	-0.016755085
80	0x3e86e3cf	0.2634568
81	0xbe1f85e9	-0.15578426
82	0x3e6d6462	0.23182824
83	0x3d8f9ca4	0.07012299
84	0x3bfe0071	0.0077515175
85	0x3e1cfb64	0.15330273
86	0xbe9a37c1	-0.30120662
87	0xbdcb1896	-0.09916799
88	0xbe477181	-0.19476892
89	0xbdbde3af	-0.09271943
90	0x3c7d5897	0.015463016
91	0x3e613ae5	0.21995123
92	0xbe87da91	-0.2653394
93	0x3e55117b	0.2080745
94	0x3e671d26	0.22569713
95	0x3d8459e6	0.06462459
96	0x3eca97fd	0.39569083
97	0x3e7fa4a8	0.24965155
98	0xbe1d21ac	-0.15344876
99	0x3f04e9e0	0.51919365
100	0xbc192f68	-0.009349681
101	0xbdb46395	-0.08808056
102	0xbe345543	-0.1761065
103	0x3de13f98	0.10998458
104	0xbe9a1c3c	-0.30099666
105	0x3c0e6946	0.008692091
106	0xbe9add40	-0.30246925
107	0x3df2de61	0.11858822
108	0x3ed969a4	0.4246341
109	0x3e853966	0.26020354
110	0x3e7d5b7f	0.24741934
111	0xbcc3ecf0	-0.023916692
112	0x3f0955eb	0.53646725
113	0x3e3f217c	0.18665117
114	0x3de4722e	0.111545905
115	0x3d32a2db	0.043612342
116	0x3d8e7609	0.06956107
117	0x3d17d588	0.037068874
118	0xbedaa860	-0.42706585
119	0xbe3b31aa	-0.18280664
120	0xbc3704d4	-0.011170585
121	0xbf019f25	-0.5063346
122	0x3ee228cf	0.4417176
123	0x3ed082dd	0.4072484
124	0xbe0c7057	-0.13714729
125	0x3ec68d8f	0.38779876
126	0x3e900d0a	0.28134948
127	0xbde065d5	-0.10956923
128	0x3e978323	0.29592237
129	0xbd0d9282	-0.03456355
130	0x3cfdea97	0.03099565
131	0x3dccf58a	0.1000777
132	0xbd2e9331	-0.04262084
133	0xbe0c71ca	-0.13715282
134	0x3d479e61	0.048735026
135	0xbce5ce7a	-0.028052557
136	0xbe954070	-0.29150724
137	0xbd83f832	-0.06443824
138	0xbda2c5ac	-0.07947859
139	0x3de6089e	0.11232112
140	0x3d3677e5	0.044547934
141	0x3dcb0540	0.09913111
142	0x3e1c258f	0.15248702
143	0xbe08c2b0	-0.13355517
144	0x3e1ba8b9	0.15201081
145	0x3d92321c	0.07138464
146	0x3dd4182f	0.10356175
147	0x3e380fd9	0.17974795
148	0x3d6b83c6	0.057498716
149	0x3e441de6	0.1915203
150	0xbe8e6a52	-0.2781549
151	0x3dd132c7	0.10214763
152	0xbe484a4c	-0.19559592
153	0xbe593e69	-0.21215214
154	0x3d22a1df	0.039705154
155	0x3e928d67	0.28623506
156	0xbe0f3779	-0.13986005
157	0x3dffbf16	0.124876186
158	0x3de4d403	0.111732505
159	0xbda68202	-0.08130266
160	0xbe5ee9aa	-0.21768823
161	0x3f317bc4	0.69329476
162	0x3f3dc62a	0.741305
163	0xbf070532	-0.527423
164	0x3f1b233a	0.60600626
165	0xbbf4b101	-0.0074673896
166	0x3da5e00e	0.08099376
167	0x3ee35ec6	0.44408244
168	0x3e3e6dde	0.18596599
169	0x3ee8b409	0.45449856
170	0xbe85a491	-0.26102117
171	0xbece96f7	-0.40349552
172	0x3ebc8a0e	0.36824077
173	0xbe9a16ec	-0.30095613
174	0xbefa5b48	-0.48897767
175	0xbe4b54bd	-0.19856544
176	0xbe90ffb0	-0.28320074
177	0x3d87eac0	0.06636572
178	0x3ee196ac	0.44060266
179	0x3ec46598	0.3835876
180	0x3f0234f3	0.50862044
181	0xbef9347d	-0.48672858
182	0x3ec3052e	0.3808989
183	0xbe7ca7ad	-0.24673338
184	0xbf0cb555	-0.5496419
185	0x3dc66688	0.09687525
186	0xbedd8356	-0.43264264
187	0xbc946bed	-0.01811787
188	0x399785c8	0.0002890064
189	0x3f046653	0.51718634
190	0xbded99c6	-0.116015956
191	0x3f0bb4f0	0.54572964
192	0xbcfcfbc9	-0.03088178
193	0x3e3c58d8	0.18393266
194	0xbdeca0d7	-0.11554115
195	0x3d5ae385	0.053439636
196	0x3e03c29e	0.1286721
197	0xbdf92f9e	-0.121672854
198	0x3d137846	0.036003374
199	0x3d87208f	0.06598007
200	0xbe24ab25	-0.16080911
201	0x3dc5f0b2	0.096650496
202	0x3e0b5707	0.13607417
203	0xbd9c20fb	-0.07623478
204	0x3e0d6278	0.13807094
205	0x3e1d56e4	0.15365177
206	0xbc086c73	-0.008326638
207	0x3e11cacd	0.14237519
208	0xbc23cbb9	-0.009997302
209	0x3d80010c	0.062502
210	0x3d3c9500	0.046040535
211	0x3e8dffcf	0.2773423
212	0x3d938ebd	0.072049595
213	0x3cd0c941	0.02548659
214	0xbdc1bde5	-0.09460048
215	0x3e12035d	0.14259095
216	0xbdc3936f	-0.09549605
217	0x3dfc281e	0.12312339
218	0x3ddc595b	0.10759231
219	0x3df99c02	0.12187959
220	0xbe49e38b	-0.19715707
221	0x3d269b3b	0.040675383
222	0x3e17a2a5	0.14808138
223	0x3ea08e7f	0.31358716
224	0x3eaf0f5a	0.341914
225	0x3e45b3e9	0.19306912
226	0xbe6e54f1	-0.2327459
227	0x3e6ea7a6	0.2330614
228	0xbdce9b9b	-0.10088273
229	0xbe9b821d	-0.30372706
230	0xbdcab856	-0.098984405
231	0x3e552275	0.20813926
232	0xbe4edd77	-0.2020167
233	0x3e06fa58	0.13181436
234	0xbe519378	-0.20466411
235	0x3e38287e	0.17984197
236	0x3e6b4374	0.2297495
237	0x3e32323b	0.17401974
238	0x3ebbde25	0.3669292
239	0x3bd5d505	0.006525638
240	0x3e40b0ae	0.18817398
241	0x3ea6b2ab	0.32558188
242	0x3d0bf6bc	0.03417085
243	0x3e0ec798	0.13943326
244	0x3e8b75b5	0.2723824
245	0xbe2d7bb3	-0.16941719
246	0xbe669020	-0.22515917
247	0x3e61c4bf	0.22047709
248	0xbeafe046	-0.34350795
249	0xbe11c39f	-0.1423478
250	0xbe10abc1	-0.14128019
251	0x3e23d9de	0.16001078
252	0xbe7c78c3	-0.24655442
253	0x3e89092d	0.26764813
254	0xbd6bcb15	-0.05756672
255	0x3e17c2e0	0.14820433

item_embed.weight f4 [578, 32]
0	0xbe17a862	-0.14810327
1	0x3e363663	0.17794184
2	0x3ec1cffe	0.37853998
3	0xbe88b937	-0.26703808
4	0xbd9cd80c	-0.07658395
5	0xbec1bcbd	-0.37839308
6	0xbe5f50e0	-0.21808195
7	0xbea0282f	-0.31280658
8	0x3e0d8f2b	0.13824145
9	0x3e85bc29	0.26120117
10	0xbd8500c1	-0.064942844
11	0xbe1299b8	-0.14316452
12	0x3ebaf66b	0.36516127
13	0x3df8ba59	0.12144918
14	0xbe2c9c40	-0.1685648
15	0x3d810ad1	0.06300891
16	0xbe94744a	-0.28994972
17	0x3ee12c7d	0.43979254
18	0xbdaa6235	-0.08319513
19	0x3e6d318f	0.23163436
20	0xbe15ba46	-0.14621839
21	0xbeb3a309	-0.35085323
22	0x3ec2a42a	0.38015872
23	0x3dbb0325	0.09131459
24	0xbe4563c6	-0.19276342
25	0xbd2e1372	-0.042499013
26	0xbefae844	-0.4900533
27	0xbe8ab20d	-0.27088967
28	0xbe272897	-0.16324078
29	0x3ddc0378	0.10742849
30	0x3e00c3ff	0.12574767
31	0x3e179562	0.14803079
32	0xbb036d32	-0.00200541
33	0x3d61daba	0.055140235
34	0x3ee807de	0.45318502
35	0xbea5863e	-0.3232898
36	0x3e38289d	0.17984243
37	0xbf0edd11	-0.5580607
38	0xbeed1e5b	-0.46312222
39	0xbe8267a2	-0.2546969
40	0xbe10d72d	-0.14144583
41	0x3dc3c6ce	0.09559403
42	0x3d137605	0.036001224
43	0xbe34c8e0	-0.17654753
44	0x3e963be5	0.2934257
45	0x3e973ec4	0.29540074
46	0xbec91666	-0.392749
47	0x3ee3c53f	0.44486424
48	0xbd5863b3	-0.052829456
49	0x3ecab685	0.39592376
50	0xbe65cea7	-0.22442113
51	0x3e8661bf	0.2624645
52	0x3ea4d961	0.32197097
53	0xbec1cba5	-0.3785068
54	0xbe632696	-0.22182688
55	0x3e28b6b1	0.16475941
56	0xbe25ea52	-0.16202667
57	0xbe5d7a1c	-0.21628612
58	0x3e240bc9	0.1602012
59	0xbe19b113	-0.15008955
60	0xbee1c973	-0.44099006
61	0x3e01e8b4	0.12686425
62	0x3e732c24	0.23747307
63	0x3d668eec	0.056288645
64	0x3d430490	0.047611773
65	0x3eb47657	0.35246536
66	0x3e8f266b	0.27958998
67	0xbc965f80	-0.018356085
68	0x3dcfdf84	0.10150054
69	0xbe9d90dd	-0.30774584
70	0xbe840f2e	-0.2579283
71	0xbdb6091e	-0.08888458
72	0xbe6d40f3	-0.23169307
73	0xbd8e1631	-0.069378264
74	0xbe57661d	-0.21035047
75	0xbe0e2023	-0.13879447
76	0x3ea538dc	0.32269943
77	0x3d349c4a	0.04409436
78	0xbe8e73e2	-0.27822787
79	0xbc78ed79	-0.015193337
80	0xbe9d62ed	-0.30739537
81	0x3d21b512	0.039479323
82	0xbee3498f	-0.44392058
83	0x3edca770	0.43096495
84	0xbc2f8c5d	-0.010714618
85	0xbf18a2d3	-0.5962345
86	0x3c4a125f	0.012333482
87	0x3e9353e3	0.28774938
88	0xbea07f34	-0.31347048
89	0xbe6debb9	-0.23234452
90	0xbf0de339	-0.5542484
91	0x3e08eca2	0.13371518
92	0xbec92ee3	-0.39293584
93	0x3dad3229	0.08456833
94	0x3e747d8c	0.23876017
95	0xbe8ce756	-0.27520245
96	0xbcb1ef19	-0.021720456
97	0x3da02121	0.07818819
98	0x3d92d5aa	0.071696594
99	0xbd02d3d6	-0.031940304
100	0xbe507f6a	-0.20361105
101	0xbd85e89f	-0.065385096
102	0x3e956d3b	0.291849
103	0x3d99171a	0.074751094
104	0xbddeee82	-0.108853355
105	0xbcd8868b	-0.026431343
106	0xbe0f8a69	-0.14017643
107	0x3eb10aec	0.34578645
108	0x3d46c382	0.048526295
109	0xbd4287a6	-0.047492646
110	0x3e372baf	0.17887758
111	0xbd0e82c9	-0.034792695
112	0x3dffea63	0.124958776
113	0x3e87b06f	0.26501796
114	0x3e828660	0.25493145
115	0x3cc7c044	0.024383672
116	0xbdd4c615	-0.10389344
117	0xbceaee5e	-0.028678115
118	0xbc800fec	-0.015632592
119	0x3e5a6382	0.21327022
120	0xbd198382	-0.03747893
121	0x3e277350	0.16352582
122	0x3dfae831	0.12251318
123	0x3e8c38d7	0.27387115
124	0x3dac0a0c	0.08400354
125	0xbd9eb489	-0.07749278
126	0x3dfbc172	0.12292756
127	0xbe140fe4	-0.14459187
128	0xbe0838e1	-0.13302948
129	0xbbceabe1	-0.0063071107
130	0x3d9af641	0.075665005
131	0xbe297a49	-0.16550554
132	0xbe8a3b9e	-0.2699861
133	0x3ed459e1	0.41474822
134	0x3e68be01	0.2272873
135	0xbc8038f1	-0.015652152
136	0x3e49531f	0.19660614
137	0xbe7186fa	-0.23586646
138	0xbd545a25	-0.05184378
139	0xbdbd0bf6	-0.09230797
140	0xbebed062	-0.37268358
141	0xbea450d7	-0.32092926
142	0xbdcac9a9	-0.09901745
143	0xbe200a3f	-0.15628909
144	0xbd1c069b	-0.038092237
145	0xbdbd1e30	-0.092342734
146	0xbeca3ca0	-0.39499378
147	0xbe5815f4	-0.21102124
148	0xbe6fac77	-0.23405634
149	0x3d4f0eb8	0.050551146
150	0x3e8e19e3	0.27754125
151	0xbe5cfc41	-0.21580602
152	0x3ef841f7	0.48487827
153	0x3e24b6b8	0.16085327
154	0xbb41ee3f	-0.0029591469
155	0xbece1be4	-0.40255654
156	0x3ead047d	0.33792487
157	0xbe970e2b	-0.29502997
158	0xbe8a97de	-0.2706899
159	0x3d5adfc8	0.05343607
160	0xbd98a136	-0.074526235
161	0xbd517f22	-0.051146634
162	0xbe27f443	-0.16401772
163	0xbe1fd827	-0.156098
164	0x3e821bee	0.25411934
165	0x3eb0b469	0.34512642
166	0x3deafa63	0.11473539
167	0xbd4e219b	-0.050325017
168	0x3e90461a	0.28178483
169	0xbcdf1954	-0.027233757
170	0xbd896ea1	-0.06710554
171	0xbd4a3e2b	-0.049375694
172	0xbe04341a	-0.129105
173	0xbdbdd6ec	-0.09269509
174	0xbe165cb9	-0.14683808
175	0x3c51b3a2	0.012799175
176	0xbe137063	-0.14398341
177	0xbe7afb9d	-0.24510045
178	0xbd26edbb	-0.04075406
179	0x3e0acbe0	0.13554335
180	0xbe04edaf	-0.12981294
181	0x3d17a154	0.03701909
182	0x3e963008	0.2933352
183	0xbe19593f	-0.14975451
184	0x3da17375	0.0788335
185	0x3ec2db94	0.3805815
186	0x3bfae577	0.007656749
187	0x3d9397ab	0.07206663
188	0x3e39ff1f	0.18163727
189	0xbddb22e1	-0.10700012
190	0xbdd7a944	-0.10530332
191	0x3e2eea61	0.17081596
192	0x3d8e43d3	0.0694653
193	0x3f117c09	0.5682989
194	0x3eb47a71	0.35249665
195	0xbeccc19a	-0.39991456
196	0x3da15743	0.07877972
197	0xbeaf8dbd	-0.34287825
198	0xbed0345d	-0.4066495
199	0xbe9e48c4	-0.3091489
200	0xbee8649d	-0.45389262
201	0x3f2a5d1e	0.66548336
202	0xbec191f4	-0.37806666
203	0xbf203845	-0.6258586
204	0x3ede2fba	0.43395787
205	0x3ee7d270	0.4527774
206	0x3e396f4f	0.18108867
207	0xbdb36649	-0.08759744
208	0x3ea0afc8	0.3138411
209	0x3f0e270e	0.5552834
210	0x3e8ea7b3	0.2786232
211	0x3f07512e	0.52858245
212	0x3e0c1adb	0.1368212
213	0xbf226371	-0.63432986
214	0xbf04227f	-0.51615137
215	0x3eff8917	0.4990928
216	0xbf05a552	-0.52205384
217	0xbe394efd	-0.18096538
218	0xbeae9c3d	-0.34103575
219	0xbd1b8641	-0.03796983
220	0xbefd984d	-0.4953026
221	0x3ed267ff	0.41094968
222	0x3eda6f69	0.42663124
223	0x3eab2f18	0.33434367
224	0xbdcbb9c4	-0.09947541
225	0x3ea3acbf	0.31967732
226	0x3f2836e9	0.65708786
227	0xbed87d45	-0.42283073
228	0x3c90ff30	0.017699808
229	0xbf0019da	-0.50039446
230	0xbe92b452	-0.28653198
231	0xbd445f30	-0.04794234
232	0xbf1a85c7	-0.6036038
233	0x3ebb5923	0.36591443
234	0x3cc2f1eb	0.023796996
235	0xbf2691af	-0.65066046
236	0x3f1da179	0.6157451
237	0x3e6dac01	0.23210146
238	0xbe14c843	-0.14529519
239	0x3dac9322	0.08426501
240	0xbea01042	-0.31262404
241	0x3f0d611d	0.5522631
242	0x3ea8d3f9	0.32974222
243	0x3f21946a	0.63117087
244	0x3e56d851	0.20980956
245	0xbefe18d6	-0.49628323
246	0x3e224d6f	0.15849851
247	0x3ded8faa	0.11599667
248	0xbef26bc3	-0.4734784
249	0xbe50c4e0	-0.20387602
250	0xbe926189	-0.28590038
251	0x3dbc1693	0.09183993
252	0xbf1866f6	-0.59532106
253	0x3e979895	0.29608598
254	0x3ee22838	0.4417131
255	0x3eb81a15	0.359574

entity_embed.weight f4 [886, 32]
0	0xbd8a8b90	-0.06764901
1	0xbd9f140c	-0.077674955
2	0x3d4f3b44	0.05059363
3	0x3d0b2e62	0.03397978
4	0xbc67a095	-0.014137407
5	0xbd15b307	-0.036547687
6	0x3d9873ce	0.07443963
7	0x3d8fc30e	0.070196256
8	0x3cf5000d	0.02990725
9	0xbd7b573a	-0.061362483
10	0xbd014f98	-0.031570047
11	0xbdac67a9	-0.08418209
12	0xbd463a35	-0.048395354
13	0xbcb6ca9c	-0.022313409
14	0xbc810926	-0.015751433
15	0x3d371f29	0.04470745
16	0xbd8789f7	-0.066181116
17	0x3d33fc82	0.043941982
18	0x3cca4f6e	0.024696078
19	0x3d0ee267	0.034883883
20	0x3d970b24	0.07375172
21	0x3c3f0007	0.011657721
22	0xbbc6b8d6	-0.0060645146
23	0x3d7a3258	0.061083168
24	0xbcb049e6	-0.021519613
25	0xbc40033e	-0.011719523
26	0x3c32414f	0.010879829
27	0x3d573a4c	0.05254583
28	0xbcf26899	-0.029590892
29	0x3d66dfff	0.056365963
30	0xbd978b5a	-0.07399626
31	0xbd279821	-0.040916566
32	0x3da0877d	0.07838342
33	0xbd9c130a	-0.07620819
34	0x3d531f13	0.051543307
35	0x3c7a3246	0.015270775
36	0x3cfdbcf0	0.030973881
37	0xbc591a6b	-0.013250927
38	0xbc966ebb	-0.018363347
39	0xbd38e445	-0.04513957
40	0x3d9738d4	0.07383886
41	0xbd47f5f0	-0.04881853
42	0xbbcefaae	-0.0063165044
43	0xbc65d10b	-0.0140268905
44	0x3db0f4bb	0.08640429
45	0xba242a51	-0.0006262409
46	0x3d7ec981	0.062203888
47	0x3d8567ac	0.065139145
48	0xbc17649a	-0.009240294
49	0x3d974c5d	0.07387612
50	0x3d34d67b	0.044149857
51	0xbd50dd82	-0.050992496
52	0xbda5a805	-0.08088688
53	0xbccfde7f	-0.02537465
54	0x3d82f82d	0.06394992
55	0x3d38b993	0.045098852
56	0x3d61d14b	0.055131238
57	0xbd977810	-0.07395947
58	0xbd8873c1	-0.06662703
59	0x3d1bf9f7	0.038080182
60	0x3d81e64d	0.063427545
61	0x3d66f801	0.05638886
62	0x3d959f99	0.073058315
63	0x3c063db1	0.008193419
64	0x3d5427d3	0.05179579
65	0x3d1b8282	0.03796626
66	0x3d7440a6	0.059631966
67	0xbd40a847	-0.04703548
68	0x3d7cd212	0.061723776
69	0xbd136ab6	-0.03599044
70	0x3be5b3ee	0.0070099747
71	0xbdb066c0	-0.08613348
72	0x3cd109b0	0.025517315
73	0xbcdaaab4	-0.026692726
74	0xbd06ff02	-0.03295804
75	0x3d02f2fe	0.031970017
76	0x3d836bb8	0.0641703
77	0xbdafdd2d	-0.08587108
78	0x3d1d4397	0.038394537
79	0xbd9107a1	-0.07081533
80	0xbd1235e2	-0.035695918
81	0x3d87de98	0.06634253
82	0xbccdb184	-0.02510906
83	0x3cf812cb	0.030282399
84	0x3da0e780	0.07856655
85	0xbd90f756	-0.070784256
86	0x3bd57f41	0.006515414
87	0x3d7e847a	0.06213806
88	0xbc17a334	-0.009255219
89	0x3d358f15	0.044325907
90	0xbd97eb25	-0.07417897
91	0x3d242173	0.040070962
92	0x3d0fc6b0	0.035101593
93	0x3ca05471	0.019571515
94	0x3cf5f9ef	0.030026404
95	0xbd88c4d7	-0.06678169
96	0xbcda1a18	-0.02662377
97	0xbd67ecc8	-0.056622297
98	0x3d35a8fa	0.0443506
99	0xbd9fd9c9	-0.07805211
100	0x3d97a2f6	0.07404129
101	0x3d8cc816	0.06874101
102	0xbcbb5373	-0.02286694
103	0x3d46bb3b	0.0485184
104	0xbcf1a8a3	-0.029499358
105	0xbb00830e	-0.0019609365
106	0x3d744dc4	0.059644476
107	0xbd958f55	-0.07302729
108	0x3d61587c	0.055016026
109	0x3a97c8a1	0.0011580178
110	0xbca139ff	-0.019680975
111	0xbd692e4b	-0.056928914
112	0x3cb69431	0.02228746
113	0x3d2a7f37	0.041625228
114	0xbd016737	-0.031592574
115	0x3d373937	0.0447323
116	0xbae3a7ea	-0.0017368768
117	0xbd1178c9	-0.03551558
118	0x3d41ad25	0.047284264
119	0xbd798147	-0.060914304
120	0x3d64c4a7	0.055851605
121	0x3c736969	0.014856675
122	0x3d9205fa	0.07130046
123	0x3d070cf7	0.03297135
124	0x3b98cb12	0.0046628797
125	0xbd15ed28	-0.036603123
126	0x39e926db	0.00044470173
127	0x3d82c6b0	0.06385553
128	0xbc83b96e	-0.01607963
129	0xbbfd3282	-0.0077269683
130	0x3d1fdc9d	0.039028753
131	0x3cf11a86	0.029431593
132	0xbd4539e6	-0.04815092
133	0xbc76b626	-0.015058076
134	0xbbfdabf2	-0.0077414447
135	0xbd17efd5	-0.037093956
136	0x3c351d32	0.011054324
137	0xbd98b11a	-0.074556544
138	0xbd9156d6	-0.07096641
139	0x3ca2a1cd	0.019852543
140	0xbb568f2c	-0.0032739146
141	0xbcc352fb	-0.02384328
142	0xbc100f8c	-0.008792769
143	0xbc09b869	-0.008405783
144	0x3d8b5e09	0.06805045
145	0x3d32c54f	0.0436452
146	0xbca56ff5	-0.020194987
147	0x3daa7503	0.083230995
148	0xba2a3bc3	-0.00064938905
149	0xbd63978f	-0.05556446
150	0x3ce82102	0.028336052
151	0xbcd4e0a4	-0.025986023
152	0xbbc1e3b5	-0.0059170374
153	0xbbb637c7	-0.0055608484
154	0x3d433c41	0.047664884
155	0xbb8b2343	-0.004246147
156	0xbd973c1c	-0.07384512
157	0x3c7cc6fd	0.015428302
158	0xbd6b8694	-0.05750139
159	0x3d2348e4	0.039864436
160	0xbd8d3b91	-0.06896127
161	0x3cabe88c	0.02098491
162	0x3c287787	0.010282404
163	0xbc03f0e7	-0.008053041
164	0x3d0b1267	0.033953097
165	0x3cae9367	0.021310521
166	0x3d9b4d7a	0.07583137
167	0x3c3347db	0.010942425
168	0x3ceb801d	0.028747613
169	0x3d85be1a	0.065303996
170	0x3ab384c7	0.0013696187
171	0xbd9b5859	-0.0758521
172	0xbd84c2de	-0.064824805
173	0x3d076693	0.033056807
174	0xba6f33bd	-0.0009124836
175	0x3d75237d	0.059848297
176	0xbd0e14d6	-0.03468784
177	0xbccfb958	-0.025356933
178	0x3c939fd0	0.01802054
179	0x3d2d287b	0.042274933
180	0x3cefa5ec	0.029253922
181	0xbace7c02	-0.001575351
182	0x3c6bdf38	0.014396481
183	0x3cf72cc6	0.030172717
184	0xbc8633c2	-0.016382102
185	0x3cb30892	0.021854673
186	0x3b7441ab	0.0037270586
187	0xbd2ffb5f	-0.042964336
188	0x3d416123	0.047211777
189	0xbc00abaf	-0.007853433
190	0xbd835704	-0.06413081
191	0xbd5d3b1b	-0.054011445
192	0xbd3d9869	-0.046287928
193	0xbc73fa36	-0.014891198
194	0x3cde01d1	0.027100476
195	0xbda66e86	-0.081265494
196	0xbd746048	-0.059662133
197	0xbd8e25f9	-0.069408365
198	0x3c949811	0.018138917
199	0xbda4c391	-0.08045114
200	0x3d29bf0a	0.041441955
201	0x3d92115e	0.07132219
202	0x3b8f7647	0.0043781134
203	0x3c7e28eb	0.015512685
204	0x3d8ceeee	0.0688151
205	0x3d966fd8	0.07345551
206	0x3c03b17e	0.008037923
207	0xbcce2790	-0.02516535
208	0x3d2ed6e2	0.042685397
209	0xbd118987	-0.035531547
210	0x3ccf4c8d	0.025305057
211	0xbd643098	-0.055710405
212	0xbd3b510a	-0.04573158
213	0xbc603553	-0.0136845885
214	0xbd06b37b	-0.03288601
215	0xbb91a090	-0.0044441894
216	0xbccbd2b3	-0.024880743
217	0xbd1c56c9	-0.038168702
218	0xbd172097	-0.036896314
219	0x3c89ed0d	0.016836667
220	0xbbe561a2	-0.007000164
221	0xbc975498	-0.018472955
222	0x3ab7a269	0.0014010194
223	0x3c2edccd	0.01067276
224	0xbd743603	-0.059621822
225	0xbc8dfc5b	-0.017332247
226	0xbc75c1f4	-0.014999855
227	0xbdaedf7f	-0.08538722
228	0xbce1d020	-0.027565062
229	0xbbab95ff	-0.005236387
230	0x3c3b3c05	0.011427884
231	0xbd753287	-0.05986264
232	0x3d30b201	0.043138508
233	0xbb611da7	-0.003434995
234	0x3d80a656	0.06281726
235	0xbbfda0a1	-0.0077400957
236	0x3d0f1509	0.03493217
237	0xbca1bb76	-0.019742709
238	0xbd91ace7	-0.07113057
239	0xbd8dd128	-0.06924659
240	0xbd9614b4	-0.073281676
241	0x3d1c4ab2	0.038157173
242	0x3d8d377e	0.0689535
243	0x3d357f60	0.044310927
244	0x3d218950	0.039437592
245	0xbc874868	-0.016514018
246	0x3d9eef2b	0.077604614
247	0x3d5ef2d0	0.054430783
248	0x3d4403ab	0.04785506
249	0x3d15c3c6	0.036563657
250	0xbd4bef26	-0.049788617
251	0x3c0b933c	0.00851899
252	0x3c310464	0.010804269
253	0x3a5743b1	0.0008211686
254	0x3b45c055	0.0030174453
255	0x3c1d2772	0.009591924

relation_embed.weight f4 [114, 32]
0	0xbc2f13d8	-0.010685883
1	0x3cd363dd	0.025804454
2	0xbcc5b48d	-0.024133945
3	0xbe1cc129	-0.1530806
4	0x3db5f927	0.08885413
5	0x3dd924d5	0.10602728
6	0x3d8a73f1	0.06760395
7	0xbe328701	-0.17434312
8	0xbddde672	-0.108349696
9	0xbd1eface	-0.038813405
10	0xbc211fa9	-0.0098342085
11	0xbd440b66	-0.047862433
12	0x3d9b46a5	0.07581834
13	0x3e3bfa9f	0.18357323
14	0x3dc11b09	0.09428985
15	0xbdc310bd	-0.09524677
16	0xbdd918f2	-0.10600461
17	0xbd6a9862	-0.05727423
18	0x3d1f9e86	0.03896954
19	0xbdbeff75	-0.09326068
20	0xbd7eb21a	-0.06218157
21	0x3c6b2953	0.014353114
22	0x3caf5b0b	0.021405717
23	0xbdcb6fd1	-0.09933437
24	0x3e105105	0.14093406
25	0x3d6e754c	0.05821733
26	0x3e2ae38b	0.16688363
27	0xbe4fbfa2	-0.20287946
28	0xbc518a17	-0.012789271
29	0xbd01302e	-0.03154009
30	0x3e1c7a75	0.15281089
31	0x3e26be97	0.16283642
32	0xbd1a419e	-0.037660234
33	0x3e2b80d5	0.16748364
34	0x3d531db2	0.05154199
35	0xbd2686f6	-0.040656053
36	0xbdcc689a	-0.09980889
37	0xbe5571c7	-0.20844184
38	0x3d9ae52d	0.07563243
39	0xbe2121fd	-0.15735622
40	0x3e45e41f	0.19325303
41	0xbcc4856b	-0.0239894
42	0xbe2e88f9	-0.17044438
43	0x3e517bcb	0.2045738
44	0xbe00075a	-0.12502804
45	0xbdba43dd	-0.09094975
46	0xbd8e109b	-0.06936761
47	0xbd270682	-0.04077769
48	0xbdbd9fc5	-0.09258989
49	0xbdfa59c0	-0.1222415
50	0xbae577da	-0.0017507032
51	0xbe529a7a	-0.2056674
52	0xbe1de426	-0.15419063
53	0x3d971cbf	0.0737853
54	0xbc6f3ea3	-0.014602336
55	0x3e367ae5	0.17820318
56	0x3dd249af	0.1026796
57	0xbc9aecd3	-0.018911755
58	0x3df5dff7	0.120056085
59	0xbd3c31ee	-0.045946054
60	0x3c15eea8	0.009151138
61	0x3d4823be	0.04886221
62	0xbcd19c0b	-0.025587102
63	0xbe14a8e6	-0.14517555
64	0x3e0e2d5f	0.13884495
65	0xbd5e5b72	-0.054286428
66	0xbbcee0e8	-0.006313432
67	0x3da7d2f5	0.08194534
68	0x3d33d666	0.04390564
69	0xbe1b2f1f	-0.15154694
70	0x3c18e6e9	0.009332397
71	0xbe32f93b	-0.17477886
72	0x3b4b52a9	0.003102461
73	0xbe3ce23b	-0.18445675
74	0x3dc767ff	0.097366326
75	0xbcc0cea5	-0.023536036
76	0xbb5d2e29	-0.0033749437
77	0xbe4570e5	-0.19281347
78	0x3dc788e1	0.097429045
79	0xbe2ecb67	-0.1706978
80	0xbe03f04a	-0.12884632
81	0x3e003e3a	0.12523738
82	0x3e25e28b	0.161997
83	0x3e433d15	0.1906627
84	0x3dc4d797	0.09611433
85	0xbe02669f	-0.1273446
86	0x3db93761	0.09043766
87	0x3de4e951	0.11177314
88	0x3e321657	0.17391334
89	0xbdd9fcdb	-0.106439315
90	0x3dc1a4b9	0.094552465
91	0x3c08b3a9	0.008343616
92	0x3dce5b55	0.10076014
93	0x3db478cf	0.08812105
94	0x3dd7eddf	0.10543417
95	0xbe0076c9	-0.12545313
96	0x3d8887fd	0.06666563
97	0xbe2f107d	-0.17096134
98	0xbdd9c435	-0.10633127
99	0xbcad4633	-0.021151638
100	0xbdc143c3	-0.09436753
101	0xbd842a7b	-0.06453415
102	0x3c279028	0.010227241
103	0x3e085d4b	0.13316838
104	0xbde4efd3	-0.11178555
105	0x3d921f27	0.07134848
106	0xbdd2aa21	-0.10286356
107	0xbd800c89	-0.06252391
108	0x3bf8974e	0.0075863963
109	0xbe491073	-0.19635181
110	0xbc20c6e8	-0.009813048
111	0xbe1a1e17	-0.15050541
112	0x3dee715d	0.11642716
113	0xbd93ee3b	-0.07223173
114	0x3c9f76fb	0.019465914
115	0x3da4ebcb	0.080527864
116	0xbe060417	-0.13087498
117	0xbe53dd13	-0.20689802
118	0xbd73b786	-0.059501193
119	0xbde10d47	-0.109888606
120	0x3e2160d1	0.15759589
121	0xbe189944	-0.14902216
122	0xbd972d8f	-0.073817365
123	0x3e40c4a5	0.18825014
124	0xbd6cefe6	-0.057845972
125	0xbe36b0c1	-0.17840864
126	0x3e3287c0	0.17434597
127	0x3e0f36b1	0.13985707
128	0xbdcf93c7	-0.10135608
129	0x3d77c50a	0.060490645
130	0xbe12ed39	-0.14348306
131	0xbda575fc	-0.08079144
132	0xbd23b276	-0.039965115
133	0x3dfeb457	0.12436741
134	0xbd0b80e4	-0.034058467
135	0xbddf7e7a	-0.10912795
136	0x3e0d68bf	0.13809489
137	0x3db90627	0.090343766
138	0x3c42f628	0.011899509
139	0xbde0f568	-0.109843075
140	0x3c0f2b49	0.008738347
141	0xbdc83d25	-0.097772874
142	0x3df1e873	0.11811914
143	0xbce23fc5	-0.027618298
144	0x3d23f2bd	0.040026415
145	0x3de994ff	0.11405372
146	0x3cb341f5	0.021882037
147	0x3dc5aadd	0.0965173
148	0x3d779982	0.06044913
149	0x3e09f5f1	0.13472725
150	0xbcd2f84b	-0.025753161
151	0xbe4aaa69	-0.19791569
152	0xbdc0aede	-0.09408353
153	0xbd7840b5	-0.060608584
154	0x3d0bf81c	0.034172162
155	0x3d17b60e	0.037038855
156	0xbdaa7823	-0.083236955
157	0xbe4124b1	-0.18861653
158	0xbde0c393	-0.10974803
159	0xbdbac540	-0.09119654
160	0xbe259fcd	-0.1617424
161	0xbd9234e7	-0.071389966
162	0xbdfd76eb	-0.123761974
163	0x3dbc6727	0.09199362
164	0x3d7b37e2	0.06133259
165	0x3db156ad	0.0865911
166	0x3d91604f	0.070984475
167	0x3d52cc8e	0.05146461
168	0xbd6a7e12	-0.057249136
169	0xbd70920a	-0.058733024
170	0xbd72c3cf	-0.05926877
171	0xbe0810a2	-0.13287595
172	0xbc886e73	-0.016654229
173	0xbe0c349d	-0.13691945
174	0xbe4747c7	-0.19460975
175	0x3de68b45	0.11257032
176	0xbd67c8d2	-0.056588
177	0x3d01c6b3	0.031683635
178	0xbd8522a7	-0.0650075
179	0xbdd48d5c	-0.10378525
180	0x3dbb9997	0.09160154
181	0xbd8a1d88	-0.06743914
182	0x3e36389f	0.17795037
183	0x3d9c0021	0.07617212
184	0xbb963cb6	-0.004584874
185	0xbdb00225	-0.08594159
186	0xb932ed1e	-0.00017063736
187	0xbe0d6816	-0.13809237
188	0x3c706b63	0.0146740405
189	0x3e262b74	0.16227514
190	0xbd503926	-0.05083575
191	0xbdd701da	-0.104984
192	0x3de8b70b	0.11363038
193	0x3e3abe85	0.1823674
194	0x3db448af	0.08802926
195	0x3e2ff375	0.17182715
196	0xbcaa4d56	-0.02078883
197	0x3e2e4ecd	0.17022248
198	0xbc80655a	-0.015673328
199	0xbd3ceeda	-0.046126224
200	0x3cd8e29d	0.026475245
201	0xbd00a0c5	-0.03140332
202	0xbb8b9818	-0.0042600743
203	0xbcb659d5	-0.022259632
204	0xbde829c8	-0.11336094
205	0xbde1ec38	-0.11031383
206	0x3d926929	0.07148964
207	0xbdba2b69	-0.09090311
208	0x3cedca77	0.029027207
209	0xbe0e5cad	-0.1390254
210	0xbd0dd220	-0.03462422
211	0x3e0bafe9	0.13641323
212	0x3d869241	0.065708645
213	0x3ccf5beb	0.025312385
214	0x3e3f431f	0.18677948
215	0x3dd2bf8d	0.10290442
216	0xbd126702	-0.035742767
217	0x3d33eb86	0.043925785
218	0x3cd0a1d5	0.025467793
219	0xbd8a2a73	-0.06746378
220	0xbdb9f6eb	-0.09080299
221	0x3cf61bd2	0.030042563
222	0xbe34d230	-0.17658305
223	0xbe0f92d9	-0.14020862
224	0x3c96211c	0.018326335
225	0xbe2d1fc1	-0.16906644
226	0xbe16c42a	-0.14723268
227	0xbd8c1209	-0.068393774
228	0x3d93ce45	0.07217077
229	0x3dafec75	0.085900225
230	0xbe2b096b	-0.16702811
231	0x3d57a61e	0.052648656
232	0xbdbe6e4e	-0.09298383
233	0xbd1b76c6	-0.037955068
234	0x3e1c6ba7	0.15275441
235	0x3dcbd90d	0.099535085
236	0x3dbafc03	0.09130099
237	0xbe0fcd53	-0.14043169
238	0xbdd50599	-0.10401458
239	0xbe27eebd	-0.16399665
240	0x3e0b3f09	0.13598265
241	0x3dd3513b	0.10318228
242	0x3e366605	0.17812355
243	0xbdf16841	-0.11787463
244	0x3df0abaf	0.11751496
245	0xbe42d95c	-0.19028229
246	0x3d9b6d7f	0.07589244
247	0xbe0d4109	-0.1379434
248	0x3df0242d	0.1172565
249	0xbe45509d	-0.19269033
250	0xbdfaba74	-0.12242594
251	0xbdcf5f92	-0.101256505
252	0xbd2c3382	-0.04204131
253	0xbe30bba7	-0.17259084
254	0xbe32fb74	-0.17478734
255	0xbda5486f	-0.08070456
